src/checkpoints/srcnn.pth (torch, 82676 bytes, 6 tensors)

layer1.weight f4 [64, 3, 9, 9]
000000 8c a8 b4 bc ea 32 ec 3c 09 3f 0a bd c3 db 27 bd
       -0.022053026 0.028832871 -0.03375152 -0.040981065
000010 0a 27 4f 3c a5 6d 89 3d 08 25 e8 3c c8 b7 65 bd
       0.012643585 0.06710366 0.02833797 -0.05608347
000020 1e 45 97 bc 61 a0 23 3d aa 7a 83 3c 6d 0d 80 3b
       -0.018465575 0.03994787 0.016049702 0.0039078505
000030 62 97 2d 3d e4 b9 ab 3c 79 ca a8 3c 61 ea d5 3c
       0.042380698 0.020962663 0.020604359 0.026112737
000040 0f 67 29 bd d8 11 8c 3c 7b 4f 77 bd c6 c8 b9 bc
       -0.04135805 0.017098352 -0.060378533 -0.022678744
000050 c9 ac 4a bb fa 6a cc 3c d5 4c f8 bc 11 ce 3b bc
       -0.0030925742 0.024953354 -0.030310074 -0.011462704
000060 4e 29 65 3d de 04 55 bd ab bc 86 3d 04 e7 f4 bc
       0.055947594 -0.052006595 0.06578954 -0.029895313
000070 31 13 a1 bc 81 8f a5 3c 3e ed 64 3d 71 13 dc bb
       -0.019662471 0.02021003 0.055890314 -0.006716185
000080 02 90 f3 bb 44 ad 1e 3d a2 89 59 3d 38 70 33 bd
       -0.0074329386 0.038739458 0.053109773 -0.043808192
000090 11 2c a8 3c 1b 12 04 3d b2 21 fa bc 02 40 42 3c
       0.020528825 0.03224383 -0.030533645 0.011856081
0000a0 44 44 54 bd 4e 3a 83 3d e1 e8 64 bc 5f c1 0c bc
       -0.051822916 0.06407605 -0.013971538 -0.008591025
0000b0 dd 97 1f bd 3e 5c ad 3c 92 8d 2d 3d 7b d4 0f 3d
       -0.038963187 0.021162149 0.04237134 0.035114747
0000c0 6a c1 07 3d bc b1 c1 3a 8b c0 1f bd bb 69 9b 3c
       0.03314344 0.00147777 -0.039001983 0.018971315
0000d0 f9 94 34 3c f8 34 85 3d 0d 09 96 3c 47 b7 a8 bc
       0.011021846 0.065042436 0.018314863 -0.020595206
0000e0 31 9b 27 bc 87 9a d1 3c ff d3 29 3c f3 02 68 bd
       -0.010229872 0.02558638 0.010365485 -0.056643438
0000f0 ae 55 b3 3c 61 8e 37 bc cd e3 9d 3b 11 a4 8d bb
       0.021891441 -0.011203379 0.0048184157 -0.0043225368
000100 21 a0 de 3c 4b f6 c9 bc 4c d9 a2 b9 8a 31 d6 ba
       0.027175965 -0.024653574 -0.00031060947 -0.0016341668
000110 ce fe e2 3b cb 34 bb 3b cc e6 ec 3b 95 64 16 bd
       0.0069273477 0.0057130805 0.0072296616 -0.036717016
000120 4f cc 22 bd 38 d3 0f bc b5 89 11 3d a5 41 1b bd
       -0.039745625 -0.008778386 0.03553172 -0.0379044
000130 93 01 b2 bb 7e 12 88 bc 5b 3e 30 bd 0d 27 ed 3b
       -0.0054323166 -0.01661038 -0.043028217 0.007237321
000140 a2 a1 36 3d 41 d7 52 bd b0 18 96 3c ee 0e f8 3c
       0.04458774 -0.051474813 0.018322319 0.030280557
000150 1b 94 01 bd 0f 56 f3 bc bb f8 83 3a 8c 30 66 3d
       -0.031635385 -0.029704122 0.0010068634 0.05619864
000160 82 96 52 bc e5 26 4d bd 10 5d 32 bd 03 cd 87 bc
       -0.012853267 -0.05008592 -0.043545783 -0.01657725
000170 11 c1 c3 bc ae 80 af bc 3c 0e b2 3c f4 de 5e bc
       -0.023895772 -0.021423664 0.021735303 -0.013602961
000180 59 dd 58 bd 22 fa 82 3d 16 e7 8c 3c d5 75 2e bd
       -0.05294547 0.06395365 0.017200034 -0.042592842
000190 51 f3 6a 3d 3e 2d 85 3d a6 de 69 3d 6b 0f 3e bd
       0.05736095 0.0650277 0.0570971 -0.046401422
0001a0 f4 ec 82 3d 02 f5 f4 bc 5f cf 40 3c a3 c3 eb bc
       0.063928515 -0.029901985 0.011768191 -0.02877981
0001b0 79 e9 1b 3d ff ba 0d bd 49 6a 9d bc f4 9a 52 bc
       0.038064454 -0.03460216 -0.01921572 -0.0128543265
0001c0 a2 80 7a bd d1 1f 5f 3d fd b5 b1 3c 5c 26 6f 3d
       -0.06115783 0.054473702 0.021693224 0.05838619
0001d0 8c d2 46 3d 11 e2 1e 3d 09 f2 38 3d 1b 3d 06 bc
       0.048540637 0.038789812 0.045152698 -0.00819328
0001e0 38 69 ee 3a 97 e9 16 bd e1 d5 a6 3c 86 79 44 bc
       0.0018189317 -0.036843862 0.020365657 -0.011991864
0001f0 fd 37 02 3d 77 10 f6 3c 46 6e 85 bc 7d 76 45 bd
       0.031791676 0.030037148 -0.016287934 -0.048208702
000200 34 6f ae bc 57 97 c6 3b b1 40 d9 3c 68 ef cc bc
       -0.02129326 0.0060605216 0.026520105 -0.025016502
000210 e7 2c 56 bd 89 d9 43 3c 3f 5e db 3b ff 6e 81 3d
       -0.052288916 0.01195372 0.0066945846 0.06319999
000220 e9 bf 60 3d 6f 44 0c 3c c1 48 8a 3d ac 75 cc 3c
       0.05487052 0.008561238 0.06752158 0.024958454
000230 28 bd 66 bc e4 37 01 3d 7e 9f 0a bd 9d 3e 62 3d
       -0.014083184 0.031547442 -0.03384351 0.055235494
000240 7d cf 5e 3d ba 21 25 3c 46 e3 ad bc 88 b9 4b 3d
       0.054397095 0.010078842 -0.021226536 0.049737483
000250 f0 54 db bb 72 4a 53 3c 27 13 bd 3c 21 4a 4b bc
       -0.006693475 0.012896167 0.023080422 -0.01240781
000260 1c 75 4e 3d 3d 68 bc 3b 3d a6 59 3d 97 36 a8 bc
       0.050404653 0.005749731 0.053137053 -0.020533843
000270 47 5c de 3c fd fd af 3c 21 d6 19 bd 33 41 06 bd
       0.02714361 0.021483416 -0.037557725 -0.032777023
000280 d7 f8 17 3d 77 b4 c6 bc 98 e5 34 bd d7 ad 23 bd
       0.037102547 -0.024255974 -0.04416427 -0.03996071
000290 86 5b 4f bc 66 ca 56 bb 5a f2 44 3d 6d 59 13 3b
       -0.012656098 -0.0032774447 0.048082687 0.0022483722
0002a0 53 8f 70 bb c5 b9 ee bc 53 2c 2b bd b7 5d 92 3c
       -0.0036706522 -0.029141316 -0.041790318 0.017866952
0002b0 12 56 db bc 59 37 6e bd 4c ac 59 bc bf 0e f6 3c
       -0.02677444 -0.058158252 -0.013285708 0.030036328
0002c0 7c 37 0f 3d a5 2f 12 b9 94 07 14 3d 03 f5 5c bc
       0.034965023 -0.00013941394 0.03614004 -0.01348615
0002d0 81 80 7e 3c a3 f8 18 3d dc a1 b3 bc 9d 8e 7d 3c
       0.015533567 0.037346493 -0.021927767 0.015475896
0002e0 de fb 81 3d cb ff e4 bc e4 11 3f 3d b4 98 27 bc
       0.06346868 -0.027954003 0.04664792 -0.010229278
0002f0 6d 6e 40 bd e1 14 bc bb a7 3b 5a bd 54 a6 86 3b
       -0.04698031 -0.0057397936 -0.053279545 0.0041091833
000300 ab 03 80 bd 8a fc c8 bc ee a2 ff bc 87 26 b4 3c
       -0.062506996 -0.024534483 -0.03120562 0.021991028
000310 a1 9f f6 3c 03 69 20 bd a6 8e ec 3b b1 c1 6b 3d
       0.030105414 -0.039162647 0.0072191535 0.057557765
000320 49 c8 4d bc 0d 68 72 3d 64 a4 12 bd 74 75 36 bd
       -0.012559959 0.05918126 -0.035801306 -0.044545606
000330 bb 55 b7 bb 2c 77 24 3d 99 0e 0e 3d 04 9c 71 3c
       -0.0055949367 0.040152714 0.03468189 0.01474667
000340 28 13 59 3c c9 e8 36 bc 2d 71 e1 38 59 c3 45 3d
       0.013249196 -0.011163899 0.00010749917 0.048282
000350 46 c1 6d 3d 7f ff 55 bd cd f6 eb b9 0b 83 7c 3d
       0.058045648 -0.052245613 -0.00045006574 0.06164841
000360 a1 6e 3a 3d 4e 4d 78 bd 4f 6b d6 bc 95 e1 35 bd
       0.04551566 -0.0606206 -0.026174216 -0.044404585
000370 5d 10 34 3d b5 43 28 bd 56 62 2a bc ed 4f bf 3c
       0.043960918 -0.041080195 -0.010399422 0.023353541
000380 4e a4 04 3d 06 0e 4b 3d e6 93 64 bd 2a 07 fd bc
       0.032383256 0.04957392 -0.05580511 -0.030887205
000390 91 04 11 bd 66 c5 42 bd 43 b2 1e 3d bd e0 b0 bc
       -0.035404745 -0.047551535 0.038744222 -0.021591539
0003a0 29 11 15 3c 03 f1 40 bd b7 ee 24 3d 9f d9 1b bc
       0.00909833 -0.047104847 0.04026672 -0.009512334
0003b0 e9 dd b8 3c e4 56 18 bb 1e 30 0f 3d 7f 1a 77 3c
       0.022566753 -0.002324515 0.034957998 0.015082001
0003c0 31 71 3f 3d 4e f9 70 bd d2 1a 0a bd c0 b0 f8 bb
       0.046738807 -0.058831505 -0.033716984 -0.0075894296
0003d0 ca 2f 27 bc 82 0c a6 bc c0 f1 dd bc 41 7b 11 3d
       -0.010204265 -0.020269636 -0.027092814 0.035517935
0003e0 46 a3 47 bd a0 8a e0 bc 1a dc fa 3c 8a 21 1b bd
       -0.048739694 -0.027409852 0.03062253 -0.037873782
0003f0 c5 65 11 bd 2e ec 90 3c d1 f1 a8 3c fa b2 ae 3c
       -0.035497446 0.017690744 0.02062312 0.021325577

layer1.bias f4 [64]
000000 01 d3 3a bc 7f 01 4a 3d f3 61 64 bd 5d b5 14 bd
       -0.011402846 0.049317833 -0.055757474 -0.036305774
000010 fc 1b e9 3b e5 10 0e 3d 88 da 41 3d cb ce 55 bd
       0.0071139317 0.03468408 0.04732755 -0.052199166
000020 f9 0e 07 bd dd 90 bb bc 46 e0 e5 bc 90 7b 45 3d
       -0.032973263 -0.022896225 -0.028061043 0.04821354
000030 a8 df 84 bd 8b 31 65 3d 52 f6 48 3d ba 01 73 3d
       -0.064879715 0.05595545 0.049063034 0.05932782
000040 b8 e5 71 bc 1d 11 5c 3b f0 93 3a 3d c8 75 16 3d
       -0.014764242 0.0033579536 0.04555124 0.03673342
000050 9b 78 3b bc 87 46 50 bd b2 c4 71 bc e0 27 0a bc
       -0.011442329 -0.05084851 -0.0147563685 -0.0084323585
000060 91 bd 53 bd a3 7a 68 bd bd a3 98 3c 1c fb 3f 3b
       -0.051694456 -0.05675758 0.018632764 0.002929396
000070 32 62 65 3d 2a 02 4a 3c 19 ff 79 3d 7a 60 0c 3d
       0.05600185 0.0123296175 0.061034296 0.034271695
000080 19 ad 7a bd d1 99 5e bd e4 4f 1f bd 9f 0c 79 3d
       -0.061200235 -0.05434591 -0.03889455 0.060803052
000090 62 09 63 3d 41 57 e3 bc 43 33 53 3d 4b 58 f8 bc
       0.05542887 -0.027751567 0.05156256 -0.030315539
0000a0 05 e9 fa bc dc 99 73 3d cb 17 8f 3d 2b ad 92 bb
       -0.03062869 0.059472904 0.0698696 -0.0044762096
0000b0 89 72 4c 3d 8b c5 b1 3c 54 f9 5d bd e3 d1 4b 3d
       0.049913917 0.021700641 -0.054192856 0.04976071
0000c0 d4 f8 6a bc 2d 24 5e 3d bb c4 21 3d e9 f3 93 3c
       -0.014341552 0.05423372 0.039494257 0.018060641
0000d0 ea e1 d5 bc 0f da 7a 3d f6 5b 70 bd 5c f3 6c 3d
       -0.0261087 0.061243113 -0.05868145 0.057849273
0000e0 de 1c 82 3c 89 e3 7f 3d 74 04 0c bd f1 c4 43 bc
       0.015882906 0.062472854 -0.034183934 -0.01194881
0000f0 f1 5b 4b 3d b5 c9 dc bc cc bd 4b bd ef 91 e9 bc
       0.04964823 -0.02695165 -0.04974155 -0.02851197

layer2.weight f4 [32, 64, 1, 1]
000000 54 56 7b bd 7e 70 b1 bc 31 20 06 bb 0e e4 04 3d
       -0.061361626 -0.021660086 -0.0020465965 0.032444052
000010 61 22 f2 3d e5 c6 0c bd 3b d3 f0 bd 88 47 09 bd
       0.118229635 -0.034369368 -0.11759039 -0.033515483
000020 59 c7 11 be 72 e0 b2 3d 81 54 bb bd 52 e7 90 3d
       -0.14236201 0.08734216 -0.09146977 0.07075371
000030 1c 85 17 bb 66 12 d5 bd d3 42 7c 3d aa c0 a3 bc
       -0.002312011 -0.104039 0.061587166 -0.01998933
000040 e4 64 81 bc 6a 9b 1d bd 64 9a 75 3c 8d 74 09 3d
       -0.015795179 -0.038478293 0.014990423 0.033558417
000050 f8 13 f3 3d 40 96 82 bb 3c c0 10 be 69 15 e1 3d
       0.11869043 -0.0039851964 -0.14135832 0.10990412
000060 7e 17 82 bc ef e1 4c 3d ae d9 8d 3d 16 87 c4 3d
       -0.015880343 0.050020155 0.06926285 0.09596078
000070 14 1c c7 3d d2 9c ad 3d 95 5d bc bb 39 77 aa 3d
       0.09722152 0.08477177 -0.0057484605 0.08323521
000080 38 cb 8d bd 9c 39 16 be d8 8e c1 bd 38 68 59 bc
       -0.069235265 -0.14670414 -0.094510734 -0.013269477
000090 ba 7c 5a 3d 7d 5e d8 bd c4 e3 2e 3d 6b 61 58 3d
       0.053341605 -0.10564897 0.042697683 0.05282728
0000a0 8c 5f 7f bb 46 93 75 3b 08 f3 0d bd b4 4c 10 3e
       -0.0038966862 0.0037471815 -0.0346556 0.1409176
0000b0 d8 e2 2c bd 04 15 85 3d f1 b3 c0 bd 46 27 44 3b
       -0.042208523 0.06498149 -0.09409321 0.0029930635
0000c0 c0 a2 cf bd a4 e7 94 bd 92 94 db bd 85 81 8e 3d
       -0.10138464 -0.072707444 -0.10721697 0.06958298
0000d0 20 32 d5 3d e4 53 ec 3d a0 33 e9 bd e6 00 38 3c
       0.10409951 0.11539438 -0.113868 0.011230683
0000e0 b9 e6 8e bd 27 a7 d7 3d 08 8f d5 bc bd 97 90 3d
       -0.069776006 0.10529929 -0.02606918 0.07060192
0000f0 78 cf bc 3d 11 d5 9c 3d bb 09 14 be 59 43 b5 bd
       0.09219259 0.07657827 -0.14456837 -0.08850736
000100 fa 94 bc 3d 05 81 c1 bd 30 ca 88 bd b3 a7 9d 3d
       0.092081025 -0.09448437 -0.06679189 0.07698002
000110 0b ab e9 3d 80 d2 ef 3d ef 66 11 3c 97 3d f9 3c
       0.11409577 0.117100716 0.008874639 0.030424876
000120 10 2b 03 3d 50 56 5e 3d 97 94 01 be c5 90 98 3b
       0.03202349 0.054281533 -0.12654339 0.0046559297
000130 e2 5d fd bd a2 6a f0 bd fe 31 a2 3d fe 63 9e bc
       -0.12371422 -0.117390886 0.079196915 -0.01933479
000140 8e 15 3a 3d 6f 08 b3 3c 64 24 6b bd de da 01 3c
       0.045430712 0.021854607 -0.05740775 0.007925717
000150 59 ee 98 bc b2 ac 46 bd a6 e3 c4 bd 58 80 39 bd
       -0.01866834 -0.04850454 -0.09613733 -0.045288414
000160 e7 22 e6 3d 30 44 4a bc 3b 8c c9 bc 04 94 fe bd
       0.11237126 -0.012345359 -0.024603 -0.124305755
000170 48 ea 12 bd 9f dd 89 3d 6b 0c e3 bd 1a 42 43 bd
       -0.03586796 0.06731724 -0.11086353 -0.04767046
000180 58 6f 36 3d b5 b8 ea 3b 79 1a fc bc 96 08 9f bb
       0.04453978 0.007163132 -0.030774342 -0.0048533184
000190 a2 c3 14 3d 35 0c 12 3c 1b 7e c9 bb 94 c1 a1 bd
       0.036319382 0.008914043 -0.006149066 -0.0789825
0001a0 c3 95 85 3d 72 9a eb 3d 0b be f0 3d 4b e0 91 3d
       0.065227054 0.115040675 0.11754998 0.071228586
0001b0 f0 18 52 3c f8 67 a0 bc b2 77 90 bd 09 4b 90 bc
       0.012823328 -0.019580826 -0.0705408 -0.017613905
0001c0 27 cc 95 3d f6 ed 56 3c da 66 be 3d 0d 35 11 3d
       0.073143296 0.013118258 0.09296961 0.035450984
0001d0 94 b2 73 3d 1b 1e e7 3b 79 56 db bb 47 52 56 3d
       0.059496477 0.0070531494 -0.006693658 0.05232456
0001e0 29 e9 50 bd 50 35 aa bd 74 0c 22 3c a4 22 1b bd
       -0.05100361 -0.0831095 0.009890664 -0.037874833
0001f0 d0 c1 f0 bd 35 9c 97 3d 91 e2 3c bd 13 8f 02 3d
       -0.11755717 0.07402841 -0.046114508 0.031874727
000200 22 5f ed bd 02 59 b5 bc 6d dd b2 3d 3a ef e3 3d
       -0.11590411 -0.022137169 0.0873364 0.11129613
000210 44 6d 0f 3d 49 3e 31 bd 9d 3e 91 bd 32 ac 9d bd
       0.035016313 -0.04327229 -0.07092021 -0.07698859
000220 45 29 a1 bd ed a9 ed bd 06 51 cf 3d 0f 99 34 bd
       -0.078692 -0.116046764 0.10122876 -0.04409128
000230 2f 6d d3 3d b1 6f c2 bc 5a 0e 02 3d 6f 45 99 3d
       0.103235595 -0.0237349 0.031751968 0.074839465
000240 b0 08 58 3d de 69 60 bd e3 ae d6 bd 97 03 79 3d
       0.05274266 -0.054788463 -0.10482576 0.06079444
000250 d7 97 b8 3d cd 05 aa bd 64 8a ff 3d c1 5b c3 3d
       0.09013336 -0.08301888 0.12477568 0.09538985
000260 c0 7f ce bd 99 5a e8 3d d9 f5 4c bd d3 c8 b3 bd
       -0.1008296 0.11345405 -0.050039146 -0.087785386
000270 c2 bb 77 3d 5e 1b 91 3d 61 ca 19 bd 7b 2f 9b bd
       0.060481794 0.07085298 -0.03754652 -0.075774156
000280 35 83 0f 3d 59 9a d3 bd e5 df c2 bd 25 6e 80 bd
       0.03503724 -0.10332174 -0.09515361 -0.062710084
000290 35 98 9a bd 41 b9 9e 3c 4a 40 c4 3d b5 f4 ba bd
       -0.075485624 0.019375445 0.09582575 -0.091287054
0002a0 08 46 d4 bd b9 ed d6 bc e7 c2 15 bd 04 72 d5 3d
       -0.1036492 -0.026236402 -0.036562826 0.104221374
0002b0 3f 8c 1e 3d 6a 1d d2 3d 32 b6 ac bd 20 bd e7 3d
       0.038707968 0.102595165 -0.084331885 0.113153696
0002c0 da 84 e7 3d 2b d1 88 bd fb 63 dc bd 6d 8f df bd
       0.11304636 -0.066805206 -0.10761257 -0.10916028
0002d0 82 64 f6 3d 56 58 ce 3c d3 3c eb bc 29 ad 8d bd
       0.12030889 0.025188606 -0.028715527 -0.06917793
0002e0 4a 43 05 bd 3f 15 ed 3d a2 3a ee bd 4b a4 e9 3d
       -0.032534875 0.11576318 -0.11632277 0.114082895
0002f0 3d 50 56 3d 61 17 90 3d 7e 83 04 be bd 33 ba 3d
       0.052322615 0.07035709 -0.12940785 0.090918995
000300 01 ce b8 bd 48 8b d2 3d bc 43 ec bd 1b 1c ff 3d
       -0.09023667 0.10280472 -0.11536357 0.124565326
000310 32 fb d1 bd 3b 90 56 3c ef be a7 bd 3e e8 0f 3e
       -0.1025299 0.013095911 -0.081907146 0.14053437
000320 19 d3 ec bd 8a 97 2f bd 09 e1 ea 3d 53 88 98 3c
       -0.11563701 -0.04286913 0.11468703 0.018619692
000330 57 0d c3 3d d2 ae c8 3c ef 93 0a 3c a6 db 7f 3d
       0.09524029 0.024497423 0.008458122 0.062465332
000340 08 25 70 3c e3 83 6c 3d 4f b5 80 3d 0a ea 36 3c
       0.014657266 0.057742964 0.06284582 0.011164198
000350 5a d3 86 bc b8 43 33 3c d4 b7 05 bd a2 f6 30 bd
       -0.016458202 0.010941438 -0.032646015 -0.043203957
000360 d6 5f bf bc 6a e1 ea 3d 4f ef 2d bd ce c0 95 3d
       -0.023361128 0.114687756 -0.04246455 0.07312165
000370 49 66 8b bd 82 83 20 bc b9 02 0a 3e cf 0d fe bc
       -0.06806619 -0.009796979 0.13477601 -0.031012444
000380 a7 20 ba 3d be 19 3e 3d 0e 04 1c 3d 78 14 c2 bc
       0.09088259 0.04641127 0.038089804 -0.0236914
000390 66 c3 87 bd 5c 37 9b 3d 7a ae bf 3d 40 f6 c2 3d
       -0.06629066 0.07578918 0.09359451 0.09519625
0003a0 84 fb bd 3c 1a a0 fc bd fb 43 0c 3e e4 c3 dd 3d
       0.023191221 -0.123352244 0.13697807 0.10828379
0003b0 ae ec f7 bc 9e f4 e0 3c 0c fe 0a 3d 29 7d a5 3d
       -0.030264225 0.027460393 0.033933684 0.08080513
0003c0 4e df d7 3d 73 57 5d bd bc ca ed bc 8e 69 32 3d
       0.10540639 -0.054038476 -0.029027335 0.043557696
0003d0 6c 98 4a 3c 6a 16 4c 3d 5b 39 e2 bd 3b be 9a 3d
       0.012365442 0.049826063 -0.11046096 0.07555815
0003e0 65 c2 a0 bd 99 89 02 3e e0 0c e3 3d 6c b8 ef 3a
       -0.07849578 0.12747802 0.1108644 0.0018289215
0003f0 be ab 82 bd 9f 32 f6 3b d8 40 17 be 8a 52 b7 bd
       -0.063804135 0.0075133587 -0.1477083 -0.0895129

layer2.bias f4 [32]
000000 a3 a3 a9 3d 94 8d eb bd a7 5e d0 3d 77 6a 2a bd
       0.08283164 -0.11501613 0.101743035 -0.04160544
000010 92 64 9f 3d 11 68 23 3c 0a d3 f9 3d b1 03 07 bd
       0.07782854 0.009973542 0.12198456 -0.032962505
000020 0d 8f fe 3b 34 01 d2 3b 56 8d d5 3d 12 85 ea 3c
       0.007768518 0.006408835 0.10427348 0.028627906
000030 b6 27 33 bc 99 3d fd bd 14 94 f3 3d 76 29 86 3d
       -0.010934761 -0.123652644 0.11893478 0.06550877
000040 41 3d db bd ec d7 ea ba c6 22 d5 bd fc de 08 3d
       -0.10705043 -0.0017917133 -0.10407023 0.03341578
000050 83 31 f8 3c 7e 83 13 bd e2 1f ec 3c 40 07 d6 3d
       0.030297047 -0.036014073 0.028823797 0.104506016
000060 8d c8 bf bd 36 4f 27 3b a9 67 ba bd 2d 3c ca bd
       -0.09364424 0.002552939 -0.09101803 -0.09874759
000070 ec d4 c5 bd 59 ec db 3d 20 4e a3 bc ea 45 d0 bd
       -0.09659752 0.10738439 -0.019934714 -0.10169585

layer3.weight f4 [3, 32, 5, 5]
000000 76 59 1b 3b 66 6c a4 3b d3 0f 29 bc ca 1d ff bc
       0.0023704446 0.005017805 -0.010318714 -0.031142134
000010 25 22 0f 3b 27 0b d1 bc 48 e3 9b 3c 36 e1 78 3c
       0.002184042 -0.025518013 0.019029275 0.015190413
000020 cd b0 e1 3c 2a 81 e2 bc ef f9 b6 bc 9e 35 ac 3b
       0.027550125 -0.02764948 -0.022335974 0.005255415
000030 89 e1 88 3c 0f 3b 02 3d bc 23 30 3c d8 a1 d6 3c
       0.016709106 0.031794604 0.010750707 0.02620022
000040 f1 c1 30 3c 35 69 b5 bc 43 9f 19 3d a2 e2 34 3c
       0.010788427 -0.022144893 0.0375054 0.011040362
000050 21 75 c5 3c a4 29 28 3c b9 ca e4 bc cc ee 4c 3c
       0.024103703 0.010263834 -0.027928697 0.0125081055
000060 a8 2c 19 3d e1 7c dc 3c c7 fc 6e bc b1 96 3d bc
       0.037396103 0.026915016 -0.014586634 -0.011571572
000070 0a e7 d2 bc 37 c1 cc bc 5d c7 a6 3c a8 e7 00 3d
       -0.025744934 -0.024994476 0.020358736 0.031470925
000080 ed 79 7f 3c a7 86 55 3c dd 9b 5d 3b e0 21 0b bd
       0.015593034 0.013032592 0.0033814826 -0.033967853
000090 b6 bc ab bc 28 1c 5f ba f8 f1 36 bc 88 1a 14 3c
       -0.020964008 -0.00085109705 -0.011166088 0.009039529
0000a0 35 27 a6 3b ad 3f dd 3b a5 81 bc bb ed 76 15 bc
       0.005070592 0.0067519755 -0.0057527595 -0.009122592
0000b0 05 af e1 bb b6 ed 2d 3c 21 cf 9e bc 30 21 bc 3c
       -0.006887319 0.010615757 -0.019385876 0.022965044
0000c0 f9 18 b2 3b 21 f6 06 bd fe 95 3e 3c 35 0c 7b 3c
       0.005435106 -0.03294957 0.011632441 0.015322735
0000d0 24 b2 01 3d 9a 4b b2 bc 8f 19 bc 3c 30 0b 76 bc
       0.03166403 -0.021764565 0.022961406 -0.015017316
0000e0 13 30 5d bc da 04 80 3c 90 3a d5 bc 15 a8 4f bc
       -0.013500231 0.015627313 -0.026028901 -0.012674351
0000f0 ad 90 f0 bb 4a e7 cc bc aa 06 75 bc c5 76 50 bc
       -0.0073414654 -0.025012631 -0.014955202 -0.012723629
000100 86 65 3f 3c a0 0b 27 3c 6a fe 0e 3d ae 82 c7 bc
       0.01168192 0.010195643 0.034910597 -0.024354305
000110 87 1c 0d bc 34 aa fc 3c 5e 5d 07 3c e3 4d e4 bb
       -0.0086127585 0.030842878 0.008262007 -0.0069672926
000120 be f9 98 bc 58 4f bc 3b 0e f4 a4 bc 30 62 12 bc
       -0.018673774 0.005746763 -0.020135906 -0.008934543
000130 4c 71 35 bd a4 ce 11 ba 29 6f 33 bd 58 85 37 3c
       -0.0442975 -0.0005562103 -0.043807182 0.011201225
000140 dc 02 c3 bc 08 47 96 bc f7 0b 75 3c 51 c5 2e bd
       -0.023805074 -0.018344417 0.014956466 -0.042668644
000150 c3 81 01 bd 75 6e d5 bc f9 3f 94 bc 3e 34 41 3b
       -0.03161789 -0.026053647 -0.01809691 0.0029480602
000160 0e 64 b8 3c 2e 81 19 bd f5 70 38 bb 2e ad 19 bd
       0.022508647 -0.03747671 -0.00281435 -0.037518673
000170 3f ac 0f bc 1b 23 0d bb 80 8d cd 3c ef 89 0c bd
       -0.008769094 -0.0021535817 0.025091887 -0.03431123
000180 1a f4 aa 3c 42 4d c5 3c bf 59 6b 3b 27 01 63 3c
       0.02086835 0.024084691 0.0035911647 0.013855255
000190 20 5b 06 bc 96 56 8a bc de 6e 3c bb f0 09 fc bc
       -0.008200437 -0.01688699 -0.0028752605 -0.030766457
0001a0 aa 68 9f 3c c7 2f 03 bd e0 7f d3 bc 16 8a fd 3b
       0.019459087 -0.032027986 -0.025817811 0.0077374084
0001b0 53 bf e0 bc 35 1b 55 bc 92 1e a7 bb c0 65 b6 3a
       -0.02743498 -0.013006975 -0.00510008 0.0013915822
0001c0 42 a1 09 3d 92 e6 8b bc 11 b4 fb 3c 0e 64 f6 bc
       0.033601053 -0.017077718 0.03072551 -0.030077007
0001d0 50 f5 12 3b 51 c2 b8 3b 25 b1 4e 3a b1 9f 42 3c
       0.002242405 0.0056383987 0.0007884673 0.011878894
0001e0 a5 ce 16 bc f9 98 06 bd e5 8a c9 3c 4d b1 99 38
       -0.009204541 -0.03286073 0.024602363 7.3286334e-05
0001f0 e3 7a 74 3c 45 c1 f5 3c 75 98 12 bd 6a 8c 27 bc
       0.014921877 0.029999385 -0.035789926 -0.010226348
000200 d9 50 1b 3d 4f 39 de bc 27 90 f3 3b b6 49 3d bc
       0.0379189 -0.027126936 0.007432956 -0.011553219
000210 df e0 0c 3d ec 6a 5a 3d 5d 0f 29 3d ba 60 3d 3d
       0.03439414 0.053324625 0.041274417 0.046234824
000220 2a 80 fb 3b 25 87 86 3b 09 fe 4f 3d 68 43 f7 3a
       0.0076751905 0.004105466 0.050779376 0.0018864693
000230 e2 22 7a 3c b1 9d de 3c 99 c2 1e 3d 2c ae 95 3d
       0.015267106 0.027174802 0.0387598 0.07308611
000240 33 34 68 bb 54 83 75 3c 32 d6 a3 bc 48 06 94 3c
       -0.0035431504 0.014984924 -0.019999597 0.018069401
000250 cd 41 5e 3d bd 82 45 bc 0d fa a7 bc 12 d5 19 3d
       0.05426197 -0.012055096 -0.020504976 0.037556715
000260 f3 22 df bc d8 b9 6c 3c 18 c7 fa bc 77 90 ff 3b
       -0.027238345 0.0144486055 -0.030612513 0.007799204
000270 56 82 82 bb 4e a1 f2 bc fe 10 ec 3c fb 75 1b 3d
       -0.0039828224 -0.029617932 0.028816696 0.03795431
000280 b1 38 fb 3c 3a 7e 8d 3b 39 a1 d4 bb 4c 62 76 bc
       0.030666681 0.004318026 -0.006488946 -0.015038084
000290 07 e5 50 bc f9 6a 28 bc c7 36 91 bc 05 bb 09 3d
       -0.012749917 -0.0102794105 -0.017726315 0.03362562
0002a0 cf 06 67 b9 fd 75 af bc 3a 72 97 bc b5 9c e4 3c
       -0.00022032413 -0.021418566 -0.018487085 0.027906755
0002b0 52 b0 ca 3c fd 03 06 3d a0 df 6e bb 7f a9 bb 3c
       0.02474228 0.032718647 -0.003644921 0.02290797
0002c0 12 24 1c 3d 90 e0 2f 3d 8f 57 98 bc d2 46 0a 3c
       0.038120337 0.04293877 -0.018596439 0.008439736
0002d0 32 90 db bc 11 62 11 3d d0 31 19 3c bc cd 0d bc
       -0.026802156 0.035493914 0.009350255 -0.008655008
0002e0 cb 4b 53 3c 77 e4 fe 3c e9 b5 4f 3b ef b2 58 3d
       0.012896488 0.0311148 0.003169412 0.05290502
0002f0 71 0f 48 bc 0e a4 42 3d d0 8d c3 bc fa 5b d2 3c
       -0.012210713 0.047519736 -0.023871332 0.025678623
000300 cd 4d a6 3b cf cc 0d 3d 75 de 18 3c aa 60 52 3c
       0.0050751925 0.03461915 0.009330382 0.012840429
000310 28 6e 70 3b 72 a5 ed 3c 3f 1d 95 3c 93 37 b4 bc
       0.0036686752 0.029009555 0.018202422 -0.021999156
000320 45 9c 99 bc 00 75 e4 bc 27 34 0c 3d 3e cb 30 3c
       -0.018751273 -0.027887821 0.034229424 0.010790644
000330 28 76 89 3c 10 f5 50 3c d1 95 21 bb 8a c5 04 3b
       0.016779974 0.01275374 -0.0024655948 0.0020259344
000340 6d 0b 0e 3c 3e e0 ae 3c 52 39 78 3c 82 54 43 bc
       0.008669716 0.021347161 0.015150385 -0.011922004
000350 01 9e c9 3c cb e2 79 bc 34 34 9c 3c 5e 88 db bc
       0.024611475 -0.015251826 0.019067861 -0.026798423
000360 f0 a3 a6 3c c2 f3 5d 3c e7 5e 07 bd 61 0d 05 3d
       0.020341843 0.013546886 -0.03304949 0.032483462
000370 de 5e ce bc b6 4c 3f 3c 6c 2e 67 bc 4f 83 4d bb
       -0.02519172 0.011676004 -0.014110189 -0.0031358784
000380 7a e0 38 bc af 3b 38 bc b2 49 ac 3c 8c 89 67 3a
       -0.011283988 -0.011244698 0.021031234 0.0008832447
000390 c2 d6 b2 3a 6d 12 03 3d 4f 27 d5 3a f9 fc 8c bc
       0.0013644325 0.031999994 0.0016262325 -0.01721047
0003a0 29 a3 e3 bc 6f 10 03 bd f3 28 1f 3c b2 86 ca bc
       -0.027787762 -0.031998094 0.009714353 -0.02472243
0003b0 56 5d 87 bc 59 04 2e bd 4a 0e 7f bd 72 79 65 ba
       -0.016523998 -0.042484615 -0.062269486 -0.00087537535
0003c0 13 8f ec bb 8f 9a c9 bb 01 74 f2 bc 96 51 08 bd
       -0.007219204 -0.006152458 -0.02959633 -0.03328093
0003d0 9c 85 75 bc 4a 9f a3 3a 52 50 4b bc 7f 89 09 bd
       -0.014985468 0.0012483385 -0.012409287 -0.033578392
0003e0 c3 77 97 bc b8 36 a0 bb 85 bd a5 bc e7 69 04 3c
       -0.018489724 -0.0048893355 -0.020231972 0.00808189
0003f0 44 e6 7f bc 56 43 51 bb b7 96 bd b7 7e 3f 8c 3b
       -0.015618864 -0.0031931004 -2.2600738e-05 0.00428003

layer3.bias f4 [3]
000000 1b cd ef 3c 59 27 57 bb 10 b7 8f 3c
       0.029272607 -0.003282985 0.017543346
