checkpoints/srcnn_epoch24_2025-03-20_23-02-04.pth (torch, 280012 bytes, 6 tensors)

net.0.weight f4 [64, 3, 9, 9]
000000 cf fe 05 3d 46 6e a0 bc 45 e9 00 3d 98 82 54 3d
       0.032713708 -0.019583832 0.031472463 0.051882356
000010 e9 41 61 bd 6e 97 9a 3c 69 52 13 3d f1 6f a3 bc
       -0.054994497 0.018871035 0.035967264 -0.019950839
000020 17 5e d5 bc a0 9d 36 3c 74 0a 27 bd ad a9 c4 bc
       -0.026045842 0.011145979 -0.040781453 -0.024006689
000030 ea c8 8b 3a 9d c8 05 bd c7 12 fa 3a b1 9b 7a 3d
       0.0010664735 -0.032662023 0.0019079082 0.061183635
000040 ed c0 8d 3d 03 21 5c bc 5f bf 32 bd dd ed 0c bc
       0.06921563 -0.013435605 -0.043639537 -0.008601633
000050 d9 a9 f2 3a d0 1d 68 3d 01 2a 79 bc 86 31 13 bd
       0.0018513753 0.056669056 -0.015207768 -0.0359359
000060 02 8d 7f 3d 35 2c f2 3c 05 4e 71 3d 06 93 bf 3c
       0.062390335 0.029562095 0.058912296 0.023385536
000070 b3 e8 16 bd 0a 1c 7a bd 29 9b 5a 3d 35 c4 31 bd
       -0.036843013 -0.061061896 0.05337063 -0.04340001
000080 94 d1 77 bc e7 dd 2f bd b6 38 81 3d ad 1d 51 bd
       -0.015125651 -0.042936232 0.06309645 -0.05105369
000090 8f 4c 37 bc b4 91 c9 3a 47 3b c3 bb 9a f1 c7 bc
       -0.011187687 0.0015378506 -0.005957994 -0.024407197
0000a0 78 7d 4c bc 7c c3 83 3d 1a 0c f1 bc 2b 8f e6 bc
       -0.012481086 0.0643377 -0.029424716 -0.02814444
0000b0 22 ca 27 3d ec 57 8c 3d 3c e2 5a bd 78 e8 0e 3d
       0.040964253 0.06852707 -0.05343841 0.03488967
0000c0 49 63 64 3c 6f a6 d7 3c 9f b7 b3 bb 6c d8 74 bc
       0.013939687 0.026324479 -0.005484536 -0.014944177
0000d0 dc c9 58 bd 0b 51 78 3d 3a 90 80 3d 8e 95 e4 bc
       -0.052926883 0.060624164 0.06277509 -0.027903344
0000e0 84 1a 8e 3d 2b f9 0c bd 4b 43 52 3d f9 37 96 3d
       0.06938651 -0.034417313 0.051333707 0.07334895
0000f0 03 ce 39 3c 74 01 92 bb 19 23 6c 3c b4 13 1c 3d
       0.011340621 -0.0044557396 0.014412665 0.038104728
000100 0c 90 86 3d 5b e3 13 bc d1 c7 86 3d 08 64 42 bc
       0.065704435 -0.009026374 0.06581081 -0.01186467
000110 3d ac a2 bc c4 57 04 3d 0b 2d 22 bd 62 71 58 bb
       -0.01985752 0.032310262 -0.039593738 -0.0033026566
000120 28 93 e3 bc 6d 98 33 bd 6a d6 23 bd 1b 39 3d bd
       -0.02778013 -0.043846536 -0.039999403 -0.04619704
000130 1a dd 38 3d 55 3f 29 bc 91 38 64 bd 6a 97 9b 3c
       0.045132734 -0.010330041 -0.05571801 0.018993098
000140 a1 f4 de bc 4e 69 f8 bc 95 99 7b bc dd 40 11 bd
       -0.027216258 -0.03032365 -0.015356441 -0.03546225
000150 9c c8 9d 3c 8f 4d 5e bd 85 a3 7d 3c 2c 61 02 bc
       0.019260697 -0.054273184 0.015480881 -0.007957738
000160 67 8f 9e bc 3b fd 55 3d cc 37 47 bc 74 cd 41 bd
       -0.019355489 0.052243453 -0.012159299 -0.047315076
000170 a8 24 08 3c a8 07 5a bd 5f 1a 5a bd 49 f7 b5 bc
       0.008309521 -0.053229958 -0.053247806 -0.022212641
000180 b2 5d 1d 3d 09 eb 0c 3c 8e fb 2c 3c 72 1c 8b 3d
       0.038419433 0.008600959 0.010558022 0.06792535
000190 27 51 42 3d 67 cf 88 3d ff ca 58 bd b9 0b 96 ba
       0.047440674 0.06680184 -0.052927967 -0.0011447585
0001a0 08 7f 58 3d 6c a2 20 bd 7f 3e 59 bd 8f da 00 3d
       0.05285552 -0.039217398 -0.053038117 0.031458434
0001b0 e4 b0 3c bd 54 ac 7f bb 08 ea 45 bd 4f 50 c4 bc
       -0.046067134 -0.0039012628 -0.048318893 -0.023964075
0001c0 6d 48 29 3d c8 18 e0 3c a9 92 36 3c 66 64 72 bc
       0.041328836 0.027355567 0.011143365 -0.014794445
0001d0 58 60 5c bd bd 28 2c 3d 0f db 09 3d 27 e3 5b bc
       -0.053802818 0.04203104 0.033656176 -0.013420857
0001e0 b7 a9 49 bd f0 e4 5b 3d f0 1d 68 bd f3 b1 69 3d
       -0.04923412 0.05368513 -0.056669176 0.05705447
0001f0 5f ef e1 bc 30 b4 23 bc c1 f1 04 bd 7a 89 c2 bc
       -0.027579961 -0.0099916905 -0.032457117 -0.023747195
000200 8f e0 23 bd 4d b2 eb bc c9 db 3a 3d 2e f1 25 bd
       -0.040009078 -0.028771544 0.04561976 -0.04051321
000210 4f 04 13 3b ae 3a f9 3c fa f9 48 3d 53 44 1d bd
       0.0022432988 0.030423488 0.04906652 -0.038395237
000220 26 23 b4 bc 4a 9a 40 bc 74 b5 6c 3d de 6f 4e bb
       -0.021989416 -0.011755535 0.057790235 -0.0031499784
000230 28 ad 6e 3d d9 66 36 3c 37 55 15 bd 8c de 43 bd
       0.058270603 0.011132919 -0.03645822 -0.04781966
000240 c7 96 41 3d fa 85 47 3d 5b 96 11 bc 48 5a 67 bd
       0.047262933 0.048711754 -0.008885945 -0.056482583
000250 96 6a 2d 3a d4 3a fc bc c0 0f 1e 3d 06 61 67 bd
       0.0006615309 -0.03078977 0.03858924 -0.056489013
000260 ae 87 a9 3c 9b f8 0f 3b 62 a6 e7 bb bb e5 44 bd
       0.02069458 0.0021968249 -0.007069395 -0.04807065
000270 0d 3c 32 bd 42 f2 5d 3d 59 41 2c bd a4 eb b8 bc
       -0.0435143 0.054186113 -0.042054508 -0.0225733
000280 c8 af a1 bc d4 d8 8c 3c bf 08 1c bd 6e 92 ca 3c
       -0.01973714 0.017193235 -0.03809428 0.024728026
000290 33 cc b0 3c 35 89 f4 bc 84 4b 0c 3d 12 2d 9b bb
       0.021581745 -0.029850582 0.034251705 -0.0047355974
0002a0 67 b8 24 3d 19 5a 30 bc da 2e 08 bd b3 66 87 3d
       0.040214922 -0.010763668 -0.033247806 0.06611385
0002b0 fa 75 53 bd de 08 bd bc 36 fb 55 bd 8b 7c 78 3d
       -0.051626183 -0.023075517 -0.052241527 0.06066565
0002c0 6f 3e 20 bd 04 53 0c 3d d3 7b 5f bd cc b1 0e 3d
       -0.03912204 0.034258857 -0.054561447 0.03483753
0002d0 90 20 04 3d 19 3d 78 3d b9 67 1e bd 56 b5 ab 3c
       0.032257617 0.060605142 -0.038673136 0.020960491
0002e0 e0 62 97 3d 20 37 8c 3d b7 f4 8f 3d 4c 77 11 3d
       0.07391906 0.06846452 0.070290975 0.03551416
0002f0 81 9a 4d bc 5f 40 49 3c a9 17 3c bd 32 f2 09 bc
       -0.012549044 0.012283414 -0.045921 -0.00841956
000300 f7 be 7c 3c f5 62 73 3d 67 43 ca bb da 8d 5e 3d
       0.015426389 0.059420545 -0.0061725858 0.0543345
000310 d1 92 7d 3d da c0 e2 3c 01 6c 7c 3d 8d f9 84 3d
       0.061907593 0.02767985 0.061626438 0.064929105
000320 02 0f b7 3c 61 3f 53 3d 13 ee bd bb db e1 96 bc
       0.022346023 0.051574115 -0.005796203 -0.018418243
000330 ff 79 c0 3c e0 0e 6e 3c 41 28 34 bc 51 4a 67 bd
       0.023495672 0.014529914 -0.010995925 -0.056467358
000340 3a 81 5b bd 23 aa c1 bc 1f 7c 58 bd 9d 04 43 3c
       -0.053590037 -0.023640698 -0.052852746 0.011902955
000350 cc 26 57 bd f7 d8 8e bc 6c b6 a4 bc 48 7c 05 3d
       -0.052527234 -0.017437441 -0.020106517 0.032589227
000360 02 a5 8f 3c 37 62 8d 3c 84 84 16 3c 40 b9 f5 bc
       0.017534737 0.017258747 0.009186868 -0.02999556
000370 26 43 63 3d e0 15 2d 3d c4 d8 7e 3d 83 2b 02 bd
       0.05548396 0.04225719 0.062218443 -0.031779777
000380 73 99 e2 bc 1f 73 78 3d 43 91 61 bd 8b 04 0f 3d
       -0.02766106 0.060656663 -0.055070173 0.034916442
000390 0a f1 18 bc 94 8a 67 bd 90 2c 5a bc 91 51 8f bc
       -0.009334812 -0.056528643 -0.013316289 -0.017494949
0003a0 30 11 8b bc 99 34 45 bd a1 5f 19 bd 86 42 f8 3c
       -0.01697597 -0.048145864 -0.037444714 0.030305158
0003b0 82 99 3b 3d 9d c1 17 bc 4c 71 78 bc 38 81 0a 38
       0.045800693 -0.00926247 -0.015163731 3.302211e-05
0003c0 99 d1 42 3d 64 73 62 bd a2 15 2e 3d eb b4 a4 3c
       0.04756317 -0.055285826 0.0425011 0.0201058
0003d0 19 ef 4d bd 8e 22 39 3d ec 59 80 3d 9a 4e 2b 3c
       -0.05027685 0.04519897 0.06267151 0.010455752
0003e0 5a f2 4b bc 6e bf 76 3d 5e 5c 32 bd bb 8d 85 bc
       -0.012447918 0.060241155 -0.04354512 -0.016302934
0003f0 00 ab ea bb ff 9d 19 bd 1c a8 b6 3c 81 d3 9c 39
       -0.007161498 -0.037504192 0.022296958 0.0002991222

net.0.bias f4 [64]
000000 35 f3 77 3d 62 56 b2 3c 77 a2 6b 3d b5 86 8b 3c
       0.060534675 0.021769706 0.057527985 0.017032007
000010 35 7c 65 3d aa b6 29 3d 43 5f 02 3d f6 99 da 3c
       0.056026656 0.041433968 0.03182913 0.026684742
000020 9a db 37 3d 79 58 4d bd 45 21 a7 3c 1a 44 ab bc
       0.044887163 -0.050133202 0.020401606 -0.020906497
000030 dd e8 e1 bb 7d df f0 3a a8 9f 16 bd a1 d9 18 bc
       -0.0068942145 0.0018377152 -0.036773354 -0.0093292305
000040 ad d4 16 bd f9 e0 4a 3a aa b9 71 3a 82 9a 21 bd
       -0.036823917 0.0007739212 0.00092210865 -0.03945399
000050 95 75 2d bd 0d f5 06 3d 66 20 8b 3a d5 9a 78 3c
       -0.042348463 0.032948542 0.0010614514 0.015173634
000060 98 f7 24 3d 22 9d 1c 3c dc a1 f4 bc e1 d3 49 3c
       0.040275186 0.009558948 -0.029862337 0.012318582
000070 64 5d 4f 3d c1 3c 57 3c 28 9c 5f 3d 99 23 77 3c
       0.050626174 0.013137043 0.05459228 0.015084171
000080 87 76 9e bc ea 47 a7 3c e0 14 58 bd 87 a3 d3 bc
       -0.019343628 0.020420033 -0.052754283 -0.025834812
000090 f7 59 10 3d 82 b5 f9 3c 3f be 5e 3d ac b6 27 3d
       0.035242047 0.030482057 0.05438065 0.040945694
0000a0 0e f3 15 3c da c1 e8 bb 7f fd 06 bd af 7b 40 bd
       0.009152187 -0.007103187 -0.032956596 -0.046992954
0000b0 09 72 db bc 30 08 80 3d 3b ce 09 bd 37 66 86 3d
       -0.026787775 0.06251562 -0.033643942 0.06562465
0000c0 2d 6e 9e bb fe 38 1b 3d c8 54 6c bd 9c 57 52 3d
       -0.0048349113 0.03789615 -0.05769804 0.051353082
0000d0 b8 a1 6f bd 7a dd 1c bc a3 22 d1 bb 5d 5a 90 3c
       -0.058503836 -0.0095742885 -0.006382303 0.017621214
0000e0 16 bf 4e 3d f3 0f 48 bd ca 90 04 3c d2 86 29 3c
       0.050475203 -0.048843335 0.008091161 0.010347085
0000f0 b5 64 78 3d f4 9d dd 3c 36 7b 14 3d cf c5 71 bc
       0.060642917 0.027052857 0.036250316 -0.014756634

net.2.weight f4 [32, 64, 5, 5]
000000 da d1 88 bb e1 0f 83 3c d9 78 d8 ba be ab bd bc
       -0.004175407 0.015998783 -0.0016515508 -0.023153182
000010 7d 3e 9d 3c 3d 64 7e 3b 08 73 e8 3b 6f 55 ee bb
       0.019194836 0.003881707 0.007093791 -0.007273368
000020 f5 56 3c 39 ce 53 65 bb a5 d0 37 bc 9b 54 ba 3c
       0.00017961471 -0.0034992578 -0.011219178 0.022745421
000030 d4 54 35 3c 4a b9 c6 bc c7 8b 26 bc 5d eb 87 bb
       0.011067588 -0.024258275 -0.010165161 -0.0041479305
000040 d2 02 17 3c fc da 00 bc 21 77 30 3c b8 d2 b5 3c
       0.009216981 -0.00786471 0.01077059 0.022195205
000050 ec fc 36 bc 3b d2 4d 3c 73 93 93 3c ee 13 e2 ba
       -0.0111687 0.01256233 0.018014645 -0.0017248371
000060 6d 5e 6e 3c b8 6f 87 bc c4 8f c2 3c bf 33 bd 3a
       0.01454888 -0.016532764 0.023750193 0.0014434977
000070 f5 58 43 3a 29 97 a4 bc eb 65 b3 bc d3 54 6c 3c
       0.00074519153 -0.02009161 -0.021899184 0.014424521
000080 a8 77 e9 bb d7 16 9a 3c db 76 bc bb f3 5c ee 3b
       -0.00712486 0.018809719 -0.0057514734 0.007274264
000090 71 b8 59 3c 54 03 cd bc 04 53 1d bc c0 36 9c 3c
       0.013288603 -0.025026001 -0.009602312 0.019069076
0000a0 03 d5 b0 bc 61 45 10 3b 2c df 73 bc 52 86 b8 bc
       -0.021585947 0.002201401 -0.014884751 -0.022524986
0000b0 5d 38 01 3c 30 45 2c 3c 06 99 e7 bb 5c 81 d5 3b
       0.007886973 0.010514542 -0.0070678024 0.006515665
0000c0 40 7b 9e bc ac 36 89 3c d1 88 20 3c 0f 99 95 bb
       -0.01934588 0.016749702 0.009798245 -0.004565365
0000d0 fb e4 c7 3b 62 10 69 bc 9d 77 4c 3b 3e 53 2c bc
       0.0061002946 -0.014225097 0.0031199225 -0.010517893
0000e0 16 28 be 3c 5d 18 64 bb 46 c5 22 3c cc 02 8c 3a
       0.023212474 -0.003480456 0.009934729 0.0010681986
0000f0 2e a3 9c 3b 28 15 2c bc 9f 87 70 3c 96 4e bc 3c
       0.0047801947 -0.010503091 0.014680772 0.022986691
000100 bb 16 27 bc 7d 3c df 3b 77 e1 b9 bb 83 f1 c7 3b
       -0.01019829 0.0068126307 -0.0056726295 0.0061017885
000110 0a cd 08 bc 0a 9b 05 bb 59 91 b3 3c e4 99 05 ba
       -0.008349666 -0.00203866 0.021919893 -0.0005096479
000120 98 04 98 3b 2a 45 99 bb 32 4a a7 3c 57 76 82 bb
       0.0046392195 -0.0046774345 0.020421121 -0.0039813924
000130 f0 7a 69 3c f1 63 e6 bc 40 1d 48 bc 47 d0 8a bc
       0.014250502 -0.028123828 -0.012214005 -0.016945018
000140 99 31 98 3b 49 33 83 3c a1 b4 f1 bc 42 53 4d bc
       0.0046445844 0.016015666 -0.029505076 -0.012532057
000150 61 b5 52 bc 71 34 f0 bb 54 cb eb bc 29 a7 76 3c
       -0.012860627 -0.0073304703 -0.028783478 0.0150545025
000160 50 f8 c6 3a 9c 7e 94 bc 15 6f 90 3c 1c 27 70 bb
       0.0015180204 -0.018126778 0.017631093 -0.0036644405
000170 5c 49 7e bc ee bc 59 bc d5 c2 0f bc 57 38 ce bc
       -0.01552042 -0.013289673 -0.008774479 -0.02517335
000180 af bc 0d bb 74 6d 9d bc 52 4c 3b 3c 7f 07 40 3c
       -0.0021627357 -0.01921723 0.01143177 0.011720537
000190 4f 80 1b 3c 8d e4 be 3c 27 5f 94 3c 13 3d 83 bc
       0.00949104 0.02330234 0.018111778 -0.016020333
0001a0 3c e9 f6 3b d6 9e b0 bc fd ab 19 ba 10 d2 98 ba
       0.007535128 -0.021560114 -0.0005862115 -0.0011659283
0001b0 62 fc ac bc 03 c6 91 3b 26 b5 89 bb ea 8b b6 bc
       -0.02111644 0.0044486537 -0.004202503 -0.022283513
0001c0 b8 97 0f ba bd f8 b0 3c 0d 54 a7 3c 66 b4 ab bc
       -0.0005477625 0.021602983 0.02042582 -0.020960044
0001d0 d9 3b 32 3c 99 60 9e bc b7 34 c0 3c 6e 69 c3 3c
       0.010878527 -0.01933317 0.023462636 0.023853984
0001e0 24 64 b3 3c d1 74 44 bc f7 15 d3 bb 25 a1 a8 bb
       0.021898337 -0.011990742 -0.0064418274 -0.005146163
0001f0 b6 32 92 3c c3 c8 c9 bc a9 d5 bf bc bd 8e 9d 3c
       0.017846446 -0.024631863 -0.02341731 0.019233102
000200 24 9f d2 bc 36 5c 32 bc 19 1a b7 3b c4 e2 61 3a
       -0.02571065 -0.010886243 0.005587828 0.00086168596
000210 23 08 c5 bc b9 36 16 3c 8a a8 90 bc 2f 65 4e 3c
       -0.024051731 0.00916832 -0.01765849 0.012597366
000220 0e 16 be 3c a5 f7 93 3c a2 33 95 3b da d6 bb 3b
       0.023203876 0.018062422 0.0045532743 0.0057323994
000230 b5 e5 a1 bc ca 1c 95 bc 24 a8 f1 3b 53 6a d3 bc
       -0.019762853 -0.018202204 0.0073747803 -0.025807535
000240 8c 2c 89 bc 04 c6 b8 3c 81 20 bb 3c 21 07 c5 bc
       -0.016744874 0.022555359 0.022842648 -0.02405125
000250 17 0e 19 bc 34 96 4e 3b e1 21 9a 3c 5a 68 d4 3b
       -0.009341738 0.0031522634 0.018814983 0.0064821662
000260 9b 06 a9 bc 41 da c0 3c 61 37 43 bc c4 a8 2f bc
       -0.020633033 0.023541572 -0.011915059 -0.010721389
000270 5b 9e 48 3c 01 1f 53 3c 66 95 1f bc f0 2d ba 3b
       0.012244786 0.01288581 -0.009740209 0.0056817457
000280 68 7b b8 bc 2e ea c3 bc c7 51 89 bc 67 e7 b3 bc
       -0.022519782 -0.023915377 -0.016762627 -0.021960927
000290 08 74 6f bc 22 44 ba bb c9 fa 85 bc 9c 3d bf bc
       -0.014615066 -0.0056843916 -0.016354935 -0.023344807
0002a0 66 eb 1e 3c b5 f7 b7 bc a6 b3 6c 3c 2c cc 03 3c
       0.009699678 -0.022456983 0.014447128 0.008044284
0002b0 53 72 d6 bc c0 2b ab bc 9e da b0 3c 79 cc 84 bc
       -0.02617756 -0.020894885 0.02158862 -0.016210781
0002c0 bd 6e a1 3c ce 86 9e 3c 1a 43 ba 3c e4 74 9d 3b
       0.019706124 0.01935139 0.022737075 0.004805194
0002d0 e4 93 96 3c 03 d4 6c bb 4f b8 9c bc 04 3b b0 bc
       0.018381067 -0.003613711 -0.019130854 -0.021512516
0002e0 8f dd 0e bc dd 65 68 bc f3 7f 4f 3c b7 f9 70 3c
       -0.008719816 -0.014184442 0.012664783 0.014707974
0002f0 f2 2b ab bb f7 95 7d 3c 7b bd 7b 3c aa 23 eb ba
       -0.0052237445 0.015477649 0.015365 -0.0017939706
000300 a7 5f 80 bc 9a 35 1f 3a 81 a0 af 3b 33 64 f6 bb
       -0.01567061 0.0006073356 0.0053597097 -0.007519269
000310 d6 e6 82 3c 94 ff 0d bc b7 43 c7 3b 1a a0 b8 3c
       0.015979212 -0.008666892 0.0060810703 0.02253728
000320 58 52 c0 bc bd 34 2e bc a8 90 27 bc 4f 03 92 3c
       -0.023476765 -0.010632691 -0.01022736 0.017823843
000330 81 05 36 3b 1b 86 81 bc 80 ed 87 3c ab 8c ec 3a
       0.0027774277 -0.015811017 0.016592741 0.0018047293
000340 a6 ef 18 bc 67 a3 09 3b c4 7c 0b 3b 34 80 aa bb
       -0.00933448 0.0021001936 0.0021284083 -0.0052032713
000350 54 2d 06 ba a2 df 5e 3c 68 73 de bb cc 9d ec 3b
       -0.0005118449 0.013603123 -0.00678866 0.0072209593
000360 38 a0 48 bb d1 e8 e3 bb 05 2d f5 3b 61 6a a4 3b
       -0.0030613076 -0.006955244 0.0074821734 0.005017564
000370 41 73 e4 bb 15 ef 77 3c 05 a3 85 bc 6e e9 8a 3c
       -0.006971747 0.015132685 -0.016313085 0.016957011
000380 77 dd e2 3b 15 9f 99 3c 59 ce 71 3b 0f 3d 81 3c
       0.0069233733 0.018752614 0.0036896674 0.015776185
000390 0e 95 51 bb 7a 4e 2b bc b8 28 bf 3c 2c 66 d2 bc
       -0.0031979713 -0.010455722 0.023334846 -0.025683485
0003a0 b4 34 0e bc 2e 99 d2 bb 71 04 b9 3c 3c 33 7a bc
       -0.008679558 -0.006426952 0.022585126 -0.015271004
0003b0 24 90 98 bc 09 9d c1 bb 34 e2 18 ba ca 09 9f bc
       -0.01862342 -0.0059086126 -0.0005832047 -0.019413847
0003c0 b9 b1 a9 bb 2a 12 c7 3b 66 52 2a 3c 65 70 0d bc
       -0.005178657 0.0060751634 0.010395622 -0.008632754
0003d0 6f ed 29 bc 9f f6 22 bc c8 f8 8b bb b4 2f 87 3c
       -0.01037155 -0.009946494 -0.0042716004 0.016502239
0003e0 38 21 b3 3c 52 22 7c 3c 9a ca e4 3b ac 7b 99 3c
       0.021866426 0.015389042 0.00698216 0.01873573
0003f0 d9 bb 2c bb 50 72 1e 3c 0f b8 88 3c 2c 3e ce ba
       -0.0026357083 0.009670809 0.016689328 -0.0015735081

net.2.bias f4 [32]
000000 37 cf 7f 3b b1 45 ac 3c 19 bc 88 3b b0 f3 36 3c
       0.0039033422 0.021029325 0.0041728136 0.011166498
000010 c7 e1 1e 3c 68 b0 6f bc 7e 00 3d bc ec 32 ce 3b
       0.009697384 -0.014629461 -0.011535762 0.0062926915
000020 15 2f 47 3b 8c 00 84 bc cb 13 56 bb 3e b7 aa 3b
       0.0030393053 -0.016113542 -0.0032665606 0.0052098325
000030 98 19 29 3c bb 23 e1 bb 51 ed 8a bc 65 f6 9e 3c
       0.010321043 -0.0068707145 -0.016958864 0.0194046
000040 0d b9 e0 bb b0 78 23 3b cf b5 ba 3c 5c cd 99 3c
       -0.0068579973 0.0024943762 0.022791771 0.01877468
000050 9b fb 88 3c 41 c4 8c bc 19 91 93 bc c4 0e b3 3c
       0.016721537 -0.017183425 -0.018013524 0.021857627
000060 0b 87 70 3c 7a 2c aa ba 65 2e 97 bc 85 64 c1 3c
       0.014680634 -0.0012983226 -0.01845474 0.023607502
000070 fb 9d e2 3a 83 70 a0 bc 97 0c 2a 3c 74 8e ae bc
       0.0017289513 -0.0195849 0.010378978 -0.021308161

net.4.weight f4 [3, 32, 5, 5]
000000 07 8f d0 3c c0 84 0b bd 75 52 e2 bc b6 62 5b bc
       0.025458826 -0.034062147 -0.02762721 -0.013390234
000010 f3 49 f2 bc db 7c 8a 3c 56 c4 4a bc 24 46 e7 3b
       -0.029576277 0.016905239 -0.012375912 0.007057922
000020 36 83 f6 bc 23 8d b9 3c 19 43 5d 3c b7 7a 9c bb
       -0.030091863 0.022650307 0.013504767 -0.004775371
000030 3f 84 09 bd ad 80 33 3b a6 d4 97 bc ff ee 6c bc
       -0.033573385 0.002738993 -0.018534016 -0.014461278
000040 fb 91 e4 bc f3 09 e8 3b 19 3d 89 3c 13 79 25 bc
       -0.02790164 0.007081264 0.016752766 -0.010099667
000050 89 f3 0a 3d ac d3 12 3d dc 4e eb 3c a7 a7 89 bc
       0.03392366 0.035846397 0.028724127 -0.016803576
000060 b9 45 b1 3c 23 2e f2 3c 23 1d c8 3c ff 40 5e bc
       0.021639692 0.029563015 0.024427956 -0.013565301
000070 19 60 08 3d 84 4a 93 3c 78 65 b5 ba f9 8c ab bc
       0.03329477 0.017979868 -0.0013839444 -0.020941244
000080 61 00 0a bd 40 7a 07 bd 49 3f ff 3c ec e4 d4 3c
       -0.033691768 -0.03307557 0.031158106 0.025988065
000090 b8 4e f0 bc f6 39 e6 bc 5e 7c 8a bc 98 a8 04 bd
       -0.029334411 -0.02810381 -0.016905006 -0.032387346
0000a0 37 08 77 3c b9 b1 c4 bc da f6 91 bc 59 b6 ed bc
       0.015077642 -0.024010526 -0.017817903 -0.029017614
0000b0 96 fc 0c 3b 2d 2b ea 3c c0 1a 32 bc e4 85 0a 3d
       0.0021512858 0.028585041 -0.0108706355 0.033819094
0000c0 f7 35 44 3c 09 bc 89 bc ed 7a 65 3b db 62 59 bb
       0.011975757 -0.016813295 0.0035015896 -0.0033170495
0000d0 60 54 be bc c4 91 c5 3c e0 75 b4 3c 98 7d 61 3c
       -0.023233593 0.024117358 0.022028863 0.013762854
0000e0 a7 37 21 3c a7 58 8a bc 01 29 6b 3c de c3 00 bd
       0.009839929 -0.016887976 0.014353038 -0.031436794
0000f0 b3 f6 c6 3c ec fa a5 3c ed 21 9a bc 05 4b b4 bc
       0.024287557 0.02026125 -0.018815005 -0.022008428
000100 ea 9d ac bc d6 9f eb 3b 4c 31 b9 bb c3 ff 25 bb
       -0.021071393 0.007190685 -0.0056516286 -0.0025329448
000110 a9 d4 76 bc a2 69 11 b9 53 d8 a4 3c 72 30 35 bc
       -0.015065351 -0.00013867629 0.020122683 -0.011058914
000120 16 64 d2 bc 5a 1c cf 3c 25 d9 ef 3c 55 42 7d 3c
       -0.02568249 0.025282074 0.029278347 0.015457709
000130 0f 2c 44 3c 2a 28 d0 bc 7f 22 02 3d f7 c9 65 bc
       0.011973395 -0.025409777 0.03177118 -0.014025203
000140 2e 09 9b bb 67 e8 46 3c 86 45 cf bc c4 ce 15 bc
       -0.004731319 0.01214037 -0.025301706 -0.009143535
000150 bd 9b ba 3c b6 2b ba 3c 3a 6f 80 b9 cd de db ba
       0.02277934 0.022725921 -0.00024496933 -0.0016774774
000160 2d c0 58 bb 9f cb ca bc 97 31 72 ba a7 32 69 3c
       -0.003307353 -0.024755297 -0.0009238957 0.014233268
000170 f7 1d 73 bb 28 96 10 bd 18 ff 3d 3b bc b3 0f bb
       -0.0037096718 -0.03529945 0.002899116 -0.0021927198
000180 9f bb ef bb c2 d4 08 3d 8b 3e 9c 3c ae a6 ac 3c
       -0.0073160673 0.033406027 0.019072792 0.021075573
000190 00 1a 3b bc 90 a4 03 bb 4b 33 e8 ba f3 a3 97 3c
       -0.011419773 -0.00200871 -0.0017715482 0.018510794
0001a0 3a 60 03 bd 18 cf d4 3a 1c be 8c bc 93 a7 ee 3c
       -0.03207419 0.0016236035 -0.017180495 0.02913264
0001b0 b4 40 84 bc ad 80 28 bd 33 e9 92 bc 87 96 8c 3c
       -0.016144134 -0.04113834 -0.017933464 0.01716162
0001c0 dd 5a 0d bd 10 20 2e bb 4b b0 2d bd eb 77 aa 3c
       -0.034510482 -0.0026569404 -0.042404454 0.020809134
0001d0 80 91 d7 bc c5 df 0a bc 46 16 f4 ba 60 fb b9 bc
       -0.026314497 -0.008476202 -0.0018622361 -0.022702873
0001e0 94 e6 77 3c 5f 64 12 bd 2f cf a4 bb 26 c0 e2 bc
       0.015130658 -0.035740253 -0.005029581 -0.027679514
0001f0 61 3f a7 3b 82 49 5e bc fe 92 9a 3c 33 26 6d 3c
       0.005103991 -0.01356733 0.01886892 0.014474439
000200 7f 4b 29 3d 4c 73 d9 bc d0 b2 ab bc 57 d2 79 3c
       0.041331764 -0.026544236 -0.020959288 0.015247903
000210 87 74 1e bc 41 03 bf bc 63 09 ad 3c 0d 9d 91 bc
       -0.009671337 -0.023316981 0.02112264 -0.017775083
000220 4b 7e 93 3b 53 93 9f bc b4 94 1f bc 0d 9b 76 3b
       0.0045011393 -0.01947943 -0.009740043 0.0037629039
000230 58 a2 f4 bc b9 f4 60 3c 76 86 fa bc 16 74 0c bb
       -0.029862568 0.013730221 -0.030581694 -0.0021431497
000240 b6 ec 9d bc 61 7c 09 bd f6 c4 91 bc ea f2 07 bd
       -0.019277912 -0.033565883 -0.017794114 -0.033190645
000250 c7 c4 d3 3b b3 84 d1 bc b8 01 2a 3c f7 66 5a bc
       0.0064626667 -0.025575971 0.010376386 -0.013330213
000260 23 fb fd bb 20 fb b2 3c 62 01 8a 3c 1c 75 d5 3c
       -0.007750885 0.021848261 0.016846363 0.026056819
000270 86 01 90 3c 09 81 e2 3c d2 f2 04 3d a3 05 7d bc
       0.017578851 0.02764942 0.032458134 -0.015443238
000280 d9 1d 91 3c 17 b6 0e 3d 4b d9 54 3b 96 f7 75 bc
       0.017714428 0.034841623 0.003247815 -0.015012642
000290 05 f5 6a bc 25 1b 4c 3c 79 1c d1 3b b3 ab cf 3a
       -0.014340644 0.012457644 0.006381568 0.0015844017
0002a0 57 8a e6 bc f6 1f 05 bc 04 ed c3 bc e9 db 66 3c
       -0.028142137 -0.008125296 -0.023916729 0.014090517
0002b0 42 bf 09 3d cf a8 a1 bb 9e bf 88 bb bb 09 3d 3c
       0.033629663 -0.0049334536 -0.004173233 0.011537964
0002c0 e2 c2 0f 3d ec 70 15 3d a2 c4 20 3a eb a2 a5 3c
       0.035097964 0.036484644 0.0006132816 0.020219287
0002d0 66 9a 05 3d fd ea b5 3b 79 4a 14 3c fb 29 21 bc
       0.03261795 0.0055516944 0.009050959 -0.009836669
0002e0 6b 45 0c 3d 78 50 b1 3c 31 14 3c bc de 02 fb 3c
       0.03424589 0.021644816 -0.011479423 0.030641016
0002f0 5b f0 bd bc e5 ea ce bc 12 36 01 bd 24 b6 7b bc
       -0.0231859 -0.02525849 -0.031545706 -0.01536325
000300 eb fa 6c 3c 70 1f fe 3a 4d 5f db 3c 2a f8 07 3d
       0.01446412 0.0019388031 0.026778841 0.033195652
000310 c2 a7 fb 3c 80 a9 96 bc c9 3b 68 bc 5b 5b d4 3a
       0.030719642 -0.01839137 -0.01417441 0.0016201542
000320 4f 89 b0 3c 36 bc 5d bc a1 e3 d4 bc f3 80 4f 3b
       0.021549849 -0.0135336425 -0.025987448 0.0031662553
000330 2b 24 b7 bc 06 5c e5 bc de 35 9a bb 45 07 fa bc
       -0.022356113 -0.027997982 -0.0047061285 -0.030521045
000340 a4 2e 02 3c f2 de 53 bc 6c 03 92 3c 19 a6 ad bc
       0.00794569 -0.012931572 0.017823897 -0.021197366
000350 d2 0b 6b bc 08 7c 72 3c 82 9c 3f 3a d1 02 5d bc
       -0.01434608 0.014800079 0.0007309393 -0.013489441
000360 f9 4e 5e 3b 61 60 0e bc 5b 6b f2 bc 52 5f 00 3d
       0.0033921583 -0.008689971 -0.029592207 0.031340905
000370 2c 7e ca bc 38 03 f1 bc b5 7e ef bc 96 55 08 3b
       -0.024718367 -0.02942048 -0.029235223 0.0020802966
000380 fe a7 29 bc 22 77 84 bc 0c ed 52 bc 63 e7 aa 3b
       -0.010354994 -0.016170088 -0.012873899 0.0052155717
000390 5a 98 b2 3c 33 b6 42 bb 4b 11 b5 ba e1 5c 1c 3d
       0.021801163 -0.002971065 -0.0013814358 0.038174514
0003a0 c7 2e ce 3b b4 60 eb bc e2 c9 48 bc 88 3c 10 3d
       0.0062921974 -0.028732635 -0.012255164 0.035213977
0003b0 22 db 5c 3c a9 3e f6 bc a5 c9 21 3a 98 15 ee 3c
       0.01347998 -0.030059176 0.000617171 0.029063031
0003c0 6e e8 b6 bc 2c 92 16 bd 04 20 e6 bc a4 2d 2f bc
       -0.022327628 -0.036760494 -0.028091438 -0.010692034
0003d0 a2 df e0 3c 76 ea f2 3c 1a 9b 10 3d 59 48 6c 3c
       0.027450386 0.029652815 0.035304166 0.014421546
0003e0 f3 12 51 3c e4 73 04 bd 78 82 de bc f1 20 e8 bb
       0.0127608655 -0.032337084 -0.027161822 -0.007084005
0003f0 d0 a1 a3 bc f0 ee 0b 3d 3d d9 f6 b9 82 d6 8c bb
       -0.01997462 0.034163415 -0.00047082631 -0.0042980323

net.4.bias f4 [3]
000000 5a 06 b8 3b 15 43 bf 3c d1 31 81 3b
       0.0056159915 0.023347417 0.003942706
