checkpoints/srcnn_epoch43_2025-03-20_23-02-04.pth (torch, 280012 bytes, 6 tensors)

net.0.weight f4 [64, 3, 9, 9]
0	0x3d0565d7	0.032567825
1	0xbc9f18df	-0.01942104
2	0x3cff3f50	0.03115812
3	0x3d56feba	0.05248902
4	0xbd5ea271	-0.054354135
5	0x3ca2bbed	0.019865
6	0x3d1812e4	0.03712739
7	0xbc973876	-0.01845954
8	0xbccd9f80	-0.02510047
9	0x3c3290e4	0.010898802
10	0xbd25d401	-0.040485386
11	0xbcbb0b75	-0.022832612
12	0x3b247967	0.0025096775
13	0xbd059725	-0.032614846
14	0x3b33cbbb	0.0027434665
15	0x3d7f83bb	0.062381487
16	0x3d8ef48f	0.069802396
17	0xbc505015	-0.012714406
18	0xbd334cdc	-0.04377447
19	0xbc082864	-0.008310411
20	0x3b2396b7	0.002496166
21	0x3d696eda	0.056990482
22	0xbc76f16f	-0.015072211
23	0xbd11c666	-0.035589598
24	0x3d80b651	0.06284774
25	0x3cea0f8c	0.028571866
26	0x3d72636f	0.05917686
27	0x3cbf8978	0.02338098
28	0xbd14fce9	-0.036374006
29	0xbd7ab9e8	-0.06121245
30	0x3d57714d	0.052598286
31	0xbd2fc8c5	-0.042916078
32	0xbc81da57	-0.015851183
33	0xbd2fdaa5	-0.042933125
34	0x3d7d1a2c	0.061792538
35	0xbd5116d6	-0.05104717
36	0xbc39c1fe	-0.011337755
37	0x3adb54d7	0.0016733658
38	0xbbaffde3	-0.005370842
39	0xbcc8bbff	-0.024503706
40	0xbc345fd3	-0.011009174
41	0x3d82744c	0.06369838
42	0xbcef283e	-0.029193994
43	0xbce97d47	-0.02850212
44	0x3d28c7ab	0.041206043
45	0x3d8adad3	0.06780019
46	0xbd5f30b5	-0.05448981
47	0x3d10fb66	0.035396002
48	0x3c60336f	0.013684138
49	0x3ce6e905	0.028187284
50	0xbba27477	-0.0049577313
51	0xbc74a007	-0.014930732
52	0xbd59c393	-0.05316503
53	0x3d79bc45	0.060970563
54	0x3d7e5cb0	0.062100112
55	0xbceb3440	-0.028711438
56	0x3d8f0d65	0.06984977
57	0xbd0ccbe1	-0.03437412
58	0x3d59b60e	0.053152137
59	0x3d986a30	0.07442129
60	0x3c33f6fb	0.010984178
61	0xbba7f3c6	-0.0051254956
62	0x3c6e5c5a	0.0145483855
63	0x3d18904f	0.037247
64	0x3d85533e	0.06510018
65	0xbc18a40c	-0.009316456
66	0x3d86828e	0.0656787
67	0xbc450aa7	-0.0120264655
68	0xbcaaf139	-0.020866977
69	0x3cfeb36a	0.03109141
70	0xbd25b758	-0.040458053
71	0xbb62b7c4	-0.0034594396
72	0xbcece431	-0.028917404
73	0xbd3762a3	-0.0447718
74	0xbd2758d7	-0.04085621
75	0xbd3e9f77	-0.046538796
76	0x3d34b1cb	0.04411487
77	0xbc43c2b7	-0.011948279
78	0xbd68eb17	-0.056864824
79	0x3c983619	0.018580483
80	0xbcdf2f52	-0.027244244
81	0xbced84ca	-0.028993983
82	0xbc647088	-0.013942845
83	0xbd1016ab	-0.035177868
84	0x3ca46de4	0.020071931
85	0xbd5cd077	-0.053909745
86	0x3c805e37	0.015669925
87	0xbbf1f758	-0.007384222
88	0xbc94ea2e	-0.018178072
89	0x3d59e231	0.05319423
90	0xbc37f132	-0.011226939
91	0xbd3d70d3	-0.046250176
92	0x3c19ef5b	0.009395446
93	0xbd5649e5	-0.052316565
94	0xbd5d5cf4	-0.054043725
95	0xbcb94c92	-0.02261952
96	0x3d1e352e	0.038624935
97	0x3c0c45b0	0.008561537
98	0x3c36e9b6	0.0111641195
99	0x3d8c80e1	0.06860519
100	0x3d44edf0	0.048078477
101	0x3d892000	0.06695557
102	0xbd5ad6fa	-0.053427674
103	0xbaef3ec5	-0.001825296
104	0x3d564d5e	0.052319877
105	0xbd1f7ee3	-0.038939368
106	0xbd5bf56c	-0.05370085
107	0x3d0401d4	0.032228306
108	0xbd399502	-0.04530812
109	0xbb49f617	-0.0030816847
110	0xbd47b4bb	-0.048756342
111	0xbccfeb67	-0.025380803
112	0x3d27e210	0.040987074
113	0x3cd2dfb3	0.025741434
114	0x3c3e90a5	0.011631166
115	0xbc750e8d	-0.014957082
116	0xbd596ce1	-0.05308235
117	0x3d301fc8	0.04299906
118	0x3d0d22ff	0.034457203
119	0xbc526cb2	-0.012843298
120	0xbd4d64f1	-0.050145093
121	0x3d5b2b9c	0.053508386
122	0xbd71f53b	-0.05907176
123	0x3d6b1ba7	0.05739942
124	0xbcdd716c	-0.027031623
125	0xbc1b5669	-0.009481051
126	0xbd01e146	-0.031708978
127	0xbcc56870	-0.024097651
128	0xbd234e06	-0.03986933
129	0xbcfa6c4a	-0.030569214
130	0x3d37aa38	0.044840068
131	0xbd2d7b95	-0.042354185
132	0x3b07ede4	0.002074116
133	0x3cfc7cab	0.030821165
134	0x3d4af2c7	0.049547937
135	0xbd199755	-0.037497837
136	0xbcb4bd85	-0.022063026
137	0xbc3df7c8	-0.01159472
138	0x3d680a14	0.056650236
139	0xbb537065	-0.0032263037
140	0x3d6dc9c3	0.058053743
141	0x3c3b0fdd	0.011417356
142	0xbd139bb5	-0.036037166
143	0xbd4092d3	-0.047015022
144	0x3d44d2ff	0.048052784
145	0x3d49c4ea	0.049260058
146	0xbc0dc632	-0.0086532105
147	0xbd66de9f	-0.05636465
148	0x3a363cfc	0.00069518364
149	0xbcff23ea	-0.031145055
150	0x3d1f993f	0.038964506
151	0xbd64ab7c	-0.055827603
152	0x3cb20260	0.021729648
153	0x3b2fbb9f	0.0026814712
154	0xbbd94d65	-0.0066315406
155	0xbd44468f	-0.047918852
156	0xbd2ed87e	-0.04268693
157	0x3d605fa7	0.05477872
158	0xbd2b784d	-0.041862775
159	0xbcb3a827	-0.021930767
160	0xbc99a158	-0.018753693
161	0x3c963c9b	0.018339446
162	0xbd1c2061	-0.038116816
163	0x3ccae321	0.024766507
164	0x3caaea3c	0.020863645
165	0xbcf0fa9e	-0.029416379
166	0x3d0bca1d	0.034128297
167	0xbbbac070	-0.00569921
168	0x3d20b62e	0.03923624
169	0xbc424581	-0.011857391
170	0xbd0e7d93	-0.034787726
171	0x3d861d09	0.06548507
172	0xbd553752	-0.05205471
173	0xbcba5890	-0.022747308
174	0xbd516b2c	-0.051127598
175	0x3d77990c	0.06044869
176	0xbd222472	-0.03958554
177	0x3d09fa2b	0.033685844
178	0xbd67609f	-0.05648863
179	0x3d089c5b	0.033352237
180	0x3cff475f	0.031161962
181	0x3d75e705	0.06003477
182	0xbd1d0c31	-0.038341705
183	0x3cb11172	0.021614764
184	0x3d99ae7c	0.075039834
185	0x3d8e25bc	0.06940791
186	0x3d91f5aa	0.07126935
187	0x3d0b5712	0.034018584
188	0xbc569664	-0.013097379
189	0x3c366b91	0.011134044
190	0xbd3c06dd	-0.045904983
191	0xbbf9e171	-0.0076257517
192	0x3c84bb57	0.016202612
193	0x3d7c36e9	0.061575804
194	0xbbb28019	-0.0054473993
195	0x3d6710a0	0.05641234
196	0x3d7c2bda	0.061565258
197	0x3ce10d19	0.027472066
198	0x3d79d9a0	0.06099856
199	0x3d85f287	0.06540399
200	0x3cc86799	0.024463462
201	0x3d585d64	0.05282344
202	0xbb89f48b	-0.00421006
203	0xbc9cf12a	-0.019157965
204	0x3ccc20b5	0.02491794
205	0x3c6ed747	0.014577693
206	0xbc3d465c	-0.0115524195
207	0xbd67aab4	-0.05655928
208	0xbd5c5774	-0.05379434
209	0xbcb876b5	-0.022517541
210	0xbd5c6790	-0.053809702
211	0x3c37cf7b	0.011218901
212	0xbd5d0e39	-0.053968642
213	0xbc8d2e1f	-0.017233906
214	0xbca8401d	-0.020538384
215	0x3d02e023	0.031952035
216	0x3c945034	0.01810465
217	0x3c8ee158	0.017441437
218	0x3c2075ba	0.009793693
219	0xbcfe99b6	-0.031079154
220	0x3d614488	0.054996997
221	0x3d2ce191	0.042207304
222	0x3d80c6f9	0.06287951
223	0xbd039b94	-0.032130793
224	0xbce3c32c	-0.027803026
225	0x3d7ba19f	0.06143343
226	0xbd5db0d6	-0.054123722
227	0x3d1283dc	0.035770282
228	0xbc0cf751	-0.008603887
229	0xbd64aac5	-0.05582692
230	0xbc51375b	-0.012769545
231	0xbc88dcc8	-0.01670684
232	0xbc8d497e	-0.017246958
233	0xbd4499a2	-0.04799808
234	0xbd177104	-0.036973014
235	0x3cfe082d	0.031009758
236	0x3d3e117b	0.04640339
237	0xbbfdba88	-0.0077431835
238	0xbc5dcc3c	-0.013537463
239	0x3a862b4f	0.0010236296
240	0x3d443385	0.047900695
241	0xbd64c835	-0.055854995
242	0x3d2dd2c1	0.04243732
243	0x3ca0fed3	0.01965276
244	0xbd4f359d	-0.05058824
245	0x3d33d3e0	0.04390323
246	0x3d81808f	0.06323349
247	0x3c39b3bf	0.011334359
248	0xbc4f27be	-0.012643753
249	0x3d79bda5	0.060971875
250	0xbd2edecd	-0.042692948
251	0xbc80b0c2	-0.015709285
252	0xbbfab3c4	-0.0076508243
253	0xbd1cd4eb	-0.038288992
254	0x3cba4b35	0.02274094
255	0x39d5e245	0.0004079511

net.0.bias f4 [64]
0	0x3d7d4ce1	0.061840896
1	0x3cb844c4	0.022493728
2	0x3d6cb309	0.05778793
3	0x3c90d3a7	0.017679049
4	0x3d66db82	0.056361683
5	0x3d28c229	0.04120079
6	0x3d0289de	0.03186976
7	0x3ce07feb	0.027404746
8	0x3d39a6fe	0.04532527
9	0xbd4b1529	-0.049580727
10	0x3cac1d1e	0.021009978
11	0xbc974144	-0.018463738
12	0xbb2be320	-0.0026227906
13	0x3b2b715d	0.00261601
14	0xbd15e644	-0.03659655
15	0xbc0cffc9	-0.008605906
16	0xbd0b6de4	-0.034040347
17	0x39a0c8a9	0.00030667082
18	0x3a5aca3b	0.0008346175
19	0xbd219fff	-0.039459225
20	0xbd27eae9	-0.040995512
21	0x3d0946f1	0.03351492
22	0x3b6f4f2a	0.0036515691
23	0x3c820c63	0.015875047
24	0x3d2b82ed	0.041872907
25	0x3c2979b4	0.010343958
26	0xbced8668	-0.028994754
27	0x3c4b85e4	0.012422059
28	0x3d4f30d9	0.050583694
29	0x3c57205b	0.013130273
30	0x3d5ea8fa	0.054360367
31	0x3c8c8817	0.017154736
32	0xbc9392fa	-0.01801442
33	0x3caa2882	0.020771269
34	0xbd4b8148	-0.04968384
35	0xbccfced3	-0.025367176
36	0x3d10ac37	0.035320487
37	0x3d012d28	0.031537205
38	0x3d5e6897	0.054298963
39	0x3d25ba05	0.040460605
40	0x3c18c6f9	0.0093247825
41	0xbbdffda2	-0.0068356553
42	0xbd063e67	-0.032774355
43	0xbd3cd01c	-0.046096906
44	0xbccce063	-0.02500934
45	0x3d7f6b56	0.062358223
46	0xbcfc8c25	-0.030828545
47	0x3d8b7105	0.06808666
48	0xbb71f4e9	-0.003691966
49	0x3d1ba48b	0.037998717
50	0xbd69918a	-0.057023562
51	0x3d583c82	0.05279208
52	0xbd70afc3	-0.05876137
53	0xbc1a6fc6	-0.009426063
54	0xbbc7c5b6	-0.006096567
55	0x3c8fc6dd	0.01755088
56	0x3d526152	0.051362343
57	0xbd4705bf	-0.048589464
58	0x3c034353	0.008011657
59	0x3c296acb	0.010340403
60	0x3d654931	0.055978004
61	0x3ce3f752	0.027827892
62	0x3d135cad	0.035977054
63	0xbc68f603	-0.01421881

net.2.weight f4 [32, 64, 5, 5]
0	0xbb88cfdc	-0.0041751694
1	0x3c83112a	0.015999395
2	0xbad8668f	-0.0016510057
3	0xbcbdaaf8	-0.023152813
4	0x3c9d3f26	0.01919515
5	0x3b7e6962	0.0038820137
6	0x3be876ec	0.0070942547
7	0xbbee52ec	-0.0072730687
8	0x393c79b4	0.00017974415
9	0xbb654f17	-0.0034989768
10	0xbc3720d4	-0.01117726
11	0x3cba9a77	0.022778733
12	0x3c35a547	0.0110867685
13	0xbcc68d51	-0.024237307
14	0xbc260887	-0.010133869
15	0xbb870cf4	-0.004121417
16	0x3c177361	0.009243817
17	0xbc006c8a	-0.007838378
18	0x3c30e53b	0.01079684
19	0x3cb61b3c	0.022229783
20	0xbc3665d1	-0.011132673
21	0x3c4e8848	0.012605734
22	0x3c940c89	0.018072383
23	0xbad89b28	-0.0016525732
24	0x3c6fd186	0.014637357
25	0xbc876fb8	-0.016532764
26	0x3cc28fc4	0.023750193
27	0x3abd33c8	0.0014434988
28	0x3a435940	0.0007451959
29	0xbca49729	-0.02009161
30	0xbcb365eb	-0.021899184
31	0x3c6c54d3	0.014424521
32	0xbbe977a8	-0.00712486
33	0x3c9a16d7	0.018809719
34	0xbbbc76db	-0.0057514734
35	0x3bee5d40	0.0072743
36	0x3c59b872	0.013288604
37	0xbccd0353	-0.025026
38	0xbc1d5165	-0.0096019255
39	0x3c9c3751	0.019069346
40	0xbcb0d503	-0.021585947
41	0x3b1046b0	0.002201479
42	0xbc73dee2	-0.014884682
43	0xbcb885e7	-0.022524787
44	0x3c013b28	0.007887639
45	0x3c2c4530	0.010514542
46	0xbbe79906	-0.0070678024
47	0x3bd5815c	0.006515665
48	0xbc9e7b40	-0.01934588
49	0x3c8936b5	0.01674972
50	0x3c20899b	0.009798433
51	0xbb9597ae	-0.004565201
52	0x3bc7e69b	0.0061004884
53	0xbc690f45	-0.014224832
54	0x3b4c7c17	0.0031201893
55	0xbc2c52f2	-0.010517823
56	0x3cbe2817	0.023212476
57	0xbb64169d	-0.0034803518
58	0x3c22c5b0	0.009934828
59	0x3a8c0725	0.0010683282
60	0x3b9cb66f	0.00478249
61	0xbc2c0f93	-0.01050176
62	0x3c7089eb	0.01468132
63	0x3cbc4f71	0.0229871
64	0xbc2715df	-0.010198086
65	0x3bdf58f5	0.0068160244
66	0xbbb9d4ba	-0.005671111
67	0x3bc7f79f	0.006102517
68	0xbc08cbb7	-0.008349351
69	0xbb05975b	-0.0020384404
70	0x3cb3a6ee	0.021930184
71	0xba02f3d2	-0.00049954385
72	0x3b9854d3	0.0046487837
73	0xbb98f054	-0.004667321
74	0x3ca75fcf	0.020431427
75	0xbb826e29	-0.0039804173
76	0x3c697d37	0.014251045
77	0xbce662e5	-0.028123328
78	0xbc481a91	-0.012213365
79	0xbc8ace65	-0.01694412
80	0x3b9838a5	0.0046454244
81	0x3c833427	0.01601608
82	0xbcf1b389	-0.029504554
83	0xbc4d4ec2	-0.012530984
84	0xbc52b07f	-0.012859463
85	0xbbef9cf7	-0.007312413
86	0xbceb8e30	-0.028754324
87	0x3c77a352	0.015114622
88	0x3ad2a529	0.001607095
89	0xbc939400	-0.018014908
90	0x3c90c2bd	0.017670983
91	0xbb6e38ea	-0.0036349841
92	0xbc7d6f30	-0.015468404
93	0xbc58024e	-0.013184143
94	0xbc0d6c42	-0.008631768
95	0xbccda7d3	-0.025104439
96	0xbb098ab4	-0.0020987215
97	0xbc9d0995	-0.019169608
98	0x3c3be9ae	0.011469288
99	0x3c4089d8	0.0117516145
100	0x3c1b804f	0.00949104
101	0x3cbee48d	0.02330234
102	0x3c945f27	0.018111778
103	0xbc833d13	-0.016020333
104	0x3bf6e93c	0.007535128
105	0xbcb09ed6	-0.021560114
106	0xba19aaed	-0.0005861957
107	0xba98d174	-0.0011659102
108	0xbcacfc62	-0.02111644
109	0x3b91c603	0.0044486537
110	0xbb89b1f9	-0.004202124
111	0xbcb68b98	-0.02228336
112	0xba0f8358	-0.0005474589
113	0x3cb0f8c1	0.02160299
114	0x3ca7540d	0.02042582
115	0xbcabb430	-0.020959944
116	0x3c323dd4	0.010878999
117	0xbc9e5fc8	-0.019332781
118	0x3cc03519	0.023462819
119	0x3cc36982	0.023854021
120	0x3cb3645c	0.021898441
121	0xbc44738e	-0.011990441
122	0xbbd31183	-0.0064412965
123	0xbba89c36	-0.005145575
124	0x3c923315	0.017846623
125	0xbcc9c8c3	-0.024631863
126	0xbcbfd5a9	-0.02341731
127	0x3c9d8ebd	0.019233102
128	0xbcd29f24	-0.02571065
129	0xbc325c36	-0.010886243
130	0x3bb71a19	0.005587828
131	0x3a61e2ce	0.00086168654
132	0xbcc50823	-0.024051731
133	0x3c1636b9	0.00916832
134	0xbc90a88a	-0.01765849
135	0x3c4e6562	0.012597414
136	0x3cbe1610	0.02320388
137	0x3c93f7ca	0.018062491
138	0x3b9537ab	0.0045537553
139	0x3bbbdb36	0.005732919
140	0xbca1e5b5	-0.019762853
141	0xbc951cca	-0.018202204
142	0x3bf1a865	0.0073748105
143	0xbcd36a53	-0.025807535
144	0xbc892c84	-0.01674486
145	0x3cb8c609	0.022555368
146	0x3cbb2081	0.022842648
147	0xbcc5071c	-0.024051242
148	0xbc190cdf	-0.009341448
149	0x3b4e9e25	0.0031527367
150	0x3c9a21e1	0.018814983
151	0x3bd46878	0.00648218
152	0xbca9069b	-0.020633033
153	0x3cc0da41	0.023541572
154	0xbc433761	-0.011915059
155	0xbc2fa8a7	-0.010721362
156	0x3c489e5b	0.012244786
157	0x3c531f04	0.012885813
158	0xbc1f955d	-0.009740201
159	0x3bba2e1f	0.0056817676
160	0xbcb87756	-0.022517841
161	0xbcc3e75e	-0.023914035
162	0xbc894efc	-0.016761295
163	0xbcb3e431	-0.021959396
164	0xbc6f675c	-0.014612045
165	0xbbba3499	-0.0056825397
166	0xbc85f8e8	-0.01635404
167	0xbcbf3c1e	-0.023344096
168	0x3c1eec74	0.0096999295
169	0xbcb7f73b	-0.022456756
170	0x3c6cc100	0.014450312
171	0x3c03d85d	0.0080471905
172	0xbcd66fb5	-0.026176313
173	0xbcab2b0b	-0.020894548
174	0x3cb0db17	0.021588845
175	0xbc84c945	-0.016209254
176	0x3ca17275	0.019707898
177	0x3c9e89af	0.019352762
178	0x3cba46d7	0.022738857
179	0x3b9d86b5	0.004807318
180	0x3c969667	0.018382264
181	0xbb6cbcd1	-0.0036123286
182	0xbc9cb69b	-0.019130042
183	0xbcb0399f	-0.02151185
184	0xbc0ed7ba	-0.008718425
185	0xbc67f567	-0.01415763
186	0x3c5049d6	0.012712916
187	0x3c72aa2a	0.014811078
188	0xbba5ca8e	-0.005059547
189	0x3c80687d	0.015674824
190	0x3c7c365b	0.015393819
191	0xbae5479c	-0.0017492655
192	0xbc7f4f35	-0.015582849
193	0x3a42087e	0.0007401778
194	0x3bb4eb30	0.0055212006
195	0xbbf57c01	-0.007491589
196	0x3c831642	0.016001824
197	0xbc0d5ce1	-0.008628101
198	0x3bc8f592	0.00613279
199	0x3cb92160	0.022598922
200	0xbcc05257	-0.023476763
201	0xbc2e3487	-0.010632641
202	0xbc2790a8	-0.01022736
203	0x3c92034f	0.017823843
204	0x3b3606d7	0.0027775073
205	0xbc818618	-0.015811011
206	0x3c87ed97	0.016592784
207	0x3aec8ef9	0.001804798
208	0xbc18efa6	-0.00933448
209	0x3b09a3aa	0.0021002092
210	0x3b0bd8cc	0.0021338938
211	0xbbaa5bf8	-0.005198952
212	0xba057d30	-0.0005092202
213	0x3c5ef7ea	0.013608912
214	0xbbde26c1	-0.006779522
215	0x3becd7fb	0.0072278953
216	0xbb482068	-0.0030536894
217	0xbbe3a10e	-0.0069466894
218	0x3bf58e8a	0.0074937986
219	0x3ba4ed0c	0.005033141
220	0xbbe445d3	-0.0069663315
221	0x3c780095	0.0151368575
222	0xbc859ab7	-0.016309125
223	0x3c8af45b	0.01696222
224	0x3be316d3	0.006930211
225	0x3c999f15	0.018752614
226	0x3b71ce5b	0.003689668
227	0x3c813d0f	0.015776185
228	0xbb519470	-0.0031979345
229	0xbc2b4e7a	-0.010455722
230	0x3cbf28b8	0.023334846
231	0xbcd2662c	-0.025683485
232	0xbc0e34b4	-0.008679558
233	0xbbd2992e	-0.006426952
234	0x3cb90471	0.022585126
235	0xbc7a333c	-0.015271004
236	0xbc989024	-0.01862342
237	0xbbc19b20	-0.005908385
238	0xba18aa26	-0.0005823694
239	0xbc9f0771	-0.019412728
240	0xbba9b1b8	-0.0051786564
241	0x3bc71283	0.006075205
242	0x3c2a5445	0.010396068
243	0xbc0d6c1b	-0.008631731
244	0xbc29e81b	-0.01037028
245	0xbc22f69f	-0.009946494
246	0xbb8bf8c8	-0.0042716004
247	0x3c872fb4	0.016502239
248	0x3cb32139	0.021866428
249	0x3c7c23d0	0.015389398
250	0x3be4cafd	0.006982206
251	0x3c997bd0	0.018735796
252	0xbb2cb89a	-0.0026355148
253	0x3c1e7317	0.009670994
254	0x3c88b881	0.01668954
255	0xbace3c8d	-0.0015734598

net.2.bias f4 [32]
0	0x3b7fd6f7	0.003903804
1	0x3cab804a	0.020935196
2	0x3b853a34	0.0040657762
3	0x3c351cd8	0.01105424
4	0x3c2134d1	0.009839253
5	0xbc7192ca	-0.01474447
6	0xbc3b8c85	-0.011447077
7	0x3bcbaaa6	0.0062154112
8	0x3b498c9d	0.0030753978
9	0xbc841605	-0.016123781
10	0xbb5613f0	-0.0032665692
11	0x3ba8d769	0.005152632
12	0x3c3ec8dc	0.011644568
13	0xbbd62b65	-0.0065359347
14	0xbc8a6ed9	-0.01689856
15	0x3c9f09b7	0.019413812
16	0xbbe42237	-0.0069620865
17	0x3b2379c5	0.0024944406
18	0x3cbcef78	0.023063406
19	0x3c9db78d	0.019252563
20	0x3c899044	0.016792424
21	0xbc8c7202	-0.017144207
22	0xbc9051ec	-0.017617188
23	0x3cb7b914	0.02242712
24	0x3c729066	0.014804935
25	0xbac0e60d	-0.0014716998
26	0xbc972f24	-0.018455096
27	0x3cca56ac	0.024699531
28	0x3b0db328	0.0021621678
29	0xbc81e19e	-0.015854653
30	0x3c29afd7	0.010356865
31	0xbcaebc50	-0.021330029

net.4.weight f4 [3, 32, 5, 5]
0	0x3cd08f07	0.025458826
1	0xbd0b84c0	-0.034062147
2	0xbce25275	-0.02762721
3	0xbc5b62b6	-0.013390234
4	0xbcf249f3	-0.029576277
5	0x3c8a7cdb	0.016905239
6	0xbc4ac456	-0.012375912
7	0x3be74624	0.007057922
8	0xbcf68336	-0.030091863
9	0x3cb98d23	0.022650307
10	0x3c5d4319	0.013504767
11	0xbb9c7aba	-0.0047753723
12	0xbd09843f	-0.033573385
13	0x3b3380a7	0.0027389915
14	0xbc97d4a6	-0.018534016
15	0xbc6ceeff	-0.014461278
16	0xbce491fb	-0.02790164
17	0x3be809f3	0.007081264
18	0x3c893d19	0.016752766
19	0xbc257913	-0.010099667
20	0x3d0af389	0.03392366
21	0x3d12d3ac	0.035846397
22	0x3ceb4edc	0.028724127
23	0xbc89a7a7	-0.016803576
24	0x3cb145b9	0.021639692
25	0xbc0920f8	-0.008369677
26	0x3cdd723a	0.027032007
27	0xbc256ab6	-0.010096243
28	0x3cb3cdb7	0.021948678
29	0x3ca01479	0.019541012
30	0xbd58cc60	-0.052929282
31	0xbd0cb6d2	-0.03435404
32	0xbd2d2d7c	-0.042279705
33	0xbd777d93	-0.06042249
34	0x3c1c2996	0.009531399
35	0x3c090b43	0.008364501
36	0xbc8394c5	-0.01606215
37	0xbc713376	-0.014721742
38	0xbc9f3b6e	-0.019437518
39	0xbd04b7db	-0.0324019
40	0x3a36ef8a	0.0006978443
41	0xbbfbc225	-0.007683056
42	0xbb5a8f75	-0.0033349667
43	0xbceb4bae	-0.02872261
44	0x3be2f061	0.006925628
45	0x3ca13ab2	0.019681308
46	0x3bbc87f1	0.00575351
47	0x3d3d6499	0.046238516
48	0x3c7a5eb4	0.015281368
49	0xbbe67b5d	-0.007033749
50	0x3b3f55d5	0.0029195447
51	0xbb69a995	-0.0035654057
52	0xbcc0c0e4	-0.023529477
53	0x3cc7cefc	0.02439069
54	0x3cb0f8a3	0.021602934
55	0x3c5eed08	0.013606317
56	0x3c20bc3a	0.009810502
57	0xbc8d271f	-0.017230568
58	0x3c6ea0c7	0.0145646995
59	0xbd03234b	-0.03201608
60	0x3cc7fca3	0.024412459
61	0x3ca4fbc8	0.02013959
62	0xbc9ccfa4	-0.01914198
63	0xbcb3b92f	-0.021938888
64	0xbcaf469c	-0.021395974
65	0x3be4092f	0.0069591026
66	0xbbcc084d	-0.0062265755
67	0xbb496831	-0.003073227
68	0xbc7733d1	-0.015088038
69	0xb934bbd5	-0.0001723611
70	0x3ca63d6d	0.020292962
71	0xbc385f7b	-0.011253233
72	0xbcd7f7c7	-0.026363267
73	0x3ccea85b	0.025226763
74	0x3cf09e48	0.02937235
75	0x3c6d62a4	0.01448885
76	0x3c32062e	0.010865731
77	0xbcd4de21	-0.025984826
78	0x3d006bc7	0.031352784
79	0xbc63c3c0	-0.013901651
80	0xbbaaf53b	-0.005217222
81	0x3c3a5a4c	0.0113740675
82	0xbcd353b5	-0.02579675
83	0xbc112ccf	-0.008860781
84	0x3cbe075b	0.023196867
85	0x3cb81a06	0.022473346
86	0xb97b366f	-0.00023957503
87	0xbaccfd63	-0.001563948
88	0xbb76358d	-0.003756854
89	0xbccba2db	-0.024857929
90	0xbacb7846	-0.0015523515
91	0x3c5fcc23	0.01365951
92	0xbb909a67	-0.0044129374
93	0xbd17b44f	-0.03703719
94	0x3b3379ba	0.0027385787
95	0xbb342780	-0.0027489364
96	0xbc001301	-0.007817031
97	0x3d08cd5f	0.033398982
98	0x3c9892fd	0.018624777
99	0x3cb1884f	0.021671442
100	0xbc3f56a2	-0.01167837
101	0xbb0b2909	-0.0021234176
102	0xbac8594f	-0.0015285405
103	0x3c9479f2	0.018124554
104	0xbd04c49d	-0.032414068
105	0x3adf0b1d	0.0017016862
106	0xbc8c5233	-0.01712904
107	0x3cead8c0	0.028667808
108	0xbc87b1a3	-0.016564196
109	0xbd298d48	-0.041394502
110	0xbc924453	-0.017854845
111	0x3c8b61a0	0.017014325
112	0xbd0f0d21	-0.03492463
113	0xbb464abe	-0.0030256952
114	0xbd2f19f2	-0.042749353
115	0x3ca682b6	0.020326
116	0xbce0b24f	-0.027428774
117	0xbc09fbc1	-0.008421839
118	0xbb176794	-0.002310251
119	0xbcbe94f8	-0.023264393
120	0x3c6df1e2	0.014523001
121	0xbd16900f	-0.03675848
122	0xbb9fcc39	-0.00487664
123	0xbce513df	-0.027963577
124	0x3b9c8b81	0.0047773723
125	0xbcb3e907	-0.021961702
126	0x3c42710d	0.011867774
127	0x3c29a6db	0.010354723
128	0x3d30e004	0.043182388
129	0xbcfca6c8	-0.030841246
130	0xbcccb4e1	-0.024988594
131	0x3c53cc48	0.012927122
132	0xbc138e33	-0.009006071
133	0xbc8dfdfb	-0.017333021
134	0x3caa5082	0.020790342
135	0xbca82385	-0.02052475
136	0x3b830a97	0.003999065
137	0xbc8cb5c8	-0.017176524
138	0xbb298b80	-0.0025870502
139	0x3b885a47	0.0041611525
140	0xbd13564c	-0.03597097
141	0x3c24404e	0.010025097
142	0xbd01e42c	-0.031711742
143	0x3ab357d7	0.0013682795
144	0xbcbbd937	-0.022930725
145	0xbd241495	-0.04005869
146	0xbcb420d8	-0.021988317
147	0xbd0e051c	-0.03467284
148	0x3c1e179c	0.009649184
149	0xbcf040fb	-0.02932786
150	0x3c24c1b3	0.010055947
151	0xbc60496d	-0.013689381
152	0xbc006850	-0.00783737
153	0x3cb327f8	0.021869645
154	0x3c88abcd	0.016683483
155	0x3cd6fbfe	0.026243206
156	0x3c8e1f9d	0.017349059
157	0x3ce4b85a	0.027919937
158	0x3d05ea59	0.032694194
159	0xbc815c1b	-0.01579099
160	0x3c928f41	0.017890574
161	0x3d0dd8cc	0.03463058
162	0x3b5ced28	0.0033710692
163	0xbc7b1c72	-0.015326606
164	0xbc6c4311	-0.014420287
165	0x3c4446e3	0.011979791
166	0x3bbda015	0.0057869055
167	0x3ad8d641	0.0016543345
168	0xbce8f8fb	-0.028439036
169	0xbc0488ab	-0.008089225
170	0xbcc56d86	-0.024100076
171	0x3c619022	0.013767274
172	0x3d0a7001	0.03379822
173	0xbba0f635	-0.0049121627
174	0xbb8e06d9	-0.0043343124
175	0x3c3d0973	0.011537897
176	0x3d0f1025	0.034927506
177	0x3d14f9fc	0.036371216
178	0x39b743b2	0.00034954917
179	0x3ca4321f	0.02004343
180	0x3d058ce2	0.03260506
181	0x3bb09da8	0.005389888
182	0x3c14aa16	0.009073755
183	0xbc25d1e6	-0.0101208445
184	0x3d0bff5d	0.03417908
185	0x3cafd6ae	0.021464672
186	0xbc3afea3	-0.011413249
187	0x3cfe57de	0.031047758
188	0xbcbf1e91	-0.023330005
189	0xbcd02597	-0.02540855
190	0xbd0182e3	-0.031618964
191	0xbc7ba8a1	-0.0153600285
192	0x3c701555	0.014653523
193	0x3af9fe31	0.0019072947
194	0x3cd937a6	0.026515793
195	0x3d07ab65	0.03312244
196	0x3cf9ffec	0.03051754
197	0xbc96f186	-0.018425714
198	0xbc6655db	-0.0140585555
199	0x3ad1d805	0.0016009813
200	0x3cafacd5	0.021444717
201	0xbc5e378d	-0.013563049
202	0xbcd50997	-0.02600555
203	0x3b4b1504	0.0030987868
204	0xbcb5eecc	-0.022208594
205	0xbce7a993	-0.028279101
206	0xbbb99dce	-0.0056645637
207	0xbcfaf299	-0.030633258
208	0x3bfc36df	0.007696971
209	0xbc59f2a4	-0.013302479
210	0x3c8fc572	0.017550204
211	0xbcb4f395	-0.022088805
212	0xbc6eb86c	-0.014570337
213	0x3c6cc3c0	0.014450967
214	0x3a07afa9	0.0005176017
215	0xbc64d8f4	-0.013967741
216	0x3b54e9e2	0.0032488038
217	0xbc11be8c	-0.008895528
218	0xbcf9d8e6	-0.030498933
219	0x3d00f883	0.031487
220	0xbccd7e8d	-0.025084758
221	0xbcf11567	-0.02942915
222	0xbceedf78	-0.029159293
223	0x3aafc67a	0.0013410591
224	0xbc287b0e	-0.010283245
225	0xbc8b8d7c	-0.017035238
226	0xbc6765e1	-0.014123411
227	0x3bb3d925	0.005488532
228	0x3cb5c559	0.02218883
229	0xbb443e62	-0.002994441
230	0xbad8e2c9	-0.001654708
231	0x3d1d00d5	0.03833087
232	0x3bcb7989	0.0062095565
233	0xbcebff2d	-0.0288082
234	0xbc4439e4	-0.011976693
235	0x3d12b964	0.035821334
236	0x3c638f71	0.01388918
237	0xbcf5a200	-0.029984474
238	0x3a5ecadb	0.0008498856
239	0x3cf9e739	0.030505763
240	0xbcb6859a	-0.022280503
241	0xbd19a070	-0.03750652
242	0xbce459c7	-0.02787484
243	0xbc36873c	-0.011140641
244	0x3ce5d83f	0.028057216
245	0x3cf5fd55	0.030028025
246	0x3d112190	0.0354324
247	0x3c77e633	0.015130567
248	0x3c42c993	0.011888879
249	0xbd0689ff	-0.032846447
250	0xbcde8278	-0.027161822
251	0xbbe820f1	-0.007084005
252	0xbca3a1d0	-0.01997462
253	0x3d0beef0	0.034163415
254	0xb9f6d8bf	-0.00047082265
255	0xbb8cd682	-0.0042980323

net.4.bias f4 [3]
0	0x3bba9a37	0.0056946534
1	0x3cbe9f0e	0.023269203
2	0x3b7c00e5	0.0038452682
