checkpoints/srcnn_epoch9_2025-03-20_23-02-04.pth (torch, 280002 bytes, 6 tensors)

net.0.weight f4 [64, 3, 9, 9]
000000 b5 18 01 3d 10 0d a6 bc e0 21 fb 3c 96 22 4c 3d
       0.031517703 -0.0202699 0.030655801 0.04983767
000010 15 8e 65 bd f1 64 8b 3c 26 50 08 3d 2c dc b0 bc
       -0.056043703 0.017015906 0.03327956 -0.021589361
000020 46 4c e2 bc 63 d9 30 3c 88 82 28 bd fe f8 d0 bc
       -0.02762426 0.0107940165 -0.04114011 -0.025509354
000030 fd 5b 52 ba 91 88 05 bd 6f 71 13 3a 29 a4 71 3d
       -0.00080245716 -0.032600943 0.0005624508 0.058994446
000040 fd 8b 8e 3d b1 f0 5b bc 62 87 32 bd 10 f0 0d bc
       0.069602944 -0.0134240845 -0.043586142 -0.008663192
000050 d4 06 00 3b 26 ef 67 3d b7 c8 80 bc 6e d2 15 bd
       0.001953532 0.056624554 -0.015720708 -0.036577635
000060 75 5c 7c 3d e9 2b 02 3d 74 1b 76 3d d0 97 bb 3c
       0.06161161 0.031780157 0.060084775 0.022899538
000070 b0 00 1a bd 9b 7c 76 bd 38 13 5d 3d df b1 38 bd
       -0.037598312 -0.060177427 0.053973407 -0.045091506
000080 b9 d7 66 bc b3 be 2e bd 86 e3 83 3d c2 00 4f bd
       -0.014089518 -0.042662334 0.06439881 -0.050537832
000090 35 00 40 bc 02 b0 5c 3a 70 46 c8 bb e7 23 cd bc
       -0.011718799 0.0008418561 -0.0061119124 -0.025041534
0000a0 b3 f8 7b bc ac 45 86 3d b0 7a f1 bc f4 23 ed bc
       -0.015379119 0.065562576 -0.029477447 -0.028947808
0000b0 f6 da 24 3d b9 76 8c 3d 4c 6e 59 bd e5 99 0b 3d
       0.04024788 0.06858582 -0.053083703 0.034082312
0000c0 7e 4e 54 3c 90 c7 bb 3c c2 8b de bb b2 07 83 bc
       0.012958167 0.022922307 -0.006791563 -0.01599488
0000d0 a4 f9 5b bd 96 71 75 3d 3c 45 80 3d 3d c5 e2 bc
       -0.053704873 0.059922777 0.062632054 -0.027681941
0000e0 9c e3 8a 3d 07 47 14 bd d3 08 43 3d 9b d3 8e 3d
       0.06781694 -0.03620055 0.047615837 0.06973954
0000f0 fc ee 1f 3c 5b 01 7d bb 2e e1 69 3c c2 88 1c 3d
       0.009761568 -0.0038605544 0.014274878 0.03821636
000100 76 99 87 3d 99 45 21 bc ea 83 83 3d 30 b1 5c bc
       0.06621067 -0.0098432535 0.06421645 -0.013469979
000110 d8 8f af bc 6d 06 03 3d c6 f1 1b bd 0d 8f 46 bb
       -0.021430895 0.03198855 -0.03807237 -0.0030297667
000120 5c 34 df bc c4 d0 2f bd 23 3c 23 bd 4d a3 41 bd
       -0.027246647 -0.042923704 -0.039852273 -0.047274876
000130 cc e5 37 3d 55 6b 24 bc 30 07 63 bd fb c9 a2 3c
       0.044896886 -0.010035356 -0.055426776 0.019871702
000140 42 50 df bc 15 64 07 bd f9 67 8c bc e9 3a 16 bd
       -0.02725995 -0.03305443 -0.017139422 -0.036677275
000150 fc 76 8e 3c 06 9f 5f bd 0f 5a 6c 3c 73 60 2d bc
       0.01739072 -0.054595016 0.0144257685 -0.010582077
000160 82 27 b0 bc 8b 02 4b 3d 10 ce 66 bc 8f a4 47 bd
       -0.021503214 0.049562972 -0.014087215 -0.04874092
000170 f3 ae d5 3b 84 17 60 bd 99 d8 55 bd fe 4e b9 bc
       0.0065210997 -0.054709926 -0.052208517 -0.022620674
000180 58 5c 14 3d fa e6 07 3c d4 d1 17 3c 67 22 88 3d
       0.03622088 0.008294815 0.0092663355 0.06647187
000190 cd 18 3e 3d 6c 96 88 3d ff 35 57 bd 60 fc 56 ba
       0.04641037 0.06669316 -0.05254173 -0.0008201059
0001a0 f8 1b 58 3d fe 6f 27 bd 57 52 57 bd 47 12 fb 3c
       0.052761048 -0.04087829 -0.05256876 0.030648364
0001b0 60 aa 44 bd 4b cd b5 bb 24 ea 42 bd d1 3b ba bc
       -0.048014045 -0.0055481545 -0.047586575 -0.0227336
0001c0 1b 1b 27 3d 98 df ef 3c 1d fd 28 3c 37 a2 80 bc
       0.040797334 0.029281422 0.010314253 -0.01570235
0001d0 52 61 62 bd f9 eb 23 3d 54 f1 03 3d 9d 3a 5a bc
       -0.055268593 0.040019963 0.03221257 -0.013319639
0001e0 e6 c7 45 bd 98 da 5a 3d 11 51 59 bd a5 67 69 3d
       -0.04828634 0.053431123 -0.053055827 0.05698361
0001f0 5c e8 f3 bc 9b 96 42 bc fb 76 0a bd 95 db c1 bc
       -0.029773884 -0.011876727 -0.033804875 -0.023664275
000200 03 fd 21 bd 85 86 da bc 41 da 3e 3d f2 12 1c bd
       -0.03954793 -0.026675472 0.046594862 -0.038104005
000210 c4 a8 0f 3b 81 7b ee 3c 67 76 43 3d 65 03 23 bd
       0.002192066 0.029111626 0.04772034 -0.03979816
000220 5e f8 b1 bc 58 d6 3e bc b5 f8 72 3d 0a 0b 2c bb
       -0.021724876 -0.011647783 0.059319217 -0.0026251697
000230 1e 1a 6d 3d 74 37 28 3c 98 42 15 bd ba 13 48 bd
       0.057886235 0.010267127 -0.036440462 -0.048846938
000240 fa 20 3c 3d 57 f2 47 3d 78 4e 11 bc 74 6e 66 bd
       0.045929886 0.048815098 -0.008868806 -0.05625768
000250 41 05 99 3a 88 d1 fe bc d2 6d 1b 3d 4d a1 65 bd
       0.001167454 -0.031105772 0.03794653 -0.05606203
000260 56 0f a0 3c 21 12 70 3a 4d 62 ec bb 8f 42 45 bd
       0.019538563 0.0009157975 -0.007213867 -0.04815918
000270 06 fd 35 bd a3 e3 5c 3d 7c 3c 2d bd 07 e0 bf bc
       -0.044430755 0.05392803 -0.04229401 -0.023422254
000280 83 2b a6 bc 71 d2 7d 3c d1 c7 1a bd e1 98 d0 3c
       -0.02028442 0.015492068 -0.037788216 0.025463523
000290 62 66 b3 3c b1 b4 fe bc ba 95 0d 3d 0c b9 91 bb
       0.021899406 -0.03109202 0.03456662 -0.004447108
0002a0 70 70 22 3d 99 f1 20 bc 83 d7 04 bd bf 07 89 3d
       0.03965801 -0.009823226 -0.03243209 0.066909306
0002b0 84 65 51 bd bd 05 c8 bc 81 54 5f bd bb 64 78 3d
       -0.051122203 -0.024416799 -0.05452395 0.06064294
0002c0 e9 26 23 bd 65 f5 05 3d 53 6a 58 bd fe 54 14 3d
       -0.03983203 0.03270473 -0.052835774 0.036213867
0002d0 19 3f 08 3d bf c9 78 3d 37 bc 22 bd 78 ec 9b 3c
       0.0332633 0.060739275 -0.039730277 0.019033656
0002e0 b2 69 92 3d 18 73 87 3d 02 05 8a 3d 70 a9 15 3d
       0.07149066 0.06613749 0.067392364 0.03653854
0002f0 00 47 40 bc d3 9a 4e 3c 9b 89 40 bd fd 49 1e bc
       -0.011735678 0.012610155 -0.04700623 -0.009661195
000300 86 75 5a 3c a9 55 62 3d 9c 7a f8 bb 78 13 52 3d
       0.013333684 0.055257473 -0.0075829756 0.051288098
000310 af 76 79 3d b7 e2 e0 3c 32 ed 7b 3d 81 3c 82 3d
       0.0609042 0.027451856 0.061505504 0.063591965
000320 bd f5 a6 3c eb 0d 4b 3d ac 25 11 bc d8 ec 8e bc
       0.020380849 0.04957382 -0.008859079 -0.01744692
000330 e0 22 b3 3c c8 c5 51 3c c1 c8 39 bc 70 4c 67 bd
       0.021867216 0.012803502 -0.011339367 -0.05646938
000340 a0 7e 5b bd 98 ac c7 bc 12 e8 54 bd 7e b6 46 3c
       -0.053587556 -0.024374291 -0.051979132 0.01212847
000350 25 48 51 bd 54 56 93 bc cb e1 a6 bc 74 14 07 3d
       -0.051094193 -0.0179855 -0.020371338 0.03297849
000360 c4 28 8d 3c db f1 90 3c 5e e6 14 3c 2e 43 e8 bc
       0.017231353 0.01769345 0.009088127 -0.028352346
000370 32 09 67 3d 9c e3 2a 3d 5b a8 7a 3d 01 76 fb bc
       0.056405254 0.04172097 0.061195713 -0.030695917
000380 33 1d de bc 06 a8 76 3d d5 4e 60 bd 87 a3 0e 3d
       -0.027113533 0.060218833 -0.05476268 0.03482392
000390 28 b9 16 bc 9f a1 66 bd 5c a6 69 bc 44 5c 96 bc
       -0.009199418 -0.056306478 -0.014260855 -0.018354543
0003a0 be 2e 7e bc 25 53 44 bd dc 2e 1b bd 08 76 f9 3c
       -0.015514074 -0.047930855 -0.037886485 0.03045179
0003b0 85 10 3b 3d 96 bc 2b bc f6 6f 84 bc c7 86 6b ba
       0.04567005 -0.010481974 -0.016166668 -0.0008984622
0003c0 0f 6b 40 3d 0e a5 5e bd f1 8f 2d 3d ae 35 a3 3c
       0.0469771 -0.054356627 0.0423736 0.019923057
0003d0 fe 59 50 bd 6b d5 39 3d 10 4a 7f 3d e7 05 1f 3c
       -0.050867073 0.045369547 0.06232649 0.009705997
0003e0 9d a8 51 bc ee 9b 71 3d 48 4a 37 bd 32 ca 8d bc
       -0.012796548 0.058986597 -0.044748574 -0.017308328
0003f0 9e 2d f4 bb 50 bc 1c bd 7e e2 ab 3c be 9c b3 36
       -0.007451727 -0.038265526 0.020982023 5.352863e-06

net.0.bias f4 [64]
000000 a3 8c 6f 3d a2 80 a7 3c c4 96 69 3d a0 d7 84 3c
       0.05848373 0.02044708 0.057028547 0.0162161
000010 b8 3f 63 3d dc 1a 2a 3d 34 9c f8 3c ee 45 d1 3c
       0.05548069 0.04152952 0.030347921 0.02554604
000020 62 4b 32 3d ac ad 4e bd 04 79 9f 3c d2 21 cb bc
       0.043528922 -0.050458595 0.019466884 -0.0247964
000030 69 28 06 bc b1 77 ff 39 4b 18 17 bd 9f 4d 21 bc
       -0.0081883455 0.00048726567 -0.036888402 -0.0098451665
000040 64 4b 2a bd c2 bd 82 3a bd e7 60 3a f9 5e 21 bd
       -0.041575804 0.0009974765 0.00085794536 -0.039397214
000050 c7 e3 35 bd a5 12 06 3d b7 df 7a ba 37 69 65 3c
       -0.04440668 0.032732625 -0.0009570079 0.014002136
000060 7b 51 20 3d f5 22 fe 3b 99 84 03 bd 1c 32 4b 3c
       0.039140206 0.007755632 -0.032108877 0.012402084
000070 57 14 4c 3d db 62 54 3c 68 aa 5f 3d ef 02 84 3c
       0.049824085 0.012963022 0.05460587 0.01611468
000080 14 35 aa bc c7 50 a1 3c 06 aa 62 bd 87 d4 de bc
       -0.020777263 0.019691838 -0.05533793 -0.02720095
000090 96 99 10 3d db e4 ed 3c bd e2 5c 3d dd a5 28 3d
       0.03530272 0.02903979 0.053927172 0.041173805
0000a0 05 a4 04 3c 82 81 f0 bb 6d 0f 0d bd 08 4a 47 bd
       0.008095746 -0.0073396573 -0.03443854 -0.048654586
0000b0 f2 ba e9 bc 61 87 80 3d 7c c8 12 bd ec a6 81 3d
       -0.028531525 0.062758215 -0.035835728 0.06330666
0000c0 e6 08 e1 bb 6a 77 18 3d 06 e4 6e bd 3d cf 42 3d
       -0.006867516 0.037223257 -0.05832293 0.04756092
0000d0 19 34 6e bd 7d a2 1e bc ad 92 de bb 2d 58 91 3c
       -0.058155153 -0.009682295 -0.0067923875 0.01774224
0000e0 94 a3 48 3d 96 bf 48 bd 03 24 03 3c e7 b9 2a 3c
       0.048984125 -0.049010836 0.008004191 0.010420299
0000f0 93 d8 83 3d 20 8e d8 3c 7d b0 14 3d 93 fe 7c bc
       0.06437793 0.026434958 0.036301125 -0.015441555

net.2.weight f4 [32, 64, 5, 5]
000000 d0 bc 88 bb c3 17 83 3c 25 0b d8 ba 08 a6 bd bc
       -0.004172899 0.016002541 -0.0016482814 -0.023150459
000010 77 42 9d 3c 55 80 7e 3b 21 83 e8 3b 93 4a ee bb
       0.019196732 0.0038833816 0.00709571 -0.0072720735
000020 a6 39 3d 39 ad 3d 65 bb 9a 13 38 bc f8 3c ba 3c
       0.0001804592 -0.0034979389 -0.011235142 0.02273415
000030 93 3d 35 3c fe c8 c6 bc 0c bb 26 bc 4c 45 88 bb
       0.011062044 -0.024265762 -0.010176431 -0.0041586515
000040 d9 d7 16 3c 59 06 01 bc 69 49 30 3c 53 b5 b5 3c
       0.0092067355 -0.007875049 0.01075969 0.022181189
000050 db 3e 37 bc ed 81 4d 3c d9 5a 93 3c 29 82 e6 ba
       -0.0111844195 0.012543184 0.017987655 -0.0017586398
000060 db b0 6d 3c b8 6f 87 bc c4 8f c2 3c 58 34 bd 3a
       0.014507498 -0.016532764 0.023750193 0.0014435155
000070 70 5a 43 3a 29 97 a4 bc eb 65 b3 bc d3 54 6c 3c
       0.0007452136 -0.02009161 -0.021899184 0.014424521
000080 a8 77 e9 bb d7 16 9a 3c d6 76 bc bb f3 5c ee 3b
       -0.00712486 0.018809719 -0.005751471 0.007274264
000090 71 b8 59 3c 54 03 cd bc 45 53 1d bc be 36 9c 3c
       0.013288603 -0.025026001 -0.009602373 0.019069072
0000a0 03 d5 b0 bc 41 45 10 3b 2e df 73 bc 54 86 b8 bc
       -0.021585947 0.0022013935 -0.014884753 -0.02252499
0000b0 6d 37 01 3c 30 45 2c 3c 06 99 e7 bb 5c 81 d5 3b
       0.00788675 0.010514542 -0.0070678024 0.006515665
0000c0 40 7b 9e bc ac 36 89 3c 2d 8c 20 3c 91 93 95 bb
       -0.01934588 0.016749702 0.0097990455 -0.0045647104
0000d0 67 eb c7 3b e5 0b 69 bc 56 8b 4c 3b fd 50 2c bc
       0.00610106 -0.014224027 0.003121098 -0.010517356
0000e0 d6 28 be 3c 15 10 64 bb 77 c7 22 3c f8 14 8c 3a
       0.023212831 -0.0034799625 0.009935251 0.0010687402
0000f0 0c 9f 9c 3b a2 15 2c bc 3c 88 70 3c 11 4f bc 3c
       0.004779702 -0.010503205 0.014680918 0.02298692
000100 0e 15 27 bc e0 35 df 3b ad e1 b9 bb 2b f2 c7 3b
       -0.010197891 0.0068118423 -0.0056726546 0.0061018667
000110 86 cc 08 bc ae 97 05 bb ad 89 b3 3c 24 98 06 ba
       -0.008349543 -0.0020384598 0.021916235 -0.0005134365
000120 ed e3 97 3b 82 69 99 bb 7c 41 a7 3c 24 5c 82 bb
       0.004635325 -0.004681767 0.020416968 -0.003978269
000130 38 82 69 3c ff 5f e6 bc 37 14 48 bc a7 c9 8a bc
       0.014252238 -0.028121946 -0.012211851 -0.016941858
000140 1e 4d 98 3b ae 35 83 3c 4a b1 f1 bc e5 43 4d bc
       0.004647865 0.016016807 -0.029503483 -0.012528394
000150 b5 a3 52 bc af 52 f0 bb b9 e0 eb bc e5 33 76 3c
       -0.012856414 -0.0073340754 -0.02879368 0.015027021
000160 d7 b4 c1 3a d5 ec 94 bc 14 51 90 3c 9c ba 70 bb
       0.0014778626 -0.018179337 0.017616786 -0.0036732322
000170 75 b3 7e bc 2b 98 5a bc fb 01 11 bc d5 7e ce bc
       -0.015545716 -0.013341944 -0.00885057 -0.025206963
000180 f8 bb 0f bb ed a7 9d bc b7 fb 3a 3c a8 b3 3f 3c
       -0.0021932106 -0.019245112 0.011412553 0.011700548
000190 5b 80 1b 3c 8d e4 be 3c 27 5f 94 3c 13 3d 83 bc
       0.009491052 0.02330234 0.018111778 -0.016020333
0001a0 66 e9 f6 3b d6 9e b0 bc 16 a7 19 ba 84 cf 98 ba
       0.0075351475 -0.021560114 -0.00058613846 -0.0011658524
0001b0 62 fc ac bc 2f c6 91 3b 13 b6 89 bb ea 8b b6 bc
       -0.02111644 0.004448674 -0.004202613 -0.022283513
0001c0 db 9a 0f ba bd f8 b0 3c 0d 54 a7 3c 66 b4 ab bc
       -0.00054780924 0.021602983 0.02042582 -0.020960044
0001d0 56 3b 32 3c a4 60 9e bc b6 34 c0 3c 6e 69 c3 3c
       0.010878405 -0.019333191 0.023462635 0.023853984
0001e0 24 64 b3 3c 00 75 44 bc 9e 17 d3 bb 04 a3 a8 bb
       0.021898337 -0.011990786 -0.0064420244 -0.005146386
0001f0 b6 32 92 3c c3 c8 c9 bc a9 d5 bf bc bd 8e 9d 3c
       0.017846446 -0.024631863 -0.02341731 0.019233102
000200 24 9f d2 bc 35 5c 32 bc 20 1a b7 3b da e3 61 3a
       -0.02571065 -0.010886242 0.005587831 0.00086170214
000210 23 08 c5 bc b9 36 16 3c 8a a8 90 bc 2f 65 4e 3c
       -0.024051731 0.00916832 -0.01765849 0.012597366
000220 0e 16 be 3c a5 f7 93 3c 0c 32 95 3b 29 d5 bb 3b
       0.023203876 0.018062422 0.004553085 0.005732198
000230 b5 e5 a1 bc ca 1c 95 bc 24 a8 f1 3b 53 6a d3 bc
       -0.019762853 -0.018202204 0.0073747803 -0.025807535
000240 8c 2c 89 bc 04 c6 b8 3c 81 20 bb 3c 21 07 c5 bc
       -0.016744874 0.022555359 0.022842648 -0.02405125
000250 52 0e 19 bc 9f 92 4e 3b fd 21 9a 3c 40 69 d4 3b
       -0.009341793 0.0031520498 0.018815035 0.0064822733
000260 7d 06 a9 bc 62 da c0 3c ad 36 43 bc d4 a7 2f bc
       -0.020632977 0.023541633 -0.011914891 -0.010721166
000270 dc 9e 48 3c 7e 1f 53 3c cd 94 1f bc b9 2f ba 3b
       0.012244906 0.012885926 -0.009740067 0.0056819585
000280 01 7c b8 bc 74 ea c3 bc 58 52 89 bc ee e7 b3 bc
       -0.022520067 -0.023915507 -0.016762897 -0.021961179
000290 93 77 6f bc 35 48 ba bb 32 fb 85 bc 0e 3e bf bc
       -0.014615911 -0.0056848773 -0.01635513 -0.02334502
0002a0 0e eb 1e 3c c0 f7 b7 bc 84 af 6c 3c 35 c8 03 3c
       0.009699596 -0.022457004 0.014446143 0.008043339
0002b0 fa 72 d6 bc c4 2b ab bc 8c da b0 3c 2a b8 84 bc
       -0.026177872 -0.020894893 0.021588586 -0.016201098
0002c0 bd 89 a1 3c 27 a0 9e 3c 18 5d ba 3c 0a d0 9d 3b
       0.019718999 0.019363476 0.022749469 0.00481606
0002d0 32 a1 96 3c 2e 52 6c bb 14 ab 9c bc f1 2c b0 bc
       0.01838741 -0.0036059725 -0.019124545 -0.021505805
0002e0 6d b5 0e bc 09 85 68 bc 3c 34 4f 3c 0b 2c 70 3c
       -0.008710247 -0.014191874 0.012646731 0.014658938
0002f0 41 e0 ad bb f1 ea 7b 3c 44 94 7b 3c 8f 73 ed ba
       -0.005306274 0.015375839 0.0153551735 -0.0018116104
000300 29 b4 80 bc 73 a9 0e 3a aa 17 ad 3b 2e a4 f6 bb
       -0.015710907 0.000544212 0.005282362 -0.007526896
000310 a4 dd 82 3c 67 31 0e bc 0d c3 c6 3b 3d 7b b8 3c
       0.015974827 -0.008678771 0.0060657323 0.022519702
000320 fb 51 c0 bc 8f 33 2e bc 01 90 27 bc 7e 03 92 3c
       -0.023476591 -0.01063241 -0.010227204 0.01782393
000330 ad 0b 36 3b 92 85 81 bc 6d ee 87 3c cd 98 ec 3a
       0.0027777955 -0.015810762 0.016593182 0.0018050909
000340 e9 ee 18 bc 81 a7 09 3b c6 66 0b 3b f7 86 aa bb
       -0.009334304 0.002100438 0.0021270975 -0.0052040773
000350 78 4b 06 ba 16 d6 5e 3c 13 92 de bb 13 8a ec 3b
       -0.000512294 0.013600847 -0.0067923157 0.007218608
000360 d7 cf 48 bb 20 06 e4 bb c3 02 f5 3b 2a 31 a4 3b
       -0.003064146 -0.006958738 0.007477136 0.0050107436
000370 7f 80 e4 bb ff e9 77 3c e7 a5 85 bc 23 e5 8a 3c
       -0.0069733257 0.015131473 -0.01631446 0.016954964
000380 bb c5 e2 3b 15 9f 99 3c 59 ce 71 3b 0f 3d 81 3c
       0.006920544 0.018752614 0.0036896674 0.015776185
000390 85 93 51 bb 49 4e 2b bc b8 28 bf 3c 2c 66 d2 bc
       -0.0031978798 -0.010455676 0.023334846 -0.025683485
0003a0 b4 34 0e bc 15 99 d2 bb 71 04 b9 3c 3c 33 7a bc
       -0.008679558 -0.00642694 0.022585126 -0.015271004
0003b0 24 90 98 bc 97 9d c1 bb ba f9 18 ba 99 0a 9f bc
       -0.01862342 -0.0059086788 -0.0005835552 -0.019414233
0003c0 9f b1 a9 bb 39 12 c7 3b e1 51 2a 3c 00 72 0d bc
       -0.005178645 0.0060751704 0.010395498 -0.008633137
0003d0 87 ef 29 bc 9f f6 22 bc be f8 8b bb b4 2f 87 3c
       -0.010372049 -0.009946494 -0.0042715957 0.016502239
0003e0 38 21 b3 3c 0c 22 7c 3c a6 cc e4 3b 94 7c 99 3c
       0.021866426 0.015388977 0.006982404 0.018736161
0003f0 68 b2 2c bb 7c 74 1e 3c 46 b9 88 3c e4 38 ce ba
       -0.0026351456 0.009671327 0.016689908 -0.0015733507

net.2.bias f4 [32]
000000 29 cc 7f 3b ce 1f ac 3c 38 ee 89 3b 60 c4 37 3c
       0.00390316 0.02101126 0.004209306 0.011216253
000010 33 17 1a 3c 94 3c 6a bc 67 1b 40 bc 54 1d cc 3b
       0.009404945 -0.0142966695 -0.011725283 0.006229082
000020 a1 55 3d 3b 1a 90 82 bc cb 13 56 bb 0f d2 ad 3b
       0.002889015 -0.015937854 -0.0032665606 0.005304582
000030 2f 42 19 3c 05 cc f6 bb af a3 8a bc da 77 9e 3c
       0.009354158 -0.0075316452 -0.016923754 0.019344259
000040 0d 1b e1 bb a9 78 23 3b 77 d0 b6 3c df 45 93 3c
       -0.00686968 0.0024943745 0.0223162 0.017977653
000050 b3 7d 81 3c 12 a6 8d bc 24 7e 94 bc d9 05 b1 3c
       0.015807008 -0.017291103 -0.018126555 0.021609234
000060 82 4e 71 3c 7e 56 af ba 89 3c 99 bc b2 77 b5 3c
       0.01472819 -0.0013377217 -0.018705623 0.022151802
000070 46 3c 9a 3a 8f 40 b9 bc 63 37 28 3c 71 f0 ae bc
       0.001176723 -0.022613792 0.0102671115 -0.021354886

net.4.weight f4 [3, 32, 5, 5]
000000 07 8f d0 3c c0 84 0b bd 75 52 e2 bc b6 62 5b bc
       0.025458826 -0.034062147 -0.02762721 -0.013390234
000010 f3 49 f2 bc db 7c 8a 3c 56 c4 4a bc 24 46 e7 3b
       -0.029576277 0.016905239 -0.012375912 0.007057922
000020 36 83 f6 bc 23 8d b9 3c 19 43 5d 3c b7 7a 9c bb
       -0.030091863 0.022650307 0.013504767 -0.004775371
000030 3f 84 09 bd ad 80 33 3b a6 d4 97 bc ff ee 6c bc
       -0.033573385 0.002738993 -0.018534016 -0.014461278
000040 fb 91 e4 bc f3 09 e8 3b 19 3d 89 3c 13 79 25 bc
       -0.02790164 0.007081264 0.016752766 -0.010099667
000050 89 f3 0a 3d ac d3 12 3d dc 4e eb 3c a7 a7 89 bc
       0.03392366 0.035846397 0.028724127 -0.016803576
000060 b9 45 b1 3c ae 2e f2 3c 23 1d c8 3c e2 40 5e bc
       0.021639692 0.029563274 0.024427956 -0.013565274
000070 19 60 08 3d 84 4a 93 3c 1e 60 b5 ba f9 8c ab bc
       0.03329477 0.017979868 -0.0013837849 -0.020941244
000080 63 00 0a bd 40 7a 07 bd 45 3f ff 3c 6e ee d4 3c
       -0.033691775 -0.03307557 0.031158099 0.025992598
000090 4d 42 f0 bc 76 2b e6 bc 6d 69 8a bc cd 9e 04 bd
       -0.02932849 -0.028096896 -0.016895974 -0.032378007
0000a0 75 18 77 3c c3 a8 c4 bc 3a ed 91 bc fc ab ed bc
       0.015081515 -0.024006253 -0.017813314 -0.029012673
0000b0 f1 56 0d 3b 63 2f ea 3c d8 12 32 bc 04 89 0a 3d
       0.0021566714 0.028587049 -0.0108687505 0.033822075
0000c0 ae 42 44 3c c3 b7 89 bc 50 1f 84 3b 98 5e 43 bb
       0.011978788 -0.016811257 0.004032053 -0.002981102
0000d0 96 1f bb bc cd 1d c3 3c e4 c6 b3 3c ca 75 65 3c
       -0.02284221 0.023817921 0.021945424 0.014005134
0000e0 8c be 23 3c bb 06 87 bc 5e 93 68 3c 97 8e ff bc
       0.00999416 -0.016482702 0.014195291 -0.031195922
0000f0 8d 0e c6 3c a7 5d a6 3c d8 bb 98 bc 76 65 b6 bc
       0.02417686 0.020308329 -0.018644258 -0.022265177
000100 b8 22 ac bc 22 ee f3 3b a5 1f a9 bb 92 f2 0a bb
       -0.021012649 0.007444159 -0.005161243 -0.0021201712
000110 85 b3 78 bc 81 22 77 b9 7d 8a a4 3c 53 7e 32 bc
       -0.01517952 -0.0002356861 0.020085568 -0.010894376
000120 00 f6 ce bc 55 33 ce 3c 39 9d ed 3c 79 3e 85 3c
       -0.025263786 0.025170961 0.029005634 0.01626514
000130 40 11 58 3c 01 10 cf bc d3 80 02 3d 4e 3d 6d bc
       0.0131877065 -0.025276186 0.031861138 -0.014479948
000140 04 08 8f bb 43 b9 55 3c 5f 46 cb bc a9 6c 19 bc
       -0.004364969 0.013044658 -0.024813829 -0.0093642855
000150 f3 65 b4 3c 28 52 bd 3c ac 20 b7 37 b2 b2 e9 ba
       0.02202127 0.023110464 2.1830514e-05 -0.0017829745
000160 57 16 4a bb 8d 96 d0 bc 8f 55 9e 39 67 c1 7a 3c
       -0.003083607 -0.025462413 0.00030199855 0.0153049
000170 3c ba 4d bb 13 30 0a bd e5 d6 21 3b 8d 27 b1 ba
       -0.0031391522 -0.033737253 0.0024694738 -0.0013515815
000180 04 52 d7 bb 60 a6 07 3d 6f b7 a0 3c 2c 23 a4 3c
       -0.0065710563 0.033117652 0.019618718 0.020036303
000190 97 2a 28 bc 0a a0 80 ba d6 08 ca ba 2e 89 aa 3c
       -0.01026406 -0.000981332 -0.001541401 0.020817365
0001a0 33 95 f1 bc 95 69 12 3b 09 22 87 bc 69 c4 f1 3c
       -0.029490089 0.0022340764 -0.016495721 0.029512601
0001b0 07 c5 6c bc 4b 91 1e bd 39 d4 94 bc 33 32 92 3c
       -0.014451272 -0.03871278 -0.018167602 0.017846202
0001c0 c7 d6 0b bd 2b 73 86 ba e4 b9 23 bd a7 34 b3 3c
       -0.034140375 -0.0010257711 -0.0399722 0.021875693
0001d0 18 7c c2 bc 6b 2c fd bb ef d9 fc 39 f5 fb 9f bc
       -0.023740813 -0.0077262423 0.0004822756 -0.019529322
0001e0 9b 81 88 3c 8e b6 08 bd 85 b8 9a bb bf a9 d8 bc
       0.016663363 -0.033377223 -0.0047217035 -0.026448129
0001f0 5e af ed 3b 08 00 0f bc 34 9e a4 3c 73 f3 83 3c
       0.0072535714 -0.008728035 0.020094968 0.016107297
000200 f1 f4 11 3d 2c 51 c5 bc 2f 6b 94 bc 90 d6 6c 3c
       0.035633985 -0.024086557 -0.018117515 0.014455453
000210 18 25 29 bc 5c 05 fd bc 4d fa b1 3c de eb 70 bc
       -0.010323785 -0.030886345 0.021725798 -0.014704673
000220 e6 01 80 3b eb 0c a4 bc 05 4b 8b bc a5 d6 9d 3b
       0.0039064763 -0.020025691 -0.017003546 0.0048168474
000230 06 4b d1 bc 17 ff 6d 3c 8d 47 f3 bc f8 ec 01 bc
       -0.02554847 0.01452615 -0.029697204 -0.007930033
000240 5e 84 89 bc c6 ec ef bc 7a 48 8a bc 43 eb 03 bd
       -0.01678675 -0.029287707 -0.016880263 -0.032206785
000250 6d 8e 81 3a d3 86 bb bc ea b8 2d 3c 40 52 55 bc
       0.0009884365 -0.022891438 0.010603169 -0.013020098
000260 2a ec fb bb 7c 89 b3 3c a0 6e 8d 3c 50 74 d2 3c
       -0.007688065 0.021916144 0.017264664 0.025690228
000270 69 f1 90 3c 7a 1c e1 3c 5c 9d 04 3d 33 3e 77 bc
       0.017693238 0.027479399 0.032376632 -0.015090513
000280 1a 3c 8e 3c 92 0e 0f 3d 3c 4f 50 3b 82 58 71 bc
       0.017362643 0.034926005 0.0031785509 -0.014730575
000290 65 70 68 bc 57 1c 50 3c 9d f4 db 3b bb 50 c7 3a
       -0.014186953 0.012702069 0.00671251 0.0015206555
0002a0 fd 80 e4 bc ed 0c 04 bc 73 fe c3 bc 6f fd 65 3c
       -0.027893538 -0.008059722 -0.023925042 0.014037474
0002b0 bb 1a 08 3d be 90 a7 bb d5 16 8b bb 74 d6 3c 3c
       0.033228617 -0.00511369 -0.004244665 0.011525739
0002c0 2c a9 10 3d ed 59 15 3d fb 6d 1f 3a 88 e1 a5 3c
       0.035317585 0.036462713 0.0006081757 0.020249143
0002d0 5b d2 05 3d e0 63 bd 3b fc 4f 12 3c 49 d6 20 bc
       0.032671314 0.0057797283 0.008930203 -0.009816715
0002e0 a8 50 0c 3d 56 4b b2 3c 37 a1 3d bc 92 50 f7 3c
       0.034256607 0.021764439 -0.011574081 0.030189786
0002f0 8e 76 be bc 2f 4c cf bc d2 f1 00 bd 82 8a 7c bc
       -0.02324989 -0.025304882 -0.031480618 -0.015413882
000300 fc c3 69 3c 9a 12 00 3b 59 50 db 3c 2c bf 07 3d
       0.014267918 0.0019542337 0.026771711 0.0331413
000310 1c 29 fc 3c 98 60 96 bc 6f 89 69 bc aa 44 b4 3a
       0.030781321 -0.018356606 -0.014253958 0.0013753374
000320 71 ed b0 3c ba af 58 bc e1 69 d2 bc 64 9f 69 3b
       0.021597596 -0.01322549 -0.025685253 0.0035647983
000330 d3 a5 b4 bc 4b 6f e2 bc a7 69 5b bb e1 01 f5 bc
       -0.022051727 -0.02764096 -0.0033479722 -0.029908122
000340 60 ce 0b 3c 43 a8 49 bc e4 d4 91 3c 5f f8 a4 bc
       0.00853309 -0.012308183 0.01780171 -0.020137964
000350 78 0d 61 bc e8 61 7d 3c 83 0f 87 3a fd 6d 5e bc
       -0.013736121 0.015465237 0.0010304305 -0.013576028
000360 86 3d 5f 3b f0 72 0b bc a4 98 eb bc 29 b1 fd 3c
       0.003406377 -0.00851129 -0.028759308 0.030968266
000370 be fa ca bc cb c2 f3 bc 0f 06 f2 bc 6e 01 2b 3b
       -0.024777766 -0.02975597 -0.029543905 0.0026093381
000380 0a 52 34 bc 44 60 75 bc 98 1c 31 bc 10 13 97 3b
       -0.011005888 -0.014976565 -0.01081004 0.0046104267
000390 fb 6c b4 3c c1 68 38 bb 32 7a 00 bb de 55 19 3d
       0.022024622 -0.002813861 -0.0019604084 0.037435405
0003a0 69 e9 b6 3b 90 85 df bc be 6a 45 bc 9b 41 0b 3d
       0.005582024 -0.027285367 -0.012049375 0.033998113
0003b0 2f 9b 49 3c e1 f9 00 bd 04 b4 9a 3a 8e f7 dd 3c
       0.012305065 -0.031488303 0.0011802916 0.027095582
0003c0 fd 73 ac bc e0 12 0f bd c0 29 e9 bc fa 09 0c bc
       -0.021051401 -0.03493011 -0.02846229 -0.0085473005
0003d0 bd ba e1 3c e6 c3 f3 3c f0 18 12 3d 1c d3 4e 3c
       0.027554864 0.029756498 0.035668314 0.012623575
0003e0 d8 2b 6d 3c 6d 23 fe bc 78 82 de bc f1 20 e8 bb
       0.014475785 -0.031022752 -0.027161822 -0.007084005
0003f0 d0 a1 a3 bc f0 ee 0b 3d 41 d9 f6 b9 82 d6 8c bb
       -0.01997462 0.034163415 -0.00047082643 -0.0042980323

net.4.bias f4 [3]
000000 6a 78 b5 3b 54 a0 be 3c 2f e0 7f 3b
       0.005538036 0.02326981 0.0039043536
