checkpoints/srcnn_epoch11_2025-03-20_23-02-04.pth (torch, 280012 bytes, 6 tensors)

net.0.weight f4 [64, 3, 9, 9]
00000000: bf4a 023d b69e a4bc 7c81 fd3c cc2f 4e3d
00000010: 8098 64bd f58f 8e3c ac9a 0a3d 0dcf aebc
00000020: dc9f e0bc 0b7f 323c 6935 28bd 23eb cebc
00000030: 383a f3b9 f366 05bd 4672 603a 686d 733d
00000040: 854a 8e3d 9386 5ebc 2b75 32bd bae0 0dbc
00000050: 1bc9 f53a 4dfe 673d 66a8 7fbc 2236 15bd
00000060: 1dfd 7c3d dd83 003d b799 743d c000 bd3c
00000070: b568 19bd 8040 77bd 73f3 5c3d 3651 37bd
00000080: 36d6 68bc 82e4 2ebd b094 833d a17f 4fbd
00000090: b7da 3dbc 2bc6 6c3a 2921 cdbb 40b5 ccbc
000000a0: 4d4c 75bc 38bb 853d 4921 f2bc f9da ebbc
000000b0: 7340 253d 9291 8c3d 8293 59bd 8bb8 0b3d
000000c0: c0a1 563c d4c3 bf3c 1579 d8bb 65a8 81bc
000000d0: ac4e 5bbd a0d0 753d 8658 803d 98df e2bc
000000e0: a668 8b3d e2f9 12bd 9052 453d 5126 903d
000000f0: 0d8e 253c 740c 82bb eada 683c f75f 1c3d
00000100: c769 873d 333f 1ebc 3420 843d 7c8c 58bc
00000110: 484e acbc fcb5 033d 1e4d 1dbd 980a 52bb
00000120: f495 dfbc 722f 30bd 10d8 22bd 898d 40bd
00000130: 4233 383d 540c 23bc 11d4 62bd afe6 a03c
00000140: 7c2a e0bc 7268 05bd 2ebf 89bc 33b7 14bd
00000150: 8298 923c c3fa 5ebd 61b9 713c 21c5 22bc
00000160: f46f acbc 341c 4d3d 005b 61bc 7d90 46bd
00000170: 54c8 e13b 799b 5ebd ff0c 56bd 8c61 b7bc
00000180: 0ca7 163d c21a 0a3c 5f24 1b3c 55a9 883d
00000190: d6e5 3e3d e5ad 883d cf09 57bd c22e 4aba
000001a0: 979e 583d f5e7 25bd 7d62 57bd 14ad fb3c
000001b0: 11fb 42bd f641 abbb 5d4a 43bd f0b4 babc
000001c0: 94e9 273d 31fd ed3c f6b2 2b3c c904 7dbc
000001d0: aa31 61bd 5866 253d e3bf 043d e1ae 5cbc
000001e0: 8c69 46bd 4ef2 5a3d 88db 5bbd 1312 693d
000001f0: 3d9f f0bc 8cd1 3cbc 2a70 09bd 9aca c1bc
00000200: e39e 22bd 2928 ddbc 7d1c 3e3d fcad 1dbd
00000210: 5eb1 0e3b d481 f03c ac6b 443d fb3d 22bd
00000220: 4761 b2bc 7a74 3fbc f6fc 713d 5dcb 35bb
00000230: 6077 6d3d 42dc 2a3c 357d 15bd 3fc3 47bd
00000240: 16a4 3c3d bc93 473d fba3 11bc 5bca 66bd
00000250: 3e0d 7f3a 1d21 febc 8ae2 1b3d a58b 66bd
00000260: fe37 a03c 9a42 903a 13d5 ebbb 0d08 45bd
00000270: e674 35bd 18a5 5c3d b117 2dbd 6bd4 bebc
00000280: d9a7 a6bc 3bf9 7f3c c93c 1bbd 4f79 cf3c
00000290: 7c41 b43c bf83 fbbc 9aca 0d3d d86a 8dbb
000002a0: 88e1 233d 1c93 20bc dec0 04bd 82a9 883d
000002b0: 10a9 51bd 1b65 c5bc 0f3b 5dbd 93e5 783d
000002c0: f8f1 21bd 2dfa 073d c4df 58bd 75c0 133d
000002d0: e074 073d a6c7 783d 9cd7 21bd 0380 9f3c
000002e0: e563 933d 2862 883d 5d2e 8b3d cd6f 153d
000002f0: 5a53 42bc 31b9 4e3c 0da0 3fbd ea7d 1abc
00000300: c670 623c 6d75 653d d6e9 efbb 9f0b 543d
00000310: eaa1 7a3d 88e0 e13c ef01 7c3d c794 823d
00000320: 0b7a a83c d36b 4c3d 0136 09bc 32b8 90bc
00000330: 5a2b b43c 18ec 563c f50f 38bc 7366 67bd
00000340: 6c8c 5bbd e36a c7bc 8a55 55bd 3b4a 463c
00000350: 7a40 52bd 271b 93bc 726e a6bc e8cb 063d
00000360: d67a 8c3c 41b8 8f3c fe0b 143c cf8b eabc
00000370: a426 663d d539 2b3d 1433 7b3d ae9f fdbc
00000380: a8ef dfbc ce0c 763d 6044 61bd eb36 0e3d
00000390: c05f 19bc bb91 67bd bf05 68bc 05bd 95bc
000003a0: c691 82bc 115d 45bd 6191 1bbd 012b f83c
000003b0: 97d5 3a3d 8cab 2abc 30d9 84bc 213b 5eba
000003c0: 038c 403d 86ea 5fbd 26e8 2c3d c874 a33c
000003d0: 0005 50bd bfcb 393d 927f 7f3d e9a1 203c
000003e0: b6c1 50bc cb49 723d f7ba 36bd accb 8cbc
000003f0: c8ec f1bb a62a 1cbd 7e5e ad3c c0ba ae38
0.031809565 -0.02009521 0.030945532 0.05033855 -0.055809498 0.017402628 0.033838913 -0.021338964
-0.027419977 0.010894547 -0.04106656 -0.025258606 -0.00046391948 -0.032568883 0.000856195 0.05943051
0.06947807 -0.01358189 -0.04356877 -0.008659536 0.0018751951 0.056639004 -0.015604114 -0.03642858
0.061764825 0.031375755 0.059716906 0.023071647 -0.037453372 -0.060364246 0.05394311 -0.044755183
-0.014211228 -0.04269839 0.06424844 -0.050658826 -0.01158779 0.0009032215 -0.0062600565 -0.02498877
-0.014971805 0.0652985 -0.029556887 -0.028790938 0.040344667 0.06863703 -0.05311919 0.03411154
0.013100088 0.023408808 -0.006606231 -0.015827367 -0.053541824 0.060013413 0.062668845 -0.027694508
0.068070695 -0.035882838 0.04817444 0.07038558 0.010104668 -0.0039687697 0.014212349 0.038177457
0.06611972 -0.009658623 0.06451455 -0.013217088 -0.021033421 0.032155976 -0.038403623 -0.0032049771
-0.027293183 -0.043013997 -0.039756835 -0.04700998 0.04497076 -0.00995167 -0.055378024 0.019641249
-0.027364008 -0.03257031 -0.016814794 -0.036307525 0.017894987 -0.054438364 0.01475367 -0.0099346945
-0.021049477 0.050075725 -0.013754606 -0.04847764 0.006890336 -0.05434749 -0.052258488 -0.022385381
0.036780402 0.008429231 0.009469121 0.066729225 0.046605907 0.06673793 -0.05249959 -0.0007712656
0.052885618 -0.040504415 -0.05258416 0.030722179 -0.047602717 -0.005226369 -0.04767834 -0.022791356
0.04099424 0.029051395 0.010479679 -0.015443035 -0.054979004 0.040380806 0.03240956 -0.013469429
-0.0484405 0.053453736 -0.05367616 0.056902003 -0.029372806 -0.011524569 -0.033554234 -0.023656178
-0.039702307 -0.026996689 0.046413887 -0.038496003 0.00217732 0.029358782 0.047954246 -0.03960989
-0.021774901 -0.011685485 0.059079133 -0.0027739622 0.057975173 0.01042849 -0.03649636 -0.048770186
0.046054922 0.048724875 -0.008889194 -0.056345325 0.0009729451 -0.031021649 0.03805784 -0.05628552
0.01955795 0.0011006177 -0.0071970313 -0.04810338 -0.044300936 0.053868383 -0.042258922 -0.023294648
-0.020343708 0.015623386 -0.037899766 0.0253264 0.022003882 -0.03070247 0.034617044 -0.0043157153
0.040010005 -0.009800699 -0.032410495 0.06672956 -0.05118662 -0.024096062 -0.0540114 0.060765814
-0.0395374 0.03319757 -0.052947775 0.036072213 0.033070445 0.060737275 -0.03951226 0.01947022
0.07196788 0.06659347 0.067959525 0.036483575 -0.011860693 0.012617395 -0.046783496 -0.009429434
0.013820833 0.05602019 -0.0073215766 0.051768895 0.06118957 0.027572885 0.06152528 0.06376033
0.020566007 0.049907517 -0.008374692 -0.017665956 0.021993328 0.013117813 -0.011234273 -0.056494188
-0.053600714 -0.02434296 -0.05208353 0.012102659 -0.05133102 -0.017957283 -0.020316336 0.032909304
0.017148416 0.017543914 0.009036062 -0.028631119 0.056189194 0.0418032 0.06132801 -0.03095993
-0.027335957 0.060070805 -0.054996848 0.034720343 -0.0093612075 -0.056535464 -0.014161526 -0.018278608
-0.01593865 -0.04818446 -0.03798044 0.030293943 0.04561385 -0.0104168765 -0.016216844 -0.0008477439
0.047008526 -0.05466702 0.04221358 0.019953147 -0.05078602 0.045360323 0.06237752 0.009804227
-0.012741497 0.059152406 -0.044611897 -0.017186962 -0.007382963 -0.03812661 0.021163221 8.3317515e-05

net.0.bias f4 [64]
00000000: c655 713d 684b a93c 1b5c 6a3d e811 873c
00000010: 2d94 633d 45e7 293d 4c55 fb3c 0155 d33c
00000020: 0943 333d 2567 4ebd f2f2 a13c 2164 c4bc
00000030: 2165 04bc fffe 653a fcff 16bd 9859 20bc
00000040: ec41 26bd 3376 763a 0105 553a f341 21bd
00000050: 8d27 34bd f71d 063d d7e5 1dba 58e7 673c
00000060: 97ef 203d 5542 023c d0f8 00bd 3d8d 4a3c
00000070: 88da 4c3d 006e 543c e09f 5f3d 0352 853c
00000080: 6b17 a9bc 06a8 a13c 077a 61bd b761 dbbc
00000090: ae1b 103d b0a0 f03c 85e5 5c3d 2d86 283d
000000a0: b30d 063c 4b86 efbb bfe8 0abd 4fbe 45bd
000000b0: e6db e7bc 1f5d 803d 5623 12bd 9dce 813d
000000c0: 01cd d6bb 13e0 183d f392 6ebd 6f9f 453d
000000d0: ef68 6ebd 4bb0 1ebc 0b79 dabb 2f80 903c
000000e0: 7801 4a3d eb9c 48bd 1c0c 033c 74eb 293c
000000f0: ebf3 843d b3cc d93c 409c 143d b007 7cbc
0.05891969 0.02066584 0.057216745 0.01648803 0.055561233 0.04148032 0.030680321 0.025797369
0.0437651 -0.050391335 0.019769166 -0.023973526 -0.008080752 0.0008773654 -0.03686522 -0.009786986
-0.04059021 0.00094017683 0.0008126051 -0.039369535 -0.04398303 0.03274342 -0.00060233235 0.014154278
0.03929099 0.007950385 -0.031487286 0.012362775 0.050013095 0.012965679 0.054595828 0.016274458
-0.02064105 0.01973344 -0.055048015 -0.026779993 0.035182647 0.029373497 0.053929824 0.041143585
0.008181977 -0.00730971 -0.03391337 -0.048277196 -0.028303098 0.062677614 -0.03567823 0.063382365
-0.0065552 0.03732307 -0.05824561 0.04824775 -0.05820554 -0.009685586 -0.0066672615 0.017639248
0.049317807 -0.048977774 0.007998493 0.010371078 0.06491836 0.026586866 0.036281824 -0.015382692

net.2.weight f4 [32, 64, 5, 5]
00000000: e8c4 88bb 8215 833c ea29 d8ba b0a7 bdbc
00000010: 7c41 9d3c df78 7e3b b07f e83b 034d eebb
00000020: 07fe 3c39 1442 65bb 5110 38bc d33d ba3c
00000030: 2e3d 353c c4c8 c6bc 25b9 26bc 563d 88bb
00000040: 15db 163c 1503 01bc b84c 303c 59b7 b53c
00000050: 3b39 37bc 3b88 4d3c e65f 933c ae19 e6ba
00000060: 19c1 6d3c b86f 87bc c48f c23c 2c34 bd3a
00000070: 005a 433a 2997 a4bc eb65 b3bc d354 6c3c
00000080: a877 e9bb d716 9a3c d876 bcbb f35c ee3b
00000090: 71b8 593c 5403 cdbc 4153 1dbc be36 9c3c
000000a0: 03d5 b0bc 4145 103b 2edf 73bc 5486 b8bc
000000b0: 7937 013c 3045 2c3c 0699 e7bb 5c81 d53b
000000c0: 407b 9ebc ac36 893c 738b 203c ae94 95bb
000000d0: c9e9 c73b 1c0d 69bc 6285 4c3b 9b51 2cbc
000000e0: a128 be3c 2c12 64bb dfc6 223c 5c10 8c3a
000000f0: 7c9e 9c3b f115 2cbc cf87 703c e14e bc3c
00000100: 9b15 27bc 1535 df3b b9e2 b9bb 59f1 c73b
00000110: c8cc 08bc c398 05bb e189 b33c 2a8e 06ba
00000120: b8e5 973b fb66 99bb 2d42 a73c 7f5f 82bb
00000130: f380 693c 0e61 e6bc db15 48bc fdca 8abc
00000140: 5548 983b 9635 833c 27b2 f1bc 4947 4dbc
00000150: d0a7 52bc c255 f0bb 1ee0 ebbc 203c 763c
00000160: e124 c23a e3e2 94bc 4951 903c 59c2 70bb
00000170: 22ae 7ebc 5986 5abc 6de1 10bc e07b cebc
00000180: 73ba 0fbb d1a5 9dbc 6f02 3b3c fbbf 3f3c
00000190: 5580 1b3c 8de4 be3c 275f 943c 133d 83bc
000001a0: 55e9 f63b d69e b0bc 67a8 19ba 1fd0 98ba
000001b0: 62fc acbc 1fc6 913b 0eb6 89bb ea8b b6bc
000001c0: 279b 0fba bdf8 b03c 0d54 a73c 66b4 abbc
000001d0: 5f3b 323c a260 9ebc b634 c03c 6e69 c33c
000001e0: 2464 b33c fa74 44bc 8017 d3bb e0a2 a8bb
000001f0: b632 923c c3c8 c9bc a9d5 bfbc bd8e 9d3c
00000200: 249f d2bc 365c 32bc 191a b73b 84e3 613a
00000210: 2308 c5bc b936 163c 8aa8 90bc 2f65 4e3c
00000220: 0e16 be3c a5f7 933c 2232 953b 4bd5 bb3b
00000230: b5e5 a1bc ca1c 95bc 24a8 f13b 536a d3bc
00000240: 8c2c 89bc 04c6 b83c 8120 bb3c 2107 c5bc
00000250: 4d0e 19bc fc92 4e3b f121 9a3c 2469 d43b
00000260: 8906 a9bc 55da c03c e136 43bc 11a8 2fbc
00000270: b69e 483c 541f 533c f994 1fbc 3f2f ba3b
00000280: 2f7c b8bc a4ea c3bc 7752 89bc 13e8 b3bc
00000290: b177 6fbc a748 babb 52fb 85bc 0c3e bfbc
000002a0: 0ceb 1e3c c0f7 b7bc 4aaf 6c3c 29c8 033c
000002b0: 0373 d6bc cb2b abbc 8cda b03c 29be 84bc
000002c0: 7c81 a13c c297 9e3c 8755 ba3c bfbf 9d3b
000002d0: c79d 963c 1d76 6cbb b7af 9cbc 2f32 b0bc
000002e0: fcc0 0ebc 7c86 68bc d236 4f3c b13c 703c
000002f0: 6fa1 adbb 9b13 7c3c bb94 7b3c 815b edba
00000300: dead 80bc 3415 103a 2351 ad3b 15a7 f6bb
00000310: 4adb 823c 0b35 0ebc 89c0 c63b d47b b83c
00000320: 1552 c0bc cf33 2ebc 3f90 27bc 6103 923c
00000330: fc09 363b c685 81bc 1dee 873c 7895 ec3a
00000340: 37ef 18bc 11a6 093b a164 0b3b 1488 aabb
00000350: 8552 06ba 62d6 5e3c 4490 debb 518a ec3b
00000360: abcd 48bb 3904 e4bb fd05 f53b ff35 a43b
00000370: 1181 e4bb bae9 773c d9a5 85bc 5ae5 8a3c
00000380: 63c7 e23b 159f 993c 59ce 713b 0f3d 813c
00000390: be93 51bb 554e 2bbc b828 bf3c 2c66 d2bc
000003a0: b434 0ebc 2499 d2bb 7104 b93c 3c33 7abc
000003b0: 2490 98bc 929d c1bb 06f8 18ba 900a 9fbc
000003c0: a6b1 a9bb 3212 c73b e151 2a3c ea71 0dbc
000003d0: 62ef 29bc 9ff6 22bc bff8 8bbb b42f 873c
000003e0: 3821 b33c 0e22 7c3c 1dcc e43b 547c 993c
000003f0: 4eb4 2cbb 3674 1e3c 3bb9 883c da39 ceba
-0.0041738637 0.016001467 -0.0016491984 -0.023151249 0.019196264 0.003882937 0.0070952997 -0.007272364
0.0001802371 -0.0034982013 -0.011234359 0.022734558 0.01106195 -0.024265654 -0.010175978 -0.0041577024
0.009207507 -0.00787427 0.010760479 0.022182154 -0.011183078 0.012544687 0.017990064 -0.001755526
0.01451137 -0.016532764 0.023750193 0.0014435104 0.0007452071 -0.02009161 -0.021899184 0.014424521
-0.00712486 0.018809719 -0.005751472 0.007274264 0.013288603 -0.025026001 -0.009602369 0.019069072
-0.021585947 0.0022013935 -0.014884753 -0.02252499 0.007886761 0.010514542 -0.0070678024 0.006515665
-0.01934588 0.016749702 0.009798872 -0.004564843 0.0061008674 -0.014224317 0.0031207432 -0.010517503
0.023212733 -0.003480087 0.00993511 0.0010686028 0.004779635 -0.010503278 0.014680817 0.022986831
-0.010198022 0.006811748 -0.0056727794 0.006101769 -0.008349605 -0.0020385243 0.021916332 -0.00051328784
0.004635539 -0.0046814657 0.020417297 -0.003978669 0.014251935 -0.028122451 -0.012212242 -0.016942495
0.0046472945 0.016016763 -0.029503895 -0.012529203 -0.012857392 -0.007334442 -0.02879339 0.015028983
0.0014812016 -0.018174594 0.017616885 -0.0036736934 -0.015544446 -0.013337695 -0.008842808 -0.025205553
-0.00219312 -0.019244106 0.011414154 0.011703487 0.009491046 0.02330234 0.018111778 -0.016020333
0.0075351396 -0.021560114 -0.0005861581 -0.0011658705 -0.02111644 0.0044486667 -0.004202611 -0.022283513
-0.00054781366 0.021602983 0.02042582 -0.020960044 0.010878413 -0.019333187 0.023462635 0.023853984
0.021898337 -0.01199078 -0.0064420104 -0.0051463693 0.017846446 -0.024631863 -0.02341731 0.019233102
-0.02571065 -0.010886243 0.005587828 0.00086169713 -0.024051731 0.00916832 -0.01765849 0.012597366
0.023203876 0.018062422 0.0045530954 0.0057322136 -0.019762853 -0.018202204 0.0073747803 -0.025807535
-0.016744874 0.022555359 0.022842648 -0.02405125 -0.0093417885 0.0031520715 0.018815013 0.0064822603
-0.020632999 0.023541609 -0.01191494 -0.0107212225 0.012244871 0.012885887 -0.009740108 0.0056819017
-0.022520153 -0.023915596 -0.016762955 -0.021961248 -0.014615939 -0.0056849304 -0.01635519 -0.023345016
0.009699594 -0.022457004 0.014446089 0.008043327 -0.026177889 -0.020894906 0.021588586 -0.016203957
0.019715063 0.019359473 0.02274586 0.0048141177 0.018385781 -0.0036081143 -0.019126756 -0.021508304
-0.008713003 -0.01419222 0.0126473475 0.014662907 -0.0052987854 0.015385534 0.015355284 -0.0018108935
-0.015707906 0.00054963236 0.0052892133 -0.007527242 0.015973706 -0.008679639 0.0060654324 0.022519983
-0.02347664 -0.010632469 -0.010227262 0.017823877 0.0027776947 -0.015810858 0.016593033 0.0018049916
-0.009334377 0.0021003524 0.0021269696 -0.00520421 -0.00051239907 0.0136009175 -0.0067921 0.007218637
-0.0030640166 -0.006958511 0.0074775205 0.0050113196 -0.0069733937 0.015131408 -0.016314434 0.016955066
0.0069207414 0.018752614 0.0036896674 0.015776185 -0.003197893 -0.0104556875 0.023334846 -0.025683485
-0.008679558 -0.006426947 0.022585126 -0.015271004 -0.01862342 -0.0059086764 -0.0005835298 -0.019414216
-0.005178648 0.006075167 0.010395498 -0.008633116 -0.010372015 -0.009946494 -0.004271596 0.016502239
0.021866426 0.015388979 0.00698234 0.018736042 -0.0026352587 0.0096712615 0.016689887 -0.0015733794

net.2.bias f4 [32]
00000000: 68cc 7f3b 8720 ac3c 79de 883b 9f6a 373c
00000010: 729e 1c3c 33ac 6bbc 8d96 3fbc 6a22 cc3b
00000020: b651 3d3b 326d 82bc cb13 56bb 8bee ae3b
00000030: 1fd0 1b3c 705d f2bb 62ee 8abc 1b3a 9e3c
00000040: 7205 e1bb 9378 233b 0d41 b73c 6044 943c
00000050: 3569 823c 06aa 8dbc 6083 94bc d24e b13c
00000060: ad14 713c abdf aeba 8fea 98bc 758c b73c
00000070: 13a8 a03a 5b3c b9bc b865 283c bac7 aebc
0.0039031748 0.021011604 0.0041769114 0.011194854 0.009559261 -0.014384317 -0.011693609 0.0062296884
0.0028887815 -0.015921209 -0.0032665606 0.005338495 0.009510069 -0.0073963925 -0.016959373 0.019314816
-0.006867104 0.0024943694 0.022369886 0.01809901 0.015919307 -0.017292988 -0.01812905 0.02164403
0.014714402 -0.0013341805 -0.018666534 0.022405842 0.0012257121 -0.022611788 0.010278158 -0.021335471

net.4.weight f4 [3, 32, 5, 5]
00000000: 078f d03c c084 0bbd 7552 e2bc b662 5bbc
00000010: f349 f2bc db7c 8a3c 56c4 4abc 2446 e73b
00000020: 3683 f6bc 238d b93c 1943 5d3c b77a 9cbb
00000030: 3f84 09bd ad80 333b a6d4 97bc ffee 6cbc
00000040: fb91 e4bc f309 e83b 193d 893c 1379 25bc
00000050: 89f3 0a3d acd3 123d dc4e eb3c a7a7 89bc
00000060: b945 b13c ae2e f23c 231d c83c e240 5ebc
00000070: 1960 083d 844a 933c 9560 b5ba f98c abbc
00000080: 6300 0abd 407a 07bd 453f ff3c 23ee d43c
00000090: b842 f0bc f32b e6bc 206a 8abc 229f 04bd
000000a0: d517 773c 1ba9 c4bc a1ed 91bc 71ac edbc
000000b0: 3653 0d3b 4e2f ea3c e512 32bc fc88 0a3d
000000c0: 4a42 443c dcb7 89bc 7d63 813b 1d8c 48bb
000000d0: 35ca bbbc 1951 c33c a811 b43c 3ab0 643c
000000e0: 2103 233c bea4 87bc 9984 683c 83c4 ffbc
000000f0: ac12 c63c 6a48 a63c ffec 98bc 294a b6bc
00000100: bf52 acbc 991e f23b 3579 abbb 31c9 0ebb
00000110: 3bf5 78bc 7e2d 86b9 a352 a43c ab1f 33bc
00000120: d16a cfbc fd25 ce3c 7fc0 ed3c fe49 843c
00000130: 0e4f 553c 472b cfbc 0772 023d fba7 6cbc
00000140: 9677 90bb a493 533c 161c ccbc 0d6c 19bc
00000150: 861d b53c 68c1 bc3c effd 3cb8 c554 edba
00000160: 6cb8 4bbb cf75 cfbc 4330 9a38 d197 773c
00000170: a6c4 53bb c3e9 0abd b794 293b 8fbf c9ba
00000180: 0b06 dcbb 51c9 073d 7e21 a03c a285 a53c
00000190: 9bca 2dbc f43b aaba 70a0 d5ba 66ce a53c
000001a0: 5b75 f7bc ca40 023b 9102 89bc b2b4 f13c
000001b0: 7024 73bc b772 21bd 2f9a 94bc 959d 903c
000001c0: ac1f 0cbd 3a3a c5ba 77d6 26bd 5d2c b13c
000001d0: f181 c7bc 21e1 03bc 0059 94b9 3b0a a8bc
000001e0: 9c8c 853c a000 0bbd 9f78 a1bb 6417 dcbc
000001f0: 9b6d d83b 725b 15bc eb20 a63c ef7b 833c
00000200: bb84 143d f902 c6bc 9baf 96bc 0373 713c
00000210: 06ab 27bc 7107 f7bc a7dc b13c 46e2 74bc
00000220: 6e7f 893b c81a a3bc bf38 85bc b521 9d3b
00000230: 357c d3bc 96c1 713c 2ad7 f2bc dfb9 edbb
00000240: 8df4 89bc 2745 f2bc f29e 88bc a9c9 03bd
00000250: 7e31 d13a 7152 bcbc 3a6e 2d3c 970b 56bc
00000260: 17ef fbbb 0989 b33c eeff 8c3c ecf0 d23c
00000270: c9da 903c f450 e13c 84a7 043d 6add 77bc
00000280: 48ad 8e3c 730c 0f3d a800 513b 010c 72bc
00000290: 1be2 68bc babe 4f3c e1dd da3b 42d1 c73a
000002a0: dfde e4bc 0474 04bc 51eb c3bc cb4b 663c
000002b0: 305b 083d 42b6 a6bb 3acc 8abb 77a6 3c3c
000002c0: 8884 103d 9d68 153d 5de7 243a 5de3 a53c
000002d0: d5be 053d 2f36 bc3b f3de 123c 4d4e 20bc
000002e0: af5b 0c3d 002d b23c ef63 3dbc b4ed f73c
000002f0: 8021 bebc 7c18 cfbc a6f6 00bd ba52 7cbc
00000300: 0b3c 6a3c bc2e 003b 3761 db3c 14d9 073d
00000310: d242 fc3c 8963 96bc 057a 69bc c03f b93a
00000320: f6dc b03c 1182 59bc d80c d3bc a3db 613b
00000330: 049d b5bc d604 e3bc 20e4 69bb c13c f6bc
00000340: 3b79 093c 52df 4bbc b1d2 913c df68 a6bc
00000350: 5355 63bc ca42 7b3c 4dd2 7d3a 41c1 5dbc
00000360: e108 5f3b 6109 0cbc c070 ecbc 9e34 fe3c
00000370: 49b5 cabc 883d f3bc 98a1 f1bc de9a 273b
00000380: 8f62 32bc 7be5 78bc e769 37bc ad54 9c3b
00000390: 54ec b33c dff5 38bb 5b21 dfba 0c6e 1a3d
000003a0: 6e60 bf3b c738 e2bc 415a 46bc 9286 0c3d
000003b0: b841 4f3c 5c80 febc cc6a 863a a6e4 e03c
000003c0: 779e afbc 08ba 10bd 8761 e8bc b55b 14bc
000003d0: 27c2 e03c 8cef f23c b8b2 113d 13c7 563c
000003e0: cc6b 693c e3e7 ffbc 7882 debc f120 e8bb
000003f0: d0a1 a3bc f0ee 0b3d 41d9 f6b9 82d6 8cbb
0.025458826 -0.034062147 -0.02762721 -0.013390234 -0.029576277 0.016905239 -0.012375912 0.007057922
-0.030091863 0.022650307 0.013504767 -0.004775371 -0.033573385 0.002738993 -0.018534016 -0.014461278
-0.02790164 0.007081264 0.016752766 -0.010099667 0.03392366 0.035846397 0.028724127 -0.016803576
0.021639692 0.029563274 0.024427956 -0.013565274 0.03329477 0.017979868 -0.0013837988 -0.020941244
-0.033691775 -0.03307557 0.031158099 0.025992459 -0.029328689 -0.028097128 -0.016896307 -0.032378323
0.015081366 -0.024006417 -0.017813506 -0.02901289 0.002156449 0.02858701 -0.010868763 0.033822045
0.011978695 -0.016811304 0.0039486275 -0.0030601092 -0.022923568 0.023842381 0.021981075 0.013958031
0.009949476 -0.016558047 0.01419177 -0.031221634 0.024178825 0.020298202 -0.018667696 -0.02225216
-0.02103555 0.0073889014 -0.005232955 -0.00217874 -0.015195186 -0.00025592366 0.020058936 -0.010932843
-0.025319489 0.025164599 0.029022453 0.016148563 0.013019336 -0.025289191 0.031847026 -0.014444347
-0.004408787 0.012913618 -0.024915736 -0.00936414 0.022108804 0.023041442 -4.5059187e-05 -0.0018106928
-0.0031085266 -0.02532473 7.352282e-05 0.015111879 -0.0032313257 -0.03391434 0.0025875994 -0.0015392172
-0.0067145876 0.033150975 0.01954722 0.020205323 -0.010607387 -0.0012987838 -0.0016298424 0.02024002
-0.030207327 0.0019875043 -0.016724857 0.029505108 -0.01484023 -0.03941604 -0.018139927 0.017653266
-0.034209892 -0.001504726 -0.040731873 0.0216276 -0.024353953 -0.00804928 -0.0002829507 -0.02051269
0.0163024 -0.033936143 -0.0049277092 -0.026866622 0.006604863 -0.009116041 0.020279368 0.016050307
0.036259394 -0.02417134 -0.018394282 0.014736894 -0.010233646 -0.030154916 0.02171166 -0.014946526
0.004196099 -0.019910231 -0.01626241 0.004795278 -0.025816062 0.014755627 -0.029643614 -0.0072548236
-0.016840244 -0.02957399 -0.016677354 -0.03217474 0.0015960184 -0.02298853 0.010585362 -0.013064287
-0.007688414 0.02191593 0.01721188 0.025749646 0.01768245 0.027504422 0.032386318 -0.015128473
0.017416611 0.034923982 0.003189126 -0.01477337 -0.014214064 0.01267975 0.006679282 0.0015244859
-0.027938304 -0.008084301 -0.023915919 0.014056156 0.03329009 -0.005087645 -0.0042357715 0.011514298
0.03528264 0.03647672 0.00062905793 0.020250017 0.032652695 0.005743764 0.008964288 -0.009784293
0.034267124 0.021749973 -0.011559471 0.030264713 -0.023209333 -0.02528023 -0.031485222 -0.015400583
0.014296542 0.0019559106 0.026779754 0.033166006 0.030793581 -0.018358009 -0.014250283 0.0014133379
0.021589737 -0.013275639 -0.02576296 0.003446319 -0.022169597 -0.027712267 -0.0035688952 -0.030058267
0.00839072 -0.01244338 0.01780066 -0.020313678 -0.013875323 0.015335748 0.00096825213 -0.013534845
0.0034032392 -0.008547158 -0.028862357 0.03103095 -0.024744647 -0.029692426 -0.029496 0.0025574486
-0.010887756 -0.015191431 -0.011194683 0.0047708363 0.021963276 -0.0028222722 -0.001702349 0.037702605
0.0058403527 -0.027614964 -0.012106479 0.034308024 0.012649946 -0.031067066 0.0010255217 0.027452778
-0.021437867 -0.035333663 -0.028366817 -0.009055068 0.027436329 0.02965524 0.03557083 0.013108986
0.014246892 -0.031238502 -0.027161822 -0.007084005 -0.01997462 0.034163415 -0.00047082643 -0.0042980323

net.4.bias f4 [3]
00000000: 80a2 b33b a8bb be3c 4095 7f3b
0.005482018 0.02328284 0.0038998872
