checkpoints/srcnn_epoch14_2025-03-20_23-02-04.pth (torch, 280012 bytes, 6 tensors)

net.0.weight f4 [64, 3, 9, 9]
0	0x3d03f01a	0.0322114
1	0xbca29521	-0.0198465
2	0x3d0025bb	0.031285983
3	0x3d50b8af	0.050957378
4	0xbd634488	-0.05548528
5	0x3c92d169	0.01792212
6	0x3d0d9147	0.034562375
7	0xbcabb616	-0.020960849
8	0xbcdd9e3e	-0.027052995
9	0x3c354324	0.011063371
10	0xbd27a418	-0.040927976
11	0xbccbcd58	-0.024878189
12	0x37766b34	1.4687703e-05
13	0xbd05273e	-0.032508127
14	0x3aa3f986	0.0012510277
15	0x3d75cbe8	0.060008913
16	0x3d8e12ec	0.06937203
17	0xbc5f91d9	-0.013645613
18	0xbd323962	-0.043511756
19	0xbc0cfb98	-0.0086049065
20	0x3af1af8e	0.001843916
21	0x3d6832c0	0.056689024
22	0xbc7cad2d	-0.015422148
23	0xbd14566d	-0.036215235
24	0x3d7de7b4	0.061988547
25	0x3cfcf5c2	0.030878905
26	0x3d732e18	0.05937013
27	0x3cbedd89	0.023298996
28	0xbd186d1b	-0.037213426
29	0xbd77fa23	-0.060541283
30	0x3d5cd41b	0.053913217
31	0xbd355cb6	-0.04427787
32	0xbc6b635f	-0.014366954
33	0xbd2efa6a	-0.042719282
34	0x3d8328b3	0.06404247
35	0xbd4fe93a	-0.05075953
36	0xbc3a126c	-0.011356931
37	0x3a915e70	0.0011090767
38	0xbbcd2f68	-0.006261755
39	0xbccb04f8	-0.024782643
40	0xbc69f88a	-0.014280448
41	0x3d8538ed	0.06504998
42	0xbcf201a1	-0.029541792
43	0xbce9a180	-0.028519392
44	0x3d262205	0.040559787
45	0x3d8ccdba	0.06875177
46	0xbd597e7d	-0.053099144
47	0x3d0c7fb8	0.03430149
48	0x3c5ba134	0.013405133
49	0x3cc647fa	0.024204243
50	0xbbcd30f0	-0.0062619373
51	0xbc7e4b3f	-0.01552087
52	0xbd5a31c8	-0.05327013
53	0x3d76ad02	0.060223587
54	0x3d809dd0	0.062801
55	0xbce29103	-0.027657038
56	0x3d8c4161	0.068484075
57	0xbd10f5b9	-0.03539059
58	0x3d48da57	0.04903635
59	0x3d92050f	0.07129871
60	0x3c2d79f6	0.01058816
61	0xbb8493f7	-0.004045959
62	0x3c699571	0.014256821
63	0x3d1c951f	0.03822815
64	0x3d8749f0	0.06605899
65	0xbc19c809	-0.009386071
66	0x3d850a47	0.06496101
67	0xbc51aec8	-0.012798019
68	0xbca80ab7	-0.020512922
69	0x3d049964	0.032372847
70	0xbd1eadf2	-0.038740106
71	0xbb5684ec	-0.0032733036
72	0xbcdfc5de	-0.02731603
73	0xbd30b451	-0.043140713
74	0xbd227f5f	-0.03967225
75	0xbd3f190e	-0.046654753
76	0x3d38cc6b	0.045116823
77	0xbc2188b8	-0.009859256
78	0xbd6296e8	-0.055319697
79	0x3c9f480b	0.019443532
80	0xbce00712	-0.027347121
81	0xbd0260d3	-0.03183062
82	0xbc85a449	-0.016313689
83	0xbd12d187	-0.035844352
84	0x3c97b59e	0.018519219
85	0xbd5e1705	-0.054221172
86	0x3c78b70c	0.0151803605
87	0xbc157208	-0.009121425
88	0xbca77b9c	-0.020444684
89	0x3d501813	0.05080421
90	0xbc5873e1	-0.013211221
91	0xbd44d610	-0.04805571
92	0x3bf300a1	0.0074158465
93	0xbd5ca149	-0.05386475
94	0xbd565573	-0.052327584
95	0xbcb4f4a7	-0.022089316
96	0x3d1990b3	0.03749151
97	0x3c0d3033	0.008617449
98	0x3c210ecf	0.009830191
99	0x3d898d0a	0.06716354
100	0x3d4044f5	0.046940763
101	0x3d88ea65	0.06685332
102	0xbd56cbaf	-0.05244034
103	0xba340c63	-0.0006868301
104	0x3d5962eb	0.05307285
105	0xbd23c168	-0.03997937
106	0xbd575b65	-0.052577395
107	0x3cfd6839	0.030933486
108	0xbd408b06	-0.047007583
109	0xbb9afb7c	-0.0047296863
110	0xbd438ae3	-0.047739875
111	0xbcbb652f	-0.022875397
112	0x3d291d60	0.04128778
113	0x3cebb507	0.028772844
114	0x3c306ad1	0.0107676545
115	0xbc7723bf	-0.015084206
116	0xbd5f6af1	-0.054545347
117	0x3d27c9ca	0.040963925
118	0x3d06691f	0.032815095
119	0xbc5cdd79	-0.013480538
120	0xbd46c63e	-0.048528902
121	0x3d5ba149	0.05362061
122	0xbd5eca16	-0.054391943
123	0x3d694b29	0.056956444
124	0xbceb8245	-0.02874864
125	0xbc33d656	-0.010976395
126	0xbd07b179	-0.033128235
127	0xbcc10a2f	-0.023564426
128	0xbd22e54e	-0.039769463
129	0xbcdff3b5	-0.027337888
130	0x3d3d98f6	0.046288453
131	0xbd1f759a	-0.038930513
132	0x3b14f2b1	0.0022727663
133	0x3cf3dadb	0.029767444
134	0x3d461072	0.048355527
135	0xbd20a5eb	-0.03922073
136	0xbcb24557	-0.02176158
137	0xbc3eef0e	-0.011653675
138	0x3d70f4de	0.058827274
139	0xbb3b2854	-0.0028557973
140	0x3d6e3d8a	0.058164157
141	0x3c2f9e1d	0.0107188495
142	0xbd155ab7	-0.036463466
143	0xbd46b8b1	-0.04851598
144	0x3d3e0685	0.046392936
145	0x3d478abe	0.0487163
146	0xbc10ec28	-0.008845367
147	0xbd66db37	-0.056361403
148	0x3a6098be	0.0008567682
149	0xbcfcb4ff	-0.030848024
150	0x3d1cc7e3	0.038276564
151	0xbd671795	-0.056418974
152	0x3ca22b57	0.019796057
153	0x3abf0944	0.0014574905
154	0xbbe9458c	-0.0071188863
155	0xbd44a523	-0.04800905
156	0xbd346b13	-0.044047426
157	0x3d5ce867	0.053932574
158	0xbd2c9275	-0.04213186
159	0xbcbccaaa	-0.023045857
160	0xbca5e75c	-0.020251922
161	0x3c831b59	0.016004251
162	0xbd1b2e9c	-0.037886247
163	0x3cced394	0.025247373
164	0x3cb53f8d	0.02212503
165	0xbcf796dd	-0.030223304
166	0x3d0e1baf	0.03469437
167	0xbb88765f	-0.0041645016
168	0x3d257af0	0.040400445
169	0xbc20fa00	-0.00982523
170	0xbd04b67a	-0.032400586
171	0x3d887d6c	0.06664547
172	0xbd51a25e	-0.051180236
173	0xbcc1a4a1	-0.023638071
174	0xbd5a6fc7	-0.053329255
175	0x3d799a67	0.060938265
176	0xbd206268	-0.039156348
177	0x3d0a784d	0.033806134
178	0xbd59a71e	-0.05313789
179	0x3d131746	0.035910867
180	0x3d06fbfe	0.032955162
181	0x3d792d07	0.060833957
182	0xbd206429	-0.03915802
183	0x3ca45e2a	0.020064432
184	0x3d94ccfb	0.072656594
185	0x3d89c31e	0.06726669
186	0x3d8cd7de	0.06877111
187	0x3d152dfb	0.036420804
188	0xbc43dba5	-0.011954223
189	0x3c504eb4	0.012714077
190	0xbd3e0a9e	-0.046396844
191	0xbc143b57	-0.009047351
192	0x3c6d2a14	0.014475364
193	0x3d69e519	0.05710325
194	0xbbe1a16e	-0.006885699
195	0x3d572d1e	0.05253326
196	0x3d7c48ec	0.06159298
197	0x3ce36e6f	0.02776262
198	0x3d7cace7	0.06168833
199	0x3d835e48	0.06414467
200	0x3cac12b0	0.021005005
201	0x3d4eb4e2	0.050465472
202	0xbbf8a01a	-0.007587445
203	0xbc91e831	-0.017810913
204	0x3cb747ab	0.022373041
205	0x3c5f84d0	0.013642505
206	0xbc34919c	-0.011021044
207	0xbd66fbd9	-0.056392524
208	0xbd5b2f8d	-0.053512145
209	0xbcc5ef01	-0.024161818
210	0xbd55a13b	-0.052155714
211	0x3c473970	0.01215969
212	0xbd532803	-0.05155183
213	0xbc9199a1	-0.017773451
214	0xbca50d38	-0.020147905
215	0x3d06d031	0.03291339
216	0x3c8d372e	0.017238226
217	0x3c8f1ee5	0.017470786
218	0x3c14a608	0.009072788
219	0xbced040e	-0.028932597
220	0x3d656d1d	0.05601226
221	0x3d2c096d	0.042001177
222	0x3d7c5fc4	0.061614767
223	0xbcff71dd	-0.031182224
224	0xbce0f099	-0.027458476
225	0x3d764c92	0.060131617
226	0xbd61c86f	-0.05512279
227	0x3d0e337a	0.03471706
228	0xbc1a65f5	-0.0094237225
229	0xbd680749	-0.056647573
230	0xbc63e652	-0.013909893
231	0xbc93f03a	-0.018058885
232	0xbc85a9c2	-0.016316298
233	0xbd45c218	-0.048280805
234	0xbd1b354d	-0.03789263
235	0x3cf7a954	0.03023211
236	0x3d3af580	0.045644283
237	0xbc26a114	-0.01017024
238	0xbc83931e	-0.016061362
239	0xba24ae6e	-0.00062820956
240	0x3d4137ab	0.04717223
241	0xbd60db37	-0.05489656
242	0x3d2cf833	0.04222889
243	0x3ca4309b	0.020042708
244	0xbd4f542e	-0.05061739
245	0x3d39e173	0.04538102
246	0x3d7ff05b	0.06248508
247	0x3c23b017	0.009990714
248	0xbc4ecff2	-0.01262282
249	0x3d738412	0.059452124
250	0xbd359d38	-0.04433939
251	0xbc8aba42	-0.016934518
252	0xbbeddf53	-0.0072592883
253	0xbd1b398b	-0.037896674
254	0x3cafeac8	0.021474257
255	0x395acce7	0.00020866432

net.0.bias f4 [64]
0	0x3d737580	0.05943823
1	0x3cac318b	0.021019718
2	0x3d6b18e7	0.057396796
3	0x3c88cbe4	0.016698785
4	0x3d64375a	0.05571685
5	0x3d29d853	0.04146607
6	0x3cfffb4f	0.031247763
7	0x3cd5ad58	0.026083633
8	0x3d354559	0.04425559
9	0xbd4df8f3	-0.050286245
10	0x3ca40722	0.020022932
11	0xbcbaba41	-0.02279389
12	0xbc023820	-0.007947952
13	0x3aa3bd0e	0.0012492256
14	0xbd16cd08	-0.036816627
15	0xbc1e2c87	-0.009654171
16	0xbd2060cd	-0.039154816
17	0x3a6e4875	0.00090897764
18	0x3a6235ea	0.00086292496
19	0xbd210fb3	-0.039321613
20	0xbd31c635	-0.043401916
21	0x3d063f03	0.032774936
22	0xb913dd3b	-0.00014101427
23	0x3c6d4c46	0.014483517
24	0x3d21e63b	0.039526206
25	0x3c0abd30	0.008467957
26	0xbcfb283d	-0.030658836
27	0x3c4a9962	0.012365671
28	0x3d4e7b2f	0.050410446
29	0x3c5550e4	0.013019774
30	0x3d5fb31d	0.054614175
31	0x3c892b36	0.016744237
32	0xbca70429	-0.020387726
33	0x3ca35544	0.019938119
34	0xbd5f62b2	-0.054537483
35	0xbcd74ee5	-0.026282737
36	0x3d0ffecf	0.035155114
37	0x3cf36ffb	0.029716482
38	0x3d5dc185	0.054139633
39	0x3d287a89	0.041132484
40	0x3c0b7a3a	0.008513028
41	0xbbecec66	-0.0072303293
42	0xbd087983	-0.033319008
43	0xbd43822d	-0.047731567
44	0xbce44178	-0.02786325
45	0x3d803883	0.06260779
46	0xbd10b6e1	-0.035330657
47	0x3d823a43	0.06358769
48	0xbbc55590	-0.0060221627
49	0x3d19fc9c	0.037594423
50	0xbd6e0192	-0.058106966
51	0x3d4a3182	0.04936362
52	0xbd6eb167	-0.058274653
53	0xbc1f1119	-0.009708666
54	0xbbd69038	-0.006547954
55	0x3c901e92	0.017592702
56	0x3d4b91a3	0.049699437
57	0xbd4858ba	-0.04891274
58	0x3c037916	0.008024475
59	0x3c2995db	0.01035067
60	0x3d854644	0.06507543
61	0x3cdaf674	0.026728846
62	0x3d149d68	0.036282927
63	0xbc79a23c	-0.015236434

net.2.weight f4 [32, 64, 5, 5]
0	0xbb88cc03	-0.0041747107
1	0x3c8312fe	0.016000267
2	0xbad84aa9	-0.0016501743
3	0xbcbda955	-0.023152033
4	0x3c9d406b	0.019195756
5	0x3b7e6def	0.003882285
6	0x3be87a1e	0.0070946356
7	0xbbee5081	-0.0072727804
8	0x393cb54a	0.00017996613
9	0xbb654892	-0.0034985882
10	0xbc380492	-0.011231558
11	0x3cba4210	0.02273658
12	0x3c3540d5	0.01106282
13	0xbcc6c6ae	-0.02426466
14	0xbc26b1fe	-0.010174273
15	0xbb882cab	-0.0041557155
16	0x3c16e279	0.009209269
17	0xbc00fadc	-0.00787231
18	0x3c3054d0	0.010762408
19	0x3cb5bc89	0.022184627
20	0xbc372c5c	-0.01118001
21	0x3c4d9782	0.012548329
22	0x3c936ba8	0.01799567
23	0xbae53289	-0.0017486374
24	0x3c6de44c	0.014519762
25	0xbc876fb8	-0.016532764
26	0x3cc28fc4	0.023750193
27	0x3abd33ee	0.0014435032
28	0x3a435983	0.0007451998
29	0xbca49729	-0.02009161
30	0xbcb365eb	-0.021899184
31	0x3c6c54d3	0.014424521
32	0xbbe977a8	-0.00712486
33	0x3c9a16d7	0.018809719
34	0xbbbc76d9	-0.0057514724
35	0x3bee5cf3	0.007274264
36	0x3c59b871	0.013288603
37	0xbccd0354	-0.025026001
38	0xbc1d533d	-0.009602365
39	0x3c9c36be	0.019069072
40	0xbcb0d503	-0.021585947
41	0x3b104541	0.0022013935
42	0xbc73df2e	-0.014884753
43	0xbcb88654	-0.02252499
44	0x3c0137a8	0.007886805
45	0x3c2c4530	0.010514542
46	0xbbe79906	-0.0070678024
47	0x3bd5815c	0.006515665
48	0xbc9e7b40	-0.01934588
49	0x3c8936ac	0.016749702
50	0x3c208a4a	0.009798596
51	0xbb95969a	-0.0045650722
52	0x3bc7e7ba	0.006100622
53	0xbc690e78	-0.014224641
54	0x3b4c7f7a	0.0031203912
55	0xbc2c5267	-0.010517693
56	0x3cbe2853	0.023212587
57	0xbb6414e4	-0.003480249
58	0x3c22c62a	0.009934941
59	0x3a8c0a9f	0.0010684318
60	0x3b9c9eed	0.0047796876
61	0xbc2c15f4	-0.010503281
62	0x3c708783	0.014680746
63	0x3cbc4eaf	0.022986738
64	0xbc271624	-0.01019815
65	0x3bdf3601	0.0068118577
66	0xbbb9e31c	-0.0056728255
67	0x3bc7f0c2	0.0061016986
68	0xbc08cd0d	-0.008349669
69	0xbb059a3a	-0.0020386116
70	0x3cb38b3d	0.02191698
71	0xba065f78	-0.000512592
72	0x3b97ebf6	0.004636283
73	0xbb99603b	-0.004680661
74	0x3ca743dc	0.0204181
75	0xbb82666a	-0.003979494
76	0x3c697f5e	0.014251558
77	0xbce661e9	-0.02812286
78	0xbc4817e3	-0.012212726
79	0xbc8acc65	-0.016943166
80	0x3b984011	0.004646309
81	0x3c83350a	0.016016502
82	0xbcf1b2c6	-0.029504191
83	0xbc4d4adf	-0.012530058
84	0xbc52ac61	-0.012858481
85	0xbbf05396	-0.007334183
86	0xbcebdccc	-0.028791808
87	0x3c765493	0.0150348125
88	0x3ac352a1	0.0014901945
89	0xbc94c9cb	-0.018162629
90	0x3c9056f0	0.01761958
91	0xbb70aac5	-0.003672288
92	0xbc7e96cf	-0.015538885
93	0xbc5a5323	-0.013325485
94	0xbc109395	-0.008824249
95	0xbcce6cbd	-0.025198335
96	0xbb0f4fa7	-0.0021867545
97	0xbc9d97b0	-0.01923737
98	0x3c3b17cb	0.011419247
99	0x3c3fdb48	0.011709996
100	0x3c1b804f	0.00949104
101	0x3cbee48d	0.02330234
102	0x3c945f27	0.018111778
103	0xbc833d13	-0.016020333
104	0x3bf6e948	0.0075351335
105	0xbcb09ed6	-0.021560114
106	0xba19aa09	-0.0005861824
107	0xba98d0f4	-0.0011658953
108	0xbcacfc62	-0.02111644
109	0x3b91c60f	0.0044486593
110	0xbb89b5eb	-0.0042025945
111	0xbcb68bea	-0.022283513
112	0xba0f9aa4	-0.00054780603
113	0x3cb0f8bd	0.021602983
114	0x3ca7540d	0.02042582
115	0xbcabb466	-0.020960044
116	0x3c323b69	0.010878422
117	0xbc9e60a2	-0.019333187
118	0x3cc034b6	0.023462635
119	0x3cc3696e	0.023853984
120	0x3cb36424	0.021898337
121	0xbc4474fa	-0.01199078
122	0xbbd31729	-0.00644197
123	0xbba8a275	-0.0051463195
124	0x3c9232b6	0.017846446
125	0xbcc9c8c3	-0.024631863
126	0xbcbfd5a9	-0.02341731
127	0x3c9d8ebd	0.019233102
128	0xbcd29f24	-0.02571065
129	0xbc325c36	-0.010886243
130	0x3bb71a19	0.005587828
131	0x3a61e326	0.00086169166
132	0xbcc50823	-0.024051731
133	0x3c1636b9	0.00916832
134	0xbc90a88a	-0.01765849
135	0x3c4e652f	0.012597366
136	0x3cbe160e	0.023203876
137	0x3c93f7a5	0.018062422
138	0x3b95327e	0.0045531383
139	0x3bbbd5b3	0.005732262
140	0xbca1e5b5	-0.019762853
141	0xbc951cca	-0.018202204
142	0x3bf1a824	0.0073747803
143	0xbcd36a53	-0.025807535
144	0xbc892c8c	-0.016744874
145	0x3cb8c604	0.022555359
146	0x3cbb2081	0.022842648
147	0xbcc50721	-0.02405125
148	0xbc190e49	-0.009341785
149	0x3b4e93ca	0.0031521195
150	0x3c9a21e5	0.01881499
151	0x3bd468d6	0.006482224
152	0xbca9069a	-0.02063303
153	0x3cc0da41	0.023541572
154	0xbc433743	-0.011915031
155	0xbc2fa860	-0.010721296
156	0x3c489e81	0.0122448215
157	0x3c531f23	0.012885842
158	0xbc1f953a	-0.009740168
159	0x3bba2e6f	0.005681805
160	0xbcb87c25	-0.022520134
161	0xbcc3eab2	-0.023915622
162	0xbc89526d	-0.016762936
163	0xbcb3e80d	-0.021961236
164	0xbc6f7762	-0.014615865
165	0xbbba4811	-0.0056848605
166	0xbc85fb5c	-0.016355209
167	0xbcbf3dff	-0.023344992
168	0x3c1eeb32	0.00969963
169	0xbcb7f7c0	-0.022457004
170	0x3c6cafd3	0.014446217
171	0x3c03c8c9	0.008043476
172	0xbcd672f5	-0.026177863
173	0xbcab2bd0	-0.020894915
174	0x3cb0da8c	0.021588586
175	0xbc84c424	-0.016206808
176	0x3ca178db	0.019710949
177	0x3c9e8fa8	0.01935561
178	0x3cba4de7	0.022742225
179	0x3b9da2b9	0.004810658
180	0x3c9699a5	0.01838381
181	0xbb6ca259	-0.003610751
182	0xbc9cb45f	-0.019128976
183	0xbcb036c2	-0.021510486
184	0xbc0ecd95	-0.008716007
185	0xbc6882f6	-0.01419138
186	0x3c4f4202	0.012650015
187	0x3c706418	0.014672302
188	0xbbad13a1	-0.005281881
189	0x3c7c6ec7	0.015407271
190	0x3c7b9acd	0.015356732
191	0xbaecfe35	-0.0018081131
192	0xbc809d7f	-0.0157001
193	0x3a137eba	0.0005626489
194	0x3badd841	0.0053053205
195	0xbbf69e9b	-0.0075262315
196	0x3c82db74	0.015973784
197	0xbc0e2d0f	-0.008677735
198	0x3bc6da00	0.006068468
199	0x3cb882a9	0.022523241
200	0xbcc05233	-0.023476696
201	0xbc2e3431	-0.010632561
202	0xbc27907b	-0.010227318
203	0x3c92034f	0.017823843
204	0x3b3607e6	0.0027775704
205	0xbc8185f9	-0.015810953
206	0x3c87edce	0.016592886
207	0x3aec916e	0.0018048713
208	0xbc18ef87	-0.0093344515
209	0x3b09a46e	0.0021002549
210	0x3b0b66db	0.0021271023
211	0xbbaa8751	-0.0052041193
212	0xba065031	-0.0005123644
213	0x3c5ed7c4	0.013601247
214	0xbbde8b3c	-0.0067915004
215	0x3bec8d49	0.007218991
216	0xbb48c57c	-0.0030635288
217	0xbbe3feb3	-0.0069578527
218	0x3bf50e0f	0.0074784826
219	0x3ba44106	0.005012634
220	0xbbe47f4e	-0.0069731837
221	0x3c77ea5e	0.015131561
222	0xbc85a573	-0.016314244
223	0x3c8ae615	0.016955415
224	0x3be2cbbd	0.00692126
225	0x3c999f15	0.018752614
226	0x3b71ce59	0.0036896674
227	0x3c813d0f	0.015776185
228	0xbb51942f	-0.0031979193
229	0xbc2b4e6a	-0.010455707
230	0x3cbf28b8	0.023334846
231	0xbcd2662c	-0.025683485
232	0xbc0e34b4	-0.008679558
233	0xbbd29929	-0.0064269495
234	0x3cb90471	0.022585126
235	0xbc7a333c	-0.015271004
236	0xbc989024	-0.01862342
237	0xbbc19d81	-0.0059086685
238	0xba18f3ef	-0.0005834689
239	0xbc9f0a71	-0.019414159
240	0xbba9b1af	-0.0051786522
241	0x3bc7122c	0.0060751643
242	0x3c2a51eb	0.010395507
243	0xbc0d71a4	-0.008633051
244	0xbc29eefd	-0.010371921
245	0xbc22f69f	-0.009946494
246	0xbb8bf8c8	-0.0042716004
247	0x3c872fb4	0.016502239
248	0x3cb32138	0.021866426
249	0x3c7c2215	0.015388985
250	0x3be4cb5e	0.006982251
251	0x3c997c08	0.0187359
252	0xbb2cb6e7	-0.0026354135
253	0x3c1e739a	0.009671116
254	0x3c88b8dc	0.01668971
255	0xbace3b8a	-0.0015734297

net.2.bias f4 [32]
0	0x3b7fcd0e	0.0039032134
1	0x3cac22b6	0.021012645
2	0x3b8830c6	0.004156205
3	0x3c375a82	0.011191012
4	0x3c1e7e13	0.009673613
5	0xbc6d5054	-0.014484484
6	0xbc3ebcf4	-0.01164173
7	0x3bccad50	0.0062462464
8	0x3b3f2065	0.0029163596
9	0xbc8257ad	-0.015910948
10	0xbb5613cb	-0.0032665606
11	0x3bb03b69	0.005378176
12	0x3c217e26	0.009856736
13	0xbbec22f8	-0.007206317
14	0xbc8b2a17	-0.016987843
15	0x3c9e1c8e	0.019300725
16	0xbbe059ac	-0.006846627
17	0x3b23788c	0.0024943678
18	0x3cb80207	0.022461904
19	0x3c964868	0.018345073
20	0x3c84d006	0.016212475
21	0xbc8d806f	-0.017273156
22	0xbc945180	-0.018105268
23	0x3cb1a908	0.021687046
24	0x3c70eed1	0.014705376
25	0xbaac9f07	-0.0013169952
26	0xbc986dd0	-0.01860705
27	0x3cba51de	0.022744115
28	0x3ab00052	0.001342783
29	0xbcb91e54	-0.02259747
30	0x3c28de20	0.010306865
31	0xbcae8c4e	-0.021307137

net.4.weight f4 [3, 32, 5, 5]
0	0x3cd08f07	0.025458826
1	0xbd0b84c0	-0.034062147
2	0xbce25275	-0.02762721
3	0xbc5b62b6	-0.013390234
4	0xbcf249f3	-0.029576277
5	0x3c8a7cdb	0.016905239
6	0xbc4ac456	-0.012375912
7	0x3be74624	0.007057922
8	0xbcf68336	-0.030091863
9	0x3cb98d23	0.022650307
10	0x3c5d4319	0.013504767
11	0xbb9c7ab7	-0.004775371
12	0xbd09843f	-0.033573385
13	0x3b3380ad	0.002738993
14	0xbc97d4a6	-0.018534016
15	0xbc6ceeff	-0.014461278
16	0xbce491fb	-0.02790164
17	0x3be809f3	0.007081264
18	0x3c893d19	0.016752766
19	0xbc257913	-0.010099667
20	0x3d0af389	0.03392366
21	0x3d12d3ac	0.035846397
22	0x3ceb4edc	0.028724127
23	0xbc89a7a7	-0.016803576
24	0x3cb145b9	0.021639692
25	0x3cf22eae	0.029563274
26	0x3cc81d23	0.024427956
27	0xbc5e40e2	-0.013565274
28	0x3d086019	0.03329477
29	0x3c934a84	0.017979868
30	0xbab5615d	-0.0013838221
31	0xbcab8cf9	-0.020941244
32	0xbd0a0063	-0.033691775
33	0xbd077a40	-0.03307557
34	0x3cff3f45	0.031158099
35	0x3cd4ed7a	0.025992144
36	0xbcf04392	-0.029329095
37	0xbce62d00	-0.02809763
38	0xbc8a6b8d	-0.016896987
39	0xbd049fd8	-0.032379
40	0x3c77168a	0.015081057
41	0xbcc4a9c3	-0.02400673
42	0xbc91ee5a	-0.01781385
43	0xbcedad45	-0.029013285
44	0x3b0d4baf	0.0021560004
45	0x3cea2f17	0.028586907
46	0xbc32131f	-0.010868817
47	0x3d0a88df	0.033821937
48	0x3c444179	0.0119785005
49	0xbc89b822	-0.016811434
50	0x3b7bec33	0.0038440346
51	0xbb4df186	-0.0031424477
52	0xbcbc83d3	-0.023012077
53	0x3cc3d560	0.023905456
54	0x3cb4799c	0.022030644
55	0x3c63daa2	0.013907107
56	0x3c2252d1	0.00990744
57	0xbc885fff	-0.016647337
58	0x3c68ea86	0.014216071
59	0xbd0003b9	-0.03125355
60	0x3cc64133	0.024201011
61	0x3ca63bd9	0.02029221
62	0xbc992347	-0.01869358
63	0xbcb5e330	-0.022203058
64	0xbcac6910	-0.021046191
65	0x3bf05247	0.007334027
66	0xbbae94b8	-0.0053277873
67	0xbb13a7e9	-0.0022530502
68	0xbc78b174	-0.015179027
69	0xb980b509	-0.00024548944
70	0x3ca44ca9	0.020056086
71	0xbc33adca	-0.0109667275
72	0xbccffc85	-0.025388965
73	0x3cce5720	0.025188029
74	0x3cee36d1	0.029078873
75	0x3c82f95a	0.01598804
76	0x3c512b6a	0.012766698
77	0xbccf3fd6	-0.025298994
78	0x3d02672b	0.03183667
79	0xbc6b4720	-0.014360219
80	0xbb928201	-0.004471064
81	0x3c50744c	0.01272304
82	0xbccd0a7e	-0.025029417
83	0xbc18e534	-0.00933199
84	0x3cb662c3	0.02226389
85	0x3cbc0023	0.022949284
86	0xb907b664	-0.00012942549
87	0xbaee0431	-0.0018159208
88	0xbb4ea11e	-0.0031529139
89	0xbcce0515	-0.025148908
90	0xb972346c	-0.00023098447
91	0x3c732aad	0.014841718
92	0xbb5ca03a	-0.0033664838
93	0xbd0c33a3	-0.034228932
94	0x3b3147bf	0.002705082
95	0xbae65fba	-0.0017576136
96	0xbbe221f7	-0.0069010216
97	0x3d08051b	0.033207994
98	0x3c9f1b29	0.01942213
99	0x3ca76556	0.020434063
100	0xbc35089d	-0.011049417
101	0xbadf9f03	-0.0017060939
102	0xbaef316c	-0.0018248982
103	0x3c9f9c9c	0.019483857
104	0xbcfe5d92	-0.031050477
105	0x3ad9671c	0.0016586515
106	0xbc8bb233	-0.017052745
107	0x3cf03d6d	0.029326165
108	0xbc7c9405	-0.01541615
109	0xbd24cd69	-0.040234957
110	0xbc953e70	-0.01821825
111	0x3c8e1b7c	0.01734709
112	0xbd0ce1f0	-0.03439516
113	0xbb086d81	-0.0020817223
114	0xbd2a35fd	-0.041555393
115	0x3cadc52a	0.02121218
116	0xbccdf62a	-0.025141794
117	0xbc09b9b4	-0.0084060915
118	0xba8e547d	-0.001085892
119	0xbcb07d10	-0.02154401
120	0x3c81133b	0.01575624
121	0xbd0e06d2	-0.034674473
122	0xbba97f4a	-0.0051726447
123	0xbce013e3	-0.027353233
124	0x3bc0407b	0.0058670617
125	0xbc1fda4c	-0.009756636
126	0x3ca7c6e9	0.02048059
127	0x3c827f12	0.015929732
128	0x3d1962f3	0.03744788
129	0xbcc7a775	-0.024371842
130	0xbc99f7f8	-0.018794999
131	0x3c787cf2	0.015166508
132	0xbc24d86e	-0.0100613665
133	0xbceb7742	-0.02874339
134	0x3cb1e6c0	0.021716475
135	0xbc7ba8c3	-0.01536006
136	0x3b967b99	0.0045923707
137	0xbca1bfbb	-0.019744745
138	0xbc73e871	-0.014886961
139	0x3b9b66c0	0.0047424734
140	0xbcd7c6be	-0.026339885
141	0x3c75c3d2	0.0150003005
142	0xbcf2bf5f	-0.029632268
143	0xbbc5e2e9	-0.0060390127
144	0xbc8b7524	-0.01702363
145	0xbcf6a8fd	-0.030109877
146	0xbc86e852	-0.0164682
147	0xbd03de75	-0.032194573
148	0x3b32c2be	0.002727672
149	0xbcbe51c3	-0.023232346
150	0x3c2cef85	0.010555153
151	0xbc56fe82	-0.013122203
152	0xbbfbd7d0	-0.007685639
153	0x3cb387e3	0.021915382
154	0x3c8c5dd6	0.017134588
155	0x3cd3afe7	0.025840713
156	0x3c90c134	0.017670251
157	0x3ce1ad3e	0.027548429
158	0x3d04bea3	0.032408368
159	0xbc78ca5b	-0.015184964
160	0x3c8f665b	0.017504862
161	0x3d0f0c46	0.034923814
162	0x3b52ac4c	0.0032146154
163	0xbc72db7d	-0.014822838
164	0xbc694159	-0.0142367715
165	0x3c4f30d2	0.012645917
166	0x3bd9315c	0.0066281985
167	0x3aca1da1	0.0015420207
168	0xbce54632	-0.027987573
169	0xbc04a9ca	-0.0080971215
170	0xbcc3d076	-0.023903113
171	0x3c66bc25	0.014082943
172	0x3d08bf03	0.033385288
173	0xbba537d0	-0.0050420538
174	0xbb89f535	-0.004210139
175	0x3c3cb5ce	0.011517955
176	0x3d1058c6	0.03524091
177	0x3d157f06	0.036498092
178	0x3a2bf132	0.0006559073
179	0x3ca5f934	0.02026043
180	0x3d05b32d	0.03264158
181	0x3bbab41b	0.00569774
182	0x3c1393ea	0.009007433
183	0xbc1fd8e4	-0.009756301
184	0x3d0c69bb	0.03428052
185	0x3cb20bd0	0.021734148
186	0xbc3cfb80	-0.011534572
187	0x3cf8cc55	0.03037087
188	0xbcbdcd40	-0.02316916
189	0xbccedc7a	-0.025251616
190	0xbd00fa9c	-0.031489
191	0xbc7bfd43	-0.0153802065
192	0x3c6afcb9	0.01434248
193	0x3b005e2f	0.0019587388
194	0x3cdb7f61	0.026794137
195	0x3d07f9a2	0.033197053
196	0x3cfc5689	0.030802982
197	0xbc9661db	-0.018357208
198	0xbc69369d	-0.014234212
199	0x3ac19cc7	0.0014771455
200	0x3cb0cd7f	0.021582363
201	0xbc5ace99	-0.013354921
202	0xbcd3d19e	-0.02585679
203	0x3b59192a	0.0033126571
204	0xbcb69742	-0.022288922
205	0xbce3b12f	-0.027794449
206	0xbb7e5bbb	-0.0038812
207	0xbcf7b29b	-0.030236533
208	0x3c06b05a	0.008220756
209	0xbc4e95cd	-0.0126089575
210	0x3c91e554	0.017809547
211	0xbca87671	-0.02056429
212	0xbc664099	-0.014053487
213	0x3c784b3a	0.015154654
214	0x3a66b9bc	0.000880148
215	0xbc5d148a	-0.013493666
216	0x3b5df7be	0.003386959
217	0xbc0d0527	-0.008607185
218	0xbcedf538	-0.029047593
219	0x3cfec9d2	0.031102095
220	0xbcca6bc1	-0.024709584
221	0xbcf299ea	-0.029614408
222	0xbcf11cf3	-0.02943275
223	0x3b20bb2c	0.0024525626
224	0xbc2fd44d	-0.010731769
225	0xbc7e1384	-0.015507583
226	0xbc40604c	-0.011741709
227	0x3b9fbec5	0.0048750364
228	0x3cb2c153	0.0218207
229	0xbb3ec5cc	-0.0029109595
230	0xbac9c641	-0.0015394167
231	0x3d1b2322	0.037875302
232	0x3bc4a3bd	0.0060009644
233	0xbce6137a	-0.028085459
234	0xbc4893e7	-0.012242294
235	0x3d0db9a1	0.034600858
236	0x3c542519	0.012948298
237	0xbcfb78e7	-0.0306973
238	0x3a4e58c5	0.0007871504
239	0x3ce42fe2	0.027854864
240	0xbcb2f575	-0.021845559
241	0xbd12c657	-0.035833683
242	0xbce7f4d6	-0.028314989
243	0xbc1eec90	-0.009699956
244	0x3cdfa0d0	0.027298361
245	0x3cf20c61	0.029546918
246	0x3d110bfb	0.035411816
247	0x3c5dcda3	0.013537797
248	0x3c61c1c8	0.013779111
249	0xbd018fcc	-0.031631276
250	0xbcde8278	-0.027161822
251	0xbbe820f1	-0.007084005
252	0xbca3a1d0	-0.01997462
253	0x3d0beef0	0.034163415
254	0xb9f6d941	-0.00047082643
255	0xbb8cd682	-0.0042980323

net.4.bias f4 [3]
0	0x3bb4f07c	0.005521832
1	0x3cbef151	0.023308428
2	0x3b7f5b01	0.0038964155
