checkpoints/srcnn_epoch16_2025-03-20_23-02-04.pth (torch, 280012 bytes, 6 tensors)

net.0.weight f4 [64, 3, 9, 9]
0.032377556 -0.019769482 0.031387288 0.0512381 -0.055347845 0.018186826 0.03495569 -0.020726815
-0.026810646 0.011101571 -0.040900502 -0.024686104 0.00025893052 -0.032534845 0.0014383573 0.060322713
0.069306605 -0.013642553 -0.04353875 -0.008623295 0.0017933316 0.056664545 -0.015364611 -0.036132097
0.062093064 0.030552408 0.059197553 0.023350438 -0.03712836 -0.060703617 0.053806227 -0.044043228
-0.014531333 -0.04277217 0.06386085 -0.050833687 -0.01128907 0.0011984465 -0.0062595 -0.024687858
-0.013856969 0.0648676 -0.029534727 -0.028379763 0.040677123 0.06874049 -0.05315562 0.034408376
0.013558078 0.024700962 -0.0060663223 -0.015352811 -0.0531357 0.060339075 0.06282577 -0.027695296
0.068707615 -0.035123173 0.0495772 0.07183865 0.010839773 -0.0041201217 0.01429147 0.038218245
0.06597495 -0.009270225 0.065199636 -0.01255635 -0.020262858 0.032437246 -0.038954094 -0.003293391
-0.02739481 -0.04329218 -0.039706755 -0.04649814 0.04516005 -0.009891747 -0.05535619 0.019320736
-0.027323063 -0.031449053 -0.01608643 -0.035692126 0.01876918 -0.054190807 0.015336023 -0.008727666
-0.02013043 0.051209904 -0.012947269 -0.047875762 0.007651544 -0.053672712 -0.05248939 -0.022022866
0.03782518 0.008666563 0.010030006 0.06735664 0.047066133 0.066841945 -0.052516636 -0.00073951297
0.05309433 -0.039727677 -0.05263692 0.031055402 -0.046744224 -0.0045140674 -0.047875132 -0.023066485
0.041363057 0.02849465 0.010888109 -0.014938417 -0.054328542 0.04123921 0.03300574 -0.0135204075
-0.048665717 0.053664222 -0.05491057 0.05697175 -0.02840725 -0.010689181 -0.032950442 -0.023596564
-0.039859373 -0.027640792 0.046147417 -0.03927259 0.0022915474 0.02997222 0.048560422 -0.039031003
-0.021825232 -0.011691459 0.058596935 -0.0029436657 0.058225375 0.010851858 -0.036467865 -0.048361447
0.046577066 0.048671816 -0.008870239 -0.056408405 0.0007708999 -0.030799003 0.038369045 -0.05648871
0.019973284 0.0016315794 -0.0071294736 -0.04802441 -0.0439321 0.05395874 -0.042104367 -0.022930298
-0.020176698 0.016262695 -0.037928373 0.025126407 0.022068886 -0.030056316 0.03463995 -0.0041905832
0.04051021 -0.009941623 -0.032486245 0.06653678 -0.051257484 -0.023449698 -0.0530103 0.060937412
-0.03903412 0.03406368 -0.053362377 0.035741102 0.032818638 0.060814574 -0.03901707 0.020332156
0.07300701 0.067618914 0.0692157 0.036300767 -0.012051814 0.01267529 -0.046242405 -0.008891003
0.014764824 0.057702564 -0.0066789747 0.052982226 0.061766878 0.027811723 0.061712336 0.06433308
0.021261713 0.050746314 -0.007142519 -0.017948145 0.022616778 0.013925158 -0.010949331 -0.056395136
-0.053526487 -0.024083734 -0.05229059 0.012123284 -0.051755078 -0.017683698 -0.020089367 0.03287192
0.01727743 0.017385148 0.009060465 -0.029186824 0.05586214 0.04207903 0.061766665 -0.031337
-0.027528984 0.06019284 -0.05519451 0.034704287 -0.009465699 -0.056700464 -0.01377625 -0.017936107
-0.016529072 -0.048298873 -0.037831318 0.03018544 0.045637187 -0.01001278 -0.01593085 -0.00050013297
0.047257256 -0.055022627 0.042265646 0.020092033 -0.050510682 0.04538696 0.062549755 0.010109125
-0.012551285 0.05964654 -0.04415457 -0.016770776 -0.007198008 -0.037763562 0.021678802 0.00027153397
00000000: 549e 043d 9cf3 a1bc f58f 003d 0bdf 513d
00000010: 6cb4 62bd 8afc 943c b32d 0f3d 48cb a9bc
00000020: 00a2 dbbc 5de3 353c 4987 27bd 833a cabc
00000030: 11c1 8739 4243 05bd 4387 bc3a f314 773d
00000040: 9ff0 8d3d 0485 5fbc b055 32bd b948 0dbc
00000050: 390e eb3a 1519 683d d9bb 7bbc 40ff 13bd
00000060: 4c55 7e3d 0b49 fa3c 2279 723d 6b49 bf3c
00000070: e813 18bd 5ba4 78bd eb63 5c3d ac66 34bd
00000080: d414 6ebc df31 2fbd 7ac9 823d fc36 50bd
00000090: cbf5 38bc 3115 9d3a 7e1c cdbb 313e cabc
000000a0: 5708 63bc 4ed9 843d d0f2 f1bc ad7c e8bc
000000b0: 0e9d 263d d0c7 8c3d b5b9 59bd ccef 0c3d
000000c0: b322 5e3c ac59 ca3c 00c8 c6bb 5b8a 7bbc
000000d0: d2a4 59bd 1b26 773d ccaa 803d 3fe1 e2bc
000000e0: 94b6 8c3d 51dd 0fbd 7611 4b3d 2420 933d
000000f0: 4e99 313c 1602 87bb c526 6a3c bc8a 1c3d
00000100: e01d 873d 24e2 17bc 6387 853d 26b9 4dbc
00000110: 4bfe a5bc ebdc 043d 548e 1fbd efd5 57bb
00000120: 156b e0bc 2453 31bd 8da3 22bd d574 3ebd
00000130: bff9 383d fe10 22bc 2cbd 62bd 8546 9e3c
00000140: 9ed4 dfbc b9d0 00bd b0c7 83bc e831 12bd
00000150: d3c1 993c 2ef7 5dbd f143 7b3c 7cfe 0ebc
00000160: 92e8 a4bc 7ac1 513d c820 54bc 6019 44bd
00000170: ceb9 fa3b ebd7 5bbd 1dff 56bd 4c69 b4bc
00000180: 93ee 1a3d 33fe 0d3c e554 243c 47f2 893d
00000190: 6bc8 403d 6ee4 883d af1b 57bd e0db 41ba
000001a0: 7179 593d 7db9 22bd d099 57bd e667 fe3c
000001b0: df76 3fbd beea 93bb b718 44bd edf5 bcbc
000001c0: 4f6c 293d 9d6d e93c 0a64 323c 43c0 74bc
000001d0: 9b87 5ebd 72ea 283d 0731 073d b384 5dbc
000001e0: b455 47bd 04cf 5b3d e8e9 60bd 365b 693d
000001f0: 52b6 e8bc ad21 2fbc 0bf7 06bd 954d c1bc
00000200: 9543 23bd f16e e2bc 1305 3d3d 4cdc 20bd
00000210: c92d 163b 4d88 f53c 4be7 463d f9de 1fbd
00000220: d4ca b2bc 898d 3fbc 5703 703d 84ea 40bb
00000230: bb7d 6e3d fecb 313c 545f 15bd a716 46bd
00000240: 98c7 3e3d 195c 473d 7b54 11bc 800c 67bd
00000250: 3716 4a3a 314e fcbc dc28 1d3d b560 67bd
00000260: 039f a33c b8da d53a 5c9e e9bb 3eb5 44bd
00000270: 25f2 33bd d703 5d3d a175 2cbd 52d8 bbbc
00000280: 9a49 a5bc 5839 853c c85a 1bbd e5d5 cd3c
00000290: cfc9 b43c aa38 f6bc 9fe2 0d3d 2951 89bb
000002a0: 09ee 253d 30e2 22bc 4c10 05bd 6f44 883d
000002b0: 5ef3 51bd 9519 c0bc 5421 59bd 8299 793d
000002c0: 3ee2 1fbd 5b86 0b3d 8292 5abd 4365 123d
000002d0: d66c 063d b418 793d 5dd0 1fbd 9f8f a63c
000002e0: b384 953d c97b 8a3d f6c0 8d3d 1db0 143d
000002f0: f974 45bc 05ac 4f3c ad68 3dbd 92ab 11bc
00000300: 29e8 713c 8659 6c3d 4ddb dabb e403 593d
00000310: 44ff 7c3d 69d5 e33c 13c6 7c3d 10c1 833d
00000320: 0b2d ae3c 5edb 4f3d cb0b eabb fd07 93bc
00000330: d246 b93c 5926 643c d364 33bc 96fe 66bd
00000340: 973e 5bbd 404b c5bc a82e 56bd bda0 463c
00000350: 22fd 53bd 67dd 90bc 7592 a4bc b5a4 063d
00000360: 6689 8d3c 4c6b 8e3c 5872 143c 3519 efbc
00000370: b3cf 643d 105b 2c3d 0bff 7c3d 3a5b 00bd
00000380: 7784 e1bc c48c 763d a313 62bd 1526 0e3d
00000390: 0516 1bbc bf3e 68bd c8b5 61bc beee 92bc
000003a0: fa67 87bc 0ad5 45bd 03f5 1abd 7547 f73c
000003b0: 0fee 3a3d a50c 24bc 6a81 82bc 5b1b 03ba
000003c0: d390 413d 685f 61bd be1e 2d3d 0c98 a43c
000003d0: 4ae4 4ebd ade7 393d 161a 803d bea0 253c
000003e0: e8a3 4dbc ee4f 743d 6cdb 34bd de62 89bc
000003f0: 44dd ebbb f7ad 1abd be97 b13c ac5c 8e39

net.0.bias f4 [64]
0.059740435 0.02121649 0.057390742 0.016749248 0.055802625 0.04148183 0.03144706 0.0262493
0.04456903 -0.05023386 0.02008664 -0.022168212 -0.0078026564 0.0013412521 -0.036779087 -0.00954068
-0.038411036 0.00088055455 0.00090942666 -0.039313544 -0.043063946 0.03279418 0.00012258015 0.014725862
0.03968838 0.008812061 -0.03028275 0.01236123 0.05051646 0.013062504 0.05462823 0.01679104
-0.020238373 0.020124117 -0.054181863 -0.026042385 0.035212576 0.02989548 0.054262865 0.041115336
0.008805286 -0.007178409 -0.03304873 -0.047449607 -0.027530095 0.06259267 -0.035042107 0.063823454
-0.0057072104 0.037798848 -0.058017712 0.04998661 -0.058330543 -0.009775213 -0.006569172 0.017603189
0.04987493 -0.04886527 0.008057195 0.010361731 0.06434807 0.026777953 0.036292747 -0.015199753
00000000: 63b2 743d 34ce ad3c 8e12 6b3d b835 893c
00000010: 4b91 643d dae8 293d a2ce 003d c608 d73c
00000020: 048e 363d 05c2 4dbd bd8c a43c 1c9a b5bc
00000030: 6dad ffbb f4cc af3a aba5 16bd 8350 1cbc
00000040: e454 1dbd 04d5 663a 9766 6e3a 3d07 21bd
00000050: d263 30bd 3153 063d dc88 0039 be44 713c
00000060: 4890 223d 7660 103c 8813 f8bc c286 4a3c
00000070: 59ea 4e3d 1d04 563c dac1 5f3d 5d8d 893c
00000080: f2ca a5bc 55db a43c cded 5dbd d756 d5bc
00000090: 103b 103d 5ee7 f43c bd42 5e3d 8e68 283d
000000a0: 0c44 103c dc38 ebbb 1b5e 07bd 855a 42bd
000000b0: cb86 e1bc 9630 803d 5088 0fbd dfb5 823d
000000c0: 8d03 bbbb f7d2 1a3d fba3 6dbd c2be 4c3d
000000d0: 02ec 6ebd 3728 20bc 3542 d7bb 9034 903c
000000e0: a849 4c3d f326 48bd 5302 043c 40c4 293c
000000f0: ecc8 833d 705d db3c b4a7 143d 6308 79bc

net.2.weight f4 [32, 64, 5, 5]
-0.0041749254 0.01599989 -0.0016505392 -0.023152363 0.019195465 0.0038821194 0.007094433 -0.0072729196
0.00017987643 -0.0034987528 -0.011229985 0.022737605 0.011063293 -0.024264013 -0.010173336 -0.0041545406
0.009210384 -0.007871145 0.0107636675 0.022186201 -0.011178256 0.012550547 0.017998869 -0.0017446141
0.014524689 -0.016532764 0.023750193 0.001443502 0.000745198 -0.02009161 -0.021899184 0.014424521
-0.00712486 0.018809719 -0.0057514724 0.007274264 0.013288603 -0.025026001 -0.009602365 0.019069072
-0.021585947 0.0022013937 -0.014884753 -0.02252499 0.0078868335 0.010514542 -0.0070678024 0.006515665
-0.01934588 0.016749702 0.009798507 -0.0045651477 0.0061005387 -0.014224751 0.0031202743 -0.010517747
0.023212556 -0.0034803066 0.009934883 0.0010683694 0.0047797444 -0.010503269 0.014680729 0.022986716
-0.010198209 0.006811947 -0.005672826 0.006101682 -0.008349695 -0.0020386567 0.021917377 -0.00051216857
0.004636723 -0.0046801902 0.020418491 -0.003979853 0.014251363 -0.028123036 -0.012212958 -0.016943512
0.004645914 0.01601629 -0.029504366 -0.012530441 -0.012858896 -0.0073337653 -0.028790725 0.0150379315
0.0014948271 -0.01815628 0.017621372 -0.003670933 -0.015535195 -0.013318552 -0.008814202 -0.025194056
-0.0021821803 -0.019232815 0.0114223035 0.011713227 0.00949104 0.02330234 0.018111778 -0.016020333
0.007535132 -0.021560114 -0.0005861897 -0.0011659028 -0.02111644 0.004448658 -0.0042025796 -0.022283513
-0.0005477992 0.021602983 0.02042582 -0.020960044 0.010878434 -0.019333187 0.023462635 0.023853984
0.021898337 -0.011990778 -0.006441946 -0.0051462934 0.017846446 -0.024631863 -0.02341731 0.019233102
-0.02571065 -0.010886243 0.005587828 0.0008616896 -0.024051731 0.00916832 -0.01765849 0.012597366
0.023203876 0.018062422 0.004553161 0.0057322867 -0.019762853 -0.018202204 0.0073747803 -0.025807535
-0.016744874 0.022555359 0.022842648 -0.02405125 -0.009341783 0.0031521437 0.01881499 0.0064822054
-0.02063303 0.023541572 -0.0119150365 -0.010721315 0.012244812 0.0128858285 -0.009740185 0.0056817816
-0.022520091 -0.02391562 -0.016762933 -0.021961229 -0.014615797 -0.00568478 -0.016355176 -0.023344984
0.009699634 -0.022457004 0.014446356 0.008043573 -0.02617784 -0.020894915 0.021588586 -0.016207693
0.01970985 0.019354587 0.022741044 0.0048094587 0.018383134 -0.0036114436 -0.019129466 -0.02151099
-0.008716888 -0.014190552 0.0126519995 0.014677822 -0.005272399 0.015419171 0.015357731 -0.001806269
-0.015695643 0.00056984206 0.0053143175 -0.007525544 0.01597419 -0.008676301 0.006070425 0.022525592
-0.023476712 -0.010632592 -0.01022733 0.017823843 0.0027775317 -0.015810966 0.016592858 0.0018048356
-0.009334464 0.0021002318 0.002127242 -0.005204024 -0.0005122994 0.013601527 -0.0067910994 0.0072192447
-0.0030632198 -0.0069574583 0.0074790595 0.0050133998 -0.0069729965 0.015131698 -0.016314095 0.016955635
0.0069215694 0.018752614 0.0036896674 0.015776185 -0.0031979305 -0.010455712 0.023334846 -0.025683485
-0.008679558 -0.0064269495 0.022585126 -0.015271004 -0.01862342 -0.005908664 -0.00058343477 -0.019414118
-0.0051786546 0.006075163 0.010395516 -0.008633013 -0.010371871 -0.009946494 -0.0042716004 0.016502239
0.021866426 0.015388986 0.006982234 0.018735869 -0.0026354697 0.009671059 0.016689641 -0.001573444
00000000: d0cd 88bb 3412 833c e856 d8ba 06aa bdbc
00000010: cf3f 9d3c 286b 7e3b 6b78 e83b ac51 eebb
00000020: 369d 3c39 554b 65bb f9fd 37bc 3744 ba3c
00000030: d042 353c 53c5 c6bc 10ae 26bc d022 88bb
00000040: 27e7 163c faf5 00bc 185a 303c d6bf b53c
00000050: 0125 37bc cfa0 4d3c 5d72 933c 89ab e4ba
00000060: f6f8 6d3c b86f 87bc c48f c23c e433 bd3a
00000070: 6459 433a 2997 a4bc eb65 b3bc d354 6c3c
00000080: a877 e9bb d716 9a3c d976 bcbb f35c ee3b
00000090: 71b8 593c 5403 cdbc 3d53 1dbc be36 9c3c
000000a0: 03d5 b0bc 4245 103b 2edf 73bc 5486 b8bc
000000b0: c737 013c 3045 2c3c 0699 e7bb 5c81 d53b
000000c0: 407b 9ebc ac36 893c eb89 203c 3c97 95bb
000000d0: 07e7 c73b ee0e 69bc 847d 4c3b a152 2cbc
000000e0: 4228 be3c db15 64bb ebc5 223c 8708 8c3a
000000f0: 679f 9c3b e715 2cbc 7187 703c a34e bc3c
00000100: 6416 27bc c136 df3b 1de3 b9bb 9ef0 c73b
00000110: 29cd 08bc fc9a 05bb 128c b33c 0d43 06ba
00000120: a7ef 973b 485c 99bb ae44 a73c 6d69 82bb
00000130: 8d7e 693c 4862 e6bc dc18 48bc 1fcd 8abc
00000140: c03c 983b 9834 833c 24b3 f1bc 7b4c 4dbc
00000150: 1eae 52bc 1550 f0bb 87da ebbc a861 763c
00000160: 13ee c33a 7bbc 94bc b25a 903c 0994 70bb
00000170: 5587 7ebc 0e36 5abc 7169 10bc c463 cebc
00000180: e902 0fbb 238e 9dbc 9d24 3b3c d6e8 3f3c
00000190: 4f80 1b3c 8de4 be3c 275f 943c 133d 83bc
000001a0: 45e9 f63b d69e b0bc 86aa 19ba 35d1 98ba
000001b0: 62fc acbc 0cc6 913b cbb5 89bb ea8b b6bc
000001c0: 2f9a 0fba bdf8 b03c 0d54 a73c 66b4 abbc
000001d0: 763b 323c a260 9ebc b634 c03c 6e69 c33c
000001e0: 2464 b33c f874 44bc f616 d3bb 3da2 a8bb
000001f0: b632 923c c3c8 c9bc a9d5 bfbc bd8e 9d3c
00000200: 249f d2bc 365c 32bc 191a b73b 03e3 613a
00000210: 2308 c5bc b936 163c 8aa8 90bc 2f65 4e3c
00000220: 0e16 be3c a5f7 933c af32 953b e8d5 bb3b
00000230: b5e5 a1bc ca1c 95bc 24a8 f13b 536a d3bc
00000240: 8c2c 89bc 04c6 b83c 8120 bb3c 2107 c5bc
00000250: 470e 19bc 3294 4e3b e521 9a3c ae68 d43b
00000260: 9a06 a9bc 41da c03c 4937 43bc 74a8 2fbc
00000270: 779e 483c 151f 533c 4c95 1fbc 3d2e ba3b
00000280: 0e7c b8bc b1ea c3bc 6b52 89bc 09e8 b3bc
00000290: 1977 6fbc 6447 babb 4afb 85bc fb3d bfbc
000002a0: 37eb 1e3c c0f7 b7bc 69b0 6c3c 31c9 033c
000002b0: e972 d6bc d02b abbc 8cda b03c ffc5 84bc
000002c0: 8d76 a13c 838d 9e3c 6d4b ba3c aa98 9d3b
000002d0: 3a98 963c f8ad 6cbb 66b5 9cbc d137 b0bc
000002e0: 47d1 0ebc 7d7f 68bc 554a 4f3c 3f7b 703c
000002f0: 17c4 acbb b1a0 7c3c fe9e 7b3c 55c0 ecba
00000300: 2694 80bc 7461 153a ba23 ae3b d798 f6bb
00000310: 4edc 823c 0b27 0ebc 6aea c63b 9787 b83c
00000320: 3c52 c0bc 5334 2ebc 8890 27bc 4f03 923c
00000330: 4007 363b 0086 81bc bfed 873c 3c90 ec3a
00000340: 94ef 18bc 0ba4 093b 3369 0b3b 8486 aabb
00000350: d54b 06ba f0d8 5e3c df87 debb 6a8f ec3b
00000360: 4dc0 48bb 64fb e3bb e612 f53b 7247 a43b
00000370: bc7d e4bb f1ea 773c 23a5 85bc 8be6 8a3c
00000380: 55ce e23b 159f 993c 59ce 713b 0f3d 813c
00000390: 5f94 51bb 6f4e 2bbc b828 bf3c 2c66 d2bc
000003a0: b434 0ebc 2999 d2bb 7104 b93c 3c33 7abc
000003b0: 2490 98bc 779d c1bb a5f1 18ba 5b0a 9fbc
000003c0: b4b1 a9bb 2912 c73b f451 2a3c 7b71 0dbc
000003d0: c8ee 29bc 9ff6 22bc c8f8 8bbb b42f 873c
000003e0: 3821 b33c 1622 7c3c 39cb e43b f77b 993c
000003f0: d8b7 2cbb 5d73 1e3c b7b8 883c 053c ceba

net.2.bias f4 [32]
0.0039032344 0.021014115 0.0041651246 0.011191039 0.009680296 -0.014511938 -0.011610045 0.0062620835
0.0029466413 -0.015959512 -0.0032665606 0.0053364085 0.0099541405 -0.0070958026 -0.016975043 0.019320956
-0.0068263784 0.0024943678 0.022551794 0.01842266 0.016428426 -0.017246837 -0.018074522 0.021720322
0.014663918 -0.0013096707 -0.018555654 0.023052623 0.0014547991 -0.021459818 0.010337319 -0.021300452
00000000: 68cd 7f3b cb25 ac3c 997b 883b 9f5a 373c
00000010: 1b9a 1e3c 7bc3 6dbc 0f38 3ebc 2a32 cd3b
00000020: 701c 413b 86bd 82bc cb13 56bb 0add ae3b
00000030: b116 233c e883 e8bb 3f0f 8bbc fb46 9e3c
00000040: d0af dfbb 8c78 233b 8abe b83c 1eeb 963c
00000050: e894 863c 3d49 8dbc 0511 94bc d1ee b13c
00000060: ee40 703c 42a9 abba 0702 98bc dbd8 bc3c
00000070: f5ae be3a 80cc afbc dc5d 293c 497e aebc

net.4.weight f4 [3, 32, 5, 5]
0.025458826 -0.034062147 -0.02762721 -0.013390234 -0.029576277 0.016905239 -0.012375912 0.007057922
-0.030091863 0.022650307 0.013504767 -0.004775371 -0.033573385 0.002738993 -0.018534016 -0.014461278
-0.02790164 0.007081264 0.016752766 -0.010099667 0.03392366 0.035846397 0.028724127 -0.016803576
0.021639692 0.029563274 0.024427956 -0.013565274 0.03329477 0.017979868 -0.0013838349 -0.020941244
-0.033691775 -0.03307557 0.031158099 0.025991844 -0.029329475 -0.028098088 -0.016897619 -0.032379612
0.01508079 -0.024007007 -0.017814172 -0.029013643 0.00215561 0.028586788 -0.010868896 0.03382178
0.0119783105 -0.01681156 0.003774342 -0.0031874957 -0.02306284 0.023951704 0.022052046 0.01387651
0.009887576 -0.016699202 0.014242706 -0.03127767 0.024217675 0.02028631 -0.018712658 -0.022161838
-0.021047914 0.007301241 -0.0053940485 -0.0023050937 -0.015157152 -0.00022587585 0.020062732 -0.01098759
-0.025440056 0.02520974 0.029123215 0.015878122 0.012592857 -0.02531022 0.031833537 -0.014289273
-0.0045197112 0.012595093 -0.025091803 -0.009291868 0.022380177 0.02288996 -0.00017312611 -0.0017979624
-0.003176729 -0.025040336 -0.0004127004 0.014681779 -0.0034447862 -0.034446497 0.0027680977 -0.0018776547
-0.0070090415 0.03325404 0.019344794 0.02058235 -0.011218808 -0.0018538655 -0.0018623502 0.019133063
-0.03142795 0.0015698061 -0.0171534 0.029259479 -0.015680784 -0.04058985 -0.018191973 0.01724267
-0.034452245 -0.0023201017 -0.041900326 0.021038204 -0.02552676 -0.008505441 -0.0014106979 -0.021986246
0.015509536 -0.03503184 -0.005209196 -0.027522426 0.005565081 -0.010378782 0.020396408 0.01571049
0.038269613 -0.024683332 -0.019169532 0.015327881 -0.009995976 -0.027691457 0.021636385 -0.01579356
0.0046934877 -0.019722806 -0.013903277 0.0045771473 -0.026900824 0.0149507 -0.029765159 -0.0052149743
-0.017339716 -0.030665481 -0.01653399 -0.03234352 0.003505319 -0.023580536 0.010525044 -0.013163489
-0.007691378 0.021907352 0.017078064 0.025894264 0.017657042 0.027572881 0.032420382 -0.015229242
0.01755623 0.03491493 0.0032250087 -0.0148584815 -0.014252576 0.012614547 0.006585859 0.0015515685
-0.028018031 -0.008100165 -0.023902107 0.014093064 0.03344245 -0.005013913 -0.0041930615 0.011521143
0.035209842 0.03650216 0.0006605491 0.020260416 0.0326352 0.0056654545 0.009025109 -0.009755504
0.034281313 0.021718223 -0.0115221515 0.03043231 -0.02315942 -0.025243435 -0.031497743 -0.015372549
0.014368753 0.0019555779 0.026798224 0.033205524 0.030796202 -0.018362276 -0.014223796 0.0015153704
0.021572107 -0.013408314 -0.025906237 0.0032517526 -0.022334846 -0.027845878 -0.004080514 -0.030329077
0.008136273 -0.012696157 0.017815478 -0.02071911 -0.014145983 0.015056698 0.0008361182 -0.013481119
0.003378844 -0.0086380765 -0.029169498 0.031151943 -0.02470382 -0.029571299 -0.02939194 0.0023761669
-0.010636068 -0.015684117 -0.012052798 0.0049584596 0.021782596 -0.002934625 -0.001465203 0.037967246
0.006092325 -0.028308555 -0.012274694 0.034768354 0.013105377 -0.030498458 0.00069904834 0.02814993
-0.02203118 -0.036105946 -0.028264118 -0.010014778 0.02729328 0.029530354 0.035350766 0.013788802
0.013510144 -0.031835537 -0.027161822 -0.007084005 -0.01997462 0.034163415 -0.00047082643 -0.0042980323
00000000: 078f d03c c084 0bbd 7552 e2bc b662 5bbc
00000010: f349 f2bc db7c 8a3c 56c4 4abc 2446 e73b
00000020: 3683 f6bc 238d b93c 1943 5d3c b77a 9cbb
00000030: 3f84 09bd ad80 333b a6d4 97bc ffee 6cbc
00000040: fb91 e4bc f309 e83b 193d 893c 1379 25bc
00000050: 89f3 0a3d acd3 123d dc4e eb3c a7a7 89bc
00000060: b945 b13c ae2e f23c 231d c83c e240 5ebc
00000070: 1960 083d 844a 933c cb61 b5ba f98c abbc
00000080: 6300 0abd 407a 07bd 453f ff3c d9ec d43c
00000090: 5e44 f0bc f62d e6bc e06c 8abc 7ca0 04bd
000000a0: 6b15 773c 58aa c4bc 07ef 91bc 05ae edbc
000000b0: 2245 0d3b d72e ea3c 7413 32bc b588 0a3d
000000c0: ad40 443c 66b8 89bc f35a 773b 4ee5 50bb
000000d0: 48ee bcbc 5d36 c43c 7ea6 b43c 4d5a 633c
000000e0: 80ff 213c c4cc 88bc 3d5a 693c 041d 00bd
000000f0: 2564 c63c 7a2f a63c 4a4b 99bc be8c b5bc
00000100: ad6c acbc 403f ef3b 8fc0 b0bb 0e11 17bb
00000110: b455 78bc 16d9 6cb9 995a a43c 4b05 34bc
00000120: aa67 d0bc a884 ce3c cf93 ee3c d612 823c
00000130: 4552 4e3c 6157 cfbc e263 023d 8e1d 6abc
00000140: 161a 94bb a65b 4e3c 538d cdbc eb3c 18bc
00000150: a256 b73c ba83 bb3c 3089 35b9 9ba9 ebba
00000160: ab30 50bb 6421 cdbc b65f d8b9 d88b 703c
00000170: ecc1 61bb c517 0dbd f968 353b a31b f6ba
00000180: 1aac e5bb 6335 083d f978 9e3c 519c a83c
00000190: 17cf 37bc 67fd f2ba 1a1a f4ba f1bc 9c3c
000001a0: 98ba 00bd f4c1 cd3a 4a85 8cbc 93b1 ef3c
000001b0: fd74 80bc 8b41 26bd 5507 95bc 8040 8d3c
000001c0: cc1d 0dbd d90c 18bb ad9f 2bbd 5058 ac3c
000001d0: 7f1d d1bc 685a 0bbc 2be7 b8ba 801c b4bc
000001e0: b51b 7e3c 8c7d 0fbd e7b1 aabb b676 e1bc
000001f0: 485b b63b c40b 2abc 5e16 a73c 49b3 803c
00000200: 99c0 1c3d b334 cabc 6c09 9dbc cb21 7b3c
00000210: 2ac6 23bc 32d9 e2bc ca3e b13c 7f61 81bc
00000220: d4cb 993b b991 a1bc 92ca 63bc e5fb 953b
00000230: 1e5f dcbc c8f3 743c 10d6 f3bc 60e2 aabb
00000240: 050c 8ebc 2d36 fbbc 4a72 87bc a47a 04bd
00000250: 7eb9 653b f82b c1bc 3c71 2c3c adab 57bc
00000260: f407 fcbb 0c77 b33c 4ce7 8b3c 3520 d43c
00000270: 80a5 903c 86e0 e13c 3ccb 043d 1284 79bc
00000280: 15d2 8f3c f502 0f3d ab5a 533b fd70 73bc
00000290: a383 69bc 3fad 4e3c 31ce d73b 005e cb3a
000002a0: 1286 e5bc 8eb6 04bc 5ace c3bc 98e6 663c
000002b0: f3fa 083d c04b a4bb f365 89bb 2dc3 3c3c
000002c0: 3238 103d 4a83 153d b328 2d3a 2cf9 a53c
000002d0: 7dac 053d 47a5 b93b 0dde 133c 8dd5 1fbc
000002e0: 906a 0c3d 6aea b13c 68c7 3cbc 2e4d f93c
000002f0: d3b8 bdbc 52cb cebc c703 01bd 25dd 7bbc
00000300: eb6a 6b3c 2729 003b f387 db3c 8402 083d
00000310: 5148 fc3c 7c6c 96bc ed0a 69bc 659f c63a
00000320: fdb7 b03c 8cae 5bbc 5139 d4bc 5b1b 553b
00000330: 91f7 b6bc 0a1d e4bc d5b5 85bb af74 f8bc
00000340: 014e 053c 8b03 50bc c4f1 913c 1fbb a9bc
00000350: 8ec4 67bc 5eb0 763c f12e 5b3a e9df 5cbc
00000360: 986f 5d3b b886 0dbc dff4 eebc 5c32 ff3c
00000370: aa5f cabc 823f f2bc 5ec7 f0bc 77b9 1b3b
00000380: e742 2ebc fa7b 80bc 1979 45bc 937a a23b
00000390: 6a71 b23c d652 40bb 0e0c c0ba 8b83 1b3d
000003a0: 20a2 c73b 58e7 e7bc cc1b 49bc 4369 0e3d
000003b0: efb7 563c e7d7 f9bc 5740 373a af9a e63c
000003c0: bc7a b4bc d4e3 13bd 278a e7bc 0615 24bc
000003d0: 2896 df3c a4e9 f13c f7cb 103d 6dea 613c
000003e0: a759 5d3c fb65 02bd 7882 debc f120 e8bb
000003f0: d0a1 a3bc f0ee 0b3d 41d9 f6b9 82d6 8cbb

net.4.bias f4 [3]
0.0055534043 0.02331974 0.00391272
00000000: 55f9 b53b 0a09 bf3c 4636 803b
