checkpoints/srcnn_epoch22_2025-03-20_23-02-04.pth (torch, 280012 bytes, 6 tensors)

net.0.weight f4 [64, 3, 9, 9]
0	0x3d058cf3	0.032605123
1	0xbca13318	-0.019677684
2	0x3d00b77f	0.031424996
3	0x3d53e174	0.05172868
4	0xbd61bea6	-0.055113457
5	0x3c992c15	0.018697778
6	0x3d126550	0.03574115
7	0xbca534ac	-0.020166717
8	0xbcd70608	-0.026247993
9	0x3c3590d0	0.011081889
10	0xbd2768af	-0.04087132
11	0xbcc65030	-0.024208158
12	0x3a5e235e	0.0008473898
13	0xbd05e2f5	-0.032687146
14	0x3ae89d12	0.0017747006
15	0x3d79c241	0.06097627
16	0x3d8da5d9	0.069163986
17	0xbc5e0082	-0.013549926
18	0xbd32efc7	-0.0436857
19	0xbc0e23b1	-0.008675502
20	0x3ae69373	0.0017591551
21	0x3d67dc0c	0.056606337
22	0xbc7a786e	-0.015287502
23	0xbd138a04	-0.036020294
24	0x3d7f1e52	0.062284775
25	0x3cf34f55	0.029700914
26	0x3d71300a	0.058883704
27	0x3cbf1335	0.023324588
28	0xbd176142	-0.036957987
29	0xbd7a18d1	-0.061058823
30	0x3d5ad053	0.05342133
31	0xbd326f5f	-0.043563243
32	0xbc76989b	-0.015051032
33	0xbd2ff23e	-0.04295563
34	0x3d81785c	0.06321785
35	0xbd5131d0	-0.051072896
36	0xbc385264	-0.011250112
37	0x3aba4fe5	0.0014214484
38	0xbbc79a95	-0.0060914257
39	0xbcc8af77	-0.02449773
40	0xbc51acf2	-0.012797581
41	0x3d83e11c	0.064394206
42	0xbcf1a7d2	-0.029498968
43	0xbce71ae1	-0.028211059
44	0x3d276054	0.04086335
45	0x3d8c5e97	0.06853979
46	0xbd5ac3bc	-0.053409323
47	0x3d0e4e01	0.03474236
48	0x3c62ddbc	0.013846811
49	0x3cd4adcb	0.025961777
50	0xbbb897b1	-0.0056333174
51	0xbc7689ba	-0.015047485
52	0xbd590943	-0.05298735
53	0x3d77e86d	0.060524393
54	0x3d8085a9	0.06275494
55	0xbce4817e	-0.027893778
56	0x3d8dc2e9	0.06921942
57	0xbd0d96ce	-0.034567647
58	0x3d50b047	0.05094936
59	0x3d959670	0.07304084
60	0x3c383446	0.011242932
61	0xbb90d516	-0.004419933
62	0x3c6af6e7	0.014341093
63	0x3d1c0906	0.038094543
64	0x3d86956c	0.06571469
65	0xbc15078c	-0.009096038
66	0x3d868429	0.06568176
67	0xbc44dae5	-0.012015079
68	0xbca326de	-0.019915994
69	0x3d0479ad	0.0323426
70	0xbd21d760	-0.03951204
71	0xbb5b6606	-0.0033477559
72	0xbce33452	-0.02773491
73	0xbd334d39	-0.043774817
74	0xbd23ad59	-0.03996024
75	0xbd3d801b	-0.04626475
76	0x3d38dbb4	0.0451314
77	0xbc27a604	-0.010232452
78	0xbd63f42f	-0.055652793
79	0x3c9bb9f5	0.01900957
80	0xbcdf7dae	-0.027281608
81	0xbcfac2f0	-0.030610532
82	0xbc7f3e81	-0.015578867
83	0xbd119dad	-0.035550762
84	0x3c9cb36c	0.019128524
85	0xbd5e7219	-0.05430803
86	0x3c7cc431	0.015427635
87	0xbc04f640	-0.008115351
88	0xbca02351	-0.01954809
89	0x3d550a74	0.052011922
90	0xbc4ade62	-0.012382122
91	0xbd428dda	-0.04749856
92	0x3c05042e	0.008118672
93	0xbd5a97b8	-0.053367347
94	0xbd59a6bc	-0.053137526
95	0xbcb5cbbf	-0.02219188
96	0x3d1cde0f	0.03829771
97	0x3c0c8ee7	0.008578992
98	0x3c2a91c5	0.010410731
99	0x3d8abd92	0.06774439
100	0x3d41be25	0.047300477
101	0x3d88b186	0.06674485
102	0xbd58a580	-0.052892208
103	0xba909682	-0.0011031183
104	0x3d589299	0.05287418
105	0xbd21271e	-0.039343946
106	0xbd590fca	-0.052993573
107	0x3d00446e	0.03131526
108	0xbd3d77ec	-0.046256945
109	0xbb85b36e	-0.0040802276
110	0xbd45cd3a	-0.048291422
111	0xbcc318ab	-0.023815474
112	0x3d292caa	0.04130236
113	0x3ce1a8be	0.027546283
114	0x3c34f22d	0.011044067
115	0xbc73486c	-0.01484881
116	0xbd5d0251	-0.053957287
117	0x3d2b4b28	0.04181972
118	0x3d0913f2	0.033466287
119	0xbc5d9074	-0.01352321
120	0xbd495e3f	-0.049162146
121	0x3d5bb263	0.05363692
122	0xbd66dcb8	-0.056362838
123	0x3d696379	0.05697963
124	0xbce37c17	-0.027769132
125	0xbc268f23	-0.010165962
126	0xbd05915b	-0.032609325
127	0xbcc2b202	-0.023766521
128	0xbd24098e	-0.040048175
129	0xbcea155e	-0.028574642
130	0x3d3b1de4	0.045682803
131	0xbd25115a	-0.04029975
132	0x3b112937	0.002214981
133	0x3cf83934	0.030300714
134	0x3d4862d8	0.04892239
135	0xbd1e0a30	-0.038583934
136	0xbcb46267	-0.022019578
137	0xbc41629b	-0.0118032945
138	0x3d6d367f	0.0579133
139	0xbb4f88ec	-0.0031667305
140	0x3d6e824b	0.058229726
141	0x3c34ea28	0.011042155
142	0xbd159689	-0.036520515
143	0xbd44906f	-0.047989305
144	0x3d40c1e5	0.047059912
145	0x3d4727ca	0.04862193
146	0xbc128f17	-0.008945248
147	0xbd6784de	-0.056523196
148	0x3a225b5f	0.0006193425
149	0xbcfc79cb	-0.030819794
150	0x3d1db42a	0.038501896
151	0xbd67b73e	-0.056571238
152	0x3ca7c921	0.020481648
153	0x3b04aba3	0.0020243905
154	0xbbea72f8	-0.0071548186
155	0xbd4519aa	-0.04812018
156	0xbd32d034	-0.04365559
157	0x3d5d7d04	0.054074302
158	0xbd2c7c47	-0.042110708
159	0xbcb9ee50	-0.022696644
160	0xbca30a91	-0.0199025
161	0x3c8ad155	0.01694552
162	0xbd1c224b	-0.03811864
163	0x3ccaba96	0.024747174
164	0x3cb16eef	0.021659343
165	0xbcf4fbd6	-0.029905241
166	0x3d0c7fc6	0.03430154
167	0xbb9760a6	-0.0046196757
168	0x3d2513ff	0.040302273
169	0xbc2db1d4	-0.01060148
170	0xbd07876d	-0.033088136
171	0x3d877940	0.066149235
172	0xbd535487	-0.051594283
173	0xbcbdd8c8	-0.023174658
174	0xbd56b0c1	-0.05241466
175	0x3d78a33e	0.060702555
176	0xbd201f79	-0.039092515
177	0x3d0c4b52	0.03425152
178	0xbd5e77e4	-0.054313555
179	0x3d0f699e	0.035012834
180	0x3d046a12	0.03232772
181	0x3d78469d	0.060614217
182	0xbd1ed2fc	-0.03877543
183	0x3caa861f	0.020815907
184	0x3d96f73f	0.07371377
185	0x3d8bd7d5	0.06828276
186	0x3d8f828f	0.07007324
187	0x3d121b9f	0.035670873
188	0xbc4c8273	-0.012482273
189	0x3c4a2479	0.012337797
190	0xbd3c775c	-0.046012267
191	0xbc0c320a	-0.008556852
192	0x3c7a4ec6	0.01527757
193	0x3d71e106	0.05905249
194	0xbbce8516	-0.006302486
195	0x3d5d4a48	0.05402592
196	0x3d7d72b7	0.06187698
197	0x3ce2be49	0.027678626
198	0x3d7c624e	0.06161719
199	0x3d84a762	0.06477238
200	0x3cb4aedb	0.022056034
201	0x3d526dca	0.051374234
202	0xbbc7bf76	-0.006095822
203	0xbc965f5f	-0.018356023
204	0x3cbea509	0.023272054
205	0x3c6bfd68	0.0144036785
206	0xbc344df7	-0.011004916
207	0xbd676554	-0.05649312
208	0xbd5b9bd6	-0.053615414
209	0xbcc2e2d8	-0.023789808
210	0xbd5815a1	-0.052755002
211	0x3c437981	0.011930824
212	0xbd569360	-0.05238664
213	0xbc8f787e	-0.01751351
214	0xbca4d278	-0.02011989
215	0x3d0596bf	0.032614466
216	0x3c8eba92	0.017422948
217	0x3c8d174f	0.017223028
218	0x3c152cf8	0.00910496
219	0xbcf49e53	-0.029860651
220	0x3d636abf	0.055521723
221	0x3d2cdc12	0.042202063
222	0x3d7e59a1	0.062097196
223	0xbd0201ac	-0.031739876
224	0xbce2d4ec	-0.02768942
225	0x3d77c613	0.060491633
226	0xbd6206de	-0.05518233
227	0x3d0e8fee	0.03480523
228	0xbc1a5d79	-0.0094217
229	0xbd67f49f	-0.056629773
230	0xbc5c34f9	-0.013440364
231	0xbc906479	-0.017626034
232	0xbc8ae4e3	-0.016954845
233	0xbd4596f6	-0.04823967
234	0xbd19f54d	-0.037587453
235	0x3cf76cf1	0.030203314
236	0x3d3b349e	0.045704477
237	0xbc1b45ff	-0.009477138
238	0xbc7c2f16	-0.015392086
239	0xb9008e15	-0.00012259961
240	0x3d426688	0.047461063
241	0xbd62745b	-0.055286746
242	0x3d2dafca	0.042403974
243	0x3ca4869a	0.020083714
244	0xbd4e3af7	-0.050349202
245	0x3d3949bd	0.045236338
246	0x3d803d9b	0.0626175
247	0x3c2983cd	0.010346365
248	0xbc4c875c	-0.012483444
249	0x3d7619ea	0.060083307
250	0xbd3311ea	-0.043718256
251	0xbc86a933	-0.016438102
252	0xbbeb8099	-0.007186961
253	0xbd19e424	-0.037571087
254	0x3cb554af	0.022135107
255	0x3994c9e5	0.00028379183

net.0.bias f4 [64]
0	0x3d771b43	0.060328733
1	0x3cb12979	0.021626221
2	0x3d6b981b	0.057518106
3	0x3c8b3673	0.016993737
4	0x3d65440d	0.0559731
5	0x3d29a90f	0.041420992
6	0x3d01fc30	0.031734645
7	0x3cd9620a	0.026536006
8	0x3d375494	0.044758394
9	0xbd4d8ac2	-0.050181158
10	0x3ca6c5cf	0.020357994
11	0xbcae787f	-0.021297691
12	0xbbeb9454	-0.007189313
13	0x3ae6ec23	0.0017617982
14	0xbd16b2a7	-0.03679147
15	0xbc1a5291	-0.009419099
16	0xbd18c8aa	-0.037300743
17	0x3a4f3767	0.0007904679
18	0x3a663663	0.0008781908
19	0xbd219f13	-0.039458346
20	0xbd2e47bc	-0.04254888
21	0x3d06c335	0.032901008
22	0x3a42d809	0.00074327044
23	0x3c7589d9	0.014986479
24	0x3d2435c8	0.040090352
25	0x3c18f9f4	0.009336937
26	0xbcf5c915	-0.03000311
27	0x3c498939	0.012300783
28	0x3d4f493f	0.050606962
29	0x3c56a5ae	0.013101025
30	0x3d5f9e85	0.054594535
31	0x3c7cd635	0.01543193
32	0xbca00b7b	-0.019536724
33	0x3ca65e10	0.020308524
34	0xbd599f91	-0.05313069
35	0xbcd453bc	-0.025918834
36	0x3d1013b1	0.03517503
37	0x3cf8b0b3	0.030357694
38	0x3d5e7107	0.05430701
39	0x3d27da36	0.040979587
40	0x3c13b00a	0.009014139
41	0xbbea183e	-0.007144003
42	0xbd073641	-0.033010725
43	0xbd410c26	-0.047130726
44	0xbcdda770	-0.02705738
45	0x3d80056b	0.062510334
46	0xbd0b8108	-0.0340586
47	0x3d8558d0	0.0651108
48	0xbba4b988	-0.005027
49	0x3d1af5cc	0.037832066
50	0xbd6cb10a	-0.057786025
51	0x3d50e914	0.05100353
52	0xbd6f8a87	-0.05848172
53	0xbc1d1ef9	-0.009589904
54	0xbbd23249	-0.006414686
55	0x3c90313b	0.0176016
56	0x3d4e4567	0.050359156
57	0xbd482b6d	-0.04886954
58	0x3c042792	0.008066075
59	0x3c292b01	0.010325194
60	0x3d7b6d6c	0.06138365
61	0x3cdd1f29	0.026992397
62	0x3d147df3	0.036252927
63	0xbc737d50	-0.01486142

net.2.weight f4 [32, 64, 5, 5]
0	0xbb88d14a	-0.00417534
1	0x3c831040	0.01599896
2	0xbad8739f	-0.001651395
3	0xbcbdab81	-0.023153068
4	0x3c9d3ea7	0.019194914
5	0x3b7e654b	0.00388177
6	0x3be873ec	0.007093897
7	0xbbee54d3	-0.0072732954
8	0x393c61e8	0.0001796555
9	0xbb655277	-0.003499178
10	0xbc37dde5	-0.011222337
11	0x3cba4fd1	0.022743138
12	0x3c354fc5	0.011066382
13	0xbcc6bcdb	-0.024259975
14	0xbc269655	-0.010167678
15	0xbb87fb8e	-0.0041498607
16	0x3c16faaa	0.009215036
17	0xbc00e2e4	-0.007866595
18	0x3c306e8a	0.010768542
19	0x3cb5ccee	0.022192445
20	0xbc37087d	-0.011171457
21	0x3c4dc3e6	0.012558913
22	0x3c9389f7	0.018010123
23	0xbae2d2c6	-0.0017305247
24	0x3c6e40f4	0.014541853
25	0xbc876fb8	-0.016532764
26	0x3cc28fc4	0.023750193
27	0x3abd33c0	0.0014434978
28	0x3a435901	0.0007451922
29	0xbca49729	-0.02009161
30	0xbcb365eb	-0.021899184
31	0x3c6c54d3	0.014424521
32	0xbbe977a8	-0.00712486
33	0x3c9a16d7	0.018809719
34	0xbbbc76db	-0.0057514734
35	0x3bee5cf3	0.007274264
36	0x3c59b871	0.013288603
37	0xbccd0354	-0.025026001
38	0xbc1d531e	-0.009602336
39	0x3c9c36be	0.019069072
40	0xbcb0d503	-0.021585947
41	0x3b10454e	0.0022013965
42	0xbc73df2e	-0.014884753
43	0xbcb88654	-0.02252499
44	0x3c013830	0.007886931
45	0x3c2c4530	0.010514542
46	0xbbe79906	-0.0070678024
47	0x3bd5815c	0.006515665
48	0xbc9e7b40	-0.01934588
49	0x3c8936ac	0.016749702
50	0x3c2088f9	0.009798282
51	0xbb9598c8	-0.004565332
52	0x3bc7e54d	0.006100333
53	0xbc69102b	-0.014225046
54	0x3b4c7890	0.003119979
55	0xbc2c532b	-0.010517876
56	0x3cbe2816	0.023212474
57	0xbb6417fa	-0.003480433
58	0x3c22c55b	0.0099347485
59	0x3a8c03b2	0.0010682254
60	0x3b9ca1f8	0.0047800504
61	0xbc2c1566	-0.010503149
62	0x3c708786	0.014680749
63	0x3cbc4e90	0.02298668
64	0xbc2716b2	-0.010198282
65	0x3bdf3ab8	0.0068124197
66	0xbbb9e204	-0.005672695
67	0x3bc7f12d	0.0061017484
68	0xbc08cd18	-0.008349679
69	0xbb059b2e	-0.0020386684
70	0x3cb38fcd	0.021919155
71	0xba05c9d2	-0.0005103621
72	0x3b97fec7	0.004638526
73	0xbb994bc0	-0.0046782196
74	0x3ca74894	0.02042035
75	0xbb827420	-0.0039811283
76	0x3c697b91	0.014250652
77	0xbce663ab	-0.028123697
78	0xbc481c80	-0.012213826
79	0xbc8acfbf	-0.016944764
80	0x3b983369	0.0046448004
81	0x3c833379	0.016015755
82	0xbcf1b463	-0.02950496
83	0xbc4d5218	-0.01253178
84	0xbc52b421	-0.012860329
85	0xbbf03e19	-0.0073316214
86	0xbcebd04e	-0.02878585
87	0x3c7691d8	0.01504942
88	0x3ac60f23	0.0015110712
89	0xbc949098	-0.018135354
90	0x3c906942	0.017628316
91	0xbb7048c4	-0.0036664465
92	0xbc7e5c02	-0.015524866
93	0xbc59e0a3	-0.0132981865
94	0xbc0ff210	-0.00878574
95	0xbcce43ac	-0.025178753
96	0xbb0e0e06	-0.002167584
97	0xbc9d74fb	-0.01922082
98	0x3c3b431e	0.011429576
99	0x3c4001bf	0.011719166
100	0x3c1b804f	0.00949104
101	0x3cbee48d	0.02330234
102	0x3c945f27	0.018111778
103	0xbc833d13	-0.016020333
104	0x3bf6e93c	0.007535128
105	0xbcb09ed6	-0.021560114
106	0xba19abc4	-0.0005862082
107	0xba98d1f0	-0.0011659246
108	0xbcacfc62	-0.02111644
109	0x3b91c603	0.0044486537
110	0xbb89b55a	-0.004202527
111	0xbcb68bea	-0.022283513
112	0xba0f98a5	-0.0005477763
113	0x3cb0f8bd	0.021602983
114	0x3ca7540d	0.02042582
115	0xbcabb466	-0.020960044
116	0x3c323bb7	0.010878495
117	0xbc9e609d	-0.019333178
118	0x3cc034b7	0.023462636
119	0x3cc3696e	0.023853984
120	0x3cb36424	0.021898337
121	0xbc4474de	-0.011990754
122	0xbbd31645	-0.0064418637
123	0xbba8a178	-0.0051462017
124	0x3c9232b6	0.017846446
125	0xbcc9c8c3	-0.024631863
126	0xbcbfd5a9	-0.02341731
127	0x3c9d8ebd	0.019233102
128	0xbcd29f24	-0.02571065
129	0xbc325c36	-0.010886243
130	0x3bb71a19	0.005587828
131	0x3a61e2c9	0.00086168625
132	0xbcc50823	-0.024051731
133	0x3c1636b9	0.00916832
134	0xbc90a88a	-0.01765849
135	0x3c4e652f	0.012597366
136	0x3cbe160e	0.023203876
137	0x3c93f7a5	0.018062422
138	0x3b95335b	0.004553241
139	0x3bbbd697	0.005732368
140	0xbca1e5b5	-0.019762853
141	0xbc951cca	-0.018202204
142	0x3bf1a824	0.0073747803
143	0xbcd36a53	-0.025807535
144	0xbc892c8c	-0.016744874
145	0x3cb8c604	0.022555359
146	0x3cbb2081	0.022842648
147	0xbcc50721	-0.02405125
148	0xbc190e28	-0.009341754
149	0x3b4e95a4	0.0031522298
150	0x3c9a21e1	0.018814983
151	0x3bd46860	0.006482169
152	0xbca9069b	-0.020633033
153	0x3cc0da41	0.023541572
154	0xbc433761	-0.011915059
155	0xbc2fa8be	-0.010721384
156	0x3c489e5b	0.012244786
157	0x3c531f01	0.01288581
158	0xbc1f9565	-0.009740208
159	0x3bba2df8	0.0056817494
160	0xbcb87b97	-0.02251987
161	0xbcc3ea5a	-0.023915458
162	0xbc8951fd	-0.016762728
163	0xbcb3e79a	-0.021961022
164	0xbc6f74ee	-0.014615281
165	0xbbba44ff	-0.0056844945
166	0xbc85faeb	-0.016354999
167	0xbcbf3db9	-0.023344861
168	0x3c1eeb57	0.009699664
169	0xbcb7f7b8	-0.022456989
170	0x3c6cb2c1	0.014446915
171	0x3c03cb5b	0.008044089
172	0xbcd67282	-0.026177648
173	0xbcab2bc6	-0.020894896
174	0x3cb0da99	0.02158861
175	0xbc84cb6c	-0.01621028
176	0x3ca16ffc	0.019706719
177	0x3c9e87da	0.019351888
178	0x3cba446c	0.022737704
179	0x3b9d7aab	0.004805883
180	0x3c969496	0.018381398
181	0xbb6ccdde	-0.0036133449
182	0xbc9cb7dd	-0.019130642
183	0xbcb03a85	-0.02151228
184	0xbc0edb9a	-0.008719349
185	0xbc686df8	-0.014186375
186	0x3c4f6fdc	0.012660947
187	0x3c70d556	0.014699301
188	0xbbab9fb2	-0.005237543
189	0x3c7d5191	0.0154613415
190	0x3c7bb445	0.015362804
191	0xbaeb9f1c	-0.0017976495
192	0xbc806f09	-0.015677946
193	0x3a1c626c	0.0005965594
194	0x3baf3530	0.0053469166
195	0xbbf6744e	-0.007521189
196	0x3c82e356	0.015977543
197	0xbc0e0ca0	-0.008670002
198	0x3bc72695	0.0060775974
199	0x3cb89852	0.02253357
200	0xbcc05258	-0.023476765
201	0xbc2e34b3	-0.010632682
202	0xbc2790a8	-0.01022736
203	0x3c92034f	0.017823843
204	0x3b3605c3	0.002777443
205	0xbc81861b	-0.015811017
206	0x3c87ed84	0.016592748
207	0x3aec8d3b	0.0018047461
208	0xbc18efa6	-0.00933448
209	0x3b09a379	0.0021001978
210	0x3b0b7675	0.0021280323
211	0xbbaa823a	-0.0052035125
212	0xba06360d	-0.00051197485
213	0x3c5eddb1	0.01360266
214	0xbbde7980	-0.0067893863
215	0x3bec997e	0.007220446
216	0xbb48a9a0	-0.0030618683
217	0xbbe3ee21	-0.0069558774
218	0x3bf5257b	0.0074812747
219	0x3ba4602f	0.005016349
220	0xbbe4765f	-0.0069721187
221	0x3c77edd8	0.01513239
222	0xbc85a3a5	-0.016313383
223	0x3c8ae88f	0.016956596
224	0x3be2d8f1	0.006922834
225	0x3c999f15	0.018752614
226	0x3b71ce59	0.0036896674
227	0x3c813d0f	0.015776185
228	0xbb5194f6	-0.0031979657
229	0xbc2b4e7a	-0.010455722
230	0x3cbf28b8	0.023334846
231	0xbcd2662c	-0.025683485
232	0xbc0e34b4	-0.008679558
233	0xbbd2992e	-0.006426952
234	0x3cb90471	0.022585126
235	0xbc7a333c	-0.015271004
236	0xbc989024	-0.01862342
237	0xbbc19d2c	-0.005908629
238	0xba18e680	-0.0005832687
239	0xbc9f09f4	-0.019413926
240	0xbba9b1b9	-0.005178657
241	0x3bc71229	0.006075163
242	0x3c2a5242	0.010395588
243	0xbc0d70b3	-0.008632827
244	0xbc29edd0	-0.01037164
245	0xbc22f69f	-0.009946494
246	0xbb8bf8c8	-0.0042716004
247	0x3c872fb4	0.016502239
248	0x3cb32138	0.021866426
249	0x3c7c223a	0.01538902
250	0x3be4caae	0.006982169
251	0x3c997bb4	0.018735744
252	0xbb2cbb24	-0.0026356662
253	0x3c1e727b	0.009670849
254	0x3c88b827	0.016689373
255	0xbace3dcb	-0.0015734968

net.2.bias f4 [32]
0	0x3b7fceac	0.0039033098
1	0x3cac38ea	0.021023232
2	0x3b882fb0	0.0041560754
3	0x3c36d875	0.011160006
4	0x3c1f38b9	0.009718114
5	0xbc6f2add	-0.014597622
6	0xbc3d58b9	-0.011556798
7	0x3bcde938	0.0062839054
8	0x3b4467e4	0.002996915
9	0xbc83948c	-0.016062044
10	0xbb5613cb	-0.0032665606
11	0x3bac3f78	0.0052565895
12	0x3c276844	0.01021773
13	0xbbe261e5	-0.0069086426
14	0xbc8b222f	-0.016984073
15	0x3c9e9edd	0.019362861
16	0xbbe0f93c	-0.0068656486
17	0x3b2378a3	0.0024943731
18	0x3cb9e6ba	0.022693027
19	0x3c990a38	0.01868163
20	0x3c883140	0.016625047
21	0xbc8cf2f4	-0.017205693
22	0xbc93f0dd	-0.018059189
23	0x3cb29e9e	0.02180415
24	0x3c702771	0.014657841
25	0xbaaa56bf	-0.0012995823
26	0xbc977b36	-0.018491369
27	0x3cbf9a39	0.023388969
28	0x3ad554c6	0.0016275875
29	0xbca36518	-0.019945666
30	0x3c29bc69	0.010359862
31	0xbcae868c	-0.021304391

net.4.weight f4 [3, 32, 5, 5]
0	0x3cd08f07	0.025458826
1	0xbd0b84c0	-0.034062147
2	0xbce25275	-0.02762721
3	0xbc5b62b6	-0.013390234
4	0xbcf249f3	-0.029576277
5	0x3c8a7cdb	0.016905239
6	0xbc4ac456	-0.012375912
7	0x3be74624	0.007057922
8	0xbcf68336	-0.030091863
9	0x3cb98d23	0.022650307
10	0x3c5d4319	0.013504767
11	0xbb9c7ab7	-0.004775371
12	0xbd09843f	-0.033573385
13	0x3b3380ad	0.002738993
14	0xbc97d4a6	-0.018534016
15	0xbc6ceeff	-0.014461278
16	0xbce491fb	-0.02790164
17	0x3be809f3	0.007081264
18	0x3c893d19	0.016752766
19	0xbc257913	-0.010099667
20	0x3d0af389	0.03392366
21	0x3d12d3ac	0.035846397
22	0x3ceb4edc	0.028724127
23	0xbc89a7a7	-0.016803576
24	0x3cb145b9	0.021639692
25	0x3cf22e73	0.029563164
26	0x3cc81d23	0.024427956
27	0xbc5e40e6	-0.013565278
28	0x3d086019	0.03329477
29	0x3c934a84	0.017979868
30	0xbab5642b	-0.0013839056
31	0xbcab8cf9	-0.020941244
32	0xbd0a0063	-0.033691775
33	0xbd077a40	-0.03307557
34	0x3cff3f45	0.031158099
35	0x3cd4e881	0.025989773
36	0xbcf049f5	-0.02933214
37	0xbce63487	-0.028101219
38	0xbc8a7584	-0.016901739
39	0xbd04a50a	-0.032383956
40	0x3c770e34	0.01507907
41	0xbcc4ae4b	-0.02400889
42	0xbc91f34c	-0.017816208
43	0xbcedb294	-0.029015817
44	0x3b0d1c1f	0.0021531654
45	0x3cea2cd8	0.028585836
46	0xbc321720	-0.010869771
47	0x3d0a8727	0.033820298
48	0x3c443ae4	0.011976931
49	0xbc89ba6d	-0.016812528
50	0x3b698eeb	0.0035638164
51	0xbb57d8ad	-0.0032935545
52	0xbcbe0c0c	-0.023199104
53	0x3cc53722	0.024074141
54	0x3cb4914a	0.022041935
55	0x3c61d64d	0.013784003
56	0x3c21459f	0.009843259
57	0xbc8a04fd	-0.016848082
58	0x3c6aa5bd	0.014321742
59	0xbd0096f1	-0.03139395
60	0x3cc6c03b	0.024261585
61	0x3ca5f7ad	0.020259703
62	0xbc99f55d	-0.018793756
63	0xbcb4a018	-0.022048995
64	0xbcac96be	-0.021067973
65	0x3bec4145	0.007209929
66	0xbbb75584	-0.005594911
67	0xbb2294ce	-0.0024807933
68	0xbc77434d	-0.015091729
69	0xb92c02db	-0.00016404262
70	0x3ca4a034	0.020095922
71	0xbc350a6b	-0.011049847
72	0xbcd1eb20	-0.025624812
73	0x3ccef04f	0.025261072
74	0x3cef8451	0.029237898
75	0x3c7ee03b	0.01555639
76	0x3c467e88	0.012115128
77	0xbccfe8a0	-0.025379479
78	0x3d023504	0.03178884
79	0xbc66d9e0	-0.014090031
80	0xbb996fc8	-0.004682515
81	0x3c489735	0.012243082
82	0xbccee36a	-0.025254924
83	0xbc167828	-0.009183921
84	0x3cb9d40b	0.022684118
85	0x3cba5cc8	0.02274932
86	0xb9807916	-0.0002450428
87	0xbae0df55	-0.0017156402
88	0xbb56f165	-0.003279769
89	0xbccb4e0f	-0.024817495
90	0xba59832c	-0.0008297439
91	0x3c6a9371	0.014317379
92	0xbb6f5176	-0.003651706
93	0xbd0fc5a4	-0.035100594
94	0x3b3c15ba	0.0028699473
95	0xbb0c35cf	-0.0021394377
96	0xbbedec01	-0.0072608
97	0x3d08ab3f	0.033366438
98	0x3c9ca6fb	0.019122591
99	0x3caba74b	0.020953795
100	0xbc3a019b	-0.011352922
101	0xbb000ad3	-0.0019537702
102	0xbae716c0	-0.0017630681
103	0x3c98bbb5	0.018644193
104	0xbd02cdd1	-0.031934563
105	0x3ad67ed2	0.00163647
106	0xbc8c8118	-0.0171514
107	0x3cef3945	0.029202113
108	0xbc835581	-0.016031982
109	0xbd280724	-0.041022435
110	0xbc930a09	-0.017949121
111	0x3c8cf372	0.017205928
112	0xbd0d233e	-0.034457438
113	0xbb2891b8	-0.002572162
114	0xbd2d4192	-0.04229886
115	0x3cab1575	0.020884255
116	0xbcd61909	-0.026134985
117	0xbc0aa64e	-0.008462502
118	0xbae78c13	-0.0017665647
119	0xbcb8d549	-0.02256264
120	0x3c7981e3	0.015228721
121	0xbd11b9fe	-0.035577767
122	0xbba54539	-0.0050436524
123	0xbce25871	-0.027630063
124	0x3baa8163	0.0052034124
125	0xbc4fcc98	-0.012683056
126	0x3c9e9af5	0.019360999
127	0x3c7290f3	0.014805066
128	0x3d268f44	0.040663972
129	0xbcd50174	-0.02600167
130	0xbca7cc30	-0.020483106
131	0x3c7ae3f6	0.015313139
132	0xbc207081	-0.009792448
133	0xbcc7a611	-0.024371179
134	0x3cae46f7	0.021274073
135	0xbc8db407	-0.017297758
136	0x3b94a5be	0.0045363596
137	0xbca0d364	-0.019632049
138	0xbc30c6b1	-0.010789559
139	0x3b8151e8	0.0039465316
140	0xbcee515c	-0.02909153
141	0x3c6670b0	0.014064953
142	0xbcf93999	-0.030422973
143	0xbb3c3a69	-0.0028721339
144	0xbc99ac32	-0.018758867
145	0xbd065e1c	-0.032804593
146	0xbc8ee85d	-0.017444784
147	0xbd0741dc	-0.033021793
148	0x3bbcc7e8	0.0057611354
149	0xbccd2ca9	-0.02504571
150	0x3c2a79f8	0.010405056
151	0xbc59e277	-0.013298622
152	0xbbfdc2ec	-0.0077441838
153	0x3cb30153	0.021851217
154	0x3c8a5a16	0.01688866
155	0x3cd51747	0.026012076
156	0x3c901c04	0.017591484
157	0x3ce24582	0.027621035
158	0x3d04dc3b	0.03243659
159	0xbc7c4e30	-0.015399501
160	0x3c90c363	0.017671293
161	0x3d0ec3b5	0.03485461
162	0x3b53eca0	0.0032337084
163	0xbc757ed9	-0.014983856
164	0xbc6ac1c2	-0.014328422
165	0x3c4caba0	0.01249209
166	0x3bd2a45f	0.006428286
167	0x3acd615b	0.0015669273
168	0xbce65f35	-0.02812157
169	0xbc052e00	-0.008128643
170	0xbcc3f62c	-0.023921095
171	0x3c66cf42	0.0140875
172	0x3d098814	0.03357704
173	0xbba29598	-0.0049616806
174	0xbb8913ce	-0.004183269
175	0x3c3ccf59	0.011524045
176	0x3d0fd5bf	0.035115954
177	0x3d157145	0.036484975
178	0x3a23b537	0.00062449597
179	0x3ca5ae51	0.020224722
180	0x3d0593e0	0.032611728
181	0x3bb68532	0.0055700773
182	0x3c142375	0.009041657
183	0xbc20d224	-0.009815726
184	0x3d0c4887	0.034248855
185	0x3cb162b8	0.021653518
186	0xbc3c61e1	-0.0114979455
187	0x3cfa8d64	0.030584998
188	0xbcbde514	-0.023180522
189	0xbcceeb2b	-0.025258621
190	0xbd013468	-0.03154412
191	0xbc7bdaec	-0.015372019
192	0x3c6c7eaf	0.014434501
193	0x3afde00d	0.001936914
194	0x3cdb63ff	0.02678108
195	0x3d07f32a	0.033190884
196	0x3cfbc790	0.030734807
197	0xbc96a7be	-0.018390533
198	0xbc688d1c	-0.014193799
199	0x3ad0c754	0.0015928545
200	0x3cb0a0b1	0.021560999
201	0xbc5d41bb	-0.013504441
202	0xbcd4b826	-0.025966715
203	0x3b50ddcc	0.0031870482
204	0xbcb71dc1	-0.022353055
205	0xbce509f8	-0.027958855
206	0xbb95726f	-0.0045607607
207	0xbcf9ac23	-0.030477589
208	0x3c02f8c4	0.007993881
209	0xbc52df4c	-0.012870621
210	0x3c920fe4	0.017829843
211	0xbcacbc32	-0.021085832
212	0xbc6a555d	-0.014302579
213	0x3c737870	0.0148602575
214	0x3a473f4c	0.00076006795
215	0xbc5ccc4a	-0.013476441
216	0x3b5e4461	0.0033915269
217	0xbc0e1dae	-0.008674068
218	0xbcf18d22	-0.029486243
219	0x3d003930	0.03130454
220	0xbcca659a	-0.02470665
221	0xbcf13aa4	-0.029446907
222	0xbcefb5b9	-0.029261457
223	0x3b0dae0f	0.002161864
224	0xbc2a6ced	-0.0104019465
225	0xbc8383eb	-0.016054114
226	0xbc5004cc	-0.012696456
227	0x3ba9dbe0	0.005183682
228	0x3cb29ea3	0.02180416
229	0xbb40c144	-0.002941207
230	0xbab34d88	-0.0013679722
231	0x3d1c44a8	0.038151413
232	0x3bcdd4a2	0.0062814513
233	0xbceaae90	-0.028647691
234	0xbc48a3eb	-0.012246112
235	0x3d0fef81	0.035140518
236	0x3c5bf906	0.013426071
237	0xbcf6aa27	-0.030110432
238	0x3a26c787	0.00063621294
239	0x3cecb35e	0.028894123
240	0xbcb67701	-0.022273542
241	0xbd15fe71	-0.036619607
242	0xbce63ae6	-0.028104257
243	0xbc2cf2ca	-0.010555932
244	0x3ce0afd9	0.0274276
245	0x3cf2ae59	0.029624151
246	0x3d10a3c6	0.035312437
247	0x3c6a9b22	0.014319213
248	0x3c53c9c7	0.012926525
249	0xbd03fcea	-0.03222362
250	0xbcde8278	-0.027161822
251	0xbbe820f1	-0.007084005
252	0xbca3a1d0	-0.01997462
253	0x3d0beef0	0.034163415
254	0xb9f6d940	-0.0004708264
255	0xbb8cd682	-0.0042980323

net.4.bias f4 [3]
0	0x3bb751dd	0.0055944757
1	0x3cbf3065	0.023338506
2	0x3b806e60	0.0039194077
