checkpoints/srcnn_epoch2_2025-03-20_23-02-04.pth (torch, 280002 bytes, 6 tensors)

net.0.weight f4 [64, 3, 9, 9]
00000000: 6d57 e93c 39e2 bbbc b0c5 e63c 11e7 403d
00000010: 3b51 6bbd 372f 793c af62 fc3c cf2a b9bc
00000020: 9511 edbc d9bf 043c 317b 32bd a25b e0bc
00000030: 0645 35bb a7a1 0bbd a89c fcba 1d99 673d
00000040: e624 8f3d 17d2 5cbc 2d6c 3ebd 7ccd 37bc
00000050: 8f62 883a 520e 633d c3dd 99bc 10e6 23bd
00000060: 354a 733d d7fd 043d 8da8 753d 938d a03c
00000070: b6c4 24bd 1be6 75bd 483c 5c3d 1d80 48bd
00000080: 250d 8ebc c0a2 36bd 009e 823d e7c1 55bd
00000090: efac 56bc 04c0 f139 b653 6abb 0cb1 b8bc
000000a0: 5033 89bc dc5c 843d 8725 f2bc 5d9d edbc
000000b0: 28ed 203d 7f1e 8a3d ed15 5dbd 6809 0f3d
000000c0: 32fc 6f3c 293a b33c e7e5 0cbc 0462 89bc
000000d0: 05d0 5bbd 5f04 723d ff86 7a3d d0e5 f5bc
000000e0: 1e01 863d 9888 19bd bc4c 393d ba89 873d
000000f0: 378e 013c 88ac 61bb 3f34 5c3c ee12 193d
00000100: 51fc 833d da49 4bbc 85cf 7e3d a955 77bc
00000110: 9089 c3bc b11e fc3c c38d 17bd 1cc3 67bb
00000120: 18c6 e5bc ca79 35bd cb1a 2bbd 8266 48bd
00000130: 29a8 353d 0f38 33bc d7e2 66bd 38af a43c
00000140: cc4a e8bc 8193 10bd 34e4 9bbc e087 1cbd
00000150: a198 833c 45a6 5dbd 9b26 6b3c 08e5 45bc
00000160: 09fe b5bc 2fac 443d 7d74 84bc 4624 4fbd
00000170: a999 b03b cbe4 62bd 701d 54bd c409 bfbc
00000180: bd16 0e3d 419d 0e3c f4cc 0f3c 6b70 833d
00000190: 1177 363d d765 883d 8b93 56bd 38a0 fcba
000001a0: b166 513d d03d 2dbd 5022 55bd 203c f53c
000001b0: d3a5 4fbd 9c19 f1bb 8025 3ebd 956e aebc
000001c0: 71a6 203d 42cd e63c bcdc 1a3c 5f93 85bc
000001d0: ea79 6abd e8fb 203d 6746 063d f630 1bbc
000001e0: d986 32bd 885d 623d 488c 50bd c6cc 703d
000001f0: d21e eebc b7ac 4bbc 9cc3 0cbd 5ca7 c0bc
00000200: 6818 17bd 8e6a b4bc b4f0 4a3d 1ba6 14bd
00000210: 264b 703b b621 f83c 59f0 423d bb81 26bd
00000220: 5e92 bbbc efa8 42bc 8f46 7b3d cef4 80ba
00000230: da61 6c3d 8354 2a3c 8759 0fbd 58fd 48bd
00000240: d9b3 3a3d b3b5 443d f171 1dbc 048f 63bd
00000250: f5fc 293b a366 febc 715d 1c3d 9939 5ebd
00000260: 7416 9f3c 8ef1 ae39 65da 02bc 44ee 47bd
00000270: a328 35bd 82ae 623d a867 2abd d673 bfbc
00000280: e3d4 9fbc 7d57 703c 4837 1cbd bfcb c93c
00000290: 3ce2 a63c b54c 07bd ead3 0c3d 4ef8 9fbb
000002a0: 04bb 1c3d 5cc6 21bc 4034 07bd e0c4 873d
000002b0: 5f4d 57bd 60d0 d9bc 56be 69bd cf71 723d
000002c0: 57a8 2bbd 4111 f93c 01df 56bd 5016 143d
000002d0: 568c 033d 376e 703d 7222 2bbd 4672 853c
000002e0: 3147 8a3d 30dd 7e3d 1ae9 833d 4d55 153d
000002f0: 1d0b 4bbc da44 303c 3bd5 4abd 8e46 37bc
00000300: 791a 363c 248f 4d3d 9381 3cbc dc04 473d
00000310: 3d7a 743d d0e0 d13c 07dd 7a3d 4b0f 813d
00000320: 157a ae3c 495f 4f3d 3240 2abc ebf6 92bc
00000330: cc62 b63c dc7c 5c3c 404f 39bc c34a 69bd
00000340: cd37 60bd 1e0d c7bc d3ad 4dbd d5a2 4e3c
00000350: 4001 52bd f6ab 8fbc 51a3 9bbc 2889 093d
00000360: 9eb8 863c fd82 7f3c a330 ea3b 24b4 e6bc
00000370: 1d69 673d 505b 243d 0c71 773d 48c3 eebc
00000380: c08d dabc c7be 753d dd39 66bd ebb2 063d
00000390: bda9 21bc 5671 66bd 4d9d 7ebc 2ba9 9bbc
000003a0: 0742 60bc 8ba9 42bd ce98 1cbd e8ce ef3c
000003b0: e8ec 343d f61e 3abc 6026 83bc b30e adba
000003c0: 0b89 3e3d f574 5abd b5a6 2c3d dcc6 a43c
000003d0: 03dc 50bd b4de 393d 9b0a 7f3d 5f06 1e3c
000003e0: f398 4cbc 1a69 713d e9bc 37bd af05 91bc
000003f0: 9535 f0bb 4add 1dbd 3ce5 a83c e62b 1b38
0.02848407 -0.02293502 0.028170437 0.047095362 -0.057450514 0.015209011 0.030808775 -0.02260342
-0.028939048 0.008102381 -0.043574516 -0.027387444 -0.002765955 -0.03408971 -0.0019272761 0.056542505
0.0698946 -0.013477824 -0.046489883 -0.011218425 0.0010405349 0.05543358 -0.018782502 -0.040014327
0.05939694 0.032468643 0.059975196 0.019598758 -0.04022666 -0.0600339 0.053768426 -0.048950303
-0.017340252 -0.044588804 0.06377792 -0.052186873 -0.013102754 0.00046110165 -0.0035755462 -0.02254536
-0.0167481 0.06463024 -0.02955891 -0.0290057 0.03928867 0.06744098 -0.05397599 0.03492108
0.01464753 0.021878319 -0.008599735 -0.01677037 -0.05366518 0.0590862 0.0611639 -0.03001681
0.06543182 -0.03748378 0.045239195 0.06618066 0.007907442 -0.0034435112 0.013440191 0.03737157
0.0644461 -0.012407744 0.062209625 -0.015096107 -0.023869306 0.030776354 -0.03700043 -0.0035364097
-0.02804856 -0.0443056 -0.0417736 -0.048925884 0.044349823 -0.010938658 -0.056368675 0.020103082
-0.028355978 -0.03529692 -0.019029714 -0.038215518 0.01606399 -0.054113645 0.014352466 -0.012078531
-0.02221586 0.04801577 -0.016168827 -0.050571702 0.0053894115 -0.055393975 -0.051785886 -0.023320086
0.034689654 0.008704484 0.008776892 0.064179264 0.044547144 0.066600494 -0.0523868 -0.0019273823
0.051123325 -0.042295277 -0.052034676 0.029935896 -0.05069525 -0.007357789 -0.04642248 -0.021292964
0.03922123 0.028174046 0.009452041 -0.016305624 -0.057245173 0.039302737 0.032781985 -0.009472122
-0.043585632 0.05526498 -0.050915033 0.058789037 -0.02906743 -0.012431315 -0.034366235 -0.023517303
-0.03688851 -0.022023465 0.04954596 -0.036291223 0.0036665886 0.030289512 0.047592495 -0.040651064
-0.022896942 -0.011881097 0.061346587 -0.0009838582 0.057710506 0.010396126 -0.03499749 -0.049069732
0.045581672 0.048024844 -0.009609685 -0.055556312 0.0025938128 -0.0310548 0.03817505 -0.05425415
0.019419886 0.00033367838 -0.00798664 -0.048811212 -0.044228207 0.055342205 -0.04160276 -0.023370665
-0.019510692 0.014669296 -0.038138658 0.024633287 0.020371549 -0.033032138 0.034381784 -0.004881895
0.03826429 -0.009873953 -0.033008814 0.06629348 -0.05256402 -0.026588619 -0.057066284 0.059190568
-0.04190859 0.030403735 -0.052458767 0.03615409 0.032116257 0.05869886 -0.041780896 0.016289841
0.0675186 0.06222266 0.06440945 0.036458302 -0.012392786 0.010758603 -0.04951976 -0.011186255
0.01111471 0.050185338 -0.011505502 0.04858862 0.059686888 0.025619894 0.061245944 0.06301745
0.021298448 0.05062798 -0.010391282 -0.017940005 0.022263907 0.013457503 -0.011310399 -0.056956064
-0.054740716 -0.024298247 -0.0502146 0.012612064 -0.051270723 -0.017538052 -0.018998774 0.033578068
0.016445454 0.015595195 0.007146911 -0.02816207 0.05649673 0.040126145 0.060410544 -0.029145852
-0.02667892 0.059996393 -0.056207526 0.032885473 -0.009867129 -0.05626043 -0.015540433 -0.019001564
-0.013687617 -0.04752497 -0.038231663 0.029273465 0.044171244 -0.011359921 -0.01600951 -0.0013203233
0.046517413 -0.053334195 0.04215117 0.020114355 -0.05099107 0.045378402 0.062265974 0.009645074
-0.012487638 0.058938123 -0.044857893 -0.017702905 -0.007330606 -0.038541116 0.02061712 3.6995763e-05

net.0.bias f4 [64]
00000000: a2e4 623d 962f a43c d45f 623d ebd3 703c
00000010: e917 633d 12e5 2a3d eb30 ee3c 276a ad3c
00000020: 24e0 243d fc6f 50bd 2288 933c 5a6f 26bd
00000030: eb55 0cbc b496 d0b9 929b 17bd 462b 29bc
00000040: 9385 57bd 25fb bc3a 6606 813a 6841 23bd
00000050: 6936 3ebd 21d3 053d 63c4 52bb 6667 1c3c
00000060: 1de9 193d 217c cabb 104c 2dbd 3956 4f3c
00000070: 345f 4b3d 9711 543c 34d2 5f3d 68bc 393c
00000080: d580 b3bc f9e4 923c e79b 65bd 89d7 02bd
00000090: 61a0 0d3d f04b de3c fd42 593d 3c69 283d
000000a0: 85ca 323b 0b1a f5bb 6efc 21bd 1a74 4fbd
000000b0: 30c8 febc 93a4 803d 239f 16bd 2bde 813d
000000c0: 1dcd edbb 4c1e 103d 8578 70bd 6185 343d
000000d0: e6a9 6ebd 2599 98bc 26fa 1dbc 3c45 953c
000000e0: d757 443d 058f 49bd adf9 013c 61cf 2c3c
000000f0: 7368 7a3d baa6 d13c ff1d 153d 0ca8 83bc
0.055393822 0.020042222 0.05526717 0.014698963 0.055442724 0.041722365 0.02907606 0.021168781
0.04025282 -0.050888047 0.01800925 -0.040633537 -0.008565406 -0.00039785134 -0.037013598 -0.010325259
-0.05261762 0.0014418109 0.0009843826 -0.039857298 -0.04643861 0.03267205 -0.0032160513 0.0095461365
0.03757583 -0.006179348 -0.042308867 0.012654834 0.04965134 0.012943647 0.054643825 0.011336423
-0.021912018 0.017931448 -0.056056883 -0.03194383 0.034576777 0.02713582 0.0530424 0.041115984
0.0027281356 -0.007479911 -0.039547376 -0.050647832 -0.031101316 0.0628139 -0.03677286 0.06341203
-0.0072571174 0.035185143 -0.058708686 0.044072513 -0.058267497 -0.018627713 -0.00964216 0.01822149
0.047935333 -0.04920866 0.0079330625 0.01054749 0.061134767 0.025592197 0.03640556 -0.016071342

net.2.weight f4 [32, 64, 5, 5]
00000000: ba08 86bb add1 833c d241 cdba 2109 bdbc
00000010: 8acf 9d3c 2647 803b 689c e93b 704e edbb
00000020: 4ac3 5b39 1b16 63bb 8a79 37bc 9493 ba3c
00000030: cee3 353c 727c c6bc 971c 26bc 193c 88bb
00000040: 9ae1 163c b8fa 00bc 4559 303c 8cbe b53c
00000050: d039 37bc 4987 4d3c 0b5a 933c e784 e6ba
00000060: deae 6d3c 076f 87bc 8790 c23c 6142 bd3a
00000070: 4578 433a 3096 a4bc 7763 b3bc 8e59 6c3c
00000080: bf6d e9bb 6019 9a3c ec6b bcbb 2166 ee3b
00000090: d3bc 593c 1d01 cdbc e34e 1dbc e838 9c3c
000000a0: d7d4 b0bc 2547 103b c7de 73bc 2986 b8bc
000000b0: c337 013c 8545 2c3c 4898 e7bb 2182 d53b
000000c0: 187b 9ebc d436 893c 213b 213c 6c39 94bb
000000d0: 2b43 c93b f75e 68bc 8658 4f3b 27e3 2bbc
000000e0: 3660 be3c e144 62bb 0b3f 233c 88ef 8f3a
000000f0: be2f 9d3b 44cd 2bbc 4bd2 703c bb76 bc3c
00000100: 69bd 26bc 3346 df3b 1dd3 b9bb fafe c73b
00000110: bfc6 08bc ae77 05bb cb8d b33c 052f 06ba
00000120: f7ec 973b 4b64 99bb 0e43 a73c 373c 7bbb
00000130: a829 6b3c 82c4 e5bc b5f4 46bc a2f4 89bc
00000140: a453 9c3b ec08 843c c813 f1bc 9f5f 4cbc
00000150: 6fdc 51bc b872 edbb b616 ebbc a5d5 773c
00000160: cc0d ce3a a947 94bc cd70 903c 6784 6fbb
00000170: 4c6f 7ebc b265 5abc 6ee0 10bc cd5d cebc
00000180: 5d6f 0ebb b687 9dbc d50a 3b3c 86b5 3f3c
00000190: 518a 1b3c 9ee9 be3c f663 943c ae38 83bc
000001a0: a3fa f63b 9499 b0bc eff2 18ba 167a 98ba
000001b0: 99f7 acbc 10d9 913b caaa 89bb e088 b6bc
000001c0: c433 0fba dbfb b03c 3957 a73c 04b4 abbc
000001d0: 373c 323c 2e60 9ebc 2935 c03c e569 c33c
000001e0: 5f64 b33c 6774 44bc 5616 d3bb cca1 a8bb
000001f0: 1833 923c 05c3 c9bc c1cf bfbc f594 9d3c
00000200: a998 d2bc cc4e 32bc 5732 b73b 5aaa 623a
00000210: ab01 c5bc 0c44 163c daa1 90bc 666c 4e3c
00000220: 9d19 be3c 45fb 933c ad40 953b 36e3 bb3b
00000230: 7ce5 a1bc 9a1c 95bc 2da9 f13b 266a d3bc
00000240: 602c 89bc 32c6 b83c ad20 bb3c f506 c5bc
00000250: e00d 19bc 0f94 4e3b 3731 9a3c 01a6 d43b
00000260: 8ef8 a8bc ade8 c03c 7b1a 43bc 5490 2fbc
00000270: d6b7 483c 2038 533c 8f7b 1fbc a55f ba3b
00000280: 285d b8bc 9ac5 c3bc d32b 89bc 74c2 b3bc
00000290: 3b33 6fbc fb41 babb b4f9 85bc 393d bfbc
000002a0: 22ec 1e3c 5ff7 b7bc 84b4 6c3c 68cc 033c
000002b0: ca71 d6bc 392b abbc ddda b03c 38c2 83bc
000002c0: e49a a23c c9aa 9f3c 5aaa bb3c f7eb a33b
000002d0: 5970 973c 1cb7 65bb 3fe8 9bbc 9752 afbc
000002e0: 227b 0cbc c7df 67bc defe 4f3c eaf5 703c
000002f0: b0b7 acbb e46b 7c3c 7ca5 7b3c 88f0 ecba
00000300: b0b3 80bc a767 0d3a 47f2 ac3b 7772 f6bb
00000310: a2ee 823c 880c 0ebc 65fe c63b fc8a b83c
00000320: 7a39 c0bc d7fd 2dbc ff5c 27bc 571b 923c
00000330: e9cf 363b b269 81bc 420d 883c ba60 ee3a
00000340: 6eb9 18bc f679 0a3b 556e 0d3b ab8b a9bb
00000350: 3311 ffb9 ab33 5f3c 01e8 ddbb 0898 ec3b
00000360: ebba 48bb 66ff e3bb d505 f53b e230 a43b
00000370: 2b73 e4bb 7bef 773c 03a4 85bc 7ae6 8a3c
00000380: 13c9 e23b c1a6 993c bd0d 723b 6e45 813c
00000390: 4b41 51bb d234 2bbc 9834 bf3c 1159 d2bc
000003a0: 8917 0ebc 434e d2bb 3c1a b93c 1b20 7abc
000003b0: 8185 98bc 206d c1bb 6c0a 17ba a0f9 9ebc
000003c0: 72b0 a9bb 1d13 c73b 3a52 2a3c c871 0dbc
000003d0: 75ef 29bc 3cf6 22bc 20f8 8bbb cf2f 873c
000003e0: 5021 b33c 4222 7c3c b8d7 e43b 517f 993c
000003f0: 0891 2cbb 9584 1e3c f3c4 883c 64f6 cdba
-0.0040903958 0.016091192 -0.0015659875 -0.023075642 0.019264001 0.0039147316 0.007129241 -0.0072420165
0.00020958218 -0.0034650627 -0.011198411 0.022775449 0.011101676 -0.024229262 -0.010138652 -0.004157555
0.009209061 -0.007872276 0.010763471 0.022185586 -0.011183217 0.0125444615 0.017987272 -0.0017587215
0.014507024 -0.016532434 0.023750557 0.0014439338 0.0007456581 -0.020091146 -0.021898014 0.014425648
-0.0071236785 0.018810928 -0.00575017 0.0072753583 0.013289648 -0.025024945 -0.009601328 0.019070104
-0.021585865 0.0022015062 -0.014884657 -0.02252491 0.00788683 0.010514622 -0.007067714 0.0065157567
-0.019345805 0.016749777 0.009840758 -0.004523447 0.0061420402 -0.014182798 0.0031638457 -0.010491169
0.023239236 -0.0034525918 0.009963761 0.001098142 0.004796951 -0.010485951 0.014698575 0.023005834
-0.010176995 0.0068137883 -0.0056709186 0.0061033936 -0.008348166 -0.0020365524 0.021918198 -0.0005118701
0.0046364027 -0.0046811453 0.020417716 -0.0038335451 0.014353193 -0.028047804 -0.012143304 -0.016840283
0.004770713 0.016117536 -0.029428378 -0.01247397 -0.012808903 -0.0072463416 -0.028697353 0.01512662
0.0015720665 -0.018100576 0.017631913 -0.0036547424 -0.015529465 -0.01332991 -0.008842571 -0.025191212
-0.0021733858 -0.019229751 0.011416157 0.011700993 0.009493426 0.023304757 0.018114071 -0.016018238
0.0075372024 -0.021557607 -0.000583454 -0.0011633064 -0.021114158 0.0044509247 -0.004201268 -0.022282064
-0.0005462731 0.021604469 0.020427333 -0.020959862 0.010878614 -0.019332971 0.023462849 0.023854205
0.021898447 -0.011990643 -0.0064418716 -0.005146241 0.017846629 -0.024629125 -0.023414494 0.019236067
-0.02570756 -0.010883044 0.005590718 0.00086466 -0.024048647 0.009171497 -0.017655302 0.012599086
0.023205573 0.01806415 0.004554829 0.0057338728 -0.019762747 -0.018202115 0.0073749037 -0.025807451
-0.016744792 0.022555444 0.02284273 -0.024051169 -0.009341687 0.0031521355 0.018822296 0.006489516
-0.020626333 0.023548448 -0.011908169 -0.010715563 0.012250861 0.012891799 -0.0097340485 0.0056876712
-0.022505358 -0.023897935 -0.01674453 -0.021943308 -0.014599617 -0.005684135 -0.01635442 -0.023344623
0.009699853 -0.022456823 0.014447335 0.00804434 -0.026177306 -0.020894634 0.021588737 -0.016083822
0.019849248 0.019490616 0.022908378 0.0050024944 0.018486189 -0.0035051769 -0.019031642 -0.021401687
-0.008574279 -0.014152474 0.012695042 0.014707068 -0.0052709207 0.0154065825 0.015359279 -0.0018077055
-0.015710682 0.00053941685 0.005277905 -0.0075209695 0.01598293 -0.00866998 0.0060728067 0.02252721
-0.023464907 -0.010619602 -0.010215043 0.017835302 0.002789492 -0.01579747 0.016607884 0.0018186786
-0.009321554 0.0021129823 0.0021580656 -0.0051741204 -0.00048650205 0.013623158 -0.006772042 0.007220272
-0.003062899 -0.006957936 0.007477502 0.00501071 -0.006971737 0.01513278 -0.016313558 0.016955603
0.0069209426 0.018756272 0.0036934458 0.015780177 -0.0031929787 -0.010449605 0.023340508 -0.025677236
-0.008672603 -0.006418021 0.022595517 -0.015266444 -0.018618347 -0.0059029013 -0.0005761746 -0.01940614
-0.0051785046 0.0060752765 0.010395581 -0.008633085 -0.010372032 -0.009946402 -0.004271522 0.01650229
0.02186647 0.015389027 0.0069837235 0.018737467 -0.0026331563 0.009675165 0.016695475 -0.0015713689

net.2.bias f4 [32]
00000000: 52dd 7f3b 3523 ac3c baf8 893b ccc2 363c
00000010: e6c0 0c3c 1068 68bc 3518 41bc 6d9b cc3b
00000020: 6c86 2d3b a90b 84bc 260e 56bb 280b b03b
00000030: a1b5 f73b ccc2 fcbb 1809 8bbc ff71 9d3c
00000040: 747a e2bb 0c7c 233b e633 b53c 5bcd 8f3c
00000050: 000f 653c a602 8dbc 941b 96bc 964c b03c
00000060: 15d5 6f3c dbaf adba ba9b 9bbc 6c0a b23c
00000070: f543 4b3a da3a b9bc c048 263c 862c b0bc
0.003904183 0.021012882 0.0042105587 0.011154842 0.008590912 -0.014184967 -0.011785557 0.006244114
0.0026477827 -0.016118841 -0.0032662242 0.0053724237 0.0075594936 -0.0077136513 -0.01697211 0.019219397
-0.00691157 0.0024945764 0.022119474 0.017553976 0.013980627 -0.017213177 -0.018323697 0.021520894
0.014638205 -0.0013251262 -0.018995155 0.021733485 0.0007753962 -0.02261107 0.010149181 -0.021505605

net.4.weight f4 [3, 32, 5, 5]
00000000: f48e d03c c884 0bbd 8852 e2bc e062 5bbc
00000010: 064a f2bc c87c 8a3c 7fc4 4abc cc45 e73b
00000020: 4983 f6bc 108d b93c 0741 5d3c 1c7f 9cbb
00000030: ce84 09bd 9d76 333b e6d5 97bc 6df0 6cbc
00000040: bd92 e4bc c506 e83b 443c 893c e07a 25bc
00000050: 50f3 0a3d 6ed3 123d 614e eb3c 21a8 89bc
00000060: 3c45 b13c 8e2e f23c 021d c83c 2841 5ebc
00000070: 0a60 083d 624a 933c 7660 b5ba 1b8d abbc
00000080: 7300 0abd 4f7a 07bd 233f ff3c 8cee d43c
00000090: b541 f0bc ac2a e6bc 4b68 8abc 729e 04bd
000000a0: 071a 773c f3a7 c4bc 59ec 91bc feaa edbc
000000b0: aa60 0d3b da2f ea3c 3212 32bc 0589 0a3d
000000c0: 4143 443c 32b7 89bc 8611 8b3b 7424 36bb
000000d0: b070 b8bc 1cc8 c33c 4b5c b23c 346b 653c
000000e0: 5961 223c ab1f 86bc a750 693c f4b7 ffbc
000000f0: 26ce c43c 4b30 a43c b5c9 99bc cfb0 b6bc
00000100: 3018 acbc 1953 f93b ad69 a7bb 6fa7 03bb
00000110: f9db 75bc f7e1 09b9 7e9f a53c fce3 31bc
00000120: 4bc9 cdbc 1432 cf3c 79f2 ec3c 215b 893c
00000130: a2ef 623c a0e5 cabc 3ee2 033d c533 6dbc
00000140: f24f 8cbb 8bf3 5c3c 1a28 c5bc 2e36 16bc
00000150: d86f b13c 241e bc3c 33dc ebb8 041c f1ba
00000160: 0762 68bb 49b9 dabc 729a 523a bc98 7e3c
00000170: 225c 5bbb 1cdc 0bbd 289a 863a f100 1fba
00000180: 3f82 cbbb e128 063d d9c8 9d3c f7f8 9a3c
00000190: d4e9 a1bb 8ba4 0d3a 2d70 84bb 64bb b63c
000001a0: bb74 aabc 606e b93b e128 77bc 5435 e73c
000001b0: ec87 49bc 517d f1bc 7f17 95bc 05cc aa3c
000001c0: 1419 f0bc d1ad 003c a2ed e0bc e22f c03c
000001d0: 6b3f 87bc 19d2 243b 7cea 693c f596 81bb
000001e0: fb9c 893c fb70 f3bc 7ebe af3a c7c6 a5bc
000001f0: 97ac 833c 0e2f 01bc 5778 a43c 714a 873c
00000200: 8513 113d b49a c2bc 3dd0 8ebc e88a 6a3c
00000210: 8ea8 26bc e423 00bd f6ba b43c c6fa 67bc
00000220: e31a 763b 8529 a3bc 68e2 8ebc 47fd a83b
00000230: 9bfb ccbc 2e38 6d3c 8983 f1bc e499 07bc
00000240: 7839 87bc 5955 ebbc 827b 8abc a409 03bd
00000250: 59d1 493a 7201 b9bc bd06 2e3c f505 53bc
00000260: 9194 ffbb d5f8 b13c d43e 8d3c e89a d13c
00000270: 64bb 913c be6c e03c d568 043d ba0f 76bc
00000280: 719f 8d3c 1b3c 0f3d 0429 4d3b 4678 6ebc
00000290: 6e83 65bc 6133 503c 1caf dc3b 547d b73a
000002a0: cbbc e3bc 823b 02bc 0b4c c5bc c866 633c
000002b0: 2db5 063d aef5 aebb 27d9 8ebb 3e10 3e3c
000002c0: 9149 113d 4f06 153d 4445 eb39 6afd a53c
000002d0: b7ef 053d 3507 c03b 0345 0e3c d4ae 26bc
000002e0: 18a3 0b3d 82e0 b13c d9a9 3fbc 9e2b f43c
000002f0: b1bd c1bc 7c88 d1bc 8e32 01bd 534d 7ebc
00000300: f208 673c 1c9b ed3a 8824 da3c 3aed 063d
00000310: 2ad2 fa3c ae1c 97bc ad25 6bbc 4d44 973a
00000320: 57dd b13c 2af4 52bc 7f45 ccbc 1261 923b
00000330: 23c6 aebc 90ae debc e981 1abb 0204 edbc
00000340: 85c2 183c 8b70 41bc ef56 903c 121e a1bc
00000350: c493 58bc 96e4 803c d81f 5e3a f8d3 68bc
00000360: 702f 483b 96c4 0cbc 16d0 ebbc bd63 f83c
00000370: f148 cfbc 16e7 f7bc abe8 f3bc c956 2d3b
00000380: 2f1a 3dbc 2512 71bc 42f2 27bc 3745 393b
00000390: e189 b83c c52b 19bb 2512 87bb de58 113d
000003a0: 3056 593b 6412 d7bc 6317 47bc 1b8e 0a3d
000003b0: 0d63 423c b2e2 07bd ca06 263b 2d61 da3c
000003c0: 9852 89bc e017 00bd 943f e8bc f62e b0bb
000003d0: 2f0d f53c fe9a f93c 02cb 123d e68a 0e3c
000003e0: e635 613c 9c92 fcbc 8482 debc 6b21 e8bb
000003f0: e6a2 a3bc 97ee 0b3d 15f0 f6b9 bcd6 8cbb
0.02545879 -0.034062177 -0.027627245 -0.013390273 -0.029576313 0.016905203 -0.01237595 0.007057881
-0.030091899 0.022650272 0.013504273 -0.004775895 -0.033573918 0.0027383931 -0.018534612 -0.014461619
-0.027902002 0.007080885 0.01675237 -0.010100096 0.033923447 0.035846166 0.028723897 -0.016803803
0.021639459 0.029563215 0.024427895 -0.013565339 0.033294715 0.017979804 -0.0013837952 -0.020941308
-0.033691835 -0.033075627 0.031158036 0.025992654 -0.029328207 -0.02809652 -0.016895434 -0.032377668
0.015081889 -0.024005866 -0.017812895 -0.0290122 0.002157251 0.02858727 -0.010868596 0.03382208
0.011978925 -0.016810987 0.0042440323 -0.0027792724 -0.022514671 0.02389913 0.021772524 0.01400261
0.009910905 -0.016372522 0.01424042 -0.031215645 0.02402408 0.02004256 -0.01877294 -0.022301106
-0.021007627 0.007608783 -0.005109033 -0.0020088812 -0.015006059 -0.00013149517 0.020217653 -0.010857578
-0.025120398 0.025292434 0.028924214 0.016767086 0.013851078 -0.024767697 0.032198183 -0.014477675
-0.004281991 0.0134858 -0.024066973 -0.009168191 0.021659777 0.02296359 -0.000112466885 -0.001839519
-0.003545882 -0.026699679 0.00080338784 0.015539344 -0.0033471663 -0.03414546 0.0010269331 -0.0006065509
-0.006210595 0.03275383 0.01926081 0.018917544 -0.0049412046 0.0005403242 -0.0040416927 0.022306152
-0.020807615 0.0056589097 -0.01508543 0.028223671 -0.012300473 -0.0294787 -0.01819968 0.020849237
-0.029308833 0.007853941 -0.027457062 0.023460332 -0.016509732 0.0025149642 0.014277097 -0.003954763
0.016798487 -0.02971696 0.0013408212 -0.020236386 0.016073508 -0.007884754 0.020076914 0.016514989
0.035419006 -0.023755409 -0.01743328 0.014315344 -0.0101720225 -0.031284228 0.022061806 -0.01415891
0.0037552647 -0.019917259 -0.017441943 0.005157146 -0.025022319 0.014478726 -0.029481666 -0.0082764365
-0.016506895 -0.02872722 -0.016904596 -0.031991616 0.0007698737 -0.022583697 0.010621724 -0.012879838
-0.007799693 0.021725098 0.017241873 0.02558656 0.01778955 0.027395602 0.032326538 -0.015018398
0.017287942 0.03496943 0.0031304965 -0.014555043 -0.014008386 0.012707562 0.006734742 0.0013999143
-0.027799984 -0.007948758 -0.024084112 0.013879485 0.032887626 -0.005339346 -0.0043593827 0.011600552
0.03547055 0.03638297 0.000448743 0.020262439 0.032699313 0.005860234 0.008683446 -0.010173518
0.034091085 0.021713499 -0.01169821 0.029805955 -0.023650022 -0.025577776 -0.031542353 -0.015521365
0.014101254 0.0018127891 0.026628748 0.03294108 0.030617792 -0.018446293 -0.014352244 0.0011540741
0.021711988 -0.012875596 -0.024935482 0.004467138 -0.021334713 -0.027182847 -0.0023575968 -0.028932575
0.009323721 -0.0118066175 0.017619578 -0.019667659 -0.013218824 0.015733998 0.0008473373 -0.014210694
0.0030545853 -0.008591792 -0.028785747 0.030320996 -0.025303336 -0.030261558 -0.02977403 0.0026449433
-0.011541887 -0.014713799 -0.01025063 0.0028270015 0.022526683 -0.0023372036 -0.004122036 0.03548514
0.0033162944 -0.026253887 -0.012151572 0.03382693 0.011864436 -0.033175178 0.0025333636 0.026657665
-0.016763017 -0.03127277 -0.028350629 -0.005376692 0.029913513 0.030469414 0.035838135 0.008700108
0.013745761 -0.030831628 -0.027161844 -0.007084062 -0.019975137 0.034163084 -0.0004709965 -0.0042980593

net.4.bias f4 [3]
00000000: 6bd5 af3b 31d1 bd3c 9aa9 733b
0.0053660176 0.02317104 0.0037179948
