checkpoints/srcnn_epoch30_2025-03-20_23-02-04.pth (torch, 280012 bytes, 6 tensors)

net.0.weight f4 [64, 3, 9, 9]
000000 f2 34 06 3d b1 a3 9f bc 8e a3 00 3d 66 96 55 3d
       0.032765336 -0.019487234 0.031405978 0.052145384
000010 b2 3d 60 bd dd bc 9d 3c 3d 4f 15 3d 9f 0e 9f bc
       -0.054746337 0.019255096 0.03645252 -0.019416152
000020 80 0f d2 bc 1c 80 36 3c 6a 7c 26 bd c3 cb c0 bc
       -0.025642157 0.011138942 -0.040645994 -0.023534661
000030 da cb d3 3a 40 b7 05 bd 48 7e 11 3b bd 9d 7c 3d
       0.0016158775 -0.032645464 0.0022200514 0.06167387
000040 d9 07 8e 3d 30 ed 57 bc 13 c6 32 bd ae 0d 0b bc
       0.069350906 -0.0131791085 -0.04364593 -0.008487148
000050 71 00 08 3b 4d a5 68 3d a5 c6 76 bc 45 7e 12 bd
       0.0020752216 0.056798268 -0.015062009 -0.03576495
000060 68 3b 80 3d a3 a0 ee 3c 93 88 71 3d 99 eb bf 3c
       0.06261331 0.029129332 0.058968138 0.023427771
000070 00 03 16 bd 86 51 7a bd 1a a5 59 3d 20 51 30 bd
       -0.036623955 -0.061112903 0.05313597 -0.043046117
000080 66 18 7c bc 74 ce 2f bd 17 47 80 3d c5 2c 51 bd
       -0.015386676 -0.0429215 0.06263559 -0.051068086
000090 53 ca 36 bc 6f a8 e1 3a 7a c8 b8 bb 8c f2 c6 bc
       -0.011156636 0.0017216335 -0.005639133 -0.024285577
0000a0 1f b5 3f bc d5 55 83 3d 73 c2 ef bc 0c 66 e6 bc
       -0.0117008975 0.064128555 -0.029267525 -0.028124832
0000b0 b0 70 28 3d db f4 8b 3d 4d f1 5b bd ce 37 10 3d
       0.041123092 0.06833812 -0.05369692 0.03520947
0000c0 8d 07 66 3c cd 40 df 3c 6e 02 a9 bb 8e 1f 72 bc
       0.014039886 0.02725258 -0.0051577603 -0.014778031
0000d0 cd a6 58 bd 01 0a 79 3d df 4a 80 3d 2b 40 e6 bc
       -0.05289345 0.060800556 0.062642805 -0.02810677
0000e0 f4 bc 8e 3d 6d 0c 0c bd c9 26 56 3d 2a 95 97 3d
       0.06969634 -0.034191538 0.052283082 0.07401498
0000f0 b3 fa 3a 3c e6 b2 98 bb 13 95 6d 3c 9d 51 1b 3d
       0.01141231 -0.004659998 0.014500874 0.03791963
000100 fe 30 86 3d a7 d8 13 bc 6f 15 87 3d 96 d5 3e bc
       0.06552313 -0.009023822 0.06595885 -0.011647603
000110 2e 9e a3 bc 01 19 03 3d c6 77 23 bd c4 9d 59 bb
       -0.019972887 0.032006267 -0.039909147 -0.0033205608
000120 ec 67 e6 bc 41 0f 35 bd c5 09 25 bd 87 4c 3d bd
       -0.028125726 -0.044204 -0.04029252 -0.04621556
000130 04 fa 37 3d c3 8a 31 bc 71 b5 65 bd 1e 5d 9a 3c
       0.044916168 -0.010836306 -0.05608124 0.01884323
000140 aa d9 de bc dc 74 f3 bc 4b 08 73 bc 15 d7 10 bd
       -0.0272034 -0.029718809 -0.01483352 -0.03536137
000150 b5 e4 9f 3c 38 11 5e bd f3 56 7e 3c 4d f7 fb bb
       0.019518236 -0.05421564 0.01552366 -0.0076893927
000160 6d ec 9a bc bf e2 57 3d a2 b1 3f bc 45 18 40 bd
       -0.018911565 0.052706476 -0.011700066 -0.046898145
000170 4d 38 0f 3c a3 be 58 bd 37 95 5b bd fd 4b b7 bc
       0.0087414505 -0.05291618 -0.0536091 -0.022375101
000180 62 18 1e 3d 24 a0 0c 3c 3c e1 31 3c d3 d9 8b 3d
       0.038597472 0.008583102 0.010856923 0.06828656
000190 2c 79 43 3d d7 f7 88 3d a6 8b 59 bd 18 1c b1 ba
       0.04772298 0.06687897 -0.053111695 -0.0013512401
0001a0 c5 d8 57 3d 10 b5 1f bd d6 23 5a bd f2 3c 02 3d
       0.052696962 -0.038991034 -0.053256832 0.031796403
0001b0 ba 0d 3b bd c3 e4 65 bb 08 79 46 bd 00 7f c8 bc
       -0.045667388 -0.003507898 -0.04845527 -0.02447462
0001c0 f6 34 29 3d df 26 db 3c e5 72 3a 3c 4f d3 71 bc
       0.041310273 0.026751934 0.011379932 -0.014759853
0001d0 5a f3 5a bd da 28 2e 3d 42 a4 0b 3d d4 53 57 bc
       -0.053454734 0.042519428 0.034092195 -0.013142545
0001e0 82 d0 4a bd a5 26 5c 3d bc d4 6b bd 8d 82 6a 3d
       -0.049515255 0.05374779 -0.057575926 0.05725341
0001f0 f5 a3 de bc ca cc 1d bc 68 7c 03 bd 3c d6 c2 bc
       -0.02717779 -0.009631345 -0.032101065 -0.023783796
000200 d1 77 23 bd 54 d4 f0 bc 1e 01 3a 3d f5 9c 28 bd
       -0.039909188 -0.029398121 0.04541122 -0.04116531
000210 31 80 15 3b e0 7e fb 3c 0c 43 4a 3d 24 71 1b bd
       0.0022812004 0.030700147 0.049380347 -0.037949696
000220 47 f4 b3 bc 4d 04 3f bc 3d 13 6b 3d 1d 47 4b bb
       -0.021967066 -0.01165874 0.057391394 -0.0031017729
000230 e3 d2 6e 3d 20 b7 39 3c 1b 95 14 bd d6 2d 42 bd
       0.058306586 0.011335164 -0.03627501 -0.047406994
000240 ca 77 43 3d cc 73 48 3d 5c 98 0f bc 98 ff 66 bd
       0.04772166 0.048938558 -0.008764353 -0.056396097
000250 87 1a 4b 3a 3a 4b fc bc d1 ec 1e 3d 67 49 66 bd
       0.00077477883 -0.03079759 0.038800064 -0.056222346
000260 77 c9 ad 3c 80 08 26 3b ca b4 e1 bb 2f 98 44 bd
       0.02121423 0.0025334656 -0.006888007 -0.047996696
000270 4a ce 30 bd a9 1f 5f 3d f1 d2 2b bd c0 6a b6 bc
       -0.043165483 0.054473553 -0.041949216 -0.0222677
000280 bb 0f 9e bc 7b 85 91 3c 03 39 1c bd 96 c4 c9 3c
       -0.01929461 0.017763844 -0.038140308 0.024629872
000290 40 1d ae 3c 08 ce f3 bc 0a bf 0b 3d cb 6a a8 bb
       0.021254182 -0.02976133 0.034117736 -0.005139684
0002a0 0a 29 23 3d e3 bf 38 bc bd 97 0a bd 9f f0 86 3d
       0.03983406 -0.011276218 -0.033836115 0.065888636
0002b0 2f 39 54 bd f1 b6 bb bc 1e 3f 54 bd 79 01 78 3d
       -0.051812347 -0.022914382 -0.051818006 0.06054828
0002c0 6b e7 20 bd 20 d2 0b 3d 05 a0 62 bd f0 57 0c 3d
       -0.039283197 0.034135938 -0.055328388 0.03426355
0002d0 03 b1 02 3d 44 8e 77 3d 9f a5 1d bd a1 56 ae 3c
       0.031907093 0.06043841 -0.038488027 0.021281542
0002e0 74 76 98 3d fb 20 8d 3d 46 03 91 3d c8 4f 0f 3d
       0.07444468 0.06891056 0.070807025 0.034988195
0002f0 6a 2a 51 bc 2b 19 44 3c 81 97 3b bd a8 34 04 bc
       -0.01276646 0.011968891 -0.045798782 -0.008069195
000300 b0 5e 81 3c 27 74 77 3d 96 a6 be bb 95 2a 62 3d
       0.01579222 0.060413506 -0.0058181984 0.05521639
000310 d4 8d 7d 3d 71 77 e2 3c 89 0b 7c 3d ce af 85 3d
       0.061902836 0.027644845 0.06153444 0.06527673
000320 20 24 be 3c 69 85 55 3d a2 4d a3 bb ff 51 98 bc
       0.023210585 0.052129183 -0.00498362 -0.018593786
000330 97 fc c5 3c 81 4b 72 3c 42 fc 34 bc 96 29 67 bd
       0.024168296 0.014788509 -0.011046471 -0.056436144
000340 fd 65 5b bd 5f c4 bd bc 06 a9 59 bd 67 8c 41 3c
       -0.05356406 -0.023164926 -0.05313971 0.01181326
000350 78 d9 58 bd 5f fa 8c bc c6 ac a4 bc 56 0b 05 3d
       -0.05294177 -0.01720923 -0.020101916 0.032481514
000360 eb 17 92 3c 6b 53 8e 3c e5 ff 1a 3c ae ab f8 bc
       0.01783367 0.017373761 0.009460424 -0.0303553
000370 ca 05 63 3d e8 a8 2d 3d a6 2c 80 3d 59 6c 02 bd
       0.055425443 0.04239741 0.06258516 -0.03184161
000380 dd fd e1 bc 9e 42 7a 3d 15 00 60 bd 7b 87 10 3d
       -0.027586872 0.061098687 -0.05468758 0.035285454
000390 63 9d 13 bc 3c f9 65 bd 71 4a 54 bc 92 f2 8b bc
       -0.009009692 -0.05614589 -0.012957201 -0.01708344
0003a0 5d 0d 8b bc 35 3c 44 bd 90 ff 17 bd f5 c3 fa 3c
       -0.016974146 -0.04790898 -0.037108958 0.030611018
0003b0 ed c3 3c 3d 46 29 0d bc bf b9 6c bc dd a4 02 3a
       0.046085287 -0.008615797 -0.014448582 0.0004983673
0003c0 50 f6 43 3d 76 91 62 bd 1f d2 2e 3d c7 36 a4 3c
       0.047842324 -0.055314504 0.042680856 0.020045651
0003d0 8d b6 4d bd 48 0b 38 3d 05 a5 80 3d 16 7b 30 3c
       -0.050222922 0.044932634 0.06281475 0.0107715335
0003e0 8d 28 4b bc b9 57 78 3d 55 8b 30 bd b0 e0 82 bc
       -0.012399805 0.060630534 -0.043101627 -0.01597628
0003f0 d0 a3 ec bb e0 ab 19 bd 82 40 b9 3c 09 bc 9a 39
       -0.0072216764 -0.03751743 0.022613768 0.00029513266

net.0.bias f4 [64]
000000 9b 07 7a 3d 6b 36 b5 3c 91 20 6c 3d a6 6d 8d 3c
       0.06104241 0.022120675 0.057648245 0.017264199
000010 75 10 66 3d 07 8d 29 3d 75 6b 03 3d a9 7f dd 3c
       0.05616804 0.04139426 0.0320849 0.027038412
000020 b2 a7 38 3d 3c bd 4c bd 7d 14 a9 3c d3 95 a3 bc
       0.0450818 -0.049985155 0.020639652 -0.019968903
000030 29 7b be bb ab 4a 0d 3b ff 77 16 bd f4 1c 15 bc
       -0.0058130217 0.0021559398 -0.03673553 -0.009101141
000040 01 ed 11 bd 91 66 3b 3a b1 2b 7b 3a 0c ab 21 bd
       -0.035626415 0.00071487675 0.00095814007 -0.039469764
000050 67 9e 2b bd f5 a9 07 3d 8e 08 fc 3a 5c 9b 7d 3c
       -0.04189911 0.033121068 0.0019228624 0.015478935
000060 3a d8 26 3d ec a0 22 3c 1f a1 f1 bc 0e eb 4a 3c
       0.040733553 0.009926062 -0.029495774 0.012385143
000070 91 7d 4f 3d c8 d6 57 3c 15 79 5f 3d f7 aa 74 3c
       0.05065686 0.013173766 0.054558832 0.014933339
000080 68 e7 99 bc e1 8e a8 3c 2c a1 53 bd e1 54 d2 bc
       -0.0187871 0.020575942 -0.051667377 -0.025675239
000090 dc 77 10 3d 46 3a fd 3c 22 de 5e 3d 1a 3e 27 3d
       0.035270557 0.030911576 0.05441106 0.04083071
0000a0 dc f4 18 3c d7 db e5 bb ec b7 06 bd 16 1d 3f bd
       0.009335723 -0.0070147323 -0.032890245 -0.046658598
0000b0 ee c9 d6 bc 99 d4 7f 3d 7e 2a 05 bd 6b a4 88 3d
       -0.026219334 0.06245861 -0.032511227 0.06671985
0000c0 8e 0a 8c bb 4e 72 1b 3d ea 58 6b bd 6d 68 55 3d
       -0.004273719 0.037950806 -0.057457842 0.05210154
0000d0 ce f3 6f bd 86 3c 1b bc c1 05 cc bb 15 4e 90 3c
       -0.05858212 -0.009474879 -0.006226272 0.017615357
0000e0 ee 5e 50 3d ed de 47 bd 21 9b 04 3c 2d b8 29 3c
       0.050871782 -0.048796583 0.008093626 0.010358852
0000f0 13 46 71 3d 46 96 df 3c 00 47 14 3d 33 0d 6d bc
       0.05890472 0.027293336 0.036200523 -0.014468479

net.2.weight f4 [32, 64, 5, 5]
000000 d8 d1 88 bb b9 0f 83 3c b1 7a d8 ba cb ab bd bc
       -0.004175406 0.015998708 -0.0016516057 -0.023153206
000010 84 3e 9d 3c 87 64 7e 3b c5 72 e8 3b ab 55 ee bb
       0.019194849 0.0038817243 0.0070937597 -0.007273396
000020 ca 50 3c 39 6c 54 65 bb a1 a7 37 bc ec 63 ba 3c
       0.00017959173 -0.0034992946 -0.011209399 0.022752725
000030 fd 65 35 3c e7 ad c6 bc 1d 6a 26 bc ed b8 87 bb
       0.011071679 -0.024252845 -0.010157135 -0.004141918
000040 70 1c 17 3c 66 c2 00 bc 4f 91 30 3c 77 e4 b5 3c
       0.009223089 -0.007858848 0.010776832 0.022203667
000050 e0 d9 36 bc 08 fd 4d 3c 6f af 93 3c 32 e3 df ba
       -0.011160344 0.012572534 0.01802799 -0.0017081259
000060 e8 b4 6e 3c b8 6f 87 bc c4 8f c2 3c bf 33 bd 3a
       0.014569499 -0.016532764 0.023750193 0.0014434977
000070 ef 58 43 3a 29 97 a4 bc eb 65 b3 bc d3 54 6c 3c
       0.0007451912 -0.02009161 -0.021899184 0.014424521
000080 a8 77 e9 bb d7 16 9a 3c db 76 bc bb f9 5c ee 3b
       -0.00712486 0.018809719 -0.0057514734 0.007274267
000090 71 b8 59 3c 54 03 cd bc bc 52 1d bc cb 36 9c 3c
       0.013288603 -0.025026001 -0.009602245 0.019069096
0000a0 03 d5 b0 bc 9e 45 10 3b 25 df 73 bc 45 86 b8 bc
       -0.021585947 0.0022014151 -0.014884745 -0.022524962
0000b0 ea 38 01 3c 30 45 2c 3c 06 99 e7 bb 5c 81 d5 3b
       0.0078871045 0.010514542 -0.0070678024 0.006515665
0000c0 40 7b 9e bc ac 36 89 3c c9 88 20 3c 18 99 95 bb
       -0.01934588 0.016749702 0.009798237 -0.0045653693
0000d0 f0 e4 c7 3b 6d 10 69 bc 84 77 4c 3b 44 53 2c bc
       0.0061002895 -0.014225108 0.0031199167 -0.010517899
0000e0 16 28 be 3c 63 18 64 bb 42 c5 22 3c de 02 8c 3a
       0.023212474 -0.0034804575 0.009934725 0.0010682007
0000f0 2d a7 9c 3b 2b 14 2c bc 11 88 70 3c cf 4e bc 3c
       0.004780671 -0.010502855 0.014680878 0.022986798
000100 8f 16 27 bc 61 42 df 3b 2c df b9 bb df f2 c7 3b
       -0.0101982495 0.006813333 -0.005672356 0.0061019505
000110 c5 cc 08 bc 42 9a 05 bb 2e 96 b3 3c 90 05 05 ba
       -0.008349602 -0.0020386134 0.021922197 -0.0005074376
000120 64 16 98 3b 4d 31 99 bb 24 4f a7 3c f2 77 82 bb
       0.004641341 -0.0046750666 0.02042348 -0.0039815838
000130 82 7a 69 3c 1e 64 e6 bc cc 1d 48 bc a3 d0 8a bc
       0.0142504 -0.028123911 -0.012214135 -0.016945189
000140 c1 30 98 3b 3f 33 83 3c c0 b4 f1 bc ff 53 4d bc
       0.004644484 0.016015647 -0.029505134 -0.012532233
000150 29 b6 52 bc d7 13 f0 bb 0f bc eb bc f2 e4 76 3c
       -0.012860813 -0.007326584 -0.028776197 0.015069233
000160 96 a0 c9 3a 0e 4a 94 bc 6f 81 90 3c 1b bb 6f bb
       0.0015382941 -0.018101718 0.017639844 -0.003658003
000170 8e 13 7e bc 3f 56 59 bc 09 3d 0f bc c9 15 ce bc
       -0.015507592 -0.013265192 -0.008742579 -0.025156872
000180 12 c2 0c bb 6b 56 9d bc 85 6a 3b 3c 49 19 40 3c
       -0.002147798 -0.019206246 0.01143897 0.011724778
000190 4f 80 1b 3c 8d e4 be 3c 27 5f 94 3c 13 3d 83 bc
       0.00949104 0.02330234 0.018111778 -0.016020333
0001a0 3c e9 f6 3b d6 9e b0 bc 08 ac 19 ba 1f d2 98 ba
       0.007535128 -0.021560114 -0.00058621215 -0.0011659301
0001b0 62 fc ac bc 03 c6 91 3b 7c b4 89 bb e4 8b b6 bc
       -0.02111644 0.0044486537 -0.0042024236 -0.022283502
0001c0 47 94 0f ba bd f8 b0 3c 0d 54 a7 3c 65 b4 ab bc
       -0.0005477112 0.021602983 0.02042582 -0.020960042
0001d0 43 3c 32 3c 80 60 9e bc ba 34 c0 3c 6e 69 c3 3c
       0.010878625 -0.019333124 0.023462642 0.023853984
0001e0 25 64 b3 3c 96 74 44 bc 05 15 d3 bb 27 a0 a8 bb
       0.021898339 -0.011990687 -0.0064417147 -0.005146045
0001f0 b7 32 92 3c c3 c8 c9 bc a9 d5 bf bc bd 8e 9d 3c
       0.017846448 -0.024631863 -0.02341731 0.019233102
000200 24 9f d2 bc 36 5c 32 bc 19 1a b7 3b c4 e2 61 3a
       -0.02571065 -0.010886243 0.005587828 0.00086168596
000210 23 08 c5 bc b9 36 16 3c 8a a8 90 bc 32 65 4e 3c
       -0.024051731 0.00916832 -0.01765849 0.012597369
000220 0e 16 be 3c a6 f7 93 3c 7e 34 95 3b ba d7 bb 3b
       0.023203876 0.018062424 0.0045533767 0.0057325037
000230 b5 e5 a1 bc ca 1c 95 bc 2d a8 f1 3b 53 6a d3 bc
       -0.019762853 -0.018202204 0.0073747844 -0.025807535
000240 8c 2c 89 bc 04 c6 b8 3c 81 20 bb 3c 21 07 c5 bc
       -0.016744874 0.022555359 0.022842648 -0.02405125
000250 e2 0d 19 bc e9 97 4e 3b e1 21 9a 3c 5b 68 d4 3b
       -0.009341689 0.003152365 0.018814983 0.0064821667
000260 9b 06 a9 bc 41 da c0 3c 61 37 43 bc c5 a8 2f bc
       -0.020633033 0.023541572 -0.011915059 -0.01072139
000270 5b 9e 48 3c 01 1f 53 3c 66 95 1f bc f6 2d ba 3b
       0.012244786 0.01288581 -0.009740209 0.0056817485
000280 ab 7a b8 bc 91 e9 c3 bc 12 51 89 bc 9d e6 b3 bc
       -0.02251943 -0.023915084 -0.01676229 -0.02196055
000290 ca 70 6f bc 37 41 ba bb 58 fa 85 bc 36 3d bf bc
       -0.014614293 -0.0056840437 -0.016354725 -0.023344617
0002a0 9d eb 1e 3c 96 f7 b7 bc 97 b6 6c 3c ef ce 03 3c
       0.009699729 -0.022456925 0.01444783 0.008044942
0002b0 a9 71 d6 bc 96 2b ab bc ba da b0 3c 23 cd 84 bc
       -0.026177244 -0.020894807 0.021588672 -0.016211098
0002c0 f2 6d a1 3c 2e 86 9e 3c 41 42 ba 3c ca 70 9d 3b
       0.019705746 0.019351091 0.02273667 0.0048047053
0002d0 a0 93 96 3c c7 d6 6c bb 6d b8 9c bc 42 3b b0 bc
       0.01838094 -0.003613876 -0.01913091 -0.021512631
0002e0 d8 de 0e bc 1d 4c 68 bc 2f b1 4f 3c 85 64 71 3c
       -0.008720122 -0.014178303 0.012676521 0.014733438
0002f0 7e dc a9 bb 44 5b 7e 3c 01 da 7b 3c 35 af e9 ba
       -0.0051837554 0.015524689 0.0153718 -0.0017828705
000300 4d 32 80 bc 84 84 27 3a 86 de b0 3b 47 2f f6 bb
       -0.015648985 0.0006390291 0.0053976206 -0.00751296
000310 7c f2 82 3c b9 d6 0d bc b2 a1 c7 3b d8 ba b8 3c
       0.015984766 -0.008657151 0.0060922736 0.022550032
000320 58 52 c0 bc c2 34 2e bc a8 90 27 bc 4f 03 92 3c
       -0.023476765 -0.010632696 -0.01022736 0.017823843
000330 7d 05 36 3b 1b 86 81 bc 80 ed 87 3c 78 8c ec 3a
       0.0027774267 -0.015811017 0.016592741 0.0018047234
000340 a6 ef 18 bc 71 a3 09 3b 20 91 0b 3b 5b 79 aa bb
       -0.00933448 0.002100196 0.0021296218 -0.005202455
000350 91 0f 06 ba 65 e5 5e 3c 58 61 de bb 28 ab ec 3b
       -0.0005114014 0.013604497 -0.0067865066 0.007222552
000360 96 83 48 bb 07 d9 e3 bb 30 43 f5 3b 5c 88 a4 3b
       -0.003059601 -0.006953362 0.007484816 0.005021138
000370 52 69 e4 bb f4 f2 77 3c 22 a1 85 bc 09 ec 8a 3c
       -0.006970563 0.015133608 -0.016312186 0.016958253
000380 aa ea e2 3b 15 9f 99 3c 59 ce 71 3b 0f 3d 81 3c
       0.006924947 0.018752614 0.0036896674 0.015776185
000390 1b 95 51 bb 7a 4e 2b bc b8 28 bf 3c 2c 66 d2 bc
       -0.0031979743 -0.010455722 0.023334846 -0.025683485
0003a0 b4 34 0e bc 2e 99 d2 bb 71 04 b9 3c 3c 33 7a bc
       -0.008679558 -0.006426952 0.022585126 -0.015271004
0003b0 24 90 98 bc 97 9c c1 bb 53 d4 18 ba 42 09 9f bc
       -0.01862342 -0.0059085595 -0.00058299786 -0.019413594
0003c0 b9 b1 a9 bb 31 12 c7 3b db 52 2a 3c 65 6f 0d bc
       -0.005178657 0.0060751666 0.010395731 -0.008632516
0003d0 3c ec 29 bc 9f f6 22 bc c8 f8 8b bb b4 2f 87 3c
       -0.010371264 -0.009946494 -0.0042716004 0.016502239
0003e0 38 21 b3 3c a4 22 7c 3c 8c ca e4 3b a9 7b 99 3c
       0.021866426 0.015389118 0.0069821533 0.018735724
0003f0 3e bc 2c bb 35 72 1e 3c ff b7 88 3c 6b 3e ce ba
       -0.0026357318 0.009670784 0.016689299 -0.0015735155

net.2.bias f4 [32]
000000 e1 d0 7f 3b ab 83 ae 3c ad 25 88 3b 87 4c 36 3c
       0.0039034414 0.021303019 0.004154882 0.011126644
000010 79 a8 1f 3c a0 ef 6f bc 5b 4d 3c bc 83 fa cd 3b
       0.009744757 -0.014644533 -0.011493052 0.006285967
000020 d5 95 49 3b 1e 6e 84 bc cb 13 56 bb d2 5c a9 3b
       0.0030759473 -0.01616579 -0.0032665606 0.0051685357
000030 e4 7e 2e 3c 28 dd da bb 7f d4 8a bc 5b 34 9f 3c
       0.01065037 -0.006679196 -0.01694703 0.019434145
000040 e7 a0 e1 bb e7 78 23 3b da dc bb 3c ff a6 9b 3c
       -0.006885636 0.002494389 0.022932459 0.019000528
000050 d4 ee 89 3c df 99 8c bc ae 10 93 bc 07 41 b4 3c
       0.016837515 -0.017163215 -0.01795229 0.022003664
000060 d0 1b 70 3c 6b bc af ba db c3 96 bc 7b 0d c4 3c
       0.0146550685 -0.0013407593 -0.018403938 0.02393221
000070 f9 18 f5 3a a2 36 95 bc 46 29 2a 3c 9e bf ae bc
       0.0018699459 -0.018214528 0.010385817 -0.021331605

net.4.weight f4 [3, 32, 5, 5]
000000 07 8f d0 3c c0 84 0b bd 75 52 e2 bc b6 62 5b bc
       0.025458826 -0.034062147 -0.02762721 -0.013390234
000010 f3 49 f2 bc db 7c 8a 3c 56 c4 4a bc 24 46 e7 3b
       -0.029576277 0.016905239 -0.012375912 0.007057922
000020 36 83 f6 bc 23 8d b9 3c 19 43 5d 3c b7 7a 9c bb
       -0.030091863 0.022650307 0.013504767 -0.004775371
000030 3f 84 09 bd ad 80 33 3b a6 d4 97 bc ff ee 6c bc
       -0.033573385 0.002738993 -0.018534016 -0.014461278
000040 fb 91 e4 bc f3 09 e8 3b 19 3d 89 3c 13 79 25 bc
       -0.02790164 0.007081264 0.016752766 -0.010099667
000050 89 f3 0a 3d ac d3 12 3d dc 4e eb 3c a7 a7 89 bc
       0.03392366 0.035846397 0.028724127 -0.016803576
000060 b9 45 b1 3c ae 06 01 3d 1e 7a d7 3c 95 83 42 bc
       0.021639692 0.03150051 0.026303347 -0.011872192
000070 4e 01 0f 3d b6 2b 9f 3c 16 11 11 bb d0 3c b1 bc
       0.034913354 0.019430023 -0.0022135428 -0.021635443
000080 11 2c 0c bd 33 d7 09 bd f2 fb f9 3c 9f b2 e2 3c
       -0.034221712 -0.033652496 0.030515645 0.027673064
000090 80 8c e2 bc 6e 30 d9 bc 24 98 7c bc 39 12 fd bc
       -0.027654886 -0.02651235 -0.0154171325 -0.030892478
0000a0 d2 93 95 3c 97 1c ab bc 9b 3d 74 bc 73 b8 d6 bc
       0.018258963 -0.020887656 -0.014907266 -0.026211
0000b0 fe 44 9e 3b 45 b1 07 3d 58 a0 d4 bb e0 10 1b 3d
       0.004830002 0.03312804 -0.006488841 0.03785789
0000c0 00 6d 82 3c 5e 85 55 bc 1e 58 5a 3b 76 c8 5c bb
       0.015921116 -0.0130322855 0.0033316682 -0.003368882
0000d0 a0 02 bf bc 3a 9f c6 3c 88 e2 b3 3c 39 cb 60 3c
       -0.023316681 0.024245847 0.021958604 0.013720327
0000e0 d3 5a 21 3c bc 31 8b bc 2c bc 6c 3c 8d 5c 01 bd
       0.009848314 -0.016991489 0.014449161 -0.031582404
0000f0 e3 9e c7 3c 33 fc a5 3c 9d c2 9a bc 47 86 b3 bc
       0.024367755 0.02026186 -0.018891627 -0.021914614
000100 5b ea ac bc 01 f2 e9 3b a4 b7 be bb 2c ad 30 bb
       -0.021107843 0.007139445 -0.0058202315 -0.0026958687
000110 7c e8 75 bc ff 99 b4 b8 54 86 a5 3c f8 b5 35 bc
       -0.015009042 -8.611753e-05 0.020205654 -0.011090748
000120 9c f6 d3 bc b8 69 cf 3c f2 91 f0 3c 69 2d 78 3c
       -0.025874428 0.025318965 0.029366467 0.015147545
000130 dc 88 3d 3c e2 2a d1 bc 1e ce 01 3d 3f 3d 63 bc
       0.011568274 -0.025533143 0.03169071 -0.013869583
000140 55 f0 9f bb 1b 44 42 3c 7f 5e d0 bc c7 c5 13 bc
       -0.0048809447 0.011857058 -0.025435684 -0.009019322
000150 8a 92 bc 3c 20 a4 b9 3c 52 9b 69 b9 22 55 cd ba
       0.023019094 0.022661269 -0.00022278473 -0.001566563
000160 ef f5 5f bb a0 09 ca bc 3f f5 97 ba 8f d7 65 3c
       -0.0034173687 -0.024662793 -0.0011593475 0.014028444
000170 1c d9 7e bb 2f 0d 13 bd d6 c5 3f 3b 90 e8 19 bb
       -0.0038886731 -0.035901245 0.0029262207 -0.0023484565
000180 e5 d2 f4 bb 79 2a 09 3d 89 08 9b 3c e8 1d af 3c
       -0.0074714296 0.03348777 0.018924968 0.021376565
000190 dc b1 3d bc 70 aa 0b bb 26 68 e7 ba cf 26 95 3c
       -0.0115780495 -0.0021311305 -0.001765494 0.018206982
0001a0 25 98 04 bd 1a 3e d3 3a 8f 33 8d bc 6a bb ec 3c
       -0.03237166 0.001611653 -0.0172365 0.02889796
0001b0 01 87 86 bc 9d 77 29 bd 4a c1 92 bc 37 80 8b 3c
       -0.016421797 -0.041373838 -0.017914433 0.017028911
0001c0 d1 30 0e bd 07 97 3c bb a3 a5 2e bd 21 89 a8 3c
       -0.034714524 -0.0028776543 -0.042638432 0.0205732
0001d0 bf eb db bc 77 84 0b bc c1 f0 09 bb 9e b0 bc bc
       -0.026845811 -0.008515469 -0.0021048042 -0.023033436
0001e0 db b9 72 3c 11 74 14 bd 69 78 a4 bb 24 10 e4 bc
       0.014814819 -0.036243502 -0.005019237 -0.027839728
0001f0 92 0c 9f 3b e2 50 86 bc 7e 06 89 3c 01 f1 56 3c
       0.0048537934 -0.01639599 0.016726729 0.013118983
000200 d4 96 2e 3d 85 e7 e7 bc f0 ec b7 bc aa 02 6e 3c
       0.04262431 -0.02830864 -0.022451848 0.014527002
000210 69 6d 1c bc cc ea a9 bc 28 09 a9 3c 3f 64 9c bc
       -0.00954757 -0.020741843 0.020634249 -0.01909077
000220 65 19 86 3b 80 2e 9c bc 70 45 e5 bb e8 c8 5a 3b
       0.0040923827 -0.019065142 -0.006996803 0.003338391
000230 b0 14 04 bd 0c 07 49 3c 00 13 00 bd 8e f1 0d ba
       -0.03224629 0.0122697465 -0.03126812 -0.00054147176
000240 79 68 ab bc d8 2a 13 bd e8 05 9e bc 98 ce 0a bd
       -0.02092384 -0.03592953 -0.019289926 -0.03388843
000250 f2 62 03 3c 18 e5 de bc 48 89 28 3c 96 f9 5b bc
       0.008019196 -0.02720885 0.010286637 -0.013426205
000260 f6 d9 fe bb ca f3 b2 3c dc 3c 89 3c 70 55 d6 3c
       -0.007777448 0.021844763 0.016752653 0.026163787
000270 ae 95 8f 3c 45 2c e3 3c 10 3d 05 3d 6d f4 7e bc
       0.017527428 0.02773107 0.032528937 -0.015561205
000280 29 f4 91 3c 7e 7d 0e 3d 59 71 57 3b ca 60 77 bc
       0.01781662 0.034787647 0.0032873957 -0.01509876
000290 94 52 6b bc 5f 13 4a 3c bf d2 cb 3b 49 de d5 3a
       -0.01436295 0.01233372 0.0062201913 0.0016316856
0002a0 f7 0f e7 bc b0 c3 04 bc 50 0a c4 bc ac 52 66 3c
       -0.028205855 -0.008103296 -0.023930699 0.014057796
0002b0 98 40 0a 3d 68 9f 9f bb 08 8f 88 bb 93 a3 3d 3c
       0.033753008 -0.0048712976 -0.0041674413 0.011574644
0002c0 30 92 0f 3d 08 63 15 3d ef d8 12 3a 82 6c a5 3c
       0.035051525 0.036471397 0.00056017836 0.020193342
0002d0 b7 ab 05 3d 13 48 b4 3b 35 87 14 3c be 81 22 bc
       0.032634463 0.005501756 0.009065439 -0.009918628
0002e0 c3 37 0c 3d c4 05 b1 3c d1 59 3b bc 86 3b fc 3c
       0.034232866 0.021609195 -0.011434988 0.030790102
0002f0 d2 39 be bc 47 12 cf bc 99 3c 01 bd 3a 68 7b bc
       -0.02322093 -0.02527727 -0.03155193 -0.015344674
000300 69 47 6e 3c e1 9d fe 3a 55 1f db 3c 17 fb 07 3d
       0.014543393 0.0019425714 0.026748339 0.033198442
000310 91 30 fb 3c ec ba 96 bc ce 56 67 bc 89 db da 3a
       0.030662807 -0.018399678 -0.014119817 0.0016697507
000320 4b 6e b0 3c d6 34 5e bc 3e f8 d4 bc 24 62 4e 3b
       0.021536967 -0.013562402 -0.025997277 0.0031491602
000330 d9 d2 b6 bc 65 1e e6 bc 1d 71 a6 bb eb 8b fa bc
       -0.022317337 -0.028090665 -0.005079402 -0.030584296
000340 9c 82 00 3c 14 6a 56 bc 98 a9 91 3c 17 33 b0 bc
       0.00784364 -0.013086814 0.017781064 -0.021508737
000350 54 8a 6c bc 28 f6 6f 3c c9 b5 28 3a ef 73 5e bc
       -0.014437277 0.014646091 0.00064357795 -0.013577445
000360 a0 1f 5e 3b 81 19 0f bc d0 0b f5 bc 36 bc 00 3d
       0.0033893362 -0.008734108 -0.02991286 0.031429492
000370 6f 1e cb bc ee 94 f0 bc 16 f9 ee bc 92 c0 ee 3a
       -0.024794785 -0.02936789 -0.029171508 0.0018215349
000380 93 2f 28 bc 42 82 87 bc 30 c5 5b bc 23 94 ad 3b
       -0.010265249 -0.016541604 -0.013413712 0.0052972003
000390 29 0d b3 3c d4 cb 46 bb 4b 06 c3 ba c0 76 1c 3d
       0.021856861 -0.0030333893 -0.0014879195 0.038199186
0003a0 f2 a1 cd 3b 62 b1 ec bc b3 7f 48 bc 77 10 11 3d
       0.006275409 -0.028893176 -0.012237477 0.035416093
0003b0 10 f3 5e 3c c4 85 f5 bc 11 f0 26 3a 44 64 f2 3c
       0.013607755 -0.029971011 0.000636817 0.029588826
0003c0 b4 b6 b7 bc c2 24 18 bd d0 bb e5 bc 4c 0d 34 bc
       -0.022425987 -0.03714443 -0.028043658 -0.010989498
0003d0 68 f6 e1 3c 8d 96 f3 3c 10 87 10 3d c9 80 70 3c
       0.027583316 0.029734874 0.035285056 0.014679142
0003e0 0e 8a 49 3c e3 ba 05 bd 78 82 de bc f1 20 e8 bb
       0.012300981 -0.032648932 -0.027161822 -0.007084005
0003f0 d0 a1 a3 bc f0 ee 0b 3d 31 d9 f6 b9 82 d6 8c bb
       -0.01997462 0.034163415 -0.00047082597 -0.0042980323

net.4.bias f4 [3]
000000 0d e3 b8 3b fa 25 bf 3c b9 51 81 3b
       0.005642301 0.023333538 0.0039465097
