checkpoints/srcnn_epoch29_2025-03-20_23-02-04.pth (torch, 280012 bytes, 6 tensors)

net.0.weight f4 [64, 3, 9, 9]
00000000: b429 063d bbdc 9fbc 12a5 003d b85f 553d
00000010: 9178 60bd 031d 9d3c 29f3 143d e0e6 9fbc
00000020: 87a8 d2bc 8d64 363c 7ca3 26bd 698b c1bc
00000030: 43ff c53a 4acd 05bd 1526 0d3b 493e 7c3d
00000040: 8cf0 8d3d 60de 58bc e1cf 32bd 8f98 0bbc
00000050: 9678 043b 847e 683d cc53 77bc 1ca7 12bd
00000060: 8a23 803d d40e ef3c d66c 713d 70c4 bf3c
00000070: 7b35 16bd 5f5b 7abd 16bf 593d 3493 30bd
00000080: 3daa 7bbc bde0 2fbd 6b68 803d 053a 51bd
00000090: a90f 37bc 0b88 dc3a 1ffe babb 0330 c7bc
000000a0: 1bdd 41bc 285e 833d 5a17 f0bc df76 e6bc
000000b0: c84b 283d 6cfb 8b3d 23d5 5bbd 52ed 0f3d
000000c0: b288 653c c2e9 dd3c 2850 abbb a0c9 72bc
000000d0: 8eba 58bd bada 783d a64f 803d 9018 e6bc
000000e0: 529c 8e3d e23a 0cbd a57e 553d 7e5b 973d
000000f0: 78b8 3a3c ef1d 98bb f123 6d3c e36c 1b3d
00000100: 8a3a 863d bff0 13bc ce08 873d 3c59 3fbc
00000110: 7b67 a3bc ee4b 033d 214f 23bd 58b4 59bb
00000120: 24ee e5bc d8d7 34bd 83d9 24bd a744 3dbd
00000130: 0527 383d eb1c 30bc f276 65bd 5187 9a3c
00000140: 04d6 debc 5833 f4bc 937f 74bc 0cec 10bd
00000150: 3882 9f3c 9727 5ebd 7522 7e3c a24c fdbb
00000160: 868a 9bbc 099b 573d e4d4 40bc 4f63 40bd
00000170: 9205 0e3c a2fa 58bd 5063 5bbd 471d b7bc
00000180: 9cff 1d3d 6397 0c3c 5f1a 313c 50be 8b3d
00000190: 864a 433d c4f0 883d 186f 59bd 0ac9 acba
000001a0: edf4 573d 4bd3 1fbd 84fe 59bd 4c03 023d
000001b0: 964c 3bbd 08e2 69bb ff64 46bd fbd6 c7bc
000001c0: 7b3a 293d 37e8 db3c d1cb 393c eddc 71bc
000001d0: d22d 5bbd 82d7 2d3d 0c5c 0b3d f72c 58bc
000001e0: 58a5 4abd 5a1b 5c3d d045 6bbd cb5a 6a3d
000001f0: 581f dfbc 08ae 1ebc 27c2 03bd 18da c2bc
00000200: 4397 23bd e219 f0bc c817 3a3d 923c 28bd
00000210: 378b 143b 1716 fb3c cb09 4a3d 72c1 1bbd
00000220: 790e b4bc a66e 3fbc be4b 6b3d 787f 4cbb
00000230: bfc8 6e3d c31d 393c cebe 14bd b175 42bd
00000240: 7e30 433d 6948 483d c6f6 0fbc e811 67bd
00000250: f2c5 453a 7e3f fcbc 3fc9 1e3d 7c7c 66bd
00000260: 5029 ad3c f288 233b 397c e2bb fc9e 44bd
00000270: ea02 31bd 88f5 5e3d 5fde 2bbd d9c3 b6bc
00000280: 4596 9ebc 08eb 903c f830 1cbd 76d4 c93c
00000290: 7583 ae3c fbf7 f3bc d7c8 0b3d c774 a6bb
000002a0: 446a 233d 5882 37bc ee31 0abd 3f05 873d
000002b0: 041b 54bd 93e7 bbbc e887 54bd 940c 783d
000002c0: b4cd 20bd 66ee 0b3d f021 62bd 1ab8 0c3d
000002d0: 20f6 023d 9eb3 773d 24bc 1dbd cbf7 ad3c
000002e0: 484c 983d 01fe 8c3d acdd 903d 65ad 0f3d
000002f0: 7999 50bc 611e 453c c59f 3bbd 2d0e 05bc
00000300: a9ec 803c 37d4 763d 3c86 c0bb ec97 613d
00000310: 6896 7d3d 7784 e23c a823 7c3d 6b97 853d
00000320: cdfb bc3c 6827 553d 976c a7bb 831d 98bc
00000330: 0a17 c53c aac6 713c 81c6 34bc d833 67bd
00000340: e06c 5bbd 9778 bebc 2a80 59bd 9ab5 413c
00000350: 9f99 58bd e84e 8dbc 11b0 a4bc c31a 053d
00000360: 0fac 913c b61f 8e3c 502b 1a3c ce40 f8bc
00000370: 5609 633d a091 2d3d 3e0d 803d 7d67 02bd
00000380: 4016 e2bc 47ff 793d 4343 60bd 3b48 103d
00000390: 6783 14bc d63a 66bd e121 55bc 7074 8cbc
000003a0: ce09 8bbc 0f58 44bd d124 18bd 9670 fa3c
000003b0: 209e 3c3d 27b7 0ebc ef78 6ebc 769a e339
000003c0: f4d6 433d b879 62bd 56cd 2e3d 534a a43c
000003d0: 8fbc 4dbd 393e 383d f593 803d 757c 2f3c
000003e0: b359 4bbc 4013 783d 4eda 30bd b756 83bc
000003f0: d442 ecbb e89e 19bd 27e2 b83c 620b 9839
0.032754615 -0.019514432 0.031407423 0.052093238 -0.05480248 0.019178873 0.036364708 -0.01951927
-0.025715126 0.011132372 -0.040683255 -0.023626046 0.0015105981 -0.032666482 0.0021537591 0.061582837
0.06930646 -0.013236612 -0.04365528 -0.0085202595 0.0020213476 0.05676128 -0.015095662 -0.0358039
0.062567785 0.029181875 0.058941685 0.023409098 -0.036672097 -0.061122295 0.05316075 -0.043109134
-0.015360412 -0.042938937 0.06269916 -0.051080722 -0.011173167 0.0016825212 -0.005706563 -0.024314886
-0.011832501 0.06414443 -0.02930801 -0.028132854 0.041087896 0.06835064 -0.05367006 0.035138436
0.0140096415 0.027089003 -0.005228061 -0.014818579 -0.052912287 0.06075547 0.06265192 -0.028087884
0.069634095 -0.034235843 0.05212273 0.073904976 0.01139652 -0.0046422402 0.014473901 0.03794564
0.06554134 -0.009029566 0.06593476 -0.01167899 -0.019946804 0.032054834 -0.039870385 -0.0033219066
-0.028067656 -0.044151157 -0.040246498 -0.04620805 0.044959087 -0.010749082 -0.05602164 0.018863352
-0.02720166 -0.029809639 -0.014922994 -0.03538136 0.019471273 -0.054236975 0.015511145 -0.0077300826
-0.018986952 0.052638087 -0.011769507 -0.046969708 0.00866832 -0.052973397 -0.05356151 -0.022352828
0.038573846 0.008581015 0.01080951 0.068234086 0.047678493 0.066865474 -0.053084463 -0.0013182473
0.052723814 -0.039019864 -0.05322124 0.031741425 -0.045727335 -0.0035687704 -0.04843616 -0.024394503
0.041315537 0.026844127 0.0113400975 -0.0147621455 -0.053510495 0.042441852 0.03402333 -0.013194314
-0.04947409 0.053737022 -0.057439625 0.057215493 -0.027236626 -0.009685047 -0.03216758 -0.023785636
-0.039939176 -0.029309217 0.045432836 -0.04107339 0.0022665986 0.030650182 0.049325746 -0.03802628
-0.021979557 -0.0116840955 0.05744528 -0.0031203907 0.058296915 0.0112986 -0.036314778 -0.04747552
0.047653668 0.04889718 -0.008786863 -0.05641356 0.000754445 -0.030791994 0.038766142 -0.05627106
0.021137863 0.0024953452 -0.006911781 -0.04800318 -0.04321567 0.054433376 -0.041960116 -0.022310184
-0.019358763 0.017690197 -0.038132638 0.024637442 0.021302918 -0.029781332 0.034127083 -0.005079839
0.039896265 -0.01120051 -0.033739023 0.065927975 -0.051783577 -0.022937572 -0.051887423 0.06055887
-0.039258674 0.0341629 -0.055208147 0.03435526 0.031973004 0.06047403 -0.038509503 0.021236321
0.074364245 0.06884385 0.070735306 0.03507747 -0.012731903 0.012031169 -0.045806665 -0.008121056
0.015737848 0.060260978 -0.005875377 0.055076525 0.061911017 0.027651055 0.061557442 0.06523021
0.023069287 0.052039534 -0.0051093805 -0.01856876 0.024058837 0.014756838 -0.011033655 -0.056445926
-0.05357063 -0.023250861 -0.053100742 0.011823082 -0.05288088 -0.01724954 -0.020103486 0.032496225
0.01778224 0.017349105 0.009409741 -0.030304339 0.055428825 0.042375207 0.06252526 -0.031836975
-0.0275985 0.061034467 -0.054751646 0.035225134 -0.009064532 -0.056208454 -0.013008566 -0.017145365
-0.016972449 -0.04793554 -0.037144486 0.030571263 0.046049237 -0.008710659 -0.0145552 0.00043411896
0.047812417 -0.05529186 0.042676292 0.020054972 -0.05022865 0.044981215 0.062782206 0.010710825
-0.012411523 0.060565233 -0.04317694 -0.01603256 -0.007210115 -0.03750506 0.022568775 0.0002900018

net.0.bias f4 [64]
00000000: 4ea6 793d 46b7 b43c ba1c 6c3d 4229 8d3c
00000010: 2dec 653d 7b90 293d 757b 033d 14d3 dc3c
00000020: 7087 383d 89e0 4cbd 35d4 a83c d1e6 a4bc
00000030: d19d c6bb ad9e 0a3b a585 16bd d7d6 15bc
00000040: d8c5 12bd d57e 453a 0f73 7d3a 7dad 21bd
00000050: 53fc 2bbd 1f87 073d 214f ef3a c71b 7c3c
00000060: 3b6b 263d f65e 213c ddf7 f1bc e7c2 4a3c
00000070: 03be 4f3d 8ad6 573c 848b 5f3d d09a 733c
00000080: 6a88 9abc bb41 a83c c855 54bd c0a6 d2bc
00000090: 4352 103d a9a8 fc3c f3e2 5e3d 174a 273d
000000a0: 3aa3 183c aa46 e6bb b5c7 06bd 485a 3fbd
000000b0: c3ec d7bc 0dd3 7f3d 22e9 05bd 6e4d 883d
000000c0: 731c 8ebb 0860 1b3d c881 6bbd 63fd 543d
000000d0: e2e3 6fbd b56f 1bbc c94f cdbb 7973 903c
000000e0: 602e 503d 23f1 47bd 378b 043c b3a7 293c
000000f0: 0432 723d f14d df3c 1352 143d 89a7 6dbc
0.060949616 0.022060048 0.057644583 0.017231587 0.056133438 0.041397553 0.03210016 0.026956119
0.04505104 -0.05001882 0.020609 -0.020129593 -0.0060612937 0.0021151707 -0.036748547 -0.00914546
-0.03583321 0.0007533853 0.0009668329 -0.039472092 -0.041988682 0.033087846 0.0018257835 0.015387482
0.040629607 0.009849301 -0.029537136 0.01237557 0.05071832 0.013173709 0.05457641 0.014868453
-0.018863875 0.020539155 -0.05183962 -0.025714278 0.0352347 0.030842142 0.054415654 0.040842142
0.00931626 -0.007027467 -0.0329053 -0.04671696 -0.026358014 0.062457133 -0.032693036 0.066553935
-0.0043368875 0.03793338 -0.057496816 0.05199946 -0.058566935 -0.009487082 -0.0062656146 0.017633187
0.050825477 -0.04881395 0.008089832 0.010354924 0.05912973 0.027258845 0.036211085 -0.0145052755

net.2.weight f4 [32, 64, 5, 5]
00000000: ebd1 88bb ae0f 833c 6f7b d8ba d0ab bdbc
00000010: 823e 9d3c 5264 7e3b 9f72 e83b c355 eebb
00000020: 6a4f 3c39 9c54 65bb cab0 37bc 5e60 ba3c
00000030: c761 353c b9b0 c6bc 5d72 26bc 71c4 87bb
00000040: 5316 173c 72c8 00bc f68a 303c 2fe0 b53c
00000050: d9e1 36bc 3ff3 4d3c f4a8 933c 5466 e0ba
00000060: 93a0 6e3c b86f 87bc c48f c23c bf33 bd3a
00000070: ef58 433a 2997 a4bc eb65 b3bc d354 6c3c
00000080: a877 e9bb d716 9a3c db76 bcbb f75c ee3b
00000090: 71b8 593c 5403 cdbc d252 1dbc c736 9c3c
000000a0: 03d5 b0bc 8a45 103b 29df 73bc 4b86 b8bc
000000b0: c638 013c 3045 2c3c 0699 e7bb 5c81 d53b
000000c0: 407b 9ebc ac36 893c c488 203c 2499 95bb
000000d0: e0e4 c73b 7510 69bc 5677 4c3b 4453 2cbc
000000e0: 1628 be3c 7318 64bb 42c5 223c b202 8c3a
000000f0: 40a6 9c3b 6414 2cbc f787 703c bc4e bc3c
00000100: 9a16 27bc 1d41 df3b a7df b9bb a3f2 c73b
00000110: cecc 08bc 569a 05bb 1695 b33c 9127 05ba
00000120: 4712 983b f135 99bb f64d a73c 4878 82bb
00000130: 687a 693c 2a64 e6bc ea1d 48bc b9d0 8abc
00000140: 7630 983b 3933 833c cab4 f1bc 2d54 4dbc
00000150: 5db6 52bc 611b f0bb 6fbf ebbc 74d7 763c
00000160: f608 c93a fe55 94bc 7e7d 903c f2cf 6fbb
00000170: c11d 7ebc c56b 59bc 6259 0fbc 491d cebc
00000180: 0ef7 0cbb ae5a 9dbc cb64 3b3c 3d16 403c
00000190: 4f80 1b3c 8de4 be3c 275f 943c 133d 83bc
000001a0: 3ce9 f63b d69e b0bc 0fac 19ba 23d2 98ba
000001b0: 62fc acbc 03c6 913b a2b4 89bb e58b b6bc
000001c0: 0995 0fba bdf8 b03c 0d54 a73c 65b4 abbc
000001d0: 253c 323c 8860 9ebc b934 c03c 6e69 c33c
000001e0: 2564 b33c a874 44bc 3915 d3bb 61a0 a8bb
000001f0: b732 923c c3c8 c9bc a9d5 bfbc bd8e 9d3c
00000200: 249f d2bc 365c 32bc 191a b73b c4e2 613a
00000210: 2308 c5bc b936 163c 8aa8 90bc 3065 4e3c
00000220: 0e16 be3c a6f7 933c 4e34 953b 85d7 bb3b
00000230: b5e5 a1bc ca1c 95bc 2ca8 f13b 536a d3bc
00000240: 8c2c 89bc 04c6 b83c 8120 bb3c 2107 c5bc
00000250: f20d 19bc 8797 4e3b e121 9a3c 5b68 d43b
00000260: 9b06 a9bc 41da c03c 6137 43bc c5a8 2fbc
00000270: 5b9e 483c 011f 533c 6695 1fbc f62d ba3b
00000280: dc7a b8bc bee9 c3bc 4251 89bc cde6 b3bc
00000290: 9571 6fbc f241 babb 7afa 85bc 563d bfbc
000002a0: 91eb 1e3c 9bf7 b7bc e2b5 6c3c 3fce 033c
000002b0: d671 d6bc a62b abbc b4da b03c 47cd 84bc
000002c0: c76d a13c 0b86 9e3c 1442 ba3c fc6f 9d3b
000002d0: 8593 963c c9d7 6cbb 80b8 9cbc 543b b0bc
000002e0: 1ddf 0ebc 6c52 68bc 49a5 4f3c 464b 713c
000002f0: dc2a aabb 302d 7e3c 4fd3 7b3c 0105 eaba
00000300: b53c 80bc 409d 253a 0f95 b03b ee3a f6bb
00000310: 1df0 823c d2de 0dbc 4f8f c73b 4db5 b83c
00000320: 5852 c0bc c234 2ebc a890 27bc 4f03 923c
00000330: 7205 363b 1b86 81bc 80ed 873c 628c ec3a
00000340: a6ef 18bc 71a3 093b ad8c 0b3b e27a aabb
00000350: b016 06ba fde3 5e3c b365 debb 31a8 ec3b
00000360: 178a 48bb b7dc e3bb f43d f53b 4f81 a43b
00000370: 726b e4bb 1af2 773c 93a1 85bc 6beb 8a3c
00000380: 8ae7 e23b 159f 993c 59ce 713b 0f3d 813c
00000390: 1e95 51bb 7a4e 2bbc b828 bf3c 2c66 d2bc
000003a0: b434 0ebc 2e99 d2bb 7104 b93c 3c33 7abc
000003b0: 2490 98bc b99c c1bb d9d7 18ba 6609 9fbc
000003c0: b9b1 a9bb 2e12 c73b ba52 2a3c a26f 0dbc
000003d0: 87ec 29bc 9ff6 22bc c8f8 8bbb b42f 873c
000003e0: 3821 b33c 8b22 7c3c 8aca e43b a97b 993c
000003f0: 5cbc 2cbb 2e72 1e3c fcb7 883c 7d3e ceba
-0.004175415 0.015998688 -0.0016516278 -0.023153216 0.019194845 0.003881712 0.007093742 -0.007273407
0.00017958661 -0.0034993058 -0.011211583 0.02275103 0.011070675 -0.02425419 -0.010159102 -0.0041432907
0.009221631 -0.00786029 0.010775318 0.022201626 -0.011162245 0.012570201 0.018024899 -0.001712034
0.014564651 -0.016532764 0.023750193 0.0014434977 0.0007451912 -0.02009161 -0.021899184 0.014424521
-0.00712486 0.018809719 -0.0057514734 0.007274266 0.013288603 -0.025026001 -0.009602265 0.019069089
-0.021585947 0.0022014105 -0.0148847485 -0.022524973 0.007887071 0.010514542 -0.0070678024 0.006515665
-0.01934588 0.016749702 0.0097982325 -0.004565375 0.006100282 -0.014225115 0.003119906 -0.010517899
0.023212474 -0.0034804612 0.009934725 0.0010681956 0.0047805607 -0.010502908 0.014680854 0.022986762
-0.01019826 0.006813182 -0.0056724134 0.0061019226 -0.0083496105 -0.002038618 0.021921676 -0.0005079443
0.0046408507 -0.00467562 0.020422917 -0.003981624 0.014250375 -0.028123934 -0.012214163 -0.01694523
0.004644449 0.016015636 -0.029505152 -0.012532276 -0.012860862 -0.0073274826 -0.028777806 0.015066016
0.0015337754 -0.01810741 0.017637964 -0.003659245 -0.015510024 -0.013270323 -0.008749338 -0.025160449
-0.002150956 -0.019208279 0.011437605 0.011724052 0.00949104 0.02330234 0.018111778 -0.016020333
0.007535128 -0.021560114 -0.00058621255 -0.0011659305 -0.02111644 0.0044486537 -0.0042024413 -0.022283504
-0.0005477225 0.021602983 0.02042582 -0.020960042 0.010878597 -0.019333139 0.02346264 0.023853984
0.021898339 -0.011990704 -0.006441739 -0.005146072 0.017846448 -0.024631863 -0.02341731 0.019233102
-0.02571065 -0.010886243 0.005587828 0.00086168596 -0.024051731 0.00916832 -0.01765849 0.012597367
0.023203876 0.018062424 0.0045533543 0.005732479 -0.019762853 -0.018202204 0.007374784 -0.025807535
-0.016744874 0.022555359 0.022842648 -0.02405125 -0.009341704 0.0031523423 0.018814983 0.0064821667
-0.020633033 0.023541572 -0.011915059 -0.01072139 0.012244786 0.01288581 -0.009740209 0.0056817485
-0.022519521 -0.023915168 -0.01676238 -0.02196064 -0.014614482 -0.005684131 -0.016354788 -0.023344677
0.009699718 -0.022456935 0.014447661 0.008044778 -0.026177328 -0.020894837 0.02158866 -0.016211165
0.019705666 0.019351026 0.022736587 0.0048046093 0.01838089 -0.003613936 -0.019130945 -0.021512665
-0.008720187 -0.014179807 0.012673684 0.014727419 -0.0051930975 0.015513703 0.015370204 -0.0017854274
-0.015653947 0.00063176826 0.005388863 -0.007514349 0.015983636 -0.0086590815 0.0060900818 0.022547388
-0.023476765 -0.010632696 -0.01022736 0.017823843 0.0027774242 -0.015811017 0.016592741 0.0018047208
-0.00933448 0.002100196 0.0021293566 -0.005202637 -0.0005115075 0.013604161 -0.006787026 0.0072221984
-0.0030599886 -0.0069538015 0.007484192 0.0050202976 -0.0069708163 0.015133405 -0.016312396 0.01695796
0.0069245743 0.018752614 0.0036896674 0.015776185 -0.003197975 -0.010455722 0.023334846 -0.025683485
-0.008679558 -0.006426952 0.022585126 -0.015271004 -0.01862342 -0.0059085754 -0.00058305037 -0.019413661
-0.005178657 0.0060751652 0.0103957 -0.008632572 -0.010371334 -0.009946494 -0.0042716004 0.016502239
0.021866426 0.015389095 0.0069821524 0.018735724 -0.0026357388 0.009670777 0.016689293 -0.0015735176

net.2.bias f4 [32]
00000000: 7ed0 7f3b 6d89 ad3c 8714 883b b96e 363c
00000010: 036c 1f3c 09fc 6fbc 3a52 3cbc 0217 ce3b
00000020: a909 483b 3a46 84bc cb13 56bb b93a aa3b
00000030: 95ec 2d3c c113 dbbb d9ee 8abc c518 9f3c
00000040: de9c e1bb da78 233b ab82 bb3c 4c83 9b3c
00000050: e7ee 893c 88a3 8cbc 0332 93bc e4f6 b33c
00000060: 2434 703c 2061 adba 68ce 96bc 18a5 c33c
00000070: 9850 ef3a d10a 97bc e625 2a3c 1ea3 aebc
0.0039034183 0.021183694 0.0041528377 0.011134797 0.009730342 -0.014647492 -0.011494214 0.006289364
0.0030523336 -0.016146768 -0.0032665606 0.0051949886 0.010615488 -0.0066857045 -0.016959595 0.01942099
-0.006885155 0.002494386 0.022889456 0.018983506 0.01683755 -0.017167822 -0.017968183 0.021968313
0.014660869 -0.0013227798 -0.018408969 0.023882434 0.0018258272 -0.018437775 0.010385012 -0.021318015

net.4.weight f4 [3, 32, 5, 5]
00000000: 078f d03c c084 0bbd 7552 e2bc b662 5bbc
00000010: f349 f2bc db7c 8a3c 56c4 4abc 2446 e73b
00000020: 3683 f6bc 238d b93c 1943 5d3c b77a 9cbb
00000030: 3f84 09bd ad80 333b a6d4 97bc ffee 6cbc
00000040: fb91 e4bc f309 e83b 193d 893c 1379 25bc
00000050: 89f3 0a3d acd3 123d dc4e eb3c a7a7 89bc
00000060: b945 b13c f00a 013d c481 d73c 5b78 42bc
00000070: ce03 0f3d 6730 9f3c a226 55b8 bfd1 a0bc
00000080: 9804 05bd 78d0 02bd 7cb0 033d c21c d93c
00000090: b5fb ebbc 4f47 e2bc bfe8 86bc d70e 03bd
000000a0: f184 843c 26c4 bbbc 180c 8abc de21 e6bc
000000b0: a8ab 443b 0074 f83c 7b83 16bc c6a3 103d
000000c0: 2714 5c3c 000c 7dbc c709 5c3b 1e5e 5cbb
000000d0: a4eb bebc b571 c63c 57fd b33c f5d8 603c
000000e0: a345 213c 6415 8bbc 2773 6c3c 4744 01bd
000000f0: a589 c73c 6b03 a63c ca9f 9abc 7099 b3bc
00000100: ddd2 acbc 9f61 ea3b a6a4 bdbb 8095 2ebb
00000110: 6bf0 75bc b5ad b8b8 f56f a53c 6c91 35bc
00000120: 07aa d3bc 016a cf3c f37f f03c 5625 793c
00000130: c4b3 3e3c 66e9 d0bc 14e5 013d c887 63bc
00000140: e1fd 9ebb 8e0b 433c 2d29 d0bc 3812 14bc
00000150: a249 bc3c a2bc b93c 9f75 6eb9 ef89 cfba
00000160: 6a9e 5ebb 8d1b cabc f147 93ba 7257 663c
00000170: 6fc4 7cbb d9a4 12bd a1b7 3f3b 82df 17bb
00000180: e9da f3bb 7c25 093d db43 9b3c bfc8 ae3c
00000190: d727 3dbc cfe5 09bb c098 e6ba ec90 953c
000001a0: 0765 04bd 0906 d53a 2c09 8dbc 3b2c ed3c
000001b0: fc15 86bc 1b4a 29bd 859b 92bc 8ad2 8b3c
000001c0: e7f6 0dbd 6530 39bb ff70 2ebd e707 a93c
000001d0: de0e dbbc 7b11 0bbc 8838 06bb 5c24 bcbc
000001e0: b3f1 733c 1808 14bd 83b6 a3bb 5eaa e3bc
000001f0: 49ea a03b 5e32 82bc c191 8c3c 7e71 5b3c
00000200: 5226 2e3d 9431 e5bc a7bc b5bc 3bf4 703c
00000210: 1b2d 1cbc bca9 acbc 26e9 a93c 279c 9abc
00000220: cf78 893b eca0 9cbc edd9 f1bb add7 5f3b
00000230: b364 02bd acc9 4d3c 9efb febc c7de 3cba
00000240: 5af5 a8bc 726e 11bd ad7d 9bbc 302a 0abd
00000250: f4bb 003c b861 dcbc 15bc 283c 9fc3 5bbc
00000260: cbd1 febb feeb b23c ae4e 893c 6832 d63c
00000270: 77a6 8f3c d80b e33c 172e 053d e4b0 7ebc
00000280: 5bdd 913c 288b 0e3d 4f34 573b 2617 77bc
00000290: 023d 6bbc f68a 4a3c 1df0 cc3b b88c d53a
000002a0: 57ee e6bc 9cc1 04bc caf3 c3bc 4c92 663c
000002b0: 4434 0a3d 6bb6 9fbb 0855 88bb 2a87 3d3c
000002c0: ab97 0f3d c263 153d d0d5 143a 1571 a53c
000002d0: b2a5 053d a569 b43b 366e 143c f056 22bc
000002e0: 4435 0c3d 6412 b13c ef79 3bbc f306 fc3c
000002f0: b22e bebc 360c cfbc a138 01bd 0369 7bbc
00000300: 4a1c 6e3c 90cd fe3a f732 db3c 76fe 073d
00000310: 694a fb3c a1b3 96bc 4674 67bc b668 da3a
00000320: 0874 b03c 8e30 5ebc adfa d4bc 9959 4e3b
00000330: 25ec b6bc 73fe e5bc c28f a4bb 507e fabc
00000340: f9b9 003c 5410 56bc 69bf 913c 0ecb afbc
00000350: 2156 6cbc 1b52 703c 9aec 2b3a 5a0a 5ebc
00000360: 7d8f 5e3b d7e2 0ebc db93 f4bc 8fb2 003d
00000370: 6eea cabc d98f f0bc 52fa eebc 4661 f53a
00000380: 4e3e 28bc 03ef 86bc 8733 5abc 8a82 ad3b
00000390: 1205 b33c 769d 45bb 62f0 beba e77e 1c3d
000003a0: 8435 ce3b 4b76 ecbc b975 48bc 8f03 113d
000003b0: 3bf9 5e3c 536c f5bc 0298 293a 76d6 f13c
000003c0: 9a76 b7bc 5ad1 17bd a3a1 e5bc 4313 33bc
000003d0: b8e9 e13c c199 f33c 2f99 103d 9c23 703c
000003e0: e4f2 4a3c 6578 05bd 7882 debc f120 e8bb
000003f0: d0a1 a3bc f0ee 0b3d 33d9 f6b9 82d6 8cbb
0.025458826 -0.034062147 -0.02762721 -0.013390234 -0.029576277 0.016905239 -0.012375912 0.007057922
-0.030091863 0.022650307 0.013504767 -0.004775371 -0.033573385 0.002738993 -0.018534016 -0.014461278
-0.02790164 0.007081264 0.016752766 -0.010099667 0.03392366 0.035846397 0.028724127 -0.016803576
0.021639692 0.03150457 0.026306994 -0.011869515 0.034915738 0.01943226 -5.0819137e-05 -0.019631265
-0.032475084 -0.031937093 0.03215073 0.02650297 -0.028806547 -0.027621893 -0.016468404 -0.031996574
0.016176673 -0.02292068 -0.01685147 -0.028092321 0.0030009542 0.03032875 -0.009186621 0.035312437
0.013432539 -0.015444756 0.0033575164 -0.0033625434 -0.023305722 0.024224142 0.021971388 0.013723602
0.009843263 -0.016977973 0.014431751 -0.031559255 0.024357626 0.020265302 -0.018875021 -0.02192375
-0.021096641 0.0071527506 -0.00578745 -0.0026639402 -0.015010933 -8.806159e-05 0.020194987 -0.011082035
-0.025837911 0.025319101 0.029357886 0.0152066555 0.011639539 -0.025501918 0.031712607 -0.013887353
-0.004852042 0.01190461 -0.02541026 -0.009037547 0.02298433 0.022672955 -0.00022741266 -0.0015833954
-0.0033968934 -0.02467134 -0.001123665 0.0140589345 -0.0038569232 -0.035801742 0.0029253738 -0.0023173993
-0.0074418676 0.033483014 0.018953254 0.021335958 -0.011545143 -0.0021041518 -0.001759313 0.01825758
-0.03232291 0.0016252409 -0.017216288 0.028951755 -0.016367905 -0.041330438 -0.017896423 0.017068166
-0.034659293 -0.0028257605 -0.04258823 0.020633651 -0.026740488 -0.008488054 -0.0020480473 -0.022966556
0.014889169 -0.03614053 -0.0049961223 -0.027791198 0.0049107415 -0.015893158 0.017159345 0.013393758
0.042517014 -0.027977742 -0.022184683 0.014706667 -0.009532238 -0.02107703 0.020741057 -0.018873287
0.0041953097 -0.019119702 -0.007380715 0.0034155652 -0.031834316 0.012560289 -0.03112584 -0.0007204827
-0.020624805 -0.03550572 -0.018980825 -0.03373164 0.0078573115 -0.026902065 0.0102987485 -0.013413339
-0.007776474 0.021841045 0.01676115 0.026147082 0.017535431 0.027715608 0.032514658 -0.015545104
0.017805746 0.03480068 0.0032837575 -0.015081203 -0.014357807 0.012362232 0.0062542097 0.0016292548
-0.028189821 -0.008102801 -0.023919959 0.014072966 0.03374125 -0.004874041 -0.004160527 0.01156787
0.03505675 0.03647209 0.00056776125 0.020195523 0.032628722 0.005505758 0.009059479 -0.009908423
0.034230486 0.021615215 -0.011442645 0.030765032 -0.023215625 -0.025274377 -0.031548146 -0.015344861
0.014533112 0.0019439925 0.0267577 0.033201657 0.03067513 -0.0183962 -0.014126843 0.0016663286
0.021539703 -0.013561381 -0.025998438 0.003148651 -0.0223294 -0.028075432 -0.00502202 -0.030577809
0.007856839 -0.013065416 0.017791467 -0.021459129 -0.014424832 0.014668013 0.00065583887 -0.013552273
0.0033960037 -0.008721075 -0.02985566 0.031420287 -0.024769988 -0.029365467 -0.029172096 0.0018721006
-0.010268761 -0.016471392 -0.013317949 0.0052951025 0.021853004 -0.0030153668 -0.0014567489 0.03820696
0.0062930007 -0.028865 -0.0122350985 0.035403784 0.013609226 -0.02995888 0.00064694893 0.029521208
-0.02239542 -0.037064888 -0.028031176 -0.010929885 0.027577266 0.029736402 0.035302337 0.014656927
0.012387011 -0.03258552 -0.027161822 -0.007084005 -0.01997462 0.034163415 -0.00047082602 -0.0042980323

net.4.bias f4 [3]
00000000: 73df b83b aa2b bf3c 282a 813b
0.0056418716 0.02333625 0.003941793
