checkpoints/srcnn_epoch1_2025-03-20_23-02-04.pth (torch, 280002 bytes, 6 tensors)

net.0.weight f4 [64, 3, 9, 9]
0	0x3cb356a1	0.021891894
1	0xbcefff81	-0.029296638
2	0x3cb658a9	0.022259073
3	0x3d28d62c	0.041219875
4	0xbd829d08	-0.063776076
5	0x3c0a017a	0.008423204
6	0x3cc3997b	0.023876896
7	0xbcf17e6b	-0.029479226
8	0xbd135832	-0.03597278
9	0x3aca747b	0.0015446091
10	0xbd4c1852	-0.04982788
11	0xbd076441	-0.033054594
12	0xbc09eb1f	-0.008417874
13	0xbd2561ca	-0.040376462
14	0xbc0f196a	-0.0087340865
15	0x3d4b986b	0.049705904
16	0x3d817986	0.06322007
17	0xbca70189	-0.020386474
18	0xbd5899b9	-0.052880976
19	0xbc8c7616	-0.017146152
20	0xbb83c6ab	-0.004021486
21	0x3d4e7cce	0.05041199
22	0xbccb3db8	-0.024809703
23	0xbd3f4840	-0.046699762
24	0x3d581e74	0.052763417
25	0x3cd57f1e	0.02606159
26	0x3d59fb5d	0.053218234
27	0x3c591eb2	0.013251947
28	0xbd3c64c4	-0.045994535
29	0xbd8487af	-0.06471192
30	0x3d49d6e6	0.04927721
31	0xbd604840	-0.054756403
32	0xbcc45340	-0.023965478
33	0xbd51baee	-0.05120366
34	0x3d6ae685	0.057348747
35	0xbd718d3a	-0.058972575
36	0xbc9cb489	-0.019129055
37	0xbb9cf607	-0.004790071
38	0xbbf4c568	-0.0074698217
39	0xbcd5297b	-0.026020756
40	0xbcb24b81	-0.021764519
41	0x3d6f652b	0.05844609
42	0xbd1316fc	-0.03591059
43	0xbd106b9c	-0.035258874
44	0x3d06074e	0.03272181
45	0x3d7aee49	0.061262403
46	0xbd73b08c	-0.05949454
47	0x3cfa90a1	0.030586543
48	0x3c326f62	0.010890814
49	0x3c8af6f7	0.016963465
50	0xbc7137a2	-0.014722737
51	0xbcbdb556	-0.023157757
52	0xbd75a3bb	-0.0599706
53	0x3d570c7b	0.052502137
54	0x3d6070b7	0.054794993
55	0xbd12f685	-0.03587963
56	0x3d777dd5	0.060422737
57	0xbd2c6a38	-0.042093486
58	0x3d2373e1	0.039905433
59	0x3d75893e	0.059945337
60	0x3ac3d2a8	0.00149401
61	0xbc1f8c74	-0.0097380765
62	0x3bdf4d43	0.0068146302
63	0x3cfbfdf0	0.030760735
64	0x3d6e22bf	0.058138605
65	0xbc95a147	-0.01826538
66	0x3d671bee	0.05642312
67	0xbcae6c92	-0.021292005
68	0xbcfa2d36	-0.030539136
69	0x3cc5228f	0.02406433
70	0xbd3270c2	-0.043564565
71	0xbc2a2777	-0.010385386
72	0xbd0e57b2	-0.0347516
73	0xbd5035bc	-0.050832495
74	0xbd4499e7	-0.047998335
75	0xbd61ebef	-0.055156644
76	0x3d1ae7c7	0.037818696
77	0xbc91c511	-0.017794164
78	0xbd818a0f	-0.06325161
79	0x3c5a8001	0.013336183
80	0xbd10cfe3	-0.035354506
81	0xbd283de3	-0.041074645
82	0xbcc943e4	-0.024568506
83	0xbd312cab	-0.04325549
84	0x3c357733	0.011075783
85	0xbd73c426	-0.059513234
86	0x3c09eb87	0.0084179705
87	0xbc9512fc	-0.018197529
88	0xbce7cc92	-0.028295789
89	0x3d2ae0a8	0.041718155
90	0xbcb352e4	-0.021890111
91	0xbd652aea	-0.05594913
92	0x3a2cce03	0.00065919774
93	0xbd763387	-0.060107734
94	0xbd69e4eb	-0.05710308
95	0xbcefa0cb	-0.029251477
96	0x3ceb051d	0.028688962
97	0x3b3b5ca2	0.002858915
98	0x3b2d08ec	0.0026403023
99	0x3d70efe3	0.058822524
100	0x3d23419c	0.03985749
101	0x3d813ff3	0.063110255
102	0xbd64e9ea	-0.05588714
103	0xbbdb15f9	-0.006685969
104	0x3d3a652e	0.04550665
105	0xbd443762	-0.04790438
106	0xbd6b2e74	-0.057417348
107	0x3cc5977f	0.02412009
108	0xbd654631	-0.055975143
109	0xbc4172a0	-0.011807114
110	0xbd49e5c5	-0.04929139
111	0xbcc45838	-0.023967847
112	0x3d0e83ca	0.034793653
113	0x3cba0625	0.022708008
114	0x3b821ccd	0.0039707185
115	0xbcb0f2bf	-0.021600125
116	0xbd810904	-0.06300548
117	0x3d0cffc9	0.034423623
118	0x3ced9c93	0.029005324
119	0xbc3685e9	-0.011140325
120	0xbd369ed1	-0.044585053
121	0x3d551498	0.052021593
122	0xbd63f6b4	-0.055655196
123	0x3d5c812c	0.053834125
124	0xbd0b0b3e	-0.03394627
125	0xbc91d660	-0.017802417
126	0xbd21c3c3	-0.039493334
127	0xbce3a69d	-0.027789408
128	0xbd217c0b	-0.039424937
129	0xbcc0a997	-0.023518367
130	0x3d3e4312	0.046450682
131	0xbd27b6bd	-0.040945757
132	0xbaaeda23	-0.0013340156
133	0x3ccf95a1	0.025339903
134	0x3d2cb723	0.04216684
135	0xbd3c85a8	-0.046025902
136	0xbce245f4	-0.027621247
137	0xbc7be97d	-0.015375492
138	0x3d700dd7	0.05860695
139	0xbb9553f7	-0.0045571285
140	0x3d58cff0	0.05293268
141	0x3baf7cda	0.0053554596
142	0xbd238331	-0.039920036
143	0xbd5f6216	-0.0545369
144	0x3d232d84	0.03983833
145	0x3d2e9114	0.042618826
146	0xbc6c6692	-0.014428752
147	0xbd7681b7	-0.0601823
148	0xbb15f244	-0.0022879997
149	0xbd1587e2	-0.03650654
150	0x3d05b8d7	0.03264698
151	0xbd743772	-0.05962319
152	0x3c5eebac	0.013605993
153	0xbbb58e52	-0.0055406475
154	0xbc600359	-0.013672673
155	0xbd5d8d25	-0.054089684
156	0xbd4a660f	-0.049413737
157	0x3d4cbce1	0.049984816
158	0xbd41e331	-0.047335807
159	0xbceebabe	-0.02914178
160	0xbcce2cb7	-0.025167806
161	0x3c0d886d	0.0086384835
162	0xbd2d0f6c	-0.042251036
163	0x3cacb0fd	0.021080488
164	0x3c8de302	0.01732016
165	0xbd13b1cd	-0.036058236
166	0x3cfcd022	0.030860964
167	0xbc143401	-0.009045602
168	0x3d0ac1e4	0.033876315
169	0xbc6792f4	-0.014134157
170	0xbd199b0c	-0.03750138
171	0x3d7ee42c	0.06222932
172	0xbd653fc2	-0.055969007
173	0xbcf0acfe	-0.029379364
174	0xbd753b6a	-0.059871115
175	0x3d6419fe	0.05568885
176	0xbd3cea90	-0.046122134
177	0x3cd5ba74	0.026089884
178	0xbd677427	-0.056507256
179	0x3d025c7c	0.03182648
180	0x3ce8958b	0.02839162
181	0x3d648e03	0.055799495
182	0xbd33a75a	-0.04386077
183	0x3c687fd8	0.014190637
184	0x3d83d549	0.06437165
185	0x3d6e9552	0.05824787
186	0x3d77a862	0.060463317
187	0x3d06b1b7	0.032884326
188	0xbc85c6ff	-0.01633024
189	0x3be80056	0.007080118
190	0xbd562b06	-0.052287124
191	0xbc54f235	-0.0129972
192	0x3c19c730	0.009385869
193	0x3d41674c	0.047217652
194	0xbc7bf838	-0.015379004
195	0x3d376274	0.044771627
196	0x3d665307	0.056231525
197	0x3cb286e9	0.021792846
198	0x3d6d2e5b	0.057905536
199	0x3d788d6f	0.060681757
200	0x3ca3f950	0.020016342
201	0x3d4b4d2e	0.04963415
202	0xbc4e2a3f	-0.012583314
203	0xbcad99eb	-0.021191558
204	0x3c9b45e1	0.01895422
205	0x3c2ad1b1	0.010425971
206	0xbc710932	-0.014711665
207	0xbd77e57c	-0.060521588
208	0xbd6af87e	-0.057365887
209	0xbcd45531	-0.025919529
210	0xbd5259b5	-0.051355083
211	0x3c2dd949	0.010610887
212	0xbd5ea39e	-0.054355256
213	0xbcaa5449	-0.020792143
214	0xbcb463f0	-0.02202031
215	0x3cf71edf	0.030166088
216	0x3c4eb1d5	0.012615641
217	0x3c4e1ffc	0.012580868
218	0x3ba212e4	0.0049460996
219	0xbcf53793	-0.029933726
220	0x3d5df5e5	0.05418958
221	0x3d1757e8	0.03694907
222	0x3d69ed73	0.057111215
223	0xbd03d8f7	-0.032189336
224	0xbcf7022d	-0.030152405
225	0x3d649c91	0.055813376
226	0xbd74ac4b	-0.059734624
227	0x3cf52aec	0.029927693
228	0xbc4ecf7c	-0.01262271
229	0xbd732618	-0.0593625
230	0xbc9d1cbe	-0.019178744
231	0xbcb97dbf	-0.022642968
232	0xbc8bd519	-0.017069386
233	0xbd522c06	-0.051311515
234	0xbd2e41a8	-0.042543083
235	0x3cd10208	0.025513664
236	0x3d2769d7	0.04087242
237	0xbc6e7d9c	-0.014556315
238	0xbc9faa94	-0.019490518
239	0xbba9833d	-0.0051731155
240	0x3d2ede62	0.04269255
241	0xbd694c75	-0.05695768
242	0x3d1c4cea	0.03815929
243	0x3ca6102f	0.020271389
244	0xbd50a5d4	-0.050939396
245	0x3d39be3c	0.045347437
246	0x3d7e62ee	0.062106065
247	0x3c1a9136	0.009434035
248	0xbc4ce581	-0.01250589
249	0x3d725bd8	0.05916962
250	0xbd35d344	-0.04439093
251	0xbc8cca31	-0.017186256
252	0xbbecf7d8	-0.0072316937
253	0xbd1dfed1	-0.03857309
254	0x3ca7de55	0.020491758
255	0xb94f0a5d	-0.00019744919

net.0.bias f4 [64]
0	0x3d45e772	0.048316427
1	0x3ca94359	0.020661997
2	0x3d5fe916	0.054665647
3	0x3c1ebe29	0.009688892
4	0x3d6564a7	0.056004193
5	0x3d2c6895	0.042091925
6	0x3cf2db3f	0.02964556
7	0x3c7ae8e0	0.015314311
8	0x3d247dc0	0.040158987
9	0xbd502a38	-0.050821513
10	0x3c6fc29e	0.014633803
11	0xbd2b29cf	-0.04178792
12	0xbc0c5267	-0.008564568
13	0xbb454788	-0.003010245
14	0xbd16b7e2	-0.036796458
15	0xbc2844d8	-0.01027032
16	0xbd589074	-0.052872136
17	0x3b0475bb	0.0020211774
18	0x3ad061cc	0.0015898286
19	0xbd21d0cf	-0.039505776
20	0xbd3e3970	-0.046441495
21	0x3d06386f	0.032768663
22	0xbb6f0d5b	-0.0036476466
23	0x3b8846bc	0.004158823
24	0x3d197a2e	0.037470035
25	0xbbd2bf52	-0.0064314986
26	0xbd3ca626	-0.04605689
27	0x3c5bfb51	0.013426618
28	0x3d4eaca7	0.050457623
29	0x3c5db95e	0.0135329645
30	0x3d61c248	0.05511692
31	0x3c1ecb4e	0.009692026
32	0xbcb49ad8	-0.022046492
33	0x3c8674c1	0.016413094
34	0xbd66946b	-0.056293886
35	0xbd109884	-0.0353017
36	0x3d01ace2	0.031659015
37	0x3cb4df2d	0.022079075
38	0x3d59eeeb	0.053206366
39	0x3d299ca0	0.041409135
40	0x3a3abaac	0.0007123153
41	0xbbe9ac26	-0.0071311174
42	0xbd27d979	-0.040978882
43	0xbd51c89c	-0.051216707
44	0xbd127968	-0.035760313
45	0x3d80a7c3	0.06281998
46	0xbd176486	-0.0369611
47	0x3d81ea4b	0.06343516
48	0xbbf504ec	-0.0074773934
49	0x3d09b0df	0.033615943
50	0xbd6f88ea	-0.05848018
51	0x3d332945	0.04374053
52	0xbd6d545b	-0.057941776
53	0xbcbb3c69	-0.022855954
54	0xbc68bc6f	-0.014205082
55	0x3c9a3db0	0.018828243
56	0x3d427e92	0.047483988
57	0xbd48d794	-0.049033716
58	0x3c0632b0	0.008190796
59	0x3c31f7f1	0.0108623365
60	0x3d78a91b	0.060708147
61	0x3cd34c33	0.02579317
62	0x3d1682d5	0.036745865
63	0xbca9bdc0	-0.020720363

net.2.weight f4 [32, 64, 5, 5]
0	0xbb80f4fd	-0.003935455
1	0x3c856e1f	0.016287861
2	0xbab202a3	-0.0013581108
3	0xbcbb811f	-0.022888718
4	0x3c9f2d48	0.019430771
5	0x3b813ccd	0.0039440156
6	0x3beaeb01	0.007169128
7	0xbbeba657	-0.00719146
8	0x3989fcb2	0.0002631895
9	0xbb5f77f6	-0.0034098602
10	0xbc35be8b	-0.011092792
11	0x3cbbb057	0.022911234
12	0x3c38625e	0.011253921
13	0xbcc52783	-0.024066692
14	0xbc232d67	-0.009959555
15	0xbb845e2a	-0.0040395455
16	0x3c18b754	0.009321053
17	0xbbfe5d28	-0.00776257
18	0x3c322345	0.010872667
19	0x3cb6a5b8	0.022295818
20	0xbc34d316	-0.011036655
21	0x3c4fdbaa	0.012686649
22	0x3c9487d5	0.018131176
23	0xbad3a429	-0.0016146946
24	0x3c701099	0.014652395
25	0xbc8736fc	-0.01650571
26	0x3cc2ca1f	0.02377802
27	0x3ac0eddf	0.0014719329
28	0x3a4af3cc	0.0007742017
29	0xbca457b4	-0.020061351
30	0xbcb2dc79	-0.021833645
31	0x3c6d66c3	0.014489832
32	0xbbe73cf6	-0.0070568277
33	0x3c9aa9d9	0.018879818
34	0xbbba1c2d	-0.0056796283
35	0x3bf041d6	0.007332067
36	0x3c5aaa5c	0.013346281
37	0xbccc8556	-0.024965923
38	0xbc1c52a4	-0.009541187
39	0x3c9cb70f	0.019130258
40	0xbcb0bc88	-0.021574274
41	0x3b110516	0.0022128276
42	0xbc73b049	-0.014873573
43	0xbcb86f4a	-0.022514004
44	0x3c016614	0.0078978725
45	0x3c2c729b	0.010525371
46	0xbbe73f64	-0.0070571173
47	0x3bd5d9cb	0.006526207
48	0xbc9e655d	-0.019335443
49	0x3c894cdf	0.016760288
50	0x3c3b3d29	0.011428156
51	0xbb412a40	-0.0029474646
52	0x3bfc5604	0.0077006835
53	0xbc4ed63c	-0.01262432
54	0x3b9bcf00	0.004754901
55	0xbc1b75f5	-0.009488572
56	0x3cc66438	0.02421771
57	0xbb215342	-0.0024616276
58	0x3c340d87	0.010989553
59	0x3b0e45b1	0.002170902
60	0x3bb450de	0.005502804
61	0xbc20d09a	-0.0098153595
62	0x3c7b69b3	0.015345025
63	0x3cc1e4f3	0.023668742
64	0xbc1ae0c9	-0.009453007
65	0x3be29d40	0.0069157183
66	0xbbb6e76a	-0.005581786
67	0x3bca7eee	0.006179682
68	0xbc079eee	-0.008277638
69	0xbaffed56	-0.0019525688
70	0x3cb454f0	0.022013158
71	0xb9e14453	-0.0004296625
72	0x3b9a2558	0.0047041588
73	0xbb978212	-0.00462366
74	0x3ca7cb05	0.02048255
75	0xbac898a2	-0.0015304277
76	0x3c874c7a	0.016515959
77	0xbcd4a2b1	-0.025956484
78	0xbc25e417	-0.010125182
79	0xbc72546b	-0.014790635
80	0x3be65606	0.0070292978
81	0x3c96b0a5	0.018394778
82	0xbcdf02b8	-0.027222976
83	0xbc2baa68	-0.01047764
84	0xbc346741	-0.011010946
85	0xbba9c0d0	-0.0051804557
86	0xbcd996dd	-0.026561195
87	0x3c8d8059	0.017273115
88	0x3b6c14a7	0.0036023052
89	0xbc854578	-0.016268477
90	0x3c971c34	0.018446065
91	0xbb3826dc	-0.0028099334
92	0xbc700ede	-0.014651982
93	0xbc4d9550	-0.012547806
94	0xbc060ab1	-0.00818126
95	0xbcc92490	-0.024553567
96	0xbacde409	-0.0015708219
97	0xbc9b1b23	-0.018933838
98	0x3c3c2e68	0.0114856735
99	0x3c40126f	0.011723145
100	0x3c1d4ddf	0.009601085
101	0x3cbfce44	0.023413785
102	0x3c954137	0.018219573
103	0xbc8264e6	-0.015917253
104	0x3bfa3b5d	0.007636471
105	0xbcafa2fc	-0.021440022
106	0xb9f4936f	-0.00046649153
107	0xba8a0329	-0.0010529506
108	0xbcac1ea4	-0.021010704
109	0x3b9532eb	0.004553189
110	0xbb874157	-0.004127662
111	0xbcb5ed84	-0.022207983
112	0xb9f8c937	-0.00047452163
113	0x3cb18c4e	0.021673348
114	0x3ca7e7f0	0.020496339
115	0xbcab91ca	-0.020943541
116	0x3c3283e2	0.010895701
117	0xbc9e3ac5	-0.019315133
118	0x3cc05ae6	0.023480844
119	0x3cc39067	0.023872567
120	0x3cb380d4	0.021912016
121	0xbc443ad3	-0.011976915
122	0xbbd29e54	-0.0064275656
123	0xbba825d0	-0.0051314607
124	0x3c92538b	0.017862102
125	0xbcc8980c	-0.024486564
126	0xbcbe968c	-0.023265146
127	0x3c9ee119	0.019394444
128	0xbcd14164	-0.025543876
129	0xbc2f9fb0	-0.010719225
130	0x3bbbbf88	0.0057296194
131	0x3a843c10	0.0010088701
132	0xbcc3c3fc	-0.023897164
133	0x3c18ce3e	0.009326516
134	0xbc8f5b51	-0.017499598
135	0x3c4fe6dd	0.012689319
136	0x3cbed73d	0.023295993
137	0x3c94b972	0.018154833
138	0x3b983d06	0.0046459464
139	0x3bbedcc7	0.0058246586
140	0xbca1cb88	-0.019750372
141	0xbc9503e0	-0.018190324
142	0x3bf20a06	0.007386449
143	0xbcd352b1	-0.025796266
144	0xbc89154e	-0.016733792
145	0x3cb8de18	0.02256684
146	0x3cbb37e2	0.022853795
147	0xbcc4efa3	-0.024040049
148	0xbc18dfae	-0.009330673
149	0x3b4f4b58	0.0031630602
150	0x3c9c2a79	0.019063221
151	0x3bdd1977	0.0067474204
152	0xbca6ef34	-0.020377733
153	0x3cc2ee6e	0.023795333
154	0xbc3f74b3	-0.011685538
155	0xbc2c9612	-0.010533826
156	0x3c4bcea7	0.0124394065
157	0x3c56569d	0.013082174
158	0xbc1c49a4	-0.009539042
159	0x3bc00c5a	0.0058608474
160	0xbcb3cb15	-0.021947423
161	0xbcbe80cc	-0.023254775
162	0xbc83990f	-0.016064195
163	0xbcae38cc	-0.021267317
164	0xbc6545ce	-0.0139936935
165	0xbbb8b731	-0.0056370725
166	0xbc8592b0	-0.016305298
167	0xbcbee98a	-0.02330472
168	0x3c1f5e39	0.009727054
169	0xbcb7c6fd	-0.022433752
170	0x3c6d902d	0.014499706
171	0x3c049fc7	0.0080947345
172	0xbcd6267f	-0.026141403
173	0xbcaafacf	-0.020871548
174	0x3cb10233	0.021607494
175	0xbc8342f9	-0.016023146
176	0x3ca3218d	0.01991346
177	0x3ca02c91	0.0195525
178	0x3cbc3ec5	0.02297915
179	0x3ba6942a	0.0050835805
180	0x3c980f69	0.018562036
181	0xbb606a5b	-0.003424308
182	0xbc9b25f7	-0.018939001
183	0xbcae9382	-0.021310572
184	0xbc0b173c	-0.008489426
185	0xbc6773a0	-0.014126688
186	0x3c5077a2	0.012723835
187	0x3c717cd0	0.01473923
188	0xbbabae17	-0.005239259
189	0x3c7cedad	0.015437526
190	0x3c7c40b2	0.015396284
191	0xbae77100	-0.0017657578
192	0xbc8052c7	-0.015664471
193	0x3a1902e4	0.00058369176
194	0x3bae6f7b	0.005323348
195	0xbbf4638f	-0.0074581574
196	0x3c83883c	0.016056173
197	0xbc0ca722	-0.008584769
198	0x3bc99b60	0.0061525553
199	0x3cb9292d	0.022602642
200	0xbcbcce02	-0.02304745
201	0xbc26a52d	-0.010171217
202	0xbc202bbe	-0.009776054
203	0x3c9576a7	0.018245054
204	0x3b50ed26	0.0031879633
205	0xbc799ee8	-0.01523564
206	0x3c8d242b	0.01722916
207	0x3b1e6eaf	0.002417486
208	0xbc0f8810	-0.008760467
209	0x3b2bc984	0.0026212642
210	0x3b5ec8bc	0.0033994159
211	0xbb81796d	-0.0039512427
212	0x3a24b4a0	0.0006283019
213	0x3c6fae20	0.014628917
214	0xbbc0f78f	-0.0058888863
215	0x3befebc6	0.0073218076
216	0xbb42c94c	-0.0029722033
217	0xbbe1698b	-0.006879037
218	0x3bf7645f	0.007549807
219	0x3ba697a8	0.005083997
220	0xbbe1fac9	-0.006896351
221	0x3c78f42c	0.015194934
222	0xbc853912	-0.016262565
223	0x3c8b431a	0.01699977
224	0x3be42722	0.006962673
225	0x3c9b8004	0.018981941
226	0x3b811880	0.003939688
227	0x3c8363ae	0.016038742
228	0xbb3e3ae0	-0.0029026791
229	0xbc25c716	-0.010118267
230	0x3cc1b666	0.023646545
231	0xbccf74a9	-0.025324183
232	0xbc07ac22	-0.008280786
233	0xbbc2cfe8	-0.0059451945
234	0x3cbd73d4	0.02312652
235	0xbc76123e	-0.015018998
236	0xbc963a52	-0.018338356
237	0xbbb71686	-0.005587402
238	0xb942357d	-0.00018521208
239	0xbc9b7a4e	-0.018979218
240	0xbba92e2b	-0.0051629744
241	0x3bc781b0	0.006088458
242	0x3c2a830b	0.01040722
243	0xbc0d446e	-0.008622272
244	0xbc29c57c	-0.010362025
245	0xbc22c48f	-0.0099345585
246	0xbb8ba42f	-0.0042615156
247	0x3c8741f9	0.01651095
248	0x3cb33214	0.021874465
249	0x3c7c4365	0.0153969275
250	0x3be54d64	0.006997751
251	0x3c999dd0	0.018752009
252	0xbb2b5dc3	-0.0026148416
253	0x3c1eec26	0.009699857
254	0x3c890aa5	0.016728709
255	0xbacaee6a	-0.001548243

net.2.bias f4 [32]
0	0x3b819ca7	0.003955442
1	0x3cac4add	0.021031791
2	0x3b8cc6c3	0.004296155
3	0x3c3c225f	0.011482804
4	0x3c0c0c7b	0.008547897
5	0xbc69d3b9	-0.01427167
6	0xbc3c1ea0	-0.011481911
7	0x3bd3ea84	0.0064671654
8	0x3b2aaf81	0.002604455
9	0xbc83eaf2	-0.016103242
10	0xbb549360	-0.0032436475
11	0x3ba605ad	0.0050665946
12	0x3c02cde9	0.007983663
13	0xbbe88793	-0.00709624
14	0xbc8ced48	-0.017202988
15	0x3c9c418b	0.019074222
16	0xbbdd8153	-0.0067598014
17	0x3b247685	0.0025095057
18	0x3cb5362d	0.02212056
19	0x3c8aa803	0.016925817
20	0x3c7c945e	0.015416233
21	0xbc8b6fd4	-0.017021097
22	0xbc97acc3	-0.018514996
23	0x3caee557	0.021349592
24	0x3c7028b1	0.014658139
25	0xba7a2240	-0.0009541847
26	0xbc9a2f53	-0.018821394
27	0x3cb17088	0.021660104
28	0x3a0f9127	0.00054766465
29	0xbcb92636	-0.022601228
30	0x3c28197e	0.010259984
31	0xbcad1abf	-0.021130918

net.4.weight f4 [3, 32, 5, 5]
0	0x3cd0821d	0.025452668
1	0xbd0b8b38	-0.034068316
2	0xbce25f77	-0.027633412
3	0xbc5b7caf	-0.013396426
4	0xbcf256cd	-0.029582405
5	0x3c8a7050	0.016899258
6	0xbc4add90	-0.012381926
7	0x3be712b5	0.0070517906
8	0xbcf69029	-0.030098038
9	0x3cb98048	0.022644177
10	0x3c5c6e9d	0.013454107
11	0xbb9e3815	-0.004828463
12	0xbd09bd16	-0.033627592
13	0x3b2fdc3f	0.0026834158
14	0xbc984b61	-0.018590631
15	0xbc6d89c5	-0.014498179
16	0xbce4e3c3	-0.027940637
17	0x3be6bb2a	0.0070413547
18	0x3c88e743	0.016711837
19	0xbc2626dd	-0.010141102
20	0x3d0ad8b7	0.03389808
21	0x3d12b7a9	0.035819683
22	0x3ceb1691	0.028697284
23	0xbc89e073	-0.016830659
24	0x3cb10cd0	0.021612555
25	0x3cf21998	0.02955322
26	0x3cc807d7	0.0244178
27	0xbc5e6b29	-0.013575354
28	0x3d0855a2	0.03328479
29	0x3c933595	0.017969886
30	0xbab6ada1	-0.0013937243
31	0xbcaba213	-0.020951306
32	0xbd0a0ae0	-0.033701777
33	0xbd0784b3	-0.033085536
34	0x3cff2a4c	0.031148098
35	0x3cd4cff3	0.025978064
36	0xbcf05f75	-0.029342392
37	0xbce64771	-0.028110238
38	0xbc8a84e1	-0.016909065
39	0xbd04aced	-0.032391477
40	0x3c76e120	0.015068322
41	0xbcc4c3ba	-0.024019111
42	0xbc920749	-0.01782574
43	0xbcedc5cf	-0.029024987
44	0x3b0c86fd	0.0021442764
45	0x3cea151b	0.028574517
46	0xbc324694	-0.010881085
47	0x3d0a7c40	0.0338099
48	0x3c44105e	0.011966793
49	0xbc89d104	-0.0168233
50	0x3b906e5a	0.004407686
51	0xbb299e90	-0.0025881864
52	0xbcb68607	-0.022280706
53	0x3cc5a209	0.024125116
54	0x3cb3b226	0.021935534
55	0x3c679e9a	0.014136935
56	0x3c24c009	0.01005555
57	0xbc84b95a	-0.016201664
58	0x3c6c0653	0.014405805
59	0xbcfeb192	-0.031090531
60	0x3cc6497e	0.024204966
61	0x3ca5b44b	0.020227572
62	0xbc982b6b	-0.01857539
63	0xbcb5208e	-0.02211025
64	0xbcaad3b8	-0.020852908
65	0x3c017fc0	0.007903993
66	0xbb9d4dad	-0.0048005194
67	0xbadcdcfc	-0.0016850526
68	0xbc70bee7	-0.014693952
69	0x39074d8e	0.00012903495
70	0x3ca88ef1	0.020575972
71	0xbc2b8c9b	-0.010470535
72	0xbcca613b	-0.024704566
73	0x3cd27bb2	0.025693748
74	0x3cefb823	0.029262608
75	0x3c89a54a	0.016802449
76	0x3c649081	0.013950468
77	0xbcc9644c	-0.024583958
78	0x3d04d324	0.032427922
79	0xbc6856ed	-0.014180881
80	0xbb8fb9da	-0.004386169
81	0x3c5ca8c4	0.013467971
82	0xbcc44dfd	-0.023962969
83	0xbc141ed0	-0.009040549
84	0x3cb2f11a	0.021843482
85	0x3cba7172	0.022759173
86	0xb97e0aa7	-0.00024227296
87	0xbaf71ab1	-0.0018852559
88	0xbb695886	-0.0035605743
89	0xbcda5fba	-0.026656974
90	0x3a33c99d	0.0006858351
91	0x3c7d8c28	0.01547531
92	0xbb5e08f5	-0.003387985
93	0xbd0bc80c	-0.034126326
94	0x3a91dd6e	0.0011128613
95	0xba17e94f	-0.00057949586
96	0xbbc96ddd	-0.00614713
97	0x3d0677a5	0.032828946
98	0x3c9f40e5	0.019440124
99	0x3c9d517b	0.019203892
100	0xbb95eb11	-0.0045751412
101	0x3a593c8e	0.00082869164
102	0xbb73769e	-0.0037149559
103	0x3cb94536	0.02261601
104	0xbca71339	-0.020394908
105	0x3bc4c79c	0.0060052406
106	0xbc71f0a0	-0.014766842
107	0x3ceab130	0.028648943
108	0xbc42de92	-0.011893885
109	0xbceda664	-0.029010005
110	0xbc930408	-0.017946258
111	0x3cad6f74	0.021171309
112	0xbcebb7a9	-0.0287741
113	0x3c0925e2	0.008370848
114	0xbcdd0bea	-0.02698322
115	0x3cc1c807	0.02365495
116	0xbc849af4	-0.016187169
117	0x3b4c3164	0.0031157369
118	0x3c72fc39	0.014830642
119	0xbb665174	-0.0035143765
120	0x3c89b994	0.016812123
121	0xbcf28738	-0.029605493
122	0x3ae1ffbd	0.0017242354
123	0xbca390be	-0.01996648
124	0x3c8520d7	0.01625101
125	0xbbf97d30	-0.0076138005
126	0x3ca5e3df	0.020250259
127	0x3c8802a3	0.01660282
128	0x3d11ac5b	0.03556476
129	0xbcc09d1f	-0.023512421
130	0xbc8cd208	-0.017189994
131	0x3c6ce33e	0.014458476
132	0xbc25d658	-0.010121904
133	0xbcff5dab	-0.031172594
134	0x3cb69882	0.022289518
135	0xbc644939	-0.013933473
136	0x3b7f4e53	0.0038956597
137	0xbca2c378	-0.019868597
138	0xbc8e0069	-0.01733418
139	0x3bb076c0	0.00538525
140	0xbccb2065	-0.02479572
141	0x3c6fdd5e	0.01464018
142	0xbcf0e6bc	-0.029406898
143	0xbc05753c	-0.008145627
144	0xbc853f32	-0.016265485
145	0xbce97e57	-0.028502626
146	0xbc8920c1	-0.016739251
147	0xbd02b079	-0.03190658
148	0x3a711249	0.0009196145
149	0xbcb6ef5c	-0.022330932
150	0x3c312389	0.010811695
151	0xbc502eff	-0.012706517
152	0xbbf9eeae	-0.00762733
153	0x3cb3997c	0.021923773
154	0x3c8f2a9d	0.017476374
155	0x3cd2a454	0.025713123
156	0x3c92a248	0.017899647
157	0x3ce17edd	0.027526313
158	0x3d052d3c	0.032513842
159	0xbc725a57	-0.0147920465
160	0x3c8dff04	0.017333515
161	0x3d0f5636	0.034994327
162	0x3b512a0b	0.0031915929
163	0xbc6be77c	-0.014398452
164	0xbc621dcf	-0.013801052
165	0x3c4ff7c1	0.0126933465
166	0x3bdbe122	0.0067101875
167	0x3aba016f	0.0014191101
168	0xbce2b76e	-0.027675357
169	0xbbfe5dee	-0.007762662
170	0xbcc5a140	-0.024124742
171	0x3c62d2b8	0.013844185
172	0x3d06c406	0.032901786
173	0xbbab65e1	-0.005230651
174	0xbb891f5a	-0.0041846456
175	0x3c40335f	0.011730998
176	0x3d11973b	0.035544615
177	0x3d1504c1	0.036381487
178	0x39e849d1	0.00044305486
179	0x3ca694e1	0.020334663
180	0x3d064aff	0.032786366
181	0x3bc0b066	0.0058804033
182	0x3c0d002a	0.008605996
183	0xbc284eba	-0.010272676
184	0x3d0b8e29	0.03407112
185	0x3cb25e33	0.021773433
186	0xbc400e48	-0.011722155
187	0x3cf320fe	0.029678818
188	0xbcc30257	-0.023804827
189	0xbcd23bc8	-0.025663272
190	0xbd00f074	-0.031479314
191	0xbc7eb952	-0.0155471135
192	0x3c651daa	0.013984123
193	0x3adaa94a	0.0016682532
194	0x3cd965e5	0.026537845
195	0x3d0730df	0.03300559
196	0x3cfab0a1	0.030601801
197	0xbc97e3ac	-0.01854118
198	0xbc6d222c	-0.014473479
199	0x3a8c932f	0.0010725016
200	0x3cb7fc72	0.022459242
201	0xbc484d49	-0.0122254575
202	0xbcc838e8	-0.024441198
203	0x3b9d858f	0.004807181
204	0xbcacb1d1	-0.021080883
205	0xbcd8e4cf	-0.026476292
206	0xbae626d6	-0.0017559181
207	0xbce9fb81	-0.02856231
208	0x3c1b6003	0.00948334
209	0xbc405dea	-0.011741141
210	0x3c9559d5	0.018231312
211	0xbc9ceee3	-0.019156879
212	0xbc53e442	-0.012932839
213	0x3c818a90	0.015813142
214	0x3a59c682	0.0008307473
215	0xbc5f63db	-0.013634647
216	0x3b66266d	0.0035118118
217	0xbc082839	-0.008310371
218	0xbceaaf3b	-0.02864801
219	0x3cf8edf6	0.030386906
220	0xbcca3666	-0.024684142
221	0xbcf3dabe	-0.02976739
222	0xbcf0fcbe	-0.029417392
223	0x3b3f5fa8	0.0029201303
224	0xbc39037b	-0.011292334
225	0xbc714927	-0.0147269135
226	0xbc282540	-0.010262787
227	0x3b389283	0.00281635
228	0x3cb877e3	0.022518104
229	0xbb19a088	-0.0023441631
230	0xbb878da3	-0.0041367575
231	0x3d114b74	0.03547235
232	0x3b58a384	0.0033056447
233	0xbcd7251e	-0.026262816
234	0xbc4738f1	-0.012159572
235	0x3d0a7ede	0.033812396
236	0x3c422f10	0.011852041
237	0xbd07ed76	-0.033185445
238	0x3b25765a	0.0025247545
239	0x3cda5101	0.026649954
240	0xbc896b46	-0.016774785
241	0xbd00220e	-0.031282477
242	0xbce84ff6	-0.02835844
243	0xbbb06089	-0.0053826016
244	0x3cf5034e	0.029908802
245	0x3cf98276	0.030457716
246	0x3d12c0e0	0.03582847
247	0x3c0e69df	0.008692234
248	0x3c611d67	0.01373992
249	0xbcfc9c2a	-0.030836184
250	0xbcde8cf0	-0.027166814
251	0xbbe861a1	-0.0070917164
252	0xbca3e238	-0.02000533
253	0x3d0bd728	0.034140736
254	0xb9fe6079	-0.00048518533
255	0xbb8cfffb	-0.004302976

net.4.bias f4 [3]
0	0x3bb4a7df	0.005513176
1	0x3cbedfbd	0.023300046
2	0x3b6db386	0.0036270334
