checkpoints/srcnn_epoch3_2025-03-20_23-02-04.pth (torch, 280002 bytes, 6 tensors)

net.0.weight f4 [64, 3, 9, 9]
00000000: 6e1e f53c 1bbf b2bc 1c04 ea3c c7f2 413d
00000010: 1bd2 68bd dafe 833c 8c69 013d 35ce b5bc
00000020: 4d65 e6bc 257a 1e3c 89bb 2dbd f44f debc
00000030: e496 2abb 94ec 07bd e0db 12ba 6aaa 6b3d
00000040: 02cb 8f3d b138 50bc 3d57 37bd 2766 23bc
00000050: c55f 973a 994c 633d e1e1 8ebc 1b0c 1cbd
00000060: be86 783d d2ab 063d 8b6f 793d ca13 af3c
00000070: 04bb 1fbd e82f 76bd 7381 5b3d 8543 42bd
00000080: 440c 77bc f822 30bd 3e25 843d 1de0 50bd
00000090: 58a6 42bc 1982 8d3a 2aea 8cbb d878 c0bc
000000a0: f4ad 82bc 3201 883d 45fa e7bc 1fad e9bc
000000b0: a73a 243d 829e 8c3d eee6 59bd 1989 0d3d
000000c0: 4a3b 633c 458a b73c 72cf e7bb 2c35 80bc
000000d0: bf30 5abd 8c05 753d ba41 803d 5f70 ebbc
000000e0: 8e22 873d ebfc 18bd b0e7 3c3d 74bf 8a3d
000000f0: a05f 143c 413b 43bb 91b0 6b3c ecf3 1e3d
00000100: 55b5 863d 3725 3cbc 60d6 803d ce79 65bc
00000110: b758 b7bc 9fb4 023d 2f2c 15bd 16b0 1cbb
00000120: e314 dbbc 1d9c 30bd a687 27bd 165b 45bd
00000130: 35a8 393d e96e 1ebc 063c 62bd 2c53 ab3c
00000140: 5f50 ddbc fef4 0ebd 42c4 9bbc 6ebe 1fbd
00000150: 3b8f 763c 3092 60bd 3801 653c 9dab 4cbc
00000160: 240e bcbc 398f 433d 8f1c 80bc caf3 4ebd
00000170: 78ce 913b 9776 67bd 2de3 55bd c752 bebc
00000180: 1138 0d3d 24e2 003c 9c8c 0a3c 33cc 843d
00000190: 6ec6 363d 2f16 863d 24bb 5bbd 831b ffba
000001a0: 3f0a 543d 92f7 2cbd 8934 58bd 11c2 f33c
000001b0: 7ee0 4cbd 892d f1bb 97c8 43bd 8228 bbbc
000001c0: 2116 213d 70aa ee3c 0a43 203c 996c 89bc
000001d0: 845a 6abd 2d31 213d 237a 033d c8f0 3cbc
000001e0: ac2c 3cbd e239 5f3d a24e 4fbd 811d 703d
000001f0: 443d f5bc 9bcd 53bc 7075 0cbd 55d2 c4bc
00000200: a43c 1ebd 33ba c6bc bd81 463d 5c9f 14bd
00000210: d6d7 5c3b a042 f03c a196 403d 3002 25bd
00000220: 0237 bbbc 413e 50bc 40c1 753d df70 d8ba
00000230: f5ec 6c3d 8a7f 273c 4cb1 12bd 9232 4abd
00000240: 9953 3c3d 626c 453d 8a63 23bc 554f 66bd
00000250: 68ca 163b 02d7 fcbc 8bff 1b3d 21cb 60bd
00000260: 0dd7 9e3c 6086 273a 6f6b 01bc ad4f 49bd
00000270: 984f 37bd ea84 613d c52d 2abd 46d9 bfbc
00000280: 1ee6 a2bc 2d6b 733c 7cbb 18bd 7788 ce3c
00000290: 2362 a63c 811f 08bd 1e41 0d3d 46e4 93bb
000002a0: 2d95 1d3d e9c7 25bc c5a2 06bd b0de 893d
000002b0: cf7f 54bd 408a dabc 2956 6abd 06a3 743d
000002c0: 95c7 27bd 5d37 fd3c 9702 58bd ba9b 143d
000002d0: 9a63 083d 308b 733d 77ee 2bbd 77f7 833c
000002e0: 2e6c 8c3d 85a4 823d 78a2 853d 51a8 143d
000002f0: 22ba 46bc 6b7a 443c bace 47bd 7e52 3dbc
00000300: 68b4 2f3c 67a3 523d 7752 1dbc ef76 4b3d
00000310: f5be 743d 5f54 d53c e68d 7d3d 324b 813d
00000320: 3106 a63c 6570 4a3d 7c31 24bc 60d4 88bc
00000330: 9e9a ba3c 3d67 553c 5c36 3cbc 492f 66bd
00000340: 47c1 5ebd ba93 ccbc a424 52bd 38f6 4e3c
00000350: 0020 4ebd d355 8cbc d0b9 9fbc 259d 083d
00000360: d37d 8f3c b01f 873c cae1 f03b 84b8 e8bc
00000370: 29f3 683d 64b7 283d e5d8 793d 6613 f1bc
00000380: 2fb3 d9bc e249 7a3d 0e12 62bd d63b 093d
00000390: fb70 1bbc 437a 63bd 7c6e 6cbc 6c19 96bc
000003a0: 3546 61bc 1d08 41bd 397c 18bd ba1a f73c
000003b0: 5b46 373d 1fc9 32bc ad3a 7bbc 8fc5 d6b9
000003c0: f22c 413d 5edc 59bd 8a17 2f3d f3d6 a33c
000003d0: e419 51bd d297 393d 24cf 7e3d 333b 1d3c
000003e0: b00f 4fbc d192 703d 43c5 38bd 0679 92bc
000003f0: b27d f4bb ba1b 1ebd b76c a83c 726a 36b8
0.029921737 -0.021819642 0.028566413 0.04735067 -0.056840997 0.016112734 0.031594798 -0.022193054
-0.028124476 0.009672676 -0.042415176 -0.027137734 -0.002602988 -0.033184603 -0.0005602222 0.057535566
0.070211425 -0.012708829 -0.04476093 -0.0099730855 0.0011548927 0.05549297 -0.017441692 -0.038097482
0.060675375 0.032878704 0.06089739 0.02137174 -0.03899671 -0.06010428 0.05359025 -0.047427673
-0.015078608 -0.0430021 0.06452416 -0.05099498 -0.01188048 0.0010796218 -0.0043003755 -0.023495123
-0.015952088 0.06640853 -0.02831758 -0.028524933 0.040094998 0.068661705 -0.053198747 0.034554575
0.013869116 0.0224048 -0.00707429 -0.015650354 -0.053269144 0.059819743 0.06262536 -0.028740106
0.06598388 -0.037350576 0.046119392 0.06774798 0.009056002 -0.0029789957 0.014385358 0.03880684
0.06577555 -0.011483482 0.06290889 -0.014006091 -0.02238117 0.031910535 -0.03641909 -0.0023908666
-0.026743358 -0.04311763 -0.04090085 -0.04818257 0.04532643 -0.009669998 -0.055233024 0.020913683
-0.027015863 -0.03490161 -0.019014481 -0.038999967 0.015048797 -0.054826915 0.013977341 -0.012492088
-0.022955962 0.04774401 -0.015638618 -0.050525464 0.004449662 -0.05650958 -0.052218605 -0.02323283
0.034477297 0.007866416 0.008456375 0.064842604 0.04462283 0.065472 -0.053645268 -0.0019463155
0.051767584 -0.04222829 -0.052784476 0.029755624 -0.05001878 -0.0073601645 -0.04779872 -0.022846464
0.039327744 0.029134005 0.009781608 -0.016775416 -0.05721523 0.03935354 0.0320989 -0.011532016
-0.04594104 0.05449856 -0.0506121 0.058621887 -0.02993644 -0.012927438 -0.034291685 -0.024026075
-0.03863205 -0.024258709 0.04846357 -0.03628479 0.0033697984 0.029328644 0.04701865 -0.04028529
-0.022853378 -0.012710155 0.05999875 -0.001651313 0.057843167 0.010223279 -0.035813615 -0.049364634
0.045978162 0.048199065 -0.009972462 -0.056228 0.0023008827 -0.030864242 0.0380855 -0.05488122
0.019389654 0.0006390568 -0.007899149 -0.04914825 -0.04475364 0.055058397 -0.041547555 -0.023419034
-0.019885119 0.014857096 -0.037288174 0.025211556 0.020310467 -0.03323317 0.03448593 -0.0045132963
0.038472343 -0.010118463 -0.032870073 0.067319274 -0.0518797 -0.02667725 -0.057211075 0.059725784
-0.04096182 0.030910188 -0.052736845 0.036281325 0.033298112 0.05945891 -0.041975465 0.016109211
0.06856571 0.06379036 0.06525129 0.03629333 -0.012129338 0.011992077 -0.048781134 -0.011555312
0.010724165 0.051425364 -0.009602181 0.04967397 0.059752423 0.026041208 0.061902903 0.063131705
0.020266624 0.049423594 -0.010021564 -0.01670283 0.022778805 0.013025102 -0.01148757 -0.05619744
-0.054383542 -0.024972785 -0.051304474 0.012631945 -0.050323486 -0.017130768 -0.019497782 0.03335299
0.017516052 0.016494602 0.007351135 -0.028408296 0.05687252 0.04119052 0.060997862 -0.029428195
-0.0265747 0.061105616 -0.055193 0.03350433 -0.009487386 -0.05553652 -0.014430638 -0.018322669
-0.013749649 -0.047126878 -0.037227843 0.030164111 0.04474483 -0.010912209 -0.015333814 -0.00040964453
0.047162004 -0.053188674 0.042747058 0.019999957 -0.05105008 0.045310803 0.062209263 0.009596634
-0.012638018 0.058733765 -0.04511 -0.017879974 -0.007461273 -0.03860066 0.020559652 -4.3491316e-05

net.0.bias f4 [64]
00000000: 6917 6b3d 8f99 a33c cebc 613d 2754 703c
00000010: 82b5 623d 0dd5 2a3d c27a ea3c 7370 c03c
00000020: 8d6d 293d 4916 50bd 6752 913c 8934 0bbd
00000030: 3e43 0bbc 2d27 96ba 8462 17bd 4db3 25bc
00000040: 6f47 51bd a8cf a03a 2b87 803a 34ed 22bd
00000050: 2f8b 3cbd 24ab 053d 0a2b 15bb 37fa 403c
00000060: 3a8b 1b3d 6a3f a5bb 568e 1ebd eb0e 4d3c
00000070: bc72 493d 12dc 523c 9dc6 5f3d 1d06 413c
00000080: e6bf b0bc 8d51 9d3c 3058 64bd 723d f9bc
00000090: a228 113d 81bd e33c 35e8 583d 628f 283d
000000a0: 3794 d23b ed7a f4bb 09f1 1cbd 6a9e 4dbd
000000b0: 8128 f4bc 09d2 803d 17a9 15bd e12a 823d
000000c0: 4c63 f1bb b25a 153d e630 70bd 0cc8 353d
000000d0: b7ae 6ebd 7c4c 70bc e3d9 0bbc 314b 943c
000000e0: a25c 443d cc2d 49bd 1a17 033c ba48 2d3c
000000f0: cee6 7c3d 3b72 d33c 8b08 153d ad5d 81bc
0.057395373 0.019970683 0.0551117 0.014668501 0.05534888 0.041707087 0.028622989 0.02349112
0.04136424 -0.050802503 0.017739488 -0.03398565 -0.0084999185 -0.0011455767 -0.036959186 -0.010113549
-0.051093515 0.0012268918 0.0009805908 -0.039776996 -0.046031173 0.032633916 -0.002276125 0.011778406
0.037974574 -0.00504296 -0.03870996 0.012515764 0.049181685 0.012869852 0.05463277 0.011781243
-0.02157588 0.019203926 -0.055748165 -0.030424807 0.03543914 0.027800323 0.052955825 0.041152366
0.00642636 -0.007460943 -0.038315807 -0.050199904 -0.02980447 0.06290061 -0.03653821 0.06355835
-0.0073665734 0.036463447 -0.058640383 0.044380233 -0.05827209 -0.014666673 -0.008535835 0.01810226
0.047939904 -0.04911594 0.008001113 0.010576421 0.06174355 0.025811305 0.0363851 -0.015791738

net.2.weight f4 [32, 64, 5, 5]
00000000: ecb5 87bb 0e5e 833c e4ee d3ba 5967 bdbc
00000010: 0d7e 9d3c 7f76 7f3b 80f5 e83b 24f0 edbb
00000020: 9538 4739 c674 64bb ebdf 37bc bc5a ba3c
00000030: 1f79 353c f4af c6bc 668b 26bc c14c 88bb
00000040: 91d8 163c 1004 01bc c84e 303c 37b8 b53c
00000050: 1943 37bc 097e 4d3c 6d55 933c f1d6 e6ba
00000060: 06a2 6d3c b86f 87bc cc8f c23c 6136 bd3a
00000070: d25f 433a 0797 a4bc c565 b3bc 1a55 6c3c
00000080: fd76 e9bb fc16 9a3c e975 bcbb e65d ee3b
00000090: d9b8 593c 2a03 cdbc fe52 1dbc df36 9c3c
000000a0: 03d5 b0bc 9845 103b 2cdf 73bc 5486 b8bc
000000b0: 6237 013c 3045 2c3c fb98 e7bb 6c81 d53b
000000c0: 407b 9ebc ac36 893c 10ac 203c 7758 95bb
000000d0: 6725 c83b f9ed 68bc 3a0e 4d3b 083d 2cbc
000000e0: 1333 be3c 28ba 63bb 15de 223c 5fc9 8c3a
000000f0: c9b4 9c3b d809 2cbc 9d95 703c a456 bc3c
00000100: b803 27bc 1b3c df3b 13dc b9bb 00f7 c73b
00000110: 87ca 08bc ac8b 05bb 268b b33c ba78 06ba
00000120: 75e5 973b 6f6a 99bb 3541 a73c 7e40 81bb
00000130: cbcd 693c 4647 e6bc 8bd6 47bc d089 8abc
00000140: b14c 993b 9a62 833c 4b95 f1bc 911c 4dbc
00000150: 2283 52bc fea0 efbb 12a8 ebbc c5ae 763c
00000160: 7192 c53a 62bb 94bc 3459 903c c63c 70bb
00000170: 2d9c 7ebc 9d91 5abc 820c 11bc b777 cebc
00000180: f439 0fbb 9096 9dbc 3800 3b3c 89b0 3f3c
00000190: 0d82 1b3c 4ee5 be3c d65f 943c 7c3c 83bc
000001a0: 1bec f63b 109e b0bc 2d88 19ba cbc0 98ba
000001b0: a9fb acbc 43c9 913b bdb4 89bb 888b b6bc
000001c0: 198b 0fba 37f9 b03c 8c54 a73c 5eb4 abbc
000001d0: 7c3b 323c 9460 9ebc c334 c03c 7d69 c33c
000001e0: 2464 b33c ee74 44bc 7917 d3bb fba2 a8bb
000001f0: c232 923c 27c8 c9bc 12d5 bfbc 5c8f 9d3c
00000200: 799e d2bc b75a 32bc 0b1d b73b 8efb 613a
00000210: 6c07 c5bc 4338 163c caa7 90bc b465 4e3c
00000220: 4616 be3c e6f7 933c 3533 953b 29d6 bb3b
00000230: b5e5 a1bc ca1c 95bc 5ba8 f13b 536a d3bc
00000240: 8c2c 89bc 04c6 b83c 8120 bb3c 2107 c5bc
00000250: 470e 19bc 8392 4e3b d824 9a3c 2075 d43b
00000260: c603 a9bc e7dc c03c cb31 43bc eca2 2fbc
00000270: c8a4 483c c025 533c d28e 1fbc 613a ba3b
00000280: 9a77 b8bc b4e4 c3bc 3f4c 89bc 48e2 b3bc
00000290: 606c 6fbc 2146 babb c1fa 85bc e53d bfbc
000002a0: 43eb 1e3c bbf7 b7bc 9cb1 6c3c bec9 033c
000002b0: 8572 d6bc 9e2b abbc 94da b03c 1043 84bc
000002c0: 3d12 a23c 9b34 9f3c b90c bb3c f5aa a03b
000002d0: ef09 973c e21f 69bb fb4a 9cbc 50c3 afbc
000002e0: a2a9 0dbc 9324 68bc b8a4 4f3c 369d 703c
000002f0: 5f4a adbb 661a 7c3c b59f 7b3c a32e edba
00000300: 7ab7 80bc caec 0c3a 1bdf ac3b e584 f6bb
00000310: c3e9 823c c517 0ebc 25e9 c63b ac85 b83c
00000320: d74c c0bc d827 2ebc 1b85 27bc b708 923c
00000330: 7739 363b 1381 81bc 8cf3 873c 6fe8 ec3a
00000340: 17e5 18bc 2bd3 093b 83cd 0b3b df56 aabb
00000350: 6c09 05ba 7de5 5e3c cd77 debb e48e ec3b
00000360: 02cb 48bb d105 e4bb 5f00 f53b 8e2b a43b
00000370: 987a e4bb 8aec 773c 1da5 85bc 94e5 8a3c
00000380: a2c5 e23b 799f 993c f6d0 713b 673d 813c
00000390: 158e 51bb 5d4c 2bbc 8429 bf3c 6c65 d2bc
000003a0: df32 0ebc fa92 d2bb 3706 b93c d831 7abc
000003b0: 568f 98bc 6299 c1bb 36d0 18ba 6e09 9fbc
000003c0: 7fb1 a9bb 5012 c73b e151 2a3c 1772 0dbc
000003d0: bdef 29bc 9ff6 22bc b6f8 8bbb b42f 873c
000003e0: 3821 b33c 0c22 7c3c 85d0 e43b ab7d 993c
000003f0: eca0 2cbb d27b 1e3c 47bd 883c bf25 ceba
-0.00414156 0.01603606 -0.0016169217 -0.023120569 0.019225145 0.0038980541 0.007109344 -0.007261293
0.00018999197 -0.0034859641 -0.01122282 0.022748344 0.011076241 -0.024253823 -0.010165071 -0.0041595404
0.009206907 -0.007874504 0.01076097 0.022182567 -0.011185431 0.012542256 0.01798507 -0.0017611665
0.014503961 -0.016532764 0.023750208 0.0014435762 0.0007452938 -0.020091547 -0.021899113 0.014424587
-0.00712478 0.018809788 -0.0057513607 0.007274377 0.0132887 -0.025025923 -0.009602306 0.019069133
-0.021585947 0.0022014137 -0.014884751 -0.02252499 0.007886739 0.010514542 -0.0070677972 0.0065156724
-0.01934588 0.016749702 0.009806648 -0.004557665 0.0061079743 -0.014216893 0.0031288997 -0.010512598
0.023217713 -0.003474841 0.009940644 0.0010741166 0.0047822935 -0.010500394 0.014684108 0.022990532
-0.010193758 0.006812585 -0.005671987 0.0061024427 -0.0083490675 -0.002037744 0.021916937 -0.0005129684
0.0046355077 -0.0046818773 0.020416835 -0.0039444556 0.014270256 -0.028110158 -0.012197147 -0.016911417
0.004678332 0.016038228 -0.029490134 -0.012519018 -0.012848647 -0.007312893 -0.028766666 0.015056317
0.001507355 -0.018155757 0.01762066 -0.0036657318 -0.015540165 -0.013340381 -0.00885308 -0.025203569
-0.002185461 -0.019236833 0.011413626 0.011699804 0.009491456 0.0233027 0.018112104 -0.016020052
0.00753547 -0.021559745 -0.00058567786 -0.0011654136 -0.021116095 0.004449041 -0.004202454 -0.02228333
-0.0005475744 0.02160321 0.020426057 -0.02096003 0.01087844 -0.019333161 0.023462659 0.023854012
0.021898337 -0.011990769 -0.006442007 -0.005146382 0.017846469 -0.024631573 -0.02341703 0.019233398
-0.025710331 -0.010885886 0.005588179 0.00086205534 -0.02405139 0.009168687 -0.017658133 0.01259749
0.02320398 0.018062543 0.0045532235 0.005732317 -0.019762853 -0.018202204 0.007374806 -0.025807535
-0.016744874 0.022555359 0.022842648 -0.02405125 -0.009341783 0.0031520433 0.018816397 0.006483689
-0.020631682 0.023542834 -0.011913727 -0.010719996 0.012246318 0.012887418 -0.009738641 0.005683229
-0.022517968 -0.023912765 -0.01675999 -0.021958485 -0.014613241 -0.0056846295 -0.01635492 -0.023344943
0.009699645 -0.022456994 0.014446642 0.008043705 -0.026177654 -0.020894822 0.021588601 -0.01614526
0.019784087 0.019434264 0.022833215 0.004903192 0.018437354 -0.0035571982 -0.019078722 -0.021455437
-0.008646401 -0.014168876 0.012673549 0.0146859195 -0.0052884067 0.015387153 0.015357901 -0.0018095564
-0.015712488 0.00053758605 0.0052756197 -0.0075231665 0.015980607 -0.008672659 0.0060702735 0.022524677
-0.02347414 -0.010629617 -0.010224606 0.017826421 0.0027805248 -0.015808618 0.016595624 0.0018074642
-0.009331963 0.0021030407 0.0021332211 -0.005198344 -0.00050749513 0.013604519 -0.0067891837 0.0072191823
-0.003063858 -0.006958701 0.007476851 0.005010075 -0.006972622 0.015132079 -0.016314084 0.016955175
0.0069205323 0.0187528 0.0036898232 0.01577635 -0.0031975557 -0.010455218 0.023335226 -0.025683127
-0.008679121 -0.0064262124 0.022585971 -0.015270673 -0.018623035 -0.0059081772 -0.00058293657 -0.019413676
-0.00517863 0.006075181 0.010395498 -0.008633158 -0.0103720995 -0.009946494 -0.004271592 0.016502239
0.021866426 0.015388977 0.0069828653 0.018736681 -0.0026341034 0.009673076 0.016691817 -0.0015727802

net.2.bias f4 [32]
00000000: 8bce 7f3b df21 ac3c 00a7 8c3b 0a39 373c
00000010: 9691 103c 0748 68bc 25b5 41bc 7128 cc3b
00000020: 900c 333b 28e5 83bc c513 56bb 4df9 a83b
00000030: 982d fe3b 47e0 fdbb f9d2 89bc 1279 9e3c
00000040: 356e e1bb 4879 233b 7007 b53c d617 8e3c
00000050: 9978 703c bc0b 8dbc cdbc 94bc 86ed b03c
00000060: c2d2 6f3c 70f0 b3ba 65ab 9abc 3380 b23c
00000070: 10a6 853a e640 b9bc dc26 273c b26c b0bc
0.0039033021 0.021012245 0.004292369 0.011183033 0.008823773 -0.014177329 -0.011822973 0.006230407
0.002732072 -0.016100481 -0.0032665592 0.005156672 0.0077569 -0.007747683 -0.016824232 0.01934484
-0.006879593 0.0024944115 0.022098273 0.01734535 0.01467719 -0.01721751 -0.018156433 0.021597635
0.014637651 -0.0013728272 -0.018880555 0.021789646 0.0010196585 -0.022613954 0.010202136 -0.021536205

net.4.weight f4 [3, 32, 5, 5]
00000000: 078f d03c c084 0bbd 7552 e2bc b662 5bbc
00000010: f349 f2bc db7c 8a3c 56c4 4abc 2446 e73b
00000020: 3683 f6bc 238d b93c 1443 5d3c c67a 9cbb
00000030: 3f84 09bd 5680 333b a6d4 97bc ffee 6cbc
00000040: fb91 e4bc f209 e83b 193d 893c 1b79 25bc
00000050: 89f3 0a3d acd3 123d dc4e eb3c a7a7 89bc
00000060: b945 b13c ae2e f23c 231d c83c e340 5ebc
00000070: 1960 083d 844a 933c 4d5e b5ba f98c abbc
00000080: 6300 0abd 407a 07bd 453f ff3c b7ee d43c
00000090: 8f41 f0bc 872a e6bc 2668 8abc 619e 04bd
000000a0: 3e1a 773c d4a7 c4bc 3dec 91bc e5aa edbc
000000b0: 3261 0d3b f12f ea3c 0512 32bc 1189 0a3d
000000c0: 6943 443c 21b7 89bc 664c 8c3b eb7c 33bb
000000d0: 157b b8bc 0cbb c33c 89ad b23c 27c0 663c
000000e0: 8817 243c f596 85bc 2811 6a3c 9c38 ffbc
000000f0: c773 c53c 821b a53c 611b 99bc 2640 b6bc
00000100: de9b abbc 4244 f93b e588 a6bb 0f9e 03bb
00000110: 192b 76bc 13c9 01b9 4759 a53c b42d 32bc
00000120: a033 cebc 77c0 ce3c ebe8 ec3c 9524 893c
00000130: 3966 613c e20d ccbc 8574 033d 2591 6ebc
00000140: fc37 89bb bce9 5c3c 98f0 c5bc 0e68 16bc
00000150: f2a9 b13c 61b4 bd3c 3591 cc37 9924 e4ba
00000160: c6e8 5bbb d1ba d8bc 2345 683a dfe6 7f3c
00000170: f5d2 51bb 1ef0 0abd dd03 ac3a c722 30ba
00000180: f58d ccbb 0f7b 063d d7c1 9e3c 520f 9c3c
00000190: 9064 c7bb 2005 743a 647b 52bb 5276 ba3c
000001a0: aa41 b7bc 4b77 a43b 6929 74bc 90c3 e63c
000001b0: 2a4e 50bc ea67 01bd b58d 93bc f252 a63c
000001c0: f54a 01bd 9a22 a83b 8013 fbbc 30b8 c23c
000001d0: 7d3b 92bc 1f49 99ba 1d20 293c b007 ffbb
000001e0: cfce 933c ff0f f3bc 7422 83ba ac43 b4bc
000001f0: 43dc 683c 5f6a 04bc e125 a33c 6a43 863c
00000200: 977b 103d 7c06 c4bc 774d 90bc 4c29 683c
00000210: 555b 28bc 97a7 00bd cd5d b33c d4bc 6abc
00000220: 00b3 6c3b 7501 a4bc 20e4 8fbc f790 a33b
00000230: e053 cebc c6b9 6a3c e672 f2bc 18bd 09bc
00000240: 5291 88bc 509c ecbc 04ad 8bbc 9a7c 03bd
00000250: ee48 273a be4f babc a59a 2d3c 3e3d 53bc
00000260: 40bd febb 7d3d b23c 1a5a 8d3c 1e87 d13c
00000270: 13c4 913c 88ac e03c 8573 043d 1c36 76bc
00000280: 95cb 8d3c 546c 0f3d 4124 513b 216f 6ebc
00000290: c5e0 65bc 9005 513c 5319 df3b 54a3 c23a
000002a0: 9491 e3bc 2968 02bc ccbd c4bc 4aaa 643c
000002b0: 6e0f 073d 5aa8 adbb c2a5 8ebb 1193 3d3c
000002c0: 3a32 113d 522b 153d 5400 043a 0d04 a63c
000002d0: afe2 053d d124 c03b cd9a 0f3c c5c2 24bc
000002e0: 69e5 0b3d 15d7 b13c 242f 3fbc db07 f53c
000002f0: 0199 c0bc 61b9 d0bc 6345 01bd ec00 7ebc
00000300: 542f 683c 025e fa3a dec8 da3c 82e1 063d
00000310: adf3 fa3c d2ba 96bc 9102 6abc 3459 a03a
00000320: c44f b13c e0cf 54bc 7268 cdbc f5fb 8e3b
00000330: 9110 afbc 828d dfbc 9bc5 25bb 07fe edbc
00000340: 05a0 183c 8a08 40bc 4457 903c 1fcd a1bc
00000350: e611 59bc 94b2 813c bca2 8a3a bac9 67bc
00000360: 222d 493b b632 0cbc bee0 eabc 0331 fa3c
00000370: 030c cfbc 26cf f7bc b3cc f3bc d249 303b
00000380: 3932 3bbc 1ca3 6ebc 624f 25bc fca3 453b
00000390: a607 b93c 8a1b 15bb 020f 7fbb e9ef 113d
000003a0: 4e7c 5f3b f5d4 d6bc d0d8 44bc 9ece 0a3d
000003b0: fb3d 423c b206 08bd b937 203b 70c0 da3c
000003c0: ed85 8abc 6ec0 00bd 7b12 e9bc 590e b7bb
000003d0: 9bed f33c 1450 f93c 0e8f 123d 0b06 0f3c
000003e0: 0cb8 5f3c f72b fdbc 7882 debc f120 e8bb
000003f0: d0a1 a3bc f0ee 0b3d 57d9 f6b9 82d6 8cbb
0.025458826 -0.034062147 -0.02762721 -0.013390234 -0.029576277 0.016905239 -0.012375912 0.007057922
-0.030091863 0.022650307 0.013504762 -0.004775378 -0.033573385 0.0027389727 -0.018534016 -0.014461278
-0.02790164 0.0070812637 0.016752766 -0.010099675 0.03392366 0.035846397 0.028724127 -0.016803576
0.021639692 0.029563274 0.024427956 -0.013565275 0.03329477 0.017979868 -0.0013837308 -0.020941244
-0.033691775 -0.03307557 0.031158099 0.025992734 -0.029328136 -0.02809645 -0.016895365 -0.032377604
0.01508194 -0.024005808 -0.017812843 -0.029012153 0.0021572825 0.028587313 -0.010868554 0.033822123
0.011978962 -0.016810955 0.0042815683 -0.002738769 -0.022519628 0.023892902 0.021811264 0.014083899
0.010015376 -0.016307333 0.014286317 -0.031154923 0.024103059 0.020154718 -0.018689813 -0.022247385
-0.020948347 0.007607014 -0.005082237 -0.0020083224 -0.015024924 -0.00012377305 0.020184172 -0.010875154
-0.025171101 0.025238259 0.028919658 0.016741076 0.013757282 -0.024908964 0.032093544 -0.014560972
-0.004187582 0.013483461 -0.024162576 -0.009180082 0.021687482 0.0231573 2.4386312e-05 -0.0017405926
-0.0033555492 -0.026456269 0.00088604 0.015619009 -0.003201661 -0.0339204 0.001312371 -0.00067190494
-0.0062425085 0.0328322 0.01937954 0.019050274 -0.006084986 0.0009308625 -0.0032117004 0.022761498
-0.022370178 0.0050191036 -0.014902451 0.028169423 -0.012713948 -0.03159324 -0.018011907 0.020303223
-0.031565625 0.005131078 -0.030648947 0.023769468 -0.017850632 -0.0011694765 0.010322598 -0.007782899
0.01804295 -0.029670713 -0.0010004775 -0.022004925 0.014212671 -0.0080820015 0.019915523 0.016389567
0.035274114 -0.023928873 -0.017615063 0.014170002 -0.0102756815 -0.031409826 0.021895314 -0.014327247
0.0036117435 -0.020020226 -0.017564833 0.0049916464 -0.02518648 0.014326518 -0.029595803 -0.0084069
-0.016670857 -0.02888313 -0.017050274 -0.03210125 0.0006381412 -0.022743102 0.010595952 -0.012893019
-0.007774025 0.021757836 0.017254878 0.025577124 0.01779369 0.02742602 0.03233673 -0.015027549
0.01730899 0.03501542 0.0031912478 -0.014552862 -0.01403064 0.012757674 0.006808439 0.0014849701
-0.027779378 -0.007959404 -0.024016283 0.013956616 0.0329737 -0.00529961 -0.004353256 0.011570708
0.03544829 0.036418267 0.0005035449 0.020265603 0.032686885 0.005863764 0.008764935 -0.010056202
0.03415433 0.021709004 -0.011668954 0.029910972 -0.023510458 -0.02547902 -0.031560313 -0.0155031495
0.01417144 0.0019101503 0.026707109 0.032929905 0.030633772 -0.01839963 -0.014282838 0.0012233616
0.02164448 -0.012989014 -0.025074217 0.0043635317 -0.021370204 -0.027289156 -0.0025294784 -0.029051794
0.009315495 -0.011720786 0.017619736 -0.01975113 -0.013248896 0.015832223 0.0010577063 -0.014147216
0.0030697067 -0.008557012 -0.028671619 0.030540949 -0.025274282 -0.030250143 -0.029760694 0.002689947
-0.011425548 -0.0145652555 -0.010089727 0.0030157557 0.022586655 -0.002275201 -0.0038918857 0.035629187
0.003410119 -0.026224593 -0.012014583 0.03388845 0.011855598 -0.03320951 0.0024447276 0.02670309
-0.016909564 -0.031433515 -0.028451195 -0.005586427 0.029776385 0.030433692 0.03578096 0.008729468
0.01365472 -0.030904753 -0.027161822 -0.007084005 -0.01997462 0.034163415 -0.00047082707 -0.0042980323

net.4.bias f4 [3]
00000000: 84bb b03b 01cd bd3c 09c2 7b3b
0.0053934474 0.023169043 0.0038415215
