checkpoints/srcnn_epoch39_2025-03-20_23-02-04.pth (torch, 280012 bytes, 6 tensors)

net.0.weight f4 [64, 3, 9, 9]
0	0x3d0585ce	0.03259831
1	0xbc9f9e66	-0.01948471
2	0x3cff76a5	0.031184504
3	0x3d565fa9	0.052337322
4	0xbd5f50b0	-0.05452031
5	0x3ca0e226	0.019639086
6	0x3d172357	0.036898937
7	0xbc99d5b4	-0.01877866
8	0xbccf01b5	-0.025269369
9	0x3c333946	0.010938948
10	0xbd263902	-0.04058171
11	0xbcbd1ea0	-0.023085892
12	0x3b0f7470	0.002188947
13	0xbd05e572	-0.03268952
14	0x3b25d08a	0.00253013
15	0x3d7e8463	0.062137973
16	0x3d8e8a96	0.06960027
17	0xbc53226e	-0.012886627
18	0xbd336244	-0.043794885
19	0xbc0a35ad	-0.008435649
20	0x3b164654	0.0022930102
21	0x3d68e1e4	0.05685605
22	0xbc77afbc	-0.015117582
23	0xbd123f96	-0.03570517
24	0x3d8076e4	0.062726766
25	0x3ceaa5e2	0.028643552
26	0x3d71da80	0.05904627
27	0x3cbf2224	0.02333171
28	0xbd158ac3	-0.036509287
29	0xbd7ae764	-0.061255828
30	0x3d57c94b	0.052682202
31	0xbd300cd8	-0.042981
32	0xbc8173ac	-0.015802227
33	0xbd30296d	-0.043008257
34	0x3d7dc99c	0.061959848
35	0xbd517211	-0.051134173
36	0xbc3a00b8	-0.01135271
37	0x3ad704b3	0.0016404599
38	0xbbb437e5	-0.005499827
39	0xbcc8a985	-0.024494896
40	0xbc382458	-0.011239134
41	0x3d827dfa	0.06371684
42	0xbcf00a6d	-0.029301846
43	0xbce918e9	-0.02845426
44	0x3d28579d	0.04109918
45	0x3d8b0c1c	0.06789419
46	0xbd5e6cff	-0.054303166
47	0x3d109ab1	0.035303775
48	0x3c61525d	0.013752547
49	0x3ce47ff5	0.027893046
50	0xbba6b037	-0.0050869244
51	0xbc74e7ba	-0.014947826
52	0xbd59bfd3	-0.053161453
53	0x3d792a7c	0.060831532
54	0x3d7eda3f	0.062219854
55	0xbcea29ff	-0.028584478
56	0x3d8ee3ff	0.069770806
57	0xbd0caa52	-0.034342118
58	0x3d58aefc	0.052901253
59	0x3d982248	0.07428414
60	0x3c353388	0.011059649
61	0xbba6b35c	-0.0050872993
62	0x3c6cb385	0.014447098
63	0x3d193fb2	0.03741426
64	0x3d857399	0.06516189
65	0xbc17e66f	-0.009271248
66	0x3d86a4d4	0.06574407
67	0xbc431b9d	-0.011908439
68	0xbca90242	-0.02063096
69	0x3d0027cf	0.031287964
70	0xbd257eb5	-0.04040404
71	0xbb65f865	-0.0035090682
72	0xbceb4ba7	-0.028722597
73	0xbd36fb35	-0.044673163
74	0xbd26e4e8	-0.040745646
75	0xbd3e5b44	-0.046473756
76	0x3d358f9f	0.04432642
77	0xbc3f973a	-0.01169377
78	0xbd685315	-0.05671986
79	0x3c9812d9	0.018563675
80	0xbcdfd196	-0.027321618
81	0xbcef61e5	-0.029221484
82	0xbc6990be	-0.014255701
83	0xbd109320	-0.03529656
84	0x3ca26ff2	0.01982877
85	0xbd5d875e	-0.054084174
86	0x3c7ee5a8	0.015557684
87	0xbbf63f31	-0.007514857
88	0xbc970629	-0.018435555
89	0x3d594873	0.05304761
90	0xbc3a7b2e	-0.011381907
91	0xbd3e6ec7	-0.046492364
92	0x3c15dc73	0.0091467975
93	0xbd57560c	-0.052572295
94	0xbd5d3bea	-0.054012217
95	0xbcb952ab	-0.022622427
96	0x3d1e0f38	0.038588732
97	0x3c0b726f	0.00851117
98	0x3c350c16	0.011050245
99	0x3d8c3ca4	0.06847504
100	0x3d443ad4	0.047907665
101	0x3d88eac7	0.06685405
102	0xbd5ad7b7	-0.053428378
103	0xbae70a1f	-0.0017626918
104	0x3d567246	0.052355073
105	0xbd1fb66f	-0.03899234
106	0xbd5bba34	-0.053644374
107	0x3d03424a	0.03204564
108	0xbd3a2e83	-0.045454513
109	0xbb55c658	-0.0032619443
110	0xbd47aabd	-0.048746813
111	0xbcce9378	-0.025216803
112	0x3d2803fc	0.041019425
113	0x3cd477bd	0.025936002
114	0x3c3c2ba6	0.011485016
115	0xbc753810	-0.01496698
116	0xbd5a240e	-0.05325704
117	0x3d2f4fda	0.04280076
118	0x3d0c79d9	0.03429589
119	0xbc552362	-0.013008924
120	0xbd4d152c	-0.05006902
121	0x3d5b2110	0.053498328
122	0xbd70b74a	-0.058768548
123	0x3d6a88d2	0.05725939
124	0xbcde491b	-0.027134469
125	0xbc1d1d03	-0.009589436
126	0xbd029e42	-0.031889208
127	0xbcc52ed6	-0.024070185
128	0xbd23ad24	-0.03996004
129	0xbcf87f83	-0.03033424
130	0x3d37f8ad	0.04491489
131	0xbd2c8b69	-0.04212514
132	0x3b05bfd9	0.002040854
133	0x3cfb8082	0.030700926
134	0x3d4a7433	0.049427222
135	0xbd1a4915	-0.037667353
136	0xbcb50dce	-0.02210131
137	0xbc3f848d	-0.011689317
138	0x3d68854a	0.05676774
139	0xbb56353c	-0.0032685539
140	0x3d6dc225	0.05804648
141	0x3c391aa8	0.011297859
142	0xbd1459b7	-0.03621837
143	0xbd415371	-0.047198717
144	0x3d4460fe	0.04794406
145	0x3d491d4f	0.049100216
146	0xbc0f6df7	-0.008754245
147	0xbd673864	-0.056450263
148	0x3a2cd5c3	0.0006593132
149	0xbcfeef34	-0.03111992
150	0x3d1efb77	0.038814034
151	0xbd659453	-0.056049656
152	0x3cb03fd9	0.02151482
153	0x3b2cb827	0.002635488
154	0xbbdd7f72	-0.0067595774
155	0xbd449ae2	-0.04799927
156	0xbd2fa462	-0.042881377
157	0x3d5fc84f	0.05463439
158	0xbd2bf304	-0.041979805
159	0xbcb52a9c	-0.022115044
160	0xbc9b8a78	-0.018986925
161	0x3c946488	0.018114343
162	0xbd1c60b5	-0.038178165
163	0x3cc9ed61	0.024649324
164	0x3cab459a	0.020907212
165	0xbcf26961	-0.029591264
166	0x3d0b7e04	0.034055725
167	0xbbb7794b	-0.005599176
168	0x3d212940	0.03934598
169	0xbc40ea0a	-0.011774549
170	0xbd0d91af	-0.034562763
171	0x3d864343	0.06555798
172	0xbd552c06	-0.052043937
173	0xbcbb1a63	-0.02283973
174	0xbd5277f0	-0.051383913
175	0x3d776e1f	0.060407754
176	0xbd22032c	-0.039553806
177	0x3d0a6200	0.033784866
178	0xbd66520f	-0.0562306
179	0x3d096ba6	0.033549927
180	0x3d0051b0	0.031327903
181	0x3d76222a	0.060091175
182	0xbd1d777b	-0.038444024
183	0x3cafcd23	0.021460121
184	0x3d993ce4	0.07482317
185	0x3d8dc021	0.06921411
186	0x3d919fca	0.071105555
187	0x3d0c2aeb	0.034220617
188	0xbc568d54	-0.013095219
189	0x3c39bee6	0.011337018
190	0xbd3c1358	-0.045916885
191	0xbc002e51	-0.007823543
192	0x3c832260	0.016007602
193	0x3d7ab947	0.06121185
194	0xbbb823dc	-0.005619509
195	0x3d656942	0.056008585
196	0x3d7c4eb2	0.061598487
197	0x3ce0b155	0.027428309
198	0x3d7a471b	0.061102968
199	0x3d85c8b1	0.065324195
200	0x3cc4c3d7	0.024019165
201	0x3d5720b3	0.05252142
202	0xbb92cef1	-0.0044802357
203	0xbc9c5819	-0.019084977
204	0x3cc9bbd9	0.024625706
205	0x3c6efef4	0.014587153
206	0xbc3c38b3	-0.0114881275
207	0xbd67cc35	-0.05659123
208	0xbd5c50ea	-0.053788103
209	0xbcbaab78	-0.02278684
210	0xbd5c0655	-0.053716976
211	0x3c3996eb	0.011327486
212	0xbd5c30f6	-0.05375763
213	0xbc8dc4cd	-0.017305756
214	0xbca7d909	-0.020489233
215	0x3d032870	0.032020986
216	0x3c9351cf	0.017983345
217	0x3c8e2f64	0.017356582
218	0x3c1da79d	0.009622482
219	0xbcfda82a	-0.030963976
220	0x3d6182d8	0.055056423
221	0x3d2cd1f9	0.042192433
222	0x3d80699a	0.06270142
223	0xbd03ae76	-0.0321488
224	0xbce3d94a	-0.027813572
225	0x3d7b2e61	0.061323527
226	0xbd5e9d9d	-0.05434953
227	0x3d11ac32	0.03556461
228	0xbc1022c5	-0.008797352
229	0xbd654455	-0.05597337
230	0xbc533d61	-0.012893052
231	0xbc8a83e0	-0.016908586
232	0xbc8d533b	-0.017251601
233	0xbd44ba08	-0.048028976
234	0xbd179ae4	-0.03701295
235	0x3cfcb5c8	0.030848399
236	0x3d3d8001	0.046264652
237	0xbc03be96	-0.008041045
238	0xbc62d322	-0.013844283
239	0x3a50fcc4	0.00079722353
240	0x3d43df4e	0.04782038
241	0xbd6455ba	-0.055745818
242	0x3d2de8e4	0.04245843
243	0x3ca139be	0.019680854
244	0xbd4ed88c	-0.050499484
245	0x3d3500a9	0.044190083
246	0x3d810088	0.062989295
247	0x3c35a0b2	0.011085676
248	0xbc4f1b02	-0.0126407165
249	0x3d79089b	0.060799222
250	0xbd2f8fb9	-0.042861674
251	0xbc81da61	-0.015851201
252	0xbbf9491f	-0.0076075937
253	0xbd1bccea	-0.03803722
254	0x3cb9ef55	0.02269713
255	0x398349cf	0.0002504126

net.0.bias f4 [64]
0	0x3d7c5b94	0.061610773
1	0x3cb6d909	0.022320287
2	0x3d6c71d3	0.05772574
3	0x3c8fdc59	0.017561125
4	0x3d666eee	0.056258135
5	0x3d28e1b9	0.04123089
6	0x3d023b26	0.03179469
7	0x3cdfa096	0.027298253
8	0x3d392a27	0.045206215
9	0xbd4bcd33	-0.04975624
10	0x3cab4922	0.020908896
11	0xbc9b48ca	-0.018955607
12	0xbb5bd868	-0.0033545736
13	0x3b224c3a	0.0024764673
14	0xbd162bb1	-0.03666276
15	0xbc0fee60	-0.00878486
16	0xbd0e30ba	-0.034714438
17	0x39becb90	0.0003639129
18	0x3a558407	0.0008144979
19	0xbd21e0b5	-0.039520938
20	0xbd292a9e	-0.04130041
21	0x3d088562	0.03333033
22	0x3b45a166	0.0030156015
23	0x3c80bee2	0.01571602
24	0x3d2a0ad8	0.041514248
25	0x3c265c2e	0.010153813
26	0xbcef60a8	-0.029220894
27	0x3c496e03	0.012294295
28	0x3d4edfe7	0.0505065
29	0x3c56aaa0	0.013102204
30	0x3d5eba94	0.054377154
31	0x3c850d97	0.016241832
32	0xbc95d14d	-0.018288279
33	0x3ca97d48	0.020689622
34	0xbd4e3fc9	-0.0503538
35	0xbcd0d569	-0.025492387
36	0x3d10728c	0.03526549
37	0x3d0074bf	0.031361338
38	0x3d5e4d43	0.0542729
39	0x3d25fd2b	0.040524643
40	0x3c17d6b4	0.009267498
41	0xbbe324b2	-0.0069318647
42	0xbd068a2f	-0.032846626
43	0xbd3db656	-0.046316467
44	0xbcd098e3	-0.025463527
45	0x3d7f6a90	0.062357485
46	0xbd00d0df	-0.031449195
47	0x3d8a8d70	0.06765258
48	0xbb7e958e	-0.0038846466
49	0x3d1b734c	0.037951753
50	0xbd6a48bb	-0.057198267
51	0x3d572990	0.05252987
52	0xbd70a843	-0.058754217
53	0xbc1aa29b	-0.009438182
54	0xbbc99098	-0.00615127
55	0x3c8f4077	0.017486794
56	0x3d51a8f4	0.051186517
57	0xbd476aba	-0.048685767
58	0x3c036d70	0.008021697
59	0x3c2922dd	0.010323253
60	0x3d68b570	0.056813657
61	0x3ce254b1	0.027628275
62	0x3d1389a1	0.036019925
63	0xbc6a5d47	-0.014304466

net.2.weight f4 [32, 64, 5, 5]
0	0xbb88d07a	-0.004175243
1	0x3c831092	0.015999112
2	0xbad86e44	-0.0016512354
3	0xbcbdab44	-0.023152955
4	0x3c9d3efd	0.019195074
5	0x3b7e681c	0.0038819378
6	0x3be87572	0.0070940787
7	0xbbee53ff	-0.0072731967
8	0x393c66f2	0.00017967427
9	0xbb655145	-0.0034991067
10	0xbc3756d8	-0.011190139
11	0x3cba83f3	0.022767996
12	0x3c35898f	0.01108016
13	0xbcc69a14	-0.024243392
14	0xbc262e86	-0.010142928
15	0xbb87548c	-0.004129952
16	0x3c174f1c	0.00923517
17	0xbc009118	-0.007847093
18	0x3c30c163	0.0107882945
19	0x3cb60480	0.022218943
20	0xbc369585	-0.011144047
21	0x3c4e4f0e	0.01259209
22	0x3c93e55d	0.018053705
23	0xbadbae3f	-0.0016760303
24	0x3c6f591c	0.014608648
25	0xbc876fb8	-0.016532764
26	0x3cc28fc4	0.023750193
27	0x3abd33bf	0.0014434977
28	0x3a43591f	0.000745194
29	0xbca49729	-0.02009161
30	0xbcb365eb	-0.021899184
31	0x3c6c54d3	0.014424521
32	0xbbe977a8	-0.00712486
33	0x3c9a16d7	0.018809719
34	0xbbbc76db	-0.0057514734
35	0x3bee5d0c	0.0072742756
36	0x3c59b871	0.013288603
37	0xbccd0354	-0.025026001
38	0xbc1d51f9	-0.009602063
39	0x3c9c36fe	0.019069191
40	0xbcb0d503	-0.021585947
41	0x3b104637	0.0022014508
42	0xbc73df0a	-0.01488472
43	0xbcb88621	-0.022524895
44	0x3c013a3a	0.007887417
45	0x3c2c4530	0.010514542
46	0xbbe79906	-0.0070678024
47	0x3bd5815c	0.006515665
48	0xbc9e7b40	-0.01934588
49	0x3c8936ad	0.016749704
50	0x3c208954	0.009798367
51	0xbb95981c	-0.004565252
52	0x3bc7e618	0.0061004274
53	0xbc690fa5	-0.014224921
54	0x3b4c7aa5	0.0031201032
55	0xbc2c5313	-0.010517853
56	0x3cbe2816	0.023212474
57	0xbb641725	-0.0034803834
58	0x3c22c58e	0.009934796
59	0x3a8c05ee	0.001068292
60	0x3b9cb013	0.004781732
61	0xbc2c11a2	-0.010502251
62	0x3c708910	0.014681116
63	0x3cbc4f29	0.022986965
64	0xbc271636	-0.010198167
65	0x3bdf4f87	0.0068149003
66	0xbbb9d95f	-0.0056716646
67	0x3bc7f5e5	0.006102311
68	0xbc08cc24	-0.008349452
69	0xbb059866	-0.0020385026
70	0x3cb3a00a	0.021926899
71	0xba03d2da	-0.0005028673
72	0x3b983a27	0.004645604
73	0xbb990b5e	-0.0046705445
74	0x3ca758ed	0.020428145
75	0xbb827239	-0.0039809016
76	0x3c697c05	0.01425076
77	0xbce66373	-0.028123593
78	0xbc481bf9	-0.0122137
79	0xbc8acf5c	-0.01694458
80	0x3b9835ac	0.00464507
81	0x3c8333da	0.016015936
82	0xbcf1b404	-0.029504783
83	0xbc4d50e1	-0.01253149
84	0xbc52b2c2	-0.012860002
85	0xbbefcbb7	-0.007317986
86	0xbceb9f79	-0.028762566
87	0x3c77581e	0.015096692
88	0x3acef35b	0.0015789078
89	0xbc93df8f	-0.018050937
90	0x3c90a789	0.017658012
91	0xbb6edcb5	-0.003644747
92	0xbc7db3d6	-0.015484771
93	0xbc588dd6	-0.01321741
94	0xbc0e2f91	-0.008678333
95	0xbccdd3f4	-0.025125481
96	0xbb0adb92	-0.0021188003
97	0xbc9d2c55	-0.019186178
98	0x3c3bae27	0.011455095
99	0x3c404ef6	0.011737576
100	0x3c1b804f	0.00949104
101	0x3cbee48d	0.02330234
102	0x3c945f27	0.018111778
103	0xbc833d13	-0.016020333
104	0x3bf6e93c	0.007535128
105	0xbcb09ed6	-0.021560114
106	0xba19ab4d	-0.00058620126
107	0xba98d1b7	-0.001165918
108	0xbcacfc62	-0.02111644
109	0x3b91c603	0.0044486537
110	0xbb89b302	-0.0042022476
111	0xbcb68bd2	-0.022283468
112	0xba0f8b2c	-0.00054757553
113	0x3cb0f8bd	0.021602983
114	0x3ca7540d	0.02042582
115	0xbcabb459	-0.02096002
116	0x3c323d2b	0.010878841
117	0xbc9e602d	-0.01933297
118	0x3cc034d0	0.023462683
119	0x3cc3696e	0.023853984
120	0x3cb3642f	0.021898357
121	0xbc447404	-0.011990551
122	0xbbd312fb	-0.0064414716
123	0xbba89de5	-0.0051457756
124	0x3c9232ca	0.017846484
125	0xbcc9c8c3	-0.024631863
126	0xbcbfd5a9	-0.02341731
127	0x3c9d8ebd	0.019233102
128	0xbcd29f24	-0.02571065
129	0xbc325c36	-0.010886243
130	0x3bb71a19	0.005587828
131	0x3a61e2ce	0.00086168654
132	0xbcc50823	-0.024051731
133	0x3c1636b9	0.00916832
134	0xbc90a88a	-0.01765849
135	0x3c4e653d	0.012597379
136	0x3cbe160e	0.023203876
137	0x3c93f7a9	0.01806243
138	0x3b953651	0.004553594
139	0x3bbbd9b5	0.00573274
140	0xbca1e5b5	-0.019762853
141	0xbc951cca	-0.018202204
142	0x3bf1a83c	0.0073747914
143	0xbcd36a53	-0.025807535
144	0xbc892c8c	-0.016744874
145	0x3cb8c604	0.022555359
146	0x3cbb2081	0.022842648
147	0xbcc50721	-0.02405125
148	0xbc190d5c	-0.009341564
149	0x3b4e9b77	0.003152577
150	0x3c9a21e1	0.018814983
151	0x3bd46878	0.00648218
152	0xbca9069b	-0.020633033
153	0x3cc0da41	0.023541572
154	0xbc433761	-0.011915059
155	0xbc2fa8bc	-0.010721382
156	0x3c489e5b	0.012244786
157	0x3c531f04	0.012885813
158	0xbc1f955d	-0.009740201
159	0x3bba2e1f	0.0056817676
160	0xbcb878d7	-0.022518558
161	0xbcc3e855	-0.023914495
162	0xbc894fc3	-0.016761666
163	0xbcb3e526	-0.021959852
164	0xbc6f6aed	-0.014612895
165	0xbbba3a82	-0.005683244
166	0xbc85f996	-0.016354363
167	0xbcbf3c8c	-0.0233443
168	0x3c1eebf9	0.009699815
169	0xbcb7f761	-0.022456827
170	0x3c6cbc96	0.014449259
171	0x3c03d46d	0.008046252
172	0xbcd6707c	-0.026176684
173	0xbcab2b52	-0.02089468
174	0x3cb0daf2	0.021588776
175	0xbc84cae5	-0.016210029
176	0x3ca17092	0.019706998
177	0x3c9e882f	0.019352047
178	0x3cba44e5	0.02273793
179	0x3b9d7d6b	0.0048062108
180	0x3c969561	0.018381776
181	0xbb6cc688	-0.0036129076
182	0xbc9cb73b	-0.01913034
183	0xbcb03a54	-0.021512188
184	0xbc0edac5	-0.008719151
185	0xbc68198a	-0.014166245
186	0x3c500c11	0.012698189
187	0x3c722681	0.014779688
188	0xbba7730f	-0.0051101516
189	0x3c7fcb51	0.015612439
190	0x3c7c1109	0.015384921
191	0xbae703fa	-0.0017625086
192	0xbc7fbd91	-0.015609161
193	0x3a3744cf	0.0006991149
194	0x3bb33f08	0.0054701604
195	0xbbf5c475	-0.007500226
196	0x3c830865	0.015995214
197	0xbc0d8c2e	-0.0086393785
198	0x3bc86873	0.006115967
199	0x3cb8f642	0.022578362
200	0xbcc05258	-0.023476765
201	0xbc2e34a5	-0.010632669
202	0xbc2790a8	-0.01022736
203	0x3c92034f	0.017823843
204	0x3b36066b	0.0027774822
205	0xbc81861b	-0.015811017
206	0x3c87ed85	0.01659275
207	0x3aec8e03	0.0018047694
208	0xbc18efa6	-0.00933448
209	0x3b09a3aa	0.0021002092
210	0x3b0bbc0a	0.0021321797
211	0xbbaa6908	-0.005200509
212	0xba05c632	-0.0005103081
213	0x3c5eefeb	0.013607006
214	0xbbde3fa1	-0.0067824875
215	0x3becc5e6	0.00722574
216	0xbb484992	-0.003056143
217	0xbbe3b8fd	-0.0069495426
218	0x3bf56e7b	0.007489977
219	0x3ba4c221	0.005028025
220	0xbbe454a1	-0.0069680964
221	0x3c77face	0.01513548
222	0xbc859d6e	-0.01631042
223	0x3c8af0d4	0.016960539
224	0x3be30393	0.0069279163
225	0x3c999f15	0.018752614
226	0x3b71ce5b	0.003689668
227	0x3c813d0f	0.015776185
228	0xbb5194af	-0.0031979491
229	0xbc2b4e7a	-0.010455722
230	0x3cbf28b8	0.023334846
231	0xbcd2662c	-0.025683485
232	0xbc0e34b4	-0.008679558
233	0xbbd2992e	-0.006426952
234	0x3cb90471	0.022585126
235	0xbc7a333c	-0.015271004
236	0xbc989024	-0.01862342
237	0xbbc19bb6	-0.005908455
238	0xba18ba24	-0.0005826077
239	0xbc9f082b	-0.019413074
240	0xbba9b1b9	-0.005178657
241	0x3bc71260	0.0060751885
242	0x3c2a53b6	0.010395935
243	0xbc0d6d5c	-0.00863203
244	0xbc29e9bd	-0.010370669
245	0xbc22f69f	-0.009946494
246	0xbb8bf8c8	-0.0042716004
247	0x3c872fb4	0.016502239
248	0x3cb32138	0.021866426
249	0x3c7c2354	0.015389282
250	0x3be4cac6	0.0069821803
251	0x3c997bb7	0.01873575
252	0xbb2cba15	-0.002635603
253	0x3c1e72b2	0.0096709
254	0x3c88b842	0.016689423
255	0xbace3d68	-0.0015734853

net.2.bias f4 [32]
0	0x3b7fd45a	0.0039036484
1	0x3caaf965	0.020870874
2	0x3b864ed4	0.0040987525
3	0x3c353a07	0.011061198
4	0x3c20b3a5	0.009808456
5	0xbc7173d5	-0.014737089
6	0xbc3bc84e	-0.011461331
7	0x3bcc5524	0.0062357355
8	0x3b494ffb	0.0030717838
9	0xbc8479bd	-0.01617133
10	0xbb5613d9	-0.0032665639
11	0x3ba6debb	0.0050924695
12	0x3c394649	0.011308261
13	0xbbd7d49a	-0.0065866234
14	0xbc8a83be	-0.016908523
15	0x3c9f1544	0.01941932
16	0xbbe364a3	-0.006939487
17	0x3b237967	0.0024944188
18	0x3cbcaa1e	0.023030337
19	0x3c9c8522	0.019106451
20	0x3c89af4d	0.016807223
21	0xbc8c8334	-0.017152406
22	0xbc9116a6	-0.017710995
23	0x3cb6e710	0.022326976
24	0x3c72240b	0.014779101
25	0xbabdbe8e	-0.0014476345
26	0xbc96ea3a	-0.018422235
27	0x3cc8834f	0.024476675
28	0x3b08c222	0.0020867665
29	0xbc87ec70	-0.016592234
30	0x3c29dcb6	0.010367563
31	0xbcaed6f7	-0.021342738

net.4.weight f4 [3, 32, 5, 5]
0	0x3cd08f07	0.025458826
1	0xbd0b84c0	-0.034062147
2	0xbce25275	-0.02762721
3	0xbc5b62b6	-0.013390234
4	0xbcf249f3	-0.029576277
5	0x3c8a7cdb	0.016905239
6	0xbc4ac456	-0.012375912
7	0x3be74624	0.007057922
8	0xbcf68336	-0.030091863
9	0x3cb98d23	0.022650307
10	0x3c5d4319	0.013504767
11	0xbb9c7ab7	-0.004775371
12	0xbd09843f	-0.033573385
13	0x3b3380ac	0.0027389927
14	0xbc97d4a6	-0.018534016
15	0xbc6ceeff	-0.014461278
16	0xbce491fb	-0.02790164
17	0x3be809f3	0.007081264
18	0x3c893d19	0.016752766
19	0xbc257913	-0.010099667
20	0x3d0af389	0.03392366
21	0x3d12d3ac	0.035846397
22	0x3ceb4edc	0.028724127
23	0xbc89a7a7	-0.016803576
24	0x3cb145b9	0.021639692
25	0xbaaf061e	-0.0013353263
26	0x3cef773f	0.029231666
27	0xbc0341ef	-0.008011325
28	0x3cdde441	0.027086379
29	0x3c9c3726	0.019069266
30	0xbd34df16	-0.044158064
31	0xbd03cd9e	-0.032178514
32	0xbd28c121	-0.041199807
33	0xbd5b4262	-0.053530104
34	0x3c6bf127	0.014400757
35	0x3c3ece9e	0.011645941
36	0xbca32bf1	-0.019918414
37	0xbc96bb8d	-0.018399978
38	0xbc91d447	-0.017801417
39	0xbd00b2bf	-0.031420466
40	0x3ba8d470	0.0051522776
41	0xbc207cc0	-0.009795368
42	0xbb92de0c	-0.0044820365
43	0xbcd16b8e	-0.025563981
44	0x3c054dbe	0.008136211
45	0x3cb967c8	0.022632495
46	0x3b8940be	0.004188626
47	0x3d3f750d	0.046742488
48	0x3c8fc22d	0.017548645
49	0xbbfd61b3	-0.007732594
50	0x3b446ff3	0.0029973953
51	0xbb68544b	-0.0035450633
52	0xbcc08478	-0.023500666
53	0x3cc73d1f	0.024321137
54	0x3cb1a71a	0.021686126
55	0x3c5ed1e1	0.013599844
56	0x3c20610f	0.009788766
57	0xbc8cc80c	-0.017185234
58	0x3c6db703	0.014508965
59	0xbd02b250	-0.031908333
60	0x3cc7a01d	0.02436834
61	0x3ca50f03	0.02014876
62	0xbc9c61b3	-0.019089555
63	0xbcb3b629	-0.021937447
64	0xbcaeae65	-0.021323392
65	0x3be49c04	0.0069766063
66	0xbbc93cfb	-0.0061413026
67	0xbb43e34a	-0.0029890114
68	0xbc76f51e	-0.015073089
69	0xb92c48be	-0.00016430297
70	0x3ca5b987	0.020230068
71	0xbc3814e6	-0.011235451
72	0xbcd6ec34	-0.026235677
73	0x3ccecb48	0.025243416
74	0x3cf073dc	0.029352121
75	0x3c6f9086	0.014621859
76	0x3c346fa9	0.01101295
77	0xbcd41a5c	-0.025891475
78	0x3d00b37e	0.031421177
79	0xbc63f79f	-0.013914018
80	0xbba9559e	-0.005167677
81	0x3c3bf3ab	0.011471669
82	0xbcd2ba79	-0.025723683
83	0xbc125b6b	-0.008932929
84	0x3cbd8ac7	0.023137463
85	0x3cb82244	0.022477277
86	0xb98e39fc	-0.00027127552
87	0xbad0514c	-0.0015893369
88	0xbb709d1e	-0.0036714743
89	0xbccb14ee	-0.024790253
90	0xbac4edeb	-0.0015024518
91	0x3c60c8a6	0.013719713
92	0xbb8c9e09	-0.0042913
93	0xbd167897	-0.036736097
94	0x3b36820b	0.0027848508
95	0xbb2fbb76	-0.0026814616
96	0xbbfe58ec	-0.007762065
97	0x3d08c13d	0.03338741
98	0x3c98f220	0.018670142
99	0x3cb0b53b	0.021570792
100	0xbc3df114	-0.011593122
101	0xbb073502	-0.002063096
102	0xbac8e9c3	-0.0015328455
103	0x3c94fbcc	0.018186472
104	0xbd0493b2	-0.032367416
105	0x3ae3f061	0.0017390364
106	0xbc8c0d70	-0.017096251
107	0x3cec011d	0.028809125
108	0xbc86f730	-0.01647529
109	0xbd2958de	-0.041344516
110	0xbc91d2b2	-0.017800663
111	0x3c8bea0a	0.017079372
112	0xbd0e7f4f	-0.03478938
113	0xbb3fb44b	-0.002925175
114	0xbd2ebebd	-0.04266237
115	0x3ca78f31	0.020454021
116	0xbcdee580	-0.027209044
117	0xbc096334	-0.008385468
118	0xbb0fc30e	-0.002193633
119	0xbcbda37e	-0.023149248
120	0x3c702a66	0.014658546
121	0xbd15bf2d	-0.036559273
122	0xbb9edf9d	-0.004848434
123	0xbce44182	-0.027863268
124	0x3b9ed919	0.0048476574
125	0xbca60ad0	-0.020268828
126	0x3c5f6eb3	0.013637233
127	0x3c3b595a	0.011434877
128	0x3d318a14	0.043344572
129	0xbcf68c89	-0.03009631
130	0xbcc62a4d	-0.024190092
131	0x3c60bcbc	0.013716873
132	0xbc12001f	-0.008911162
133	0xbc938969	-0.018009858
134	0x3caa0fd9	0.02075951
135	0xbca49bcf	-0.020093827
136	0x3b8c513c	0.004282145
137	0xbc8f9592	-0.017527375
138	0xbb6b6228	-0.003591666
139	0x3b80528e	0.0039160913
140	0xbd0e61bd	-0.03476118
141	0x3c34b09f	0.011028438
142	0xbd001cc5	-0.031277437
143	0x3a9f0edc	0.0012135166
144	0xbcb5dfdd	-0.022201473
145	0xbd1ec2eb	-0.038760107
146	0xbcab14a1	-0.02088386
147	0xbd0bfbc3	-0.034175646
148	0x3c1be9be	0.009516178
149	0xbcea9ee0	-0.02864021
150	0x3c255156	0.010090193
151	0xbc5f6f69	-0.013637402
152	0xbc00807f	-0.007843136
153	0x3cb2d569	0.021830278
154	0x3c886e4a	0.016654152
155	0x3cd6a9df	0.026204048
156	0x3c8e6324	0.017381258
157	0x3ce40e3e	0.027838822
158	0x3d0598a2	0.032616265
159	0xbc810f39	-0.015754329
160	0x3c923828	0.017849043
161	0x3d0de967	0.034646418
162	0x3b596190	0.0033169724
163	0xbc7a66e8	-0.015283324
164	0xbc6c99df	-0.014440983
165	0x3c459ed2	0.0120617915
166	0x3bc12b66	0.005895066
167	0x3ad5ccab	0.0016311606
168	0xbce88ce1	-0.028387489
169	0xbc053714	-0.008130807
170	0xbcc533ab	-0.024072489
171	0x3c62e22b	0.013847868
172	0x3d0a63dc	0.03378664
173	0xbba0ee19	-0.004911196
174	0xbb8ce65b	-0.0042999214
175	0x3c3cddaa	0.011527458
176	0x3d0f1a11	0.03493697
177	0x3d1501b1	0.036378566
178	0x39ce66db	0.00039368015
179	0x3ca462f5	0.020066718
180	0x3d058106	0.03259375
181	0x3bb11125	0.005403655
182	0x3c145017	0.009052298
183	0xbc252073	-0.010078537
184	0x3d0bf82d	0.034172226
185	0x3cafff61	0.021484079
186	0xbc3b5658	-0.01143416
187	0x3cfd9338	0.030953988
188	0xbcbf01af	-0.023316232
189	0xbccff4d4	-0.025385298
190	0xbd019365	-0.031634707
191	0xbc7c0301	-0.015381576
192	0x3c6f2c2f	0.0145979365
193	0x3af85788	0.0018946985
194	0x3cd9b288	0.026574388
195	0x3d07a035	0.03311177
196	0x3cfa18b0	0.03052935
197	0xbc971d53	-0.0184466
198	0xbc66f099	-0.014095449
199	0x3ad36d29	0.0016130555
200	0x3cafa125	0.021439144
201	0xbc5ef533	-0.013608265
202	0xbcd5580c	-0.02604296
203	0x3b4aafff	0.0030927656
204	0xbcb67dbf	-0.022276757
205	0xbce7830b	-0.028260728
206	0xbbb57d1c	-0.005538596
207	0xbcfb2e39	-0.03066169
208	0x3bfcd4dd	0.007715805
209	0xbc5977a8	-0.013273157
210	0x3c902cdc	0.017599516
211	0xbcb3cd67	-0.02194853
212	0xbc6ea344	-0.014565293
213	0x3c6d4b3a	0.014483267
214	0x3a0b6fa7	0.00053190667
215	0xbc6339f8	-0.013868801
216	0x3b5613b6	0.0032665557
217	0xbc115d91	-0.008872406
218	0xbcf88d8d	-0.030340934
219	0x3d00dfc5	0.031463403
220	0xbccd1121	-0.025032582
221	0xbcf127eb	-0.02943798
222	0xbcef21cc	-0.02919092
223	0x3abfa822	0.0014622251
224	0xbc286f0d	-0.010280383
225	0xbc89f3d6	-0.016839903
226	0xbc62ff97	-0.013854883
227	0x3bb4511f	0.0055028345
228	0x3cb56185	0.022141227
229	0xbb40c12a	-0.002941201
230	0xbac7c86c	-0.0015242225
231	0x3d1d3137	0.038377013
232	0x3bcf2248	0.0063212253
233	0xbcebd7d8	-0.028789446
234	0xbc44681e	-0.011987714
235	0x3d127339	0.035754416
236	0x3c632ef9	0.01386618
237	0xbcf4f21c	-0.029900603
238	0x3a59635c	0.0008292699
239	0x3cf8417c	0.030304663
240	0xbcb6c05b	-0.02230852
241	0xbd1914d7	-0.03737339
242	0xbce466f4	-0.027881123
243	0xbc357b99	-0.011076831
244	0x3ce503b5	0.02795587
245	0x3cf5a932	0.029987905
246	0x3d112f76	0.035445653
247	0x3c76dea3	0.015067729
248	0x3c454f48	0.012042828
249	0xbd061caa	-0.03274218
250	0xbcde8278	-0.027161822
251	0xbbe820f1	-0.007084005
252	0xbca3a1d0	-0.01997462
253	0x3d0beef0	0.034163415
254	0xb9f6d8e4	-0.00047082372
255	0xbb8cd682	-0.0042980323

net.4.bias f4 [3]
0	0x3bba42d4	0.005684236
1	0x3cbed670	0.023295611
2	0x3b7ffd9f	0.0039061082
