checkpoints/srcnn_epoch32_2025-03-20_23-02-04.pth (torch, 280012 bytes, 6 tensors)

net.0.weight f4 [64, 3, 9, 9]
000000 eb 38 06 3d 00 4c 9f bc 69 93 00 3d 25 fb 55 3d
       0.032769125 -0.01944542 0.03139058 0.052241463
000010 35 cc 5f bd 6c ef 9e 3c eb fb 15 3d 25 69 9d bc
       -0.054638106 0.019401275 0.0366172 -0.019215176
000020 4e fc d0 bc 8a 5d 36 3c 29 42 26 bd 40 75 bf bc
       -0.025510933 0.0111307 -0.04059044 -0.023371339
000030 f1 89 ed 3a 33 93 05 bd 44 9e 19 3b 35 4d 7d 3d
       0.0018122775 -0.032611083 0.002344028 0.06184121
000040 e2 34 8e 3d 19 44 56 bc 1f ce 32 bd 38 60 0a bc
       0.0694368 -0.013077759 -0.043653604 -0.008445792
000050 2c e0 0d 3b 34 e1 68 3d fc 04 76 bc 5f 3f 12 bd
       0.002164851 0.056855395 -0.015015837 -0.035704967
000060 45 5f 80 3d f6 ad ed 3c 2b ac 71 3d 22 f9 bf 3c
       0.06268171 0.029013615 0.059002083 0.023434225
000070 22 c0 15 bd 44 54 7a bd 78 5a 59 3d 84 ef 2f bd
       -0.036560185 -0.06111552 0.053064793 -0.04295303
000080 1d 49 7d bc ea c6 2f bd e0 ea 7f 3d 4e 31 51 bd
       -0.015459326 -0.04291431 0.062479854 -0.05107241
000090 2b fc 36 bc 61 0a e5 3a a8 ea b5 bb 00 df c6 bc
       -0.01116852 0.0017474407 -0.005551655 -0.024276257
0000a0 cb 57 3c bc 84 30 83 3d 2d 80 ef bc 37 bc e6 bc
       -0.011495541 0.06405738 -0.029235924 -0.02816592
0000b0 91 85 28 3d 06 cf 8b 3d 17 65 5c bd d0 8d 10 3d
       0.041143004 0.06826596 -0.053807344 0.035291493
0000c0 c3 fb 65 3c 53 5c e1 3c 7a 70 a6 bb 5c df 71 bc
       0.014037075 0.027509844 -0.005079326 -0.014762726
0000d0 f1 be 58 bd 07 31 79 3d a0 28 80 3d d3 fa e6 bc
       -0.05291647 0.06083777 0.062577486 -0.028195774
0000e0 30 df 8e 3d 57 f2 0b bd 2a 2d 57 3d 5d e2 97 3d
       0.069761634 -0.03416666 0.052533306 0.07416222
0000f0 3f 71 3a 3c 10 65 9b bb 94 b8 6d 3c f3 ec 1a 3d
       0.011379539 -0.004742272 0.014509339 0.03782363
000100 59 08 86 3d 5e 76 14 bc fa 11 87 3d 46 c4 3e bc
       0.06544561 -0.009061424 0.06595226 -0.011643475
000110 05 88 a4 bc 4e 7f 02 3d 41 ed 23 bd cf f4 5b bb
       -0.02008439 0.03185969 -0.040021185 -0.0033562665
000120 87 8c e7 bc aa 91 35 bd 6a 81 25 bd cf 79 3d bd
       -0.02826525 -0.04432837 -0.040406622 -0.046258744
000130 a0 7f 37 3d 9c d7 34 bc ea 4d 66 bd 53 dd 99 3c
       0.044799447 -0.011037733 -0.05622665 0.018782293
000140 e9 14 df bc 64 1f f2 bc 02 3e 70 bc 5a b3 10 bd
       -0.02723165 -0.029555984 -0.014663221 -0.035327293
000150 2e b1 a0 3c a0 d9 5d bd 5c d6 7e 3c 4e 69 f9 bb
       0.019615736 -0.05416262 0.015554037 -0.0076114303
000160 65 b5 99 bc 75 60 58 3d f4 cb 3d bc e2 92 3f bd
       -0.018763253 0.052826364 -0.011584271 -0.046770938
000170 43 61 11 3c cc 49 58 bd e3 f0 5b bd 69 a3 b7 bc
       0.008873287 -0.052804753 -0.053696524 -0.022416787
000180 70 3f 1e 3d fc a2 0c 3c d9 26 33 3c fd 00 8c 3d
       0.038634717 0.00858378 0.010934555 0.06836126
000190 83 bd 43 3d 7f fe 88 3d 95 cb 59 bd af 7a ba ba
       0.047788154 0.06689166 -0.053172667 -0.0014227236
0001a0 14 99 57 3d cf 8c 1f bd 39 7c 5a bd a9 96 02 3d
       0.05263622 -0.038952645 -0.053341124 0.031881962
0001b0 e5 b4 3a bd c9 f7 5f bb 68 b1 46 bd ca df c9 bc
       -0.04558267 -0.003417479 -0.04850903 -0.024642844
0001c0 0f 1b 29 3d 81 95 d9 3c 4c 66 3b 3c f6 3c 72 bc
       0.04128557 0.026560547 0.011437964 -0.014785042
0001d0 f8 a3 5a bd 1c 9b 2e 3d 2a 03 0c 3d a3 34 56 bc
       -0.05337903 0.042628393 0.034182705 -0.013074073
0001e0 f8 43 4b bd d8 1a 5c 3d a2 08 6d bd 45 aa 6a 3d
       -0.049625367 0.053736538 -0.05786956 0.057291288
0001f0 08 21 de bc d8 f6 1c bc 72 1c 03 bd 0d 2b c3 bc
       -0.02711536 -0.0095803365 -0.03200955 -0.02382424
000200 db 61 23 bd e6 8c f2 bc 40 ad 39 3d df 82 29 bd
       -0.039888244 -0.029608201 0.04533124 -0.041384574
000210 33 65 14 3b e9 e1 fb 3c fa 7b 4a 3d 5a fb 1a bd
       0.0022643327 0.03074737 0.04943464 -0.037837364
000220 06 0f b4 bc 33 cb 3e bc 01 81 6a 3d fd 3a 4b bb
       -0.02197982 -0.011645126 0.057251934 -0.0031010502
000230 ff b8 6e 3d 68 37 3a 3c 7f 69 14 bd 10 cf 41 bd
       0.058281895 0.011365749 -0.03623342 -0.04731661
000240 00 d9 43 3d be a7 48 3d 23 6c 0f bc f4 fc 66 bd
       0.04781437 0.048988096 -0.008753809 -0.05639358
000250 0e ce 4c 3a 3c b4 fc bc 75 0e 1f 3d 49 05 66 bd
       0.0007812687 -0.030847661 0.038832147 -0.056157384
000260 7c ad ae 3c 0d 06 29 3b f5 d1 e0 bb 2a a0 44 bd
       0.021322958 0.002579096 -0.0068609663 -0.048004307
000270 fc 7b 30 bd 49 5c 5f 3d d3 d2 2b bd 56 f0 b5 bc
       -0.04308699 0.05453137 -0.041949105 -0.022209328
000280 35 3e 9d bc 59 6d 92 3c b0 35 1c bd 63 d8 c9 3c
       -0.019194702 0.017874407 -0.038137138 0.024639314
000290 8d 77 ad 3c b3 4b f3 bc d0 c7 0b 3d 55 88 ab bb
       0.02117517 -0.029699182 0.034126103 -0.005234758
0002a0 07 bf 22 3d 0b b7 3a bc 93 4e 0b bd 95 cd 86 3d
       0.03973296 -0.01139618 -0.03401048 0.065821804
0002b0 13 68 54 bd 93 4c bb bc 94 a4 53 bd e1 fc 77 3d
       -0.051857065 -0.022863662 -0.051670626 0.0605439
0002c0 40 0b 21 bd 99 a3 0b 3d b0 82 63 bd 86 a8 0b 3d
       -0.03931737 0.034091566 -0.055544555 0.034096263
0002d0 1a 28 02 3d 42 44 77 3d d7 78 1d bd 07 11 af 3c
       0.031776525 0.06036783 -0.03844532 0.021370424
0002e0 ba c8 98 3d 9e 65 8d 3d c9 4a 91 3d 19 9d 0e 3d
       0.074601606 0.069041476 0.07094342 0.03481779
0002f0 a0 39 52 bc 94 f3 41 3c 01 91 3b bd 7b 8f 02 bc
       -0.012831122 0.011837859 -0.045792583 -0.007968779
000300 86 37 82 3c 16 a2 78 3d 7d 27 bb bb 39 42 63 3d
       0.015895616 0.060701452 -0.0057114945 0.055483077
000310 eb 70 7d 3d 8d 49 e2 3c 02 c7 7b 3d 86 d2 85 3d
       0.061875265 0.027622962 0.061469086 0.06534295
000320 d5 45 c0 3c d5 29 56 3d 4f 32 9c bb e7 e6 98 bc
       0.023470799 0.052285988 -0.0047667394 -0.01866479
000330 70 8d c7 3c d7 be 72 3c dc e9 35 bc 18 22 67 bd
       0.024359435 0.014816008 -0.01110312 -0.056429
000340 16 6e 5b bd 23 89 bc bc 98 0e 5a bd 81 c0 40 3c
       -0.053571783 -0.02301461 -0.053236574 0.0117646465
000350 14 74 59 bd 48 8d 8c bc df e3 a4 bc 44 cf 04 3d
       -0.053089216 -0.017157212 -0.020128189 0.032424226
000360 37 d6 92 3c d5 9e 8e 3c 51 62 1c 3c b7 9c f9 bc
       0.017924411 0.017409721 0.009544925 -0.030470235
000370 e0 e8 62 3d f0 ba 2d 3d 1c 60 80 3d 81 85 02 bd
       0.05539787 0.042414606 0.062683314 -0.0318656
000380 95 f8 e1 bc f0 b5 7a 3d cf 85 5f bd 7d f4 10 3d
       -0.027584353 0.061208665 -0.05457097 0.035389412
000390 0f 12 12 bc 14 8a 65 bd 74 ff 52 bc 54 15 8b bc
       -0.008915438 -0.056039885 -0.012878288 -0.016977943
0003a0 b6 30 8b bc 0c 1c 44 bd 37 bf 17 bd 08 65 fb 3c
       -0.016991 -0.04787831 -0.03704759 0.030687824
0003b0 c0 07 3d 3d b7 37 0a bc f9 6d 69 bc bd 81 21 3a
       0.04614997 -0.008436135 -0.014247411 0.0006160995
0003c0 ea 27 44 3d 23 cd 62 bd 37 c9 2e 3d 23 f0 a3 3c
       0.047889628 -0.055371415 0.042672362 0.020011967
0003d0 86 c0 4d bd 57 92 37 3d f0 c6 80 3d b5 64 32 3c
       -0.050232433 0.044817295 0.06287944 0.010888268
0003e0 45 fd 4a bc 5c cc 78 3d ea 04 30 bd b5 17 82 bc
       -0.012389486 0.060741767 -0.042973436 -0.015880445
0003f0 96 01 ee bb 1e e6 19 bd 65 cc b9 3c 34 0d 9d 39
       -0.0072633727 -0.037572972 0.02268047 0.0002995521

net.0.bias f4 [64]
000000 14 a8 7a 3d da ee b5 3c 73 55 6c 3d de 33 8e 3c
       0.061195448 0.02220862 0.05769868 0.017358717
000010 74 32 66 3d 22 6e 29 3d 19 78 03 3d 82 f8 dd 3c
       0.05620046 0.041364796 0.032096956 0.027096037
000020 88 c6 38 3d f3 78 4c bd d7 d1 a9 3c 7c 46 a1 bc
       0.04511121 -0.049920034 0.020729942 -0.01968693
000030 56 fc ab bb 28 26 16 3b 20 65 16 bd 27 c2 13 bc
       -0.0052485866 0.0022910926 -0.036717534 -0.0090184575
000040 0d 7d 10 bd e2 26 31 3a 72 7e 76 3a a0 b2 21 bd
       -0.035275508 0.0006757808 0.0009402997 -0.03947699
000050 52 13 2b bd 88 f3 07 3d bb ca 0b 3b 3f 82 7e 3c
       -0.041766472 0.033191234 0.0021330554 0.015533983
000060 24 73 27 3d 1c fb 23 3c 48 c0 f0 bc 02 11 4b 3c
       0.04088129 0.0100086 -0.029388562 0.012394192
000070 c5 a2 4f 3d a8 cb 57 3c c9 62 5f 3d 54 a1 79 3c
       0.05069234 0.013171114 0.05453757 0.0152362175
000080 5a 9c 98 bc f1 c4 a8 3c c8 70 52 bd 4a b8 d1 bc
       -0.018629242 0.020601721 -0.051377088 -0.025600571
000090 89 62 10 3d e4 42 fe 3c 75 c6 5e 3d b7 0a 27 3d
       0.03525022 0.031037755 0.054388482 0.040781703
0000a0 d8 af 18 3c fa eb e4 bb 0d 99 06 bd c0 b6 3e bd
       0.009319268 -0.0069861384 -0.032860804 -0.046561003
0000b0 1b 76 d5 bc b7 b4 7f 3d 45 01 04 bd 3f 22 89 3d
       -0.026057294 0.062428202 -0.032227773 0.06695985
0000c0 b5 7c 87 bb 77 6b 1b 3d 21 11 6b bd 08 27 56 3d
       -0.0041347393 0.037944283 -0.057389382 0.052283317
0000d0 d8 03 70 bd 0e ce 1a bc 4f 19 ca bb e4 32 90 3c
       -0.058597416 -0.009448541 -0.006167568 0.017602392
0000e0 57 cc 50 3d 09 cd 47 bd 3e 4a 04 3c 5b ac 29 3c
       0.050976124 -0.04877952 0.008074341 0.010356034
0000f0 a0 7c 6f 3d 18 4a e0 3c 28 20 14 3d 65 13 6c bc
       0.05846846 0.02737908 0.03616348 -0.014408921

net.2.weight f4 [32, 64, 5, 5]
000000 ba d1 88 bb d6 0f 83 3c d9 78 d8 ba bd ab bd bc
       -0.004175392 0.015998762 -0.0016515508 -0.02315318
000010 89 3e 9d 3c cb 64 7e 3b 19 73 e8 3b 71 55 ee bb
       0.019194858 0.0038817402 0.007093799 -0.007273369
000020 3f 55 3c 39 e5 53 65 bb 7a 98 37 bc b9 69 ba 3c
       0.00017960834 -0.0034992632 -0.011205787 0.02275549
000030 0a 6d 35 3c 62 a9 c6 bc db 5c 26 bc e9 a5 87 bb
       0.01107336 -0.02425069 -0.010153974 -0.004139651
000040 35 26 17 3c b2 b8 00 bc 95 9b 30 3c 6d eb b5 3c
       0.009225418 -0.007856535 0.010779281 0.022206986
000050 c1 cc 36 bc fd 0c 4e 3c ea b9 93 3c c1 10 df ba
       -0.011157216 0.012576339 0.018032987 -0.0017018543
000060 59 d5 6e 3c b8 6f 87 bc c4 8f c2 3c bf 33 bd 3a
       0.014577233 -0.016532764 0.023750193 0.0014434977
000070 f1 58 43 3a 29 97 a4 bc eb 65 b3 bc d3 54 6c 3c
       0.0007451913 -0.02009161 -0.021899184 0.014424521
000080 a8 77 e9 bb d7 16 9a 3c db 76 bc bb fb 5c ee 3b
       -0.00712486 0.018809719 -0.0057514734 0.0072742677
000090 71 b8 59 3c 54 03 cd bc 9e 52 1d bc cd 36 9c 3c
       0.013288603 -0.025026001 -0.009602217 0.0190691
0000a0 03 d5 b0 bc ba 45 10 3b 24 df 73 bc 43 86 b8 bc
       -0.021585947 0.0022014217 -0.014884744 -0.022524958
0000b0 23 39 01 3c 30 45 2c 3c 06 99 e7 bb 5c 81 d5 3b
       0.007887158 0.010514542 -0.0070678024 0.006515665
0000c0 40 7b 9e bc ac 36 89 3c d5 88 20 3c 03 99 95 bb
       -0.01934588 0.016749702 0.009798248 -0.0045653596
0000d0 09 e5 c7 3b 5b 10 69 bc d8 77 4c 3b 42 53 2c bc
       0.006100301 -0.014225091 0.0031199362 -0.010517897
0000e0 16 28 be 3c 4a 18 64 bb 44 c5 22 3c 24 03 8c 3a
       0.023212474 -0.0034804516 0.009934727 0.0010682088
0000f0 c7 a8 9c 3b c2 13 2c bc 3c 88 70 3c e2 4e bc 3c
       0.004780862 -0.0105027575 0.014680918 0.022986833
000100 82 16 27 bc b2 44 df 3b 26 de b9 bb 80 f3 c7 3b
       -0.010198237 0.006813609 -0.005672234 0.0061020255
000110 a9 cc 08 bc eb 99 05 bb fc 97 b3 3c 8e cc 04 ba
       -0.008349576 -0.0020385932 0.021923058 -0.00050658814
000120 4b 1d 98 3b b8 29 99 bb 0c 51 a7 3c e4 76 82 bb
       0.004642164 -0.0046741627 0.020424388 -0.003981458
000130 cb 7a 69 3c ff 63 e6 bc 71 1d 48 bc 66 d0 8a bc
       0.0142504675 -0.028123854 -0.012214051 -0.016945075
000140 7e 31 98 3b 4e 33 83 3c a8 b4 f1 bc 74 53 4d bc
       0.004644572 0.016015675 -0.029505089 -0.012532104
000150 95 b5 52 bc 1f 07 f0 bb 55 b6 eb bc 71 fb 76 3c
       -0.012860675 -0.0073250677 -0.028773466 0.015074597
000160 89 99 ca 3a cf 36 94 bc 83 88 90 3c e6 8e 6f bb
       0.0015457134 -0.018092541 0.017643219 -0.003655368
000170 88 ff 7d bc 35 31 59 bc 06 0e 0f bc 35 09 ce bc
       -0.015502818 -0.013256361 -0.008731371 -0.025150875
000180 b2 63 0c bb ba 4d 9d bc 24 76 3b 3c 69 1f 40 3c
       -0.0021421728 -0.019202102 0.011441741 0.011726239
000190 4f 80 1b 3c 8d e4 be 3c 27 5f 94 3c 13 3d 83 bc
       0.00949104 0.02330234 0.018111778 -0.016020333
0001a0 3c e9 f6 3b d6 9e b0 bc f7 ab 19 ba 14 d2 98 ba
       0.007535128 -0.021560114 -0.00058621116 -0.0011659288
0001b0 62 fc ac bc 03 c6 91 3b 38 b4 89 bb e4 8b b6 bc
       -0.02111644 0.0044486537 -0.004202392 -0.022283502
0001c0 c6 92 0f ba bd f8 b0 3c 0d 54 a7 3c 65 b4 ab bc
       -0.0005476888 0.021602983 0.02042582 -0.020960042
0001d0 6b 3c 32 3c 79 60 9e bc ba 34 c0 3c 6e 69 c3 3c
       0.010878663 -0.019333111 0.023462642 0.023853984
0001e0 25 64 b3 3c 80 74 44 bc a4 14 d3 bb bf 9f a8 bb
       0.021898339 -0.011990666 -0.0064416695 -0.0051459963
0001f0 b7 32 92 3c c3 c8 c9 bc a9 d5 bf bc bd 8e 9d 3c
       0.017846448 -0.024631863 -0.02341731 0.019233102
000200 24 9f d2 bc 36 5c 32 bc 19 1a b7 3b c4 e2 61 3a
       -0.02571065 -0.010886243 0.005587828 0.00086168596
000210 23 08 c5 bc b9 36 16 3c 8a a8 90 bc 32 65 4e 3c
       -0.024051731 0.00916832 -0.01765849 0.012597369
000220 0e 16 be 3c a6 f7 93 3c d1 34 95 3b 0f d8 bb 3b
       0.023203876 0.018062424 0.0045534153 0.0057325433
000230 b5 e5 a1 bc ca 1c 95 bc 2e a8 f1 3b 53 6a d3 bc
       -0.019762853 -0.018202204 0.007374785 -0.025807535
000240 8c 2c 89 bc 04 c6 b8 3c 81 20 bb 3c 21 07 c5 bc
       -0.016744874 0.022555359 0.022842648 -0.02405125
000250 d0 0d 19 bc 8a 98 4e 3b e1 21 9a 3c 5b 68 d4 3b
       -0.009341672 0.0031524026 0.018814983 0.0064821667
000260 9b 06 a9 bc 41 da c0 3c 61 37 43 bc c5 a8 2f bc
       -0.020633033 0.023541572 -0.011915059 -0.01072139
000270 5b 9e 48 3c 01 1f 53 3c 66 95 1f bc f6 2d ba 3b
       0.012244786 0.01288581 -0.009740209 0.0056817485
000280 57 7a b8 bc 4d e9 c3 bc c4 50 89 bc 47 e6 b3 bc
       -0.022519274 -0.023914957 -0.016762145 -0.02196039
000290 7a 6f 6f bc f6 3f ba bb 27 fa 85 bc 09 3d bf bc
       -0.01461398 -0.0056838943 -0.016354633 -0.023344534
0002a0 b3 eb 1e 3c 87 f7 b7 bc c0 b7 6c 3c 06 d0 03 3c
       0.00969975 -0.022456897 0.014448106 0.008045202
0002b0 65 71 d6 bc 83 2b ab bc c7 da b0 3c b5 cc 84 bc
       -0.026177118 -0.020894771 0.021588696 -0.016210893
0002c0 74 6e a1 3c 94 86 9e 3c cb 42 ba 3c 58 73 9d 3b
       0.019705988 0.019351281 0.022736927 0.00480501
0002d0 de 93 96 3c 47 d4 6c bb 48 b8 9c bc 15 3b b0 bc
       0.018381055 -0.003613727 -0.01913084 -0.021512548
0002e0 02 de 0e bc 69 42 68 bc 66 c3 4f 3c 8c 8b 71 3c
       -0.008719923 -0.01417599 0.012680864 0.014742743
0002f0 46 62 a9 bb 53 a3 7e 3c 90 e4 7b 3c d8 26 e9 ba
       -0.005169186 0.015541869 0.015374318 -0.0017788066
000300 ac 21 80 bc b1 91 2a 3a 4b 53 b1 3b ca 1b f6 bb
       -0.015641056 0.0006506695 0.0054115406 -0.007510637
000310 b0 f6 82 3c 8b c7 0d bc 47 c5 c7 3b fb c4 b8 3c
       0.01598677 -0.008653532 0.0060965153 0.022554865
000320 58 52 c0 bc c1 34 2e bc a8 90 27 bc 4f 03 92 3c
       -0.023476765 -0.010632695 -0.01022736 0.017823843
000330 8f 05 36 3b 1b 86 81 bc 80 ed 87 3c a9 8c ec 3a
       0.002777431 -0.015811017 0.016592741 0.0018047291
000340 a6 ef 18 bc 71 a3 09 3b 0d 99 0b 3b 88 76 aa bb
       -0.00933448 0.002100196 0.0021300942 -0.0052021183
000350 db 02 06 ba 96 e7 5e 3c 86 5a de bb 2d b0 ec 3b
       -0.000511212 0.013605019 -0.0067856936 0.00722315
000360 d1 78 48 bb 11 d3 e3 bb 82 4b f5 3b 95 93 a4 3b
       -0.003058959 -0.0069526513 0.007485808 0.005022476
000370 6d 65 e4 bb 78 f4 77 3c 64 a0 85 bc 00 ed 8a 3c
       -0.0069700987 0.0151339695 -0.016311832 0.016958714
000380 a7 ef e2 3b 15 9f 99 3c 59 ce 71 3b 0f 3d 81 3c
       0.0069255414 0.018752614 0.0036896674 0.015776185
000390 11 95 51 bb 7a 4e 2b bc b8 28 bf 3c 2c 66 d2 bc
       -0.003197972 -0.010455722 0.023334846 -0.025683485
0003a0 b4 34 0e bc 2e 99 d2 bb 71 04 b9 3c 3c 33 7a bc
       -0.008679558 -0.006426952 0.022585126 -0.015271004
0003b0 24 90 98 bc 62 9c c1 bb 02 cf 18 ba 0c 09 9f bc
       -0.01862342 -0.005908535 -0.00058291864 -0.019413494
0003c0 b9 b1 a9 bb 38 12 c7 3b 09 53 2a 3c 03 6f 0d bc
       -0.005178657 0.00607517 0.010395774 -0.008632424
0003d0 c2 eb 29 bc 9f f6 22 bc c8 f8 8b bb b4 2f 87 3c
       -0.01037115 -0.009946494 -0.0042716004 0.016502239
0003e0 38 21 b3 3c c4 22 7c 3c 94 ca e4 3b a9 7b 99 3c
       0.021866426 0.015389148 0.006982157 0.018735724
0003f0 ea bb 2c bb 47 72 1e 3c 09 b8 88 3c 3e 3e ce ba
       -0.0026357123 0.0096708005 0.016689317 -0.0015735102

net.2.bias f4 [32]
000000 8a d1 7f 3b 4d a9 af 3c ea 74 87 3b 90 fd 35 3c
       0.0039034807 0.021443034 0.0041338103 0.011107817
000010 82 22 20 3c 7e 1c 70 bc 63 14 3c bc fe b5 cd 3b
       0.009773852 -0.014655231 -0.01147947 0.0062777987
000020 1c 60 49 3b 75 3e 84 bc cc 13 56 bb 94 1b a9 3b
       0.0030727452 -0.016143063 -0.0032665608 0.0051607583
000030 81 11 32 3c cf de d8 bb f2 e8 8a bc f5 0b 9f 3c
       0.010868431 -0.0066183577 -0.01695678 0.019414881
000040 be 7b e2 bb 05 79 23 3b f6 1b bc 3c b1 f1 9b 3c
       -0.006911724 0.002494396 0.022962552 0.019036146
000050 3c e4 89 3c fb 99 8c bc 49 ed 92 bc 5f c0 b4 3c
       0.016832463 -0.017163267 -0.017935412 0.022064386
000060 81 33 70 3c bb f7 b1 ba e0 bd 96 bc e3 5e c4 3c
       0.014660717 -0.0013577858 -0.018401086 0.023971027
000070 4d c8 f8 3a c3 4e 91 bc a5 e0 29 3c e2 ba ae bc
       0.0018980593 -0.017737752 0.010368501 -0.021329347

net.4.weight f4 [3, 32, 5, 5]
000000 07 8f d0 3c c0 84 0b bd 75 52 e2 bc b6 62 5b bc
       0.025458826 -0.034062147 -0.02762721 -0.013390234
000010 f3 49 f2 bc db 7c 8a 3c 56 c4 4a bc 24 46 e7 3b
       -0.029576277 0.016905239 -0.012375912 0.007057922
000020 36 83 f6 bc 23 8d b9 3c 19 43 5d 3c b7 7a 9c bb
       -0.030091863 0.022650307 0.013504767 -0.004775371
000030 3f 84 09 bd ad 80 33 3b a6 d4 97 bc ff ee 6c bc
       -0.033573385 0.002738993 -0.018534016 -0.014461278
000040 fb 91 e4 bc f3 09 e8 3b 19 3d 89 3c 13 79 25 bc
       -0.02790164 0.007081264 0.016752766 -0.010099667
000050 89 f3 0a 3d ac d3 12 3d dc 4e eb 3c a7 a7 89 bc
       0.03392366 0.035846397 0.028724127 -0.016803576
000060 b9 45 b1 3c f8 68 ef 3c f0 56 c7 3c 7a 34 64 bc
       0.021639692 0.029224858 0.024333447 -0.013928527
000070 f4 4f 09 3d 12 69 95 3c cb 71 48 bc b6 9c fc bc
       0.033523515 0.018238578 -0.012234162 -0.030836444
000080 26 33 2e bd 70 8b 29 bd 58 86 bd 3c 30 53 d0 3c
       -0.042529248 -0.041392744 0.02313535 0.025430292
000090 8a 9f f2 bc 67 2f e9 bc f3 e0 8c bc 81 b6 04 bd
       -0.02961709 -0.028464986 -0.017197108 -0.03240061
0000a0 0b d9 b0 3c 15 3b 8f bc c6 c7 41 bc 0d ff bb bc
       0.02158787 -0.017484227 -0.011827415 -0.022948766
0000b0 5e 08 04 3c 93 eb 18 3d 05 82 1b bb 45 43 2a 3d
       0.0080586355 0.037334036 -0.002372862 0.04156806
0000c0 98 d1 a2 3c 4b 50 15 bc 70 ef 57 3b 34 c2 5c bb
       0.019875333 -0.009113382 0.0032949112 -0.003368509
0000d0 28 15 bf bc f4 10 c7 3c 9f bb b3 3c 21 f1 60 3c
       -0.023325518 0.024300076 0.02194005 0.013729365
0000e0 ba c0 21 3c 38 4d 8b bc 70 82 6d 3c c4 82 01 bd
       0.00987261 -0.017004594 0.014496431 -0.03161885
0000f0 f6 ea c7 3c 0b 0e a6 3c 99 e9 9a bc 8d 47 b3 bc
       0.02440403 0.020270368 -0.018910216 -0.021884704
000100 30 04 ad bc 1c ca e9 3b a8 2b c0 bb 27 8e 33 bb
       -0.02112016 0.007134689 -0.005864579 -0.0027397962
000110 35 97 75 bc 46 4b 90 b8 c6 db a5 3c d2 b0 35 bc
       -0.014989664 -6.880476e-05 0.020246398 -0.0110895205
000120 f3 68 d4 bc 07 8b cf 3c 9d d2 f0 3c dd b6 76 3c
       -0.02592895 0.025334848 0.029397303 0.015058246
000130 04 ca 3b 3c 76 7c d1 bc 29 b7 01 3d 08 85 62 bc
       0.0114617385 -0.025572043 0.031668816 -0.013825662
000140 df f0 a0 bb 66 3e 41 3c f1 94 d0 bc 47 cf 12 bc
       -0.0049115266 0.011794662 -0.025461646 -0.008960552
000150 34 37 bd 3c f4 99 b9 3c 27 9b 4d b9 b5 a3 c7 ba
       0.023097612 0.022656418 -0.00019608122 -0.0015231284
000160 56 b2 61 bb 77 e6 c9 bc 0d 14 9e ba d7 34 65 3c
       -0.0034438572 -0.024646027 -0.0012060419 0.013989649
000170 55 0e 81 bb a6 c4 13 bd da 3a 40 3b 9b 77 1c bb
       -0.003938476 -0.03607621 0.0029331953 -0.0023875001
000180 69 f5 f5 bb 23 43 09 3d e4 c5 9a 3c 06 da af 3c
       -0.007506062 0.033511292 0.01889319 0.021466266
000190 c7 0e 3e bc 5f 48 0c bb 8b 9e e3 ba 02 c4 94 3c
       -0.011600203 -0.0021405441 -0.0017365975 0.01815987
0001a0 0e c4 04 bd 07 18 d5 3a 42 27 8d bc 4c 3e ec 3c
       -0.032413535 0.0016257771 -0.017230634 0.0288383
0001b0 84 f8 86 bc 95 9a 29 bd e3 b4 92 bc c0 46 8b 3c
       -0.016475923 -0.041407187 -0.01790852 0.01700151
0001c0 c3 71 0e bd ed 05 40 bb 2b d9 2e bd b3 f5 a7 3c
       -0.03477646 -0.0029300407 -0.042687576 0.0205029
0001d0 f4 25 dd bc b4 b4 0b bc 7c 52 0e bb 4a 5e bd bc
       -0.026995637 -0.00852697 -0.0021716645 -0.02311625
0001e0 5c 38 71 3c 90 0a 15 bd 2b 94 a4 bb a3 80 e4 bc
       0.01472291 -0.036387026 -0.005022546 -0.02789337
0001f0 19 fd 9c 3b c4 b2 8d bc 4c 5c 82 3c ff 40 4f 3c
       0.004790914 -0.017297156 0.015913151 0.012649774
000200 3d 96 2f 3d 9a ec eb bc 8b 94 bb bc b1 b0 68 3c
       0.042867888 -0.028799344 -0.02289798 0.014202283
000210 2f f0 1b bc cf 5a a4 bc 28 7f a8 3c 58 2d 9f bc
       -0.009517713 -0.020062832 0.020568445 -0.019430801
000220 cb af 80 3b 31 c2 9a bc e5 b4 cb bb 6a 7d 5a 3b
       0.003927206 -0.018891426 -0.0062166327 0.0033338913
000230 60 11 07 bd 14 2b 40 3c 24 fb 00 bd a3 ca 36 b9
       -0.032975554 0.011729021 -0.031489506 -0.0001743236
000240 4d 24 af bc a5 53 16 bd 02 e7 a2 bc e2 e4 0b bd
       -0.021379614 -0.036700863 -0.019885544 -0.034153827
000250 67 a1 08 3c c3 da e2 bc 4c f2 27 3c f8 96 5c bc
       0.008339263 -0.027692204 0.010250639 -0.013463728
000260 43 57 ff bb 81 e7 b2 3c 6f 02 89 3c f6 84 d6 3c
       -0.007792385 0.021838905 0.016724793 0.026186448
000270 dd 64 8f 3c 15 5d e3 3c d4 50 05 3d 02 a8 7f bc
       0.01750415 0.027754346 0.032547787 -0.015604021
000280 76 16 92 3c 50 60 0e 3d f5 c0 57 3b 91 0d 78 bc
       0.017832976 0.03475982 0.0032921408 -0.015139953
000290 32 9c 6b bc 24 1b 49 3c fb 8b c9 3b 86 12 d6 3a
       -0.014380502 0.012274537 0.00615072 0.0016332425
0002a0 c6 62 e7 bc 0b e6 04 bc 90 44 c4 bc d3 b5 65 3c
       -0.028245341 -0.008111487 -0.023958474 0.014020401
0002b0 b0 4f 0a 3d 78 d2 9f bb ad 6f 89 bb 53 bf 3d 3c
       0.033767402 -0.0048773848 -0.004194221 0.01158126
0002c0 2b 83 0f 3d 66 5b 15 3d 0e ed 0c 3a 63 4f a5 3c
       0.0350372 0.036464117 0.00053759 0.020179456
0002d0 a4 b1 05 3d 94 e4 b3 3b 78 a5 14 3c fc ec 22 bc
       0.032640114 0.005489895 0.009072654 -0.009944197
0002e0 51 35 0c 3d fe e2 b0 3c f3 2b 3b bc 28 9c fc 3c
       0.034230534 0.021592613 -0.0114240525 0.03083618
0002f0 d9 56 be bc ea 2c cf bc 07 46 01 bd b7 69 7b bc
       -0.023234772 -0.025289971 -0.031560924 -0.015345029
000300 0c 9b 6e 3c 45 35 fe 3a 35 ec da 3c 41 f3 07 3d
       0.014563333 0.0019394538 0.02672396 0.03319097
000310 06 ff fa 3c fd c6 96 bc 2f 1b 67 bc a9 25 db 3a
       0.030639183 -0.018405432 -0.014105602 0.0016719598
000320 ea c8 b0 3c 72 65 5d bc 9c 8d d4 bc 8c 85 51 3b
       0.021580178 -0.013512956 -0.02594643 0.003197047
000330 4a 46 b6 bc f1 f7 e5 bc 1c 6e a8 bb 14 41 fa bc
       -0.022250313 -0.02807233 -0.005140079 -0.03054861
000340 0b db 00 3c 13 61 56 bc d5 cf 91 3c 94 a6 b0 bc
       0.007864724 -0.013084668 0.017799297 -0.021563806
000350 c5 3d 6c bc 3c fe 6f 3c 6f 04 2d 3a fd 9a 5e bc
       -0.014419024 0.014648017 0.0006600087 -0.013586757
000360 99 f7 5f 3b 40 ca 0e bc e2 8f f5 bc b4 fa 00 3d
       0.003417468 -0.008715212 -0.029975835 0.03148909
000370 63 22 cb bc 4f 3e f0 bc 12 90 ee bc d6 d4 e8 3a
       -0.02479667 -0.029326586 -0.029121432 0.0017763625
000380 52 57 27 bc 40 97 88 bc f0 a4 5e bc 46 d9 ad 3b
       -0.01021369 -0.016673684 -0.013589129 0.005305442
000390 cb 34 b3 3c 3f ad 48 bb f8 04 ca ba 82 72 1c 3d
       0.02187576 -0.003062084 -0.0015412858 0.03819514
0003a0 74 c6 cc 3b 33 f9 ec bc fc 63 48 bc a6 36 11 3d
       0.0062492434 -0.028927421 -0.012230869 0.035452507
0003b0 f3 23 5f 3c 62 ad f5 bc b9 ae 25 3a 41 7e f3 3c
       0.013619411 -0.029989902 0.0006320286 0.029723288
0003c0 eb 07 b8 bc 92 af 18 bd d0 d9 e5 bc 3c 97 35 bc
       -0.022464713 -0.037276812 -0.028057963 -0.01108342
0003d0 42 2b e2 3c a3 a1 f3 3c 1e 6e 10 3d 3b 3c 71 3c
       0.027608518 0.02974016 0.035261266 0.014723833
0003e0 7c 1f 47 3c 13 2a 06 bd 78 82 de bc f1 20 e8 bb
       0.012153503 -0.03275497 -0.027161822 -0.007084005
0003f0 d0 a1 a3 bc f0 ee 0b 3d 21 d9 f6 b9 82 d6 8c bb
       -0.01997462 0.034163415 -0.0004708255 -0.0042980323

net.4.bias f4 [3]
000000 e5 1f b9 3b d9 11 bf 3c b8 89 80 3b
       0.005649554 0.02332394 0.0039226674
