checkpoints/srcnn_epoch6_2025-03-20_23-02-04.pth (torch, 280002 bytes, 6 tensors)

net.0.weight f4 [64, 3, 9, 9]
00000000: fe5f fd3c b99e a9bc 22ee f43c 0188 473d
00000010: 8255 67bd 2aee 853c cefe 033d 8ecc b3bc
00000020: 1f77 e3bc 8af6 2c3c e57f 29bd 039d d5bc
00000030: 9803 c9ba 7bdc 05bd c69e 5038 b66e 6e3d
00000040: 9450 8f3d a2ff 51bc 3930 33bd d2f8 10bc
00000050: 5fc9 f43a 72a2 663d e63e 84bc 9251 17bd
00000060: fe2f 7b3d c662 053d 27a1 793d ffa8 b73c
00000070: d1a5 1bbd f5cc 75bd 163e 5c3d 522c 3cbd
00000080: ecef 65bc 9a80 2ebd 9957 843d d225 4ebd
00000090: a7a5 43bc 92d7 5a3a 6ecb b6bb c6cb cbbc
000000a0: b463 82bc 7b80 873d c834 eebc dc10 eebc
000000b0: 439b 243d b353 8c3d 4662 59bd 5ae0 0b3d
000000c0: a8bc 533c 8fb8 b63c 2210 e5bb a53b 84bc
000000d0: 60ac 5cbd e627 753d 506c 803d 0998 e3bc
000000e0: 3eaf 893d 199e 16bd f487 3f3d e99a 8c3d
000000f0: f22e 163c d146 6cbb df8e 6d3c c8fb 1d3d
00000100: f0fe 873d eaff 27bc 4d76 823d 80cd 61bc
00000110: af94 b4bc 2e12 023d 69d5 18bd 3412 22bb
00000120: e030 ddbc 643a 2fbd 236a 24bd 80a5 43bd
00000130: cbc9 373d b7c1 25bc 4248 63bd d146 a73c
00000140: 381a dcbc 8600 0bbd 8472 92bc 6562 1abd
00000150: 0056 843c b21c 61bd 89dc 613c e046 43bc
00000160: daad b7bc c62b 473d 8b03 71bc bb46 4abd
00000170: 90f9 b63b eee1 63bd caed 55bd 563a bdbc
00000180: eac6 0f3d e013 033c 59e6 123c f2f9 863d
00000190: bbb0 3b3d 61a2 873d 8151 59bd 8793 9bba
000001a0: edb1 563d a96f 2abd a399 57bd 6cb9 f93c
000001b0: 5e5d 48bd 6694 cfbb 588d 43bd 598a bcbc
000001c0: 726f 243d 0fd5 f13c 17ef 233c 96b2 85bc
000001d0: 1960 65bd 8b2d 213d 3675 023d 3e51 54bc
000001e0: 7d28 44bd d92d 5b3d 3575 54bd 72ed 6a3d
000001f0: e244 f9bc 594e 4ebc 638c 0cbd afd1 c3bc
00000200: 153c 21bd 7b64 d5bc 50c0 403d 021e 19bd
00000210: eff9 143b 7fa9 ea3c dc45 413d a032 24bd
00000220: e0b1 b3bc a710 43bc 102d 743d 3b10 17bb
00000230: 8251 6c3d 9ee2 213c 5742 15bd 6ffc 48bd
00000240: 380f 3c3d 3e27 483d 483f 14bc 61fc 65bd
00000250: 84da d43a 73b2 ffbc 507c 1a3d 39ed 63bd
00000260: b25a a03c b683 313a 2db4 f1bb e38c 46bd
00000270: 1221 37bd 8ac3 5d3d 6b53 2dbd 5938 c2bc
00000280: 8752 a5bc 76c1 7a3c 8cac 19bd e65f d13c
00000290: 1c82 ae3c 73cc 03bd 7bac 0c3d 93dd 9dbb
000002a0: a8a0 1e3d 3958 26bc 5ef4 05bd 77c0 893d
000002b0: 93bc 51bd f4c9 cfbc f69b 64bd bfc7 763d
000002c0: 4dd9 25bd be66 013d ab95 58bd 71b4 143d
000002d0: 6c64 093d 84ae 773d f751 26bd 2b1a 913c
000002e0: dafc 8f3d 4774 853d 9cad 873d 3512 153d
000002f0: 455c 40bc 50d8 4b3c 854b 43bd 4959 2cbc
00000300: afe3 433c 984a 5b3d 0021 07bc 575e 4e3d
00000310: 4057 763d 3d19 dc3c 719c 7b3d 9263 813d
00000320: 7b92 a33c 8e62 483d 3d44 1fbc e5a0 8bbc
00000330: b9c3 b23c 1854 483c 1242 40bc d582 67bd
00000340: 49ca 5cbd 8388 cabc 9dd1 54bd 06fa 463c
00000350: d1f0 4fbd ddf4 93bc d59a a8bc a9a7 063d
00000360: 3d88 8e3c a5f3 8f3c 359a 0e3c e6b3 e6bc
00000370: fb3d 683d b9b0 293d 4ded 783d 572f f9bc
00000380: 4365 dcbc 1992 783d 6f44 5fbd a129 0e3d
00000390: b030 14bc cbce 64bd 5d0b 6dbc cc67 98bc
000003a0: 092b 73bc 249a 42bd 5f04 1abd b488 fa3c
000003b0: e870 3a3d 73d8 2ebc b3fb 82bc 47a8 81ba
000003c0: 02a2 3f3d 90d6 5cbd 927b 2e3d 0ed8 a23c
000003d0: 5adb 50bd a0cb 393d 09e9 7e3d 628b 1c3c
000003e0: 1e97 52bc b18a 703d 9a55 38bd 6f09 90bc
000003f0: 8fdf f7bb ffa5 1dbd 06c1 a93c 5f43 ddb8
0.030929562 -0.020705568 0.029898707 0.048713688 -0.05647803 0.016348917 0.032225423 -0.021948125
-0.027766762 0.010556826 -0.041381735 -0.026075846 -0.0015336154 -0.03268097 4.9738934e-05 0.05821105
0.06997791 -0.012817295 -0.04374716 -0.008848386 0.0018675736 0.056307264 -0.016143274 -0.036943026
0.061325066 0.0325649 0.060944702 0.02241945 -0.03799993 -0.060009915 0.053770147 -0.045940705
-0.014034253 -0.042603113 0.064620204 -0.050329037 -0.01194135 0.00083481625 -0.00557845 -0.02487744
-0.015916683 0.066163026 -0.029077902 -0.029060774 0.04018713 0.06851902 -0.053072236 0.034149505
0.012923397 0.022304801 -0.0069904486 -0.016141722 -0.053875327 0.059852503 0.06270659 -0.027782457
0.06722878 -0.036771867 0.046760514 0.06865484 0.009166466 -0.0036052952 0.014499395 0.038570195
0.06640422 -0.010253886 0.0637022 -0.013781905 -0.022043554 0.03175562 -0.0373129 -0.0024730088
-0.027000844 -0.042780295 -0.040140282 -0.047765255 0.04487018 -0.010116986 -0.055488832 0.02041951
-0.02686797 -0.033936046 -0.01787687 -0.037691493 0.01615429 -0.054959007 0.01378549 -0.011918753
-0.022421766 0.04862573 -0.014710317 -0.04938386 0.0055839494 -0.055635385 -0.052228726 -0.023099106
0.03510181 0.008000344 0.008966052 0.06590642 0.04582284 0.06622768 -0.053056244 -0.0011869528
0.052415777 -0.041610394 -0.052636754 0.030483924 -0.048917167 -0.006334829 -0.047742218 -0.023015188
0.040145345 0.02952054 0.010005734 -0.016320508 -0.05599985 0.039350074 0.031850062 -0.012958823
-0.047890175 0.05351052 -0.05186959 0.05735535 -0.030428354 -0.012591922 -0.03431357 -0.023903696
-0.03936394 -0.02604889 0.047058403 -0.037382133 0.002273198 0.028645275 0.047185764 -0.040087342
-0.021935403 -0.011905826 0.059613287 -0.0023050446 0.05769492 0.00988069 -0.03644022 -0.049068864
0.04591295 0.04886555 -0.009048291 -0.05614889 0.0016239439 -0.03121302 0.03771621 -0.055646155
0.019574497 0.00067716406 -0.007376215 -0.048474204 -0.044709273 0.05414156 -0.04231588 -0.02370851
-0.020180954 0.015304914 -0.03751807 0.025558423 0.021302275 -0.0321774 0.034344178 -0.0048176735
0.038727432 -0.01015287 -0.03270375 0.06726163 -0.05120523 -0.025364853 -0.0558128 0.060249086
-0.040490437 0.031592123 -0.05287711 0.036304895 0.033543035 0.060469165 -0.04060551 0.017712673
0.070306495 0.06516319 0.0662491 0.036394317 -0.011740749 0.01244171 -0.047679443 -0.010519334
0.0119561395 0.053537935 -0.008247614 0.05038294 0.0601418 0.026867503 0.06142849 0.0631782
0.019967308 0.048922114 -0.009720859 -0.017044494 0.021821843 0.012227081 -0.011734502 -0.056521256
-0.05390385 -0.024723297 -0.051957715 0.012144571 -0.05076677 -0.018061096 -0.020581642 0.032874737
0.017398948 0.017572233 0.008703758 -0.028161954 0.056699734 0.0414283 0.060773183 -0.030418081
-0.026903754 0.060686205 -0.054508623 0.03470767 -0.009044811 -0.055861276 -0.014468041 -0.018604182
-0.014841803 -0.04751028 -0.037601825 0.030582763 0.045517832 -0.010671723 -0.01598916 -0.000989207
0.046785362 -0.05391556 0.042598315 0.019878414 -0.05099044 0.045360208 0.06223396 0.009554716
-0.012853412 0.058726016 -0.04500351 -0.017582623 -0.007564492 -0.038488384 0.020721924 -0.0001055065

net.0.bias f4 [64]
00000000: c192 6d3d 5b2c a53c 01a9 673d 842a 803c
00000010: 44c5 623d 425e 2a3d ca18 f33c ddbb cb3c
00000020: f579 2f3d ba59 4fbd a635 9a3c 9b19 dfbc
00000030: 56a8 08bc b839 a2b9 bc47 17bd cd8e 23bc
00000040: 2c10 37bd 1241 923a 2ac3 7d3a 33f9 21bd
00000050: 9923 39bd 96e4 053d 7857 eaba 02da 573c
00000060: 9da6 1e3d 9ee3 d93b 5924 0bbd 2be6 4b3c
00000070: 66e4 4a3d ee5b 533c 62d0 5f3d 7704 823c
00000080: 7b29 acbc f727 9f3c 96c7 63bd a82b eabc
00000090: 55b3 103d fbae e93c b61c 5b3d 97ba 283d
000000a0: f3ed 033c dfa0 f2bb aae5 13bd 548a 4abd
000000b0: f079 efbc 9ead 803d fd76 13bd 1eb2 813d
000000c0: 705b e8bb df01 173d 6263 6fbd a37c 393d
000000d0: 663a 6ebd ebb3 22bc d7f9 f4bb e13c 933c
000000e0: d08e 463d 14f3 48bd 3423 033c 78f1 2b3c
000000f0: e55e 813d c45b d63c 7ad3 143d f79d 7dbc
0.058001284 0.020162752 0.05655766 0.015645273 0.05536391 0.041593798 0.029674906 0.024869854
0.042840917 -0.05062268 0.01882441 -0.02723389 -0.008340916 -0.00030942052 -0.036933646 -0.009982777
-0.044693157 0.0011158308 0.0009680266 -0.039544296 -0.045199964 0.0326887 -0.0017878851 0.013174536
0.038733114 0.0066494485 -0.03397021 0.012445013 0.049534224 0.012900336 0.05464209 0.01587127
-0.021015873 0.019428236 -0.05561026 -0.02858527 0.035327274 0.02852582 0.053494178 0.04119357
0.008052337 -0.0074044312 -0.036107697 -0.049448326 -0.029232949 0.06283115 -0.036002148 0.06332801
-0.0070909783 0.03686702 -0.05844439 0.04528488 -0.05816116 -0.009930591 -0.0074760723 0.017973365
0.04847604 -0.049059942 0.008003999 0.010494582 0.06316928 0.026166804 0.036334492 -0.015479556

net.2.weight f4 [32, 64, 5, 5]
00000000: 5ca1 88bb 321e 833c f9b5 d7ba 9ea1 bdbc
00000010: 8246 9d3c 4c97 7e3b 338c e83b 2c45 eebb
00000020: c095 3d39 7b31 65bb db14 38bc 053e ba3c
00000030: be41 353c edc7 c6bc 2fbb 26bc 324f 88bb
00000040: c1d5 163c 8b08 01bc f946 303c 33b3 b53c
00000050: 5e45 37bc 8a7b 4d3c 4155 933c 0af2 e6ba
00000060: 469e 6d3c b86f 87bc c48f c23c b234 bd3a
00000070: 775b 433a 2997 a4bc eb65 b3bc d354 6c3c
00000080: a777 e9bb d716 9a3c cf76 bcbb f95c ee3b
00000090: 71b8 593c 5403 cdbc 4553 1dbc be36 9c3c
000000a0: 03d5 b0bc 5045 103b 2edf 73bc 5486 b8bc
000000b0: 6137 013c 3045 2c3c 0699 e7bb 5c81 d53b
000000c0: 407b 9ebc ac36 893c 028f 203c ad8e 95bb
000000d0: abf0 c73b b108 69bc c099 4c3b f64e 2cbc
000000e0: d429 be3c e607 64bb 9bc9 223c 9825 8c3a
000000f0: 42a1 9c3b 6914 2cbc c989 703c e44f bc3c
00000100: 2713 27bc 5937 df3b 26e0 b9bb 66f3 c73b
00000110: 18cc 08bc 3395 05bb af89 b33c 0d9f 06ba
00000120: 05e2 973b 246c 99bb cd40 a73c 2051 82bb
00000130: 6c81 693c ec5f e6bc 7312 48bc 04c8 8abc
00000140: be62 983b e537 833c c9af f1bc ac3f 4dbc
00000150: b2a0 52bc 653f f0bb b3db ebbc c434 763c
00000160: c082 c13a 35f4 94bc 0752 903c d7a5 70bb
00000170: b0b9 7ebc 7dad 5abc 0827 11bc b57f cebc
00000180: 94ad 0fbb dea9 9dbc 4df3 3a3c 2fa7 3f3c
00000190: 7380 1b3c 90e4 be3c 285f 943c 123d 83bc
000001a0: a1e9 f63b d09e b0bc dea3 19ba 0dce 98ba
000001b0: 60fc acbc 71c6 913b 10b6 89bb ea8b b6bc
000001c0: a299 0fba bef8 b03c 0e54 a73c 66b4 abbc
000001d0: 543b 323c a460 9ebc b634 c03c 6e69 c33c
000001e0: 2464 b33c 0075 44bc b517 d3bb 30a3 a8bb
000001f0: b632 923c c3c8 c9bc a8d5 bfbc be8e 9d3c
00000200: 229f d2bc 2d5c 32bc 521a b73b bce5 613a
00000210: 2108 c5bc c536 163c 88a8 90bc 2f65 4e3c
00000220: 0e16 be3c a5f7 933c f931 953b 0ed5 bb3b
00000230: b5e5 a1bc ca1c 95bc 24a8 f13b 536a d3bc
00000240: 8c2c 89bc 04c6 b83c 8120 bb3c 2107 c5bc
00000250: 520e 19bc 3d92 4e3b 5722 9a3c 956a d43b
00000260: 2f06 a9bc b4da c03c fe35 43bc f1a6 2fbc
00000270: 9c9f 483c 1920 533c fe93 1fbc 6a31 ba3b
00000280: 6e7b b8bc b5e9 c3bc b051 89bc 6ae7 b3bc
00000290: a476 6fbc bc47 babb 10fb 85bc 0d3e bfbc
000002a0: 14eb 1e3c bbf7 b7bc c9af 6c3c 43c8 033c
000002b0: ea72 d6bc bc2b abbc 91da b03c 6ea7 84bc
000002c0: 269c a13c b6b5 9e3c a872 ba3c 2509 9e3b
000002d0: f7ab 963c 7efe 6bbb ee9d 9cbc ea1b b0bc
000002e0: b092 0ebc 137b 68bc 913b 4f3c 9624 703c
000002f0: 7317 aebb 00c2 7b3c af94 7b3c 828f edba
00000300: dabb 80bc dacc 0c3a 72d3 ac3b ce9c f6bb
00000310: a2e0 823c 9e2e 0ebc 25be c63b 077a b83c
00000320: 7251 c0bc 6c32 2ebc ec8e 27bc 1004 923c
00000330: c610 363b ee84 81bc 30ef 873c 3da3 ec3a
00000340: daed 18bc 07ac 093b a070 0b3b 4082 aabb
00000350: 552a 06ba 0bd7 5e3c f091 debb 1c8a ec3b
00000360: c6d1 48bb 0708 e4bb 67ff f43b a92b a43b
00000370: 4e7f e4bb 8dea 773c cea5 85bc 17e5 8a3c
00000380: 4bc4 e23b 159f 993c 72ce 713b 0f3d 813c
00000390: e392 51bb 234e 2bbc b828 bf3c 2c66 d2bc
000003a0: ae34 0ebc cc98 d2bb 7d04 b93c 2a33 7abc
000003b0: 2490 98bc 639d c1bb cefa 18ba a30a 9fbc
000003c0: 93b1 a9bb 4312 c73b e151 2a3c 1272 0dbc
000003d0: b0ef 29bc 9ff6 22bc b6f8 8bbb b42f 873c
000003e0: 3821 b33c 0c22 7c3c 26cd e43b c47c 993c
000003f0: 36af 2cbb 7175 1e3c b1b9 883c a636 ceba
-0.004169626 0.01600561 -0.001645743 -0.023148354 0.01919866 0.0038847504 0.007096791 -0.0072714295
0.00018080231 -0.003497212 -0.011235441 0.022734651 0.011063037 -0.024265254 -0.010176464 -0.0041598314
0.009206236 -0.007875572 0.010759109 0.022180175 -0.011185972 0.012541661 0.017984988 -0.0017619741
0.014503067 -0.016532764 0.023750193 0.001443526 0.0007452289 -0.02009161 -0.021899184 0.014424521
-0.0071248594 0.018809719 -0.005751468 0.007274267 0.013288603 -0.025026001 -0.009602373 0.019069072
-0.021585947 0.002201397 -0.014884753 -0.02252499 0.0078867385 0.010514542 -0.0070678024 0.006515665
-0.01934588 0.016749702 0.009799721 -0.0045641274 0.006101688 -0.014223264 0.0031219572 -0.010516873
0.023213305 -0.0034794747 0.009935762 0.0010692356 0.0047799656 -0.010502913 0.014681288 0.022987314
-0.010197437 0.006812018 -0.0056724725 0.0061020134 -0.008349441 -0.002038312 0.021916239 -0.0005135395
0.004635098 -0.004682081 0.020416642 -0.003976956 0.014252048 -0.028121911 -0.01221143 -0.016941078
0.004650443 0.016017864 -0.029502766 -0.012527388 -0.012855696 -0.007331776 -0.028791284 0.015027229
0.0014763698 -0.018182853 0.017617239 -0.0036719942 -0.015547201 -0.013347027 -0.008859403 -0.02520738
-0.002192353 -0.019246038 0.0114105465 0.0116975745 0.009491074 0.023302346 0.01811178 -0.016020332
0.007535175 -0.021560103 -0.0005860905 -0.0011658088 -0.021116436 0.004448705 -0.0042026117 -0.022283513
-0.000547791 0.021602985 0.020425823 -0.020960044 0.010878403 -0.019333191 0.023462635 0.023853984
0.021898337 -0.011990786 -0.006442035 -0.0051464066 0.017846446 -0.024631863 -0.023417309 0.019233104
-0.025710646 -0.010886234 0.0055878544 0.0008617302 -0.024051728 0.0091683315 -0.017658487 0.012597366
0.023203876 0.018062422 0.0045530763 0.005732185 -0.019762853 -0.018202204 0.0073747803 -0.025807535
-0.016744874 0.022555359 0.022842648 -0.02405125 -0.009341793 0.003152027 0.018815203 0.006482432
-0.020632831 0.023541786 -0.011914728 -0.010720954 0.012245085 0.012886071 -0.009739874 0.00568216
-0.022519793 -0.023915151 -0.016762584 -0.021960933 -0.0146156885 -0.005684821 -0.016355067 -0.023345018
0.009699602 -0.022456994 0.014446207 0.008043352 -0.026177842 -0.020894878 0.021588596 -0.016193118
0.019727778 0.019373756 0.02275975 0.0048228675 0.018392546 -0.0036009843 -0.019118275 -0.021497685
-0.008701965 -0.014189499 0.012648479 0.01465716 -0.005312854 0.015366077 0.015355273 -0.0018124434
-0.015714575 0.00053711014 0.0052742297 -0.007526017 0.015976254 -0.008678107 0.0060651475 0.022519125
-0.023476336 -0.010632139 -0.010226946 0.017824203 0.0027780994 -0.015810456 0.016593546 0.001805402
-0.009334052 0.0021007077 0.0021276847 -0.0052035153 -0.00051180023 0.013601075 -0.0067922994 0.0072186124
-0.0030642613 -0.0069589647 0.0074767354 0.0050100875 -0.0069731837 0.015131605 -0.016314413 0.016954942
0.0069203726 0.018752614 0.0036896733 0.015776185 -0.003197842 -0.010455641 0.023334846 -0.025683485
-0.008679552 -0.006426906 0.022585148 -0.0152709875 -0.01862342 -0.0059086545 -0.00058357127 -0.019414252
-0.005178639 0.006075175 0.010395498 -0.0086331535 -0.010372087 -0.009946494 -0.004271592 0.016502239
0.021866426 0.015388977 0.0069824634 0.01873625 -0.002634955 0.009671555 0.016690107 -0.0015732839

net.2.bias f4 [32]
00000000: 14cc 7f3b 2a20 ac3c db85 8b3b 50c6 373c
00000010: 7cc3 153c 06a7 67bc 71f8 40bc c407 cc3b
00000020: a41d 373b 24d8 82bc cb13 56bb 19de ab3b
00000030: d8c9 113c 729a f8bb e536 8abc b17c 9e3c
00000040: 8596 e1bb ca78 233b 5b4c b43c 9d6a 903c
00000050: 2c27 7e3c 0488 8dbc 9458 94bc bbe3 b03c
00000060: c5f7 703c e290 afba b4b5 99bc 258e b33c
00000070: dbb0 893a 2d43 b9bc 00d3 273c b957 afbc
0.0039031552 0.02101143 0.0042579 0.011216715 0.009140845 -0.014138943 -0.011777983 0.0062265117
0.0027941251 -0.015972205 -0.0032665606 0.005244982 0.008898221 -0.0075867707 -0.016871879 0.019346567
-0.0068843984 0.0024943822 0.022009065 0.017628962 0.015512269 -0.017276771 -0.018108644 0.021592965
0.01470751 -0.0013394619 -0.0187634 0.021918366 0.0010504978 -0.02261504 0.010243177 -0.021404134

net.4.weight f4 [3, 32, 5, 5]
00000000: 078f d03c c084 0bbd 7552 e2bc b662 5bbc
00000010: f349 f2bc db7c 8a3c 56c4 4abc 2446 e73b
00000020: 3683 f6bc 238d b93c 1943 5d3c b77a 9cbb
00000030: 3f84 09bd ad80 333b a6d4 97bc ffee 6cbc
00000040: fb91 e4bc f309 e83b 193d 893c 1379 25bc
00000050: 89f3 0a3d acd3 123d dc4e eb3c a7a7 89bc
00000060: b945 b13c ae2e f23c 231d c83c e340 5ebc
00000070: 1960 083d 844a 933c 4a5f b5ba f98c abbc
00000080: 6300 0abd 407a 07bd 453f ff3c a5ee d43c
00000090: d141 f0bc d82a e6bc 9e68 8abc 849e 04bd
000000a0: 6519 773c 4ca8 c4bc b0ec 91bc 5cab edbc
000000b0: 425c 0d3b 9c2f ea3c a112 32bc 0789 0a3d
000000c0: f942 443c 8fb7 89bc 7947 883b cd94 3abb
000000d0: 5de9 b9bc 10fd c23c 1306 b33c 2192 663c
000000e0: d5c1 243c 500b 86bc 8a09 693c e06d ffbc
000000f0: 31f3 c53c 6b36 a63c 1099 98bc cd6a b6bc
00000100: b1ea abbc fa7d f63b 2ccc a6bb 0582 06bb
00000110: 02f6 77bc 5db5 52b9 60cd a43c 822d 32bc
00000120: f994 cebc 4e3b ce3c ea31 ed3c ca28 873c
00000130: 0769 5c3c cd98 cebc 0392 023d 75af 6ebc
00000140: 8795 8bbb f12b 593c 067a c9bc 612a 19bc
00000150: 28ea b23c 994c be3c 1f32 d938 b82f e3ba
00000160: 9804 4dbb 1c94 d3bc 946c 353a 7e34 7f3c
00000170: 12a1 47bb 48b6 09bd b4f7 083b a83e 83ba
00000180: f670 d0bb 2e55 073d 21d5 a03c bff3 a03c
00000190: 357d 12bc ed84 8a39 8f9e 8bba 778c b73c
000001a0: b9cf debc f2ba 543b f04d 7ebc eb09 f33c
000001b0: 8bb6 5bbc f2ed 15bd 4eb8 92bc 2a98 993c
000001c0: 71b1 09bd ce8e ff39 421d 1abd 495b ba3c
000001d0: ff21 b3bc 7fc3 d0bb 8daf 3a3b 75a7 87bc
000001e0: f732 913c fc1c 02bd 2a47 7bbb fe76 cebc
000001f0: ef5b 163c 42fe 09bc 0a4f a13c 5400 843c
00000200: eac2 0f3d 9caf c5bc 7ead 92bc 632e 653c
00000210: 5b79 2bbc 831e 01bd 9593 b13c ed9b 6ebc
00000220: 1306 613b bf7a a5bc 7eb6 90bc d959 9c3b
00000230: 4c1f d0bc ae4b 673c ad2f f4bc a6b5 0bbc
00000240: d605 8abc f974 eebc 745e 8dbc 654d 04bd
00000250: c4be ff39 89ac bbbc fa86 2d3c 2139 54bc
00000260: a64b fcbb ba3c b33c 97ad 8d3c c4ad d13c
00000270: 183d 913c 14ee e03c bc89 043d f5d0 76bc
00000280: d9ae 8d3c 442e 0f3d b7cf 503b 9918 70bc
00000290: 15c3 67bc f175 503c 89b6 dd3b 13fa c63a
000002a0: 2e04 e4bc f19e 03bc 5b5b c4bc 5e4b 653c
000002b0: 969e 073d 044a aabb 1bfd 8cbb 5fed 3c3c
000002c0: d2d5 103d d13a 153d 2bb4 143a 14e5 a53c
000002d0: c7db 053d 05ac be3b 732e 113c 7622 22bc
000002e0: e630 0c3d 022f b23c c854 3ebc cc49 f63c
000002f0: 9930 bfbc c9c5 cfbc f613 01bd cf41 7dbc
00000300: 8209 693c 3397 ff3a 9028 db3c d35a 073d
00000310: 24a0 fb3c bf80 96bc f4af 69bc b3e6 aa3a
00000320: 5218 b13c 7174 57bc a1e4 d0bc 760f 7c3b
00000330: de60 b2bc 7226 e1bc d62e 43bb 9e4e f2bc
00000340: 2b22 113c 4be4 44bc 4595 913c 340f a3bc
00000350: d21f 5dbc 5e80 803c 58fb 933a dd2e 61bc
00000360: 3b9b 593b e320 0bbc 73a4 eabc cb9d fc3c
00000370: 0d3a ccbc 594b f5bc 98d9 f2bc 7b8c 2e3b
00000380: bfac 37bc 648b 6cbc 332d 23bc 74b6 8e3b
00000390: 29e5 b63c af34 31bb 382f 23bb 161e 173d
000003a0: b0d3 a13b f521 dabc 6fb2 43bc c715 0a3d
000003b0: eeb9 413c bf8d 04bd 25e1 d03a faff d93c
000003c0: f78d a1bc a989 0abd d6db eabc 786f f4bb
000003d0: 2032 e63c 5938 f63c c854 123d 8294 363c
000003e0: 6d92 6c3c 6648 fcbc 7882 debc f120 e8bb
000003f0: d0a1 a3bc f0ee 0b3d 41d9 f6b9 82d6 8cbb
0.025458826 -0.034062147 -0.02762721 -0.013390234 -0.029576277 0.016905239 -0.012375912 0.007057922
-0.030091863 0.022650307 0.013504767 -0.004775371 -0.033573385 0.002738993 -0.018534016 -0.014461278
-0.02790164 0.007081264 0.016752766 -0.010099667 0.03392366 0.035846397 0.028724127 -0.016803576
0.021639692 0.029563274 0.024427956 -0.013565275 0.03329477 0.017979868 -0.0013837602 -0.020941244
-0.033691775 -0.03307557 0.031158099 0.0259927 -0.029328259 -0.028096601 -0.016895588 -0.032377735
0.015081738 -0.024006031 -0.017813057 -0.029012375 0.0021569883 0.028587155 -0.010868699 0.033822086
0.011978858 -0.01681116 0.004158911 -0.002847004 -0.022694284 0.02380231 0.021853482 0.014072926
0.010055979 -0.016362816 0.014223466 -0.031180322 0.024163814 0.02028962 -0.018627673 -0.022267723
-0.020985933 0.007522342 -0.005090257 -0.0020524275 -0.015134336 -0.00020094724 0.020117462 -0.010875108
-0.02521752 0.025174763 0.028954465 0.016498942 0.013452775 -0.025219345 0.03187753 -0.014568199
-0.0042597684 0.013255105 -0.024594318 -0.009348483 0.02184017 0.023229884 0.00010356702 -0.0017332947
-0.0031283256 -0.02582746 0.00069207815 0.01557648 -0.0030460996 -0.033621103 0.0020899596 -0.001001318
-0.0063611222 0.033040218 0.019632878 0.019647477 -0.0089409845 0.0002642045 -0.0010652113 0.022405846
-0.02719866 0.003246006 -0.015521511 0.029667815 -0.013410221 -0.036603875 -0.017910149 0.018749315
-0.033616487 0.00048743788 -0.03762556 0.022748606 -0.021866797 -0.006370961 0.0028485984 -0.016559342
0.017724497 -0.031765923 -0.0038341978 -0.025203224 0.009177192 -0.008422436 0.01969101 0.016113438
0.035097994 -0.024131589 -0.017904993 0.01398811 -0.010465945 -0.03152324 0.021676818 -0.014563543
0.0034335896 -0.020200131 -0.017665144 0.004771453 -0.025405549 0.014117165 -0.02980789 -0.008527195
-0.016848486 -0.029108511 -0.017256953 -0.03230037 0.00048779522 -0.02290942 0.010591263 -0.012953074
-0.0076994477 0.021879543 0.017294688 0.025595553 0.017729327 0.027457274 0.032357916 -0.015064468
0.017295288 0.03495623 0.003186209 -0.014654302 -0.014145632 0.012723432 0.0067661447 0.0015180729
-0.027834024 -0.0080335 -0.023969343 0.01399502 0.033110224 -0.0051968116 -0.0043026335 0.011531203
0.035360165 0.036433045 0.0005672599 0.020250835 0.0326803 0.005818846 0.008861172 -0.009895911
0.03422632 0.02175093 -0.011616893 0.030064486 -0.023338603 -0.025362866 -0.031513177 -0.0154575845
0.014223458 0.0019500017 0.02675274 0.0330456 0.03071601 -0.018371938 -0.014263142 0.0013038724
0.021618042 -0.01315032 -0.025499644 0.0038461364 -0.021774705 -0.027484152 -0.0029782555 -0.029578503
0.008858244 -0.01201732 0.017771373 -0.01990471 -0.013496356 0.01568621 0.0011290116 -0.013744083
0.0033204097 -0.0084917275 -0.028642869 0.03083696 -0.024930025 -0.029943155 -0.029644772 0.0026634026
-0.0112106195 -0.01443753 -0.009959507 0.004355246 0.022326069 -0.0027039459 -0.002489997 0.036893927
0.004938565 -0.02662752 -0.011944397 0.033712175 0.011824114 -0.032361742 0.0015936239 0.026611317
-0.019721014 -0.03382269 -0.02866928 -0.007459577 0.028100073 0.030056166 0.035725385 0.011143805
0.0144392075 -0.030796241 -0.027161822 -0.007084005 -0.01997462 0.034163415 -0.00047082643 -0.0042980323

net.4.bias f4 [3]
00000000: dad0 b33b 2746 be3c cd1a 7f3b
0.0054875435 0.02322681 0.0038925887
