checkpoints/srcnn_epoch44_2025-03-20_23-02-04.pth (torch, 280012 bytes, 6 tensors)

net.0.weight f4 [64, 3, 9, 9]
000000 ca 3b 05 3d 74 35 9f bc 35 f9 fe 3c 5c 09 57 3d
       0.032527722 -0.019434668 0.03112469 0.05249916
000010 b4 94 5e bd 9e f5 a2 3c 35 31 18 3d 4b ce 96 bc
       -0.054341033 0.01989251 0.037156302 -0.018408915
000020 e2 8c cd bc 41 e4 31 3c 5a d8 25 bd 76 be ba bc
       -0.025091592 0.010857643 -0.040489532 -0.022795897
000030 04 07 28 3b 40 9e 05 bd 4e 8f 35 3b 2c a7 7f 3d
       0.0025638947 -0.032621622 0.0027703824 0.062415287
000040 e4 01 8f 3d 6f 1b 50 bc 2d 62 33 bd 09 08 08 bc
       0.069827825 -0.012701853 -0.0437948 -0.008302697
000050 9c 7b 25 3b e2 7d 69 3d 00 20 77 bc fd c1 11 bd
       0.002525068 0.057004817 -0.015083313 -0.035585392
000060 1e b8 80 3d 57 bb e9 3c 6d 6a 72 3d 1b 71 bf 3c
       0.062851176 0.028531713 0.059183527 0.023369363
000070 8d f2 14 bd f1 c6 7a bd 08 48 57 3d 28 d0 2f bd
       -0.036364127 -0.06122488 0.05255893 -0.042923123
000080 9c 23 82 bc 97 e1 2f bd 6d d6 7c 3d d0 18 51 bd
       -0.01588612 -0.04293975 0.06172793 -0.051049054
000090 5c 17 3a bc 48 27 d9 3a fd bc af bb b9 e8 c8 bc
       -0.011358108 0.0016567493 -0.0053631053 -0.024525033
0000a0 d1 cb 33 bc bf 67 82 3d e1 20 ef bc fe c7 e9 bc
       -0.010973887 0.06367444 -0.029190483 -0.028537747
0000b0 0b cb 28 3d 22 c3 8a 3d ed 77 5f bd e2 fd 10 3d
       0.041209262 0.067755 -0.05455773 0.03539837
0000c0 61 a1 5f 3c 09 57 e7 3c ed 12 a2 bb 5d f2 74 bc
       0.013649316 0.028239744 -0.004946104 -0.014950362
0000d0 f0 db 59 bd 1c c8 79 3d 1f 27 7e 3d 5e 9c eb bc
       -0.053188264 0.060981855 0.062049028 -0.028761085
0000e0 97 0e 8f 3d 28 e6 0c bd 60 e1 59 3d d9 70 98 3d
       0.06985205 -0.03439918 0.05319345 0.07443399
0000f0 fe 4c 33 3c 0b f3 a8 bb 55 5e 6e 3c c9 4e 18 3d
       0.010943649 -0.005155926 0.014548858 0.03718451
000100 a7 42 85 3d 89 19 19 bc 87 70 86 3d 16 dd 45 bc
       0.065068536 -0.009344467 0.06564432 -0.012076637
000110 9b 91 ab bc 70 2b fe 3c 47 d9 25 bd 95 78 63 bb
       -0.020943454 0.031026572 -0.040490415 -0.0034709324
000120 85 73 ed bc 26 8d 37 bd 5d 86 27 bd e0 c1 3e bd
       -0.028985748 -0.044812344 -0.040899623 -0.046571612
000130 b8 69 34 3d b8 ff 44 bc 20 1f 69 bd c0 17 98 3c
       0.044046134 -0.012023859 -0.05691445 0.018566012
000140 f0 35 df bc 31 46 ed bc 67 86 63 bc 24 0b 10 bd
       -0.0272474 -0.028964134 -0.0138870245 -0.035166875
000150 5b c6 a4 3c a4 b6 5c bd e0 6b 80 3c d1 a7 f1 bb
       0.020114115 -0.053885117 0.015676439 -0.0073747416
000160 78 98 94 bc a6 e8 59 3d 18 be 37 bc ca 48 3d bd
       -0.018139109 0.053200386 -0.0112147555 -0.046211995
000170 66 9d 1a 3c 07 1b 56 bd 90 77 5d bd 53 77 b9 bc
       0.009436941 -0.05227187 -0.0540691 -0.022639906
000180 54 23 1e 3d 0d 11 0c 3c f3 e4 36 3c 10 86 8c 3d
       0.03860791 0.008548987 0.011162984 0.06861508
000190 d5 05 45 3d 96 23 89 3d 17 e6 5a bd 7b 4c f3 ba
       0.048101265 0.066962406 -0.053442087 -0.0018562222
0001a0 a1 2f 56 3d 25 8c 1f bd 54 1b 5c bd fe 17 04 3d
       0.052291516 -0.03895201 -0.053737 0.032249443
0001b0 15 85 39 bd 97 59 48 bb 4e cb 47 bd 4b 5a d0 bc
       -0.045292933 -0.0030570978 -0.04877787 -0.02543368
0001c0 b1 c9 27 3d 84 55 d2 3c 5a cb 3e 3c 17 5a 75 bc
       0.040963832 0.025675543 0.0116451625 -0.014975092
0001d0 d3 55 59 bd 63 3f 30 3d 9d 39 0d 3d bf 03 52 bc
       -0.053060364 0.0430292 0.034478772 -0.012818276
0001e0 ae 81 4d bd b0 21 5b 3d 47 52 72 bd b9 2c 6b 3d
       -0.0501725 0.053498924 -0.059160497 0.057415698
0001f0 19 66 dd bc 08 42 1b bc e5 c1 01 bd c9 92 c5 bc
       -0.027026223 -0.009476192 -0.031679053 -0.024117844
000200 7b 41 23 bd 76 f2 fa bc 7d 8c 37 3d b7 c4 2d bd
       -0.03985737 -0.030633193 0.044811714 -0.04242393
000210 16 5c 07 3b 0a 96 fc 3c 23 fb 4a 3d 75 7b 19 bd
       0.0020654253 0.030833263 0.04955591 -0.037471253
000220 10 c0 b4 bc 1f b5 3d bc 01 e7 67 3d ff 4f 53 bb
       -0.022064239 -0.011578827 0.056616787 -0.0032243726
000230 fc bf 6d 3d 2e 58 3b 3c 89 7c 13 bd d4 7a 40 bd
       0.05804442 0.011434598 -0.036007438 -0.046992138
000240 c8 dc 44 3d 64 e3 49 3d 88 81 0d bc f3 cf 66 bd
       0.048062116 0.049289122 -0.00863684 -0.05635066
000250 83 1b 36 3a 45 42 ff bc 3e b7 1f 3d df 81 64 bd
       0.00069468486 -0.03115953 0.038993113 -0.055787917
000260 83 42 b2 3c 13 43 2f 3b 45 ad d8 bb 6f 3d 44 bd
       0.02176023 0.002674286 -0.006612452 -0.04791015
000270 a7 b0 2e bd 29 7c 60 3d 3e 60 2b bd 00 5e b3 bc
       -0.042648938 0.05480591 -0.04183983 -0.021895409
000280 2f 4d 99 bc 6d 83 96 3c ee 0d 1c bd b3 2a cb 3c
       -0.018713562 0.018373216 -0.038099222 0.024800634
000290 de df aa 3c d6 96 f0 bc b3 df 0b 3d d8 8a bb bb
       0.020858701 -0.0293688 0.034148883 -0.0057233386
0002a0 4f 9c 20 3d 2b 8f 42 bc fc b9 0e bd 3e 14 86 3d
       0.039211567 -0.011874954 -0.034845337 0.0654683
0002b0 28 37 55 bd ae 24 ba bc 30 27 51 bd 7b a6 77 3d
       -0.052054554 -0.022722568 -0.051062763 0.060461503
0002c0 d4 2c 22 bd ab dd 09 3d 3d a3 67 bd b7 67 08 3d
       -0.039593533 0.033658665 -0.05655216 0.033302035
0002d0 e1 f8 fe 3c 96 dc 75 3d 6f ee 1c bd 25 69 b1 3c
       0.031124534 0.06002482 -0.038313325 0.021656582
0002e0 6a cc 99 3d 2b 3f 8e 3d 3b 09 92 3d 80 24 0b 3d
       0.07509692 0.06945642 0.07130667 0.033970356
0002f0 83 88 56 bc 3e a5 35 3c 84 01 3c bd 29 2d f8 bb
       -0.01309407 0.01108676 -0.045899883 -0.007573743
000300 3b 2e 85 3c d8 97 7c 3d f3 12 b1 bb 5b 79 67 3d
       0.016257396 0.061668247 -0.0054038703 0.056512218
000310 b7 26 7c 3d 4d 31 e1 3c 89 c2 79 3d 7e fe 85 3d
       0.06156036 0.027489329 0.06097654 0.06542681
000320 32 5d c9 3c 93 b8 58 3d c7 95 87 bb 7c 0e 9d bc
       0.024580572 0.0529104 -0.004137728 -0.019171946
000330 d9 bf cc 3c fe dd 6e 3c 19 72 3d bc 18 99 67 bd
       0.024993824 0.014579294 -0.0115628475 -0.056542486
000340 84 4f 5c bd 65 d0 b7 bc bd 6f 5c bd 92 81 37 3c
       -0.05378677 -0.022438237 -0.0538175 0.011200326
000350 64 3e 5d bd 68 fb 8c bc 8f 4b a8 bc 90 d3 02 3d
       -0.05401458 -0.017209724 -0.020543842 0.031940043
000360 73 9f 94 3c 6b 25 8f 3c 9f 63 21 3c 13 b4 fe bc
       0.018142438 0.017473897 0.009850412 -0.031091725
000370 3e 40 61 3d aa ef 2c 3d 13 e4 80 3d 33 8e 03 bd
       0.054992907 0.04222075 0.06293502 -0.032118034
000380 b3 b7 e3 bc df c2 7b 3d 0a 6b 5d bd 2c c6 12 3d
       -0.027797556 0.06146514 -0.05405716 0.035833523
000390 2e f7 0b bc 7d 79 64 bd b1 82 50 bc 75 58 88 bc
       -0.008542819 -0.055779923 -0.012726472 -0.016643742
0003a0 f3 3a 8d bc 84 90 44 bd fe 62 17 bd e6 6d fe 3c
       -0.017240023 -0.047989383 -0.03695964 0.031058263
0003b0 23 3f 3e 3d 4b 01 fb bb 48 60 5c bc 12 49 8f 3a
       0.04644693 -0.0076600662 -0.01345069 0.0010931811
0003c0 e7 52 44 3d 50 e1 64 bd 25 cf 2d 3d aa cb a0 3c
       0.047930624 -0.055878937 0.042433877 0.019628365
0003d0 6f 62 4f bd 1c 71 33 3d da 96 81 3d 0b 55 3a 3c
       -0.050630983 0.04380904 0.06327601 0.011372815
0003e0 5c 8b 4f bc fa d4 79 3d 0a ca 2e bd 4c 8a 80 bc
       -0.012667503 0.060994126 -0.04267315 -0.015690945
0003f0 a9 bf fb bb e9 34 1d bd b4 22 ba 3c b7 b5 df 39
       -0.00768276 -0.038380537 0.022721626 0.00042669263

net.0.bias f4 [64]
000000 84 72 7d 3d 45 6a b8 3c af be 6c 3d 03 15 91 3c
       0.06187679 0.02251161 0.057799038 0.017710214
000010 b7 f1 66 3d 3e b0 28 3d ef 76 02 3d 14 ac e0 3c
       0.05638286 0.041183703 0.031851705 0.027425803
000020 26 a9 39 3d 98 f4 4a bd 73 55 ac 3c d8 4c 96 bc
       0.04532733 -0.04954967 0.02103684 -0.018347189
000030 29 51 23 bb 41 43 2e 3b ac d4 15 bd 14 30 0c bc
       -0.0024920201 0.002659038 -0.036579773 -0.008556385
000040 14 db 0a bd b9 79 8f 39 6c 90 57 3a a4 9e 21 bd
       -0.033900335 0.00027365776 0.00082231197 -0.039457932
000050 8f ae 27 bd 31 71 09 3d b2 f4 74 3b 4e 57 82 3c
       -0.040937956 0.033555213 0.0037377295 0.01591077
000060 a8 cd 2b 3d 75 e5 29 3c 23 55 ed bc 51 d8 4b 3c
       0.041944176 0.010369648 -0.02897126 0.012441711
000070 c2 17 4f 3d cb 10 57 3c d3 94 5e 3d a4 c1 8d 3c
       0.050559767 0.013126562 0.05434115 0.01730425
000080 6b 16 93 bc 83 38 aa 3c 6a 06 4b bd f0 96 cf bc
       -0.017955026 0.0207789 -0.049566664 -0.025340527
000090 91 b5 10 3d 1e 5e 01 3d e0 56 5e 3d 48 9e 25 3d
       0.035329405 0.031583898 0.05428207 0.040434152
0000a0 ea a8 18 3c cc 7e df bb a6 32 06 bd c5 ac 3c bd
       0.009317616 -0.0068205353 -0.032763146 -0.046063203
0000b0 0f fe cb bc 97 66 7f 3d 68 eb fb bc 55 90 8b 3d
       -0.024901418 0.062353697 -0.030751899 0.068146385
0000c0 b2 7f 71 bb ad a5 1b 3d 19 71 69 bd 23 61 58 3d
       -0.0036849794 0.037999798 -0.056992624 0.05282701
0000d0 25 c1 70 bd c0 64 1a bc 98 4d c7 bb 78 b7 8f 3c
       -0.058777947 -0.009423435 -0.006082248 0.01754354
0000e0 43 8b 52 3d a3 f5 46 bd 6b 20 03 3c 87 5d 29 3c
       0.05140234 -0.0485741 0.0080033345 0.01033724
0000f0 1c 2b 64 3d b8 60 e4 3c 28 4b 13 3d 9a c5 68 bc
       0.055705175 0.02787815 0.035960346 -0.014207268

net.2.weight f4 [32, 64, 5, 5]
000000 ad cf 88 bb 55 11 83 3c 5d 64 d8 ba e3 aa bd bc
       -0.0041751475 0.015999475 -0.0016509403 -0.023152774
000010 31 3f 9d 3c bd 69 7e 3b 58 77 e8 3b 9e 52 ee bb
       0.019195171 0.003882035 0.007094305 -0.0072730323
000020 2f 7f 3c 39 75 4e 65 bb 87 11 37 bc b3 a0 ba 3c
       0.00017976457 -0.003498939 -0.011173612 0.022781705
000030 89 ac 35 3c f7 89 c6 bc 88 fe 25 bc e0 f8 86 bb
       0.011088499 -0.024235709 -0.010131486 -0.0041190237
000040 3d 7d 17 3c fe 62 00 bc b1 ee 30 3c 4c 21 b6 3c
       0.009246168 -0.007836102 0.010799096 0.022232674
000050 42 58 36 bc 24 98 4e 3c 23 17 94 3c a4 c5 d7 ba
       -0.011129441 0.012609515 0.018077439 -0.00164621
000060 47 f2 6f 3c b8 6f 87 bc c4 8f c2 3c cb 33 bd 3a
       0.014645166 -0.016532764 0.023750193 0.0014434991
000070 49 59 43 3a 29 97 a4 bc eb 65 b3 bc d3 54 6c 3c
       0.0007451964 -0.02009161 -0.021899184 0.014424521
000080 a8 77 e9 bb d7 16 9a 3c db 76 bc bb 51 5d ee 3b
       -0.00712486 0.018809719 -0.0057514734 0.007274308
000090 72 b8 59 3c 52 03 cd bc 39 51 1d bc 67 37 9c 3c
       0.013288604 -0.025025997 -0.0096018845 0.019069387
0000a0 03 d5 b0 bc d5 46 10 3b d7 de 73 bc d9 85 b8 bc
       -0.021585947 0.0022014875 -0.014884672 -0.022524761
0000b0 69 3b 01 3c 30 45 2c 3c 06 99 e7 bb 5c 81 d5 3b
       0.0078877 0.010514542 -0.0070678024 0.006515665
0000c0 40 7b 9e bc b8 36 89 3c ae 89 20 3c 91 97 95 bb
       -0.01934588 0.016749725 0.00979845 -0.0045651873
0000d0 bf e6 c7 3b 2b 0f 69 bc 7f 7c 4c 3b e9 52 2c bc
       0.006100505 -0.014224808 0.0031202135 -0.010517814
0000e0 17 28 be 3c 77 16 64 bb b9 c5 22 3c 7c 07 8c 3a
       0.023212476 -0.003480343 0.009934836 0.0010683383
0000f0 47 b8 9c 3b fe 0e 2c bc 29 8a 70 3c 83 4f bc 3c
       0.0047827098 -0.010501621 0.014681377 0.022987133
000100 ce 15 27 bc bf 5b df 3b 59 d3 b9 bb 13 f8 c7 3b
       -0.01019807 0.006816357 -0.0056709466 0.006102571
000110 9a cb 08 bc 1c 97 05 bb ed a8 b3 3c 41 b5 02 ba
       -0.008349324 -0.0020384258 0.021931136 -0.00049861154
000120 04 5c 98 3b 16 e9 98 bb a8 61 a7 3c 06 6d 82 bb
       0.004649641 -0.004666458 0.020432308 -0.0039802818
000130 8e 7d 69 3c bd 62 e6 bc 2d 1a 48 bc 1f ce 8a bc
       0.014251126 -0.028123254 -0.012213272 -0.01694399
000140 7c 39 98 3b 3b 34 83 3c 68 b3 f1 bc 29 4e 4d bc
       0.0046455245 0.016016116 -0.029504493 -0.012530842
000150 dd af 52 bc 52 8f ef bb 3c 89 eb bc 04 b8 77 3c
       -0.012859312 -0.0073107863 -0.028751962 0.015119556
000160 00 a8 d3 3a 65 7f 93 bc ac ca 90 3c 2c 07 6e bb
       0.001614809 -0.018005082 0.017674766 -0.0036320193
000170 ce 5a 7d bc 17 da 57 bc 03 35 0d bc f0 9a cd bc
       -0.015463544 -0.013174555 -0.008618596 -0.025098294
000180 76 27 09 bb d4 fe 9c bc 32 fd 3b 3c d7 9c 40 3c
       -0.0020928062 -0.01916448 0.011473941 0.0117561435
000190 4f 80 1b 3c 8d e4 be 3c 27 5f 94 3c 13 3d 83 bc
       0.00949104 0.02330234 0.018111778 -0.016020333
0001a0 3c e9 f6 3b d6 9e b0 bc d2 aa 19 ba 62 d1 98 ba
       0.007535128 -0.021560114 -0.0005861941 -0.0011659081
0001b0 62 fc ac bc 03 c6 91 3b b0 b1 89 bb 87 8b b6 bc
       -0.02111644 0.0044486537 -0.00420209 -0.022283329
0001c0 3c 81 0f ba c1 f8 b0 3c 0d 54 a7 3c 22 b4 ab bc
       -0.00054742745 0.02160299 0.02042582 -0.020959917
0001d0 07 3e 32 3c aa 5f 9e bc 2c 35 c0 3c 87 69 c3 3c
       0.010879046 -0.019332726 0.023462854 0.02385403
0001e0 6b 64 b3 3c 6c 73 44 bc 18 11 d3 bb bf 9b a8 bb
       0.021898469 -0.011990409 -0.0064412467 -0.0051455195
0001f0 29 33 92 3c c3 c8 c9 bc a9 d5 bf bc bd 8e 9d 3c
       0.01784666 -0.024631863 -0.02341731 0.019233102
000200 24 9f d2 bc 36 5c 32 bc 19 1a b7 3b ce e2 61 3a
       -0.02571065 -0.010886243 0.005587828 0.00086168654
000210 23 08 c5 bc b9 36 16 3c 8a a8 90 bc 6a 65 4e 3c
       -0.024051731 0.00916832 -0.01765849 0.012597421
000220 11 16 be 3c d5 f7 93 3c 11 38 95 3b a8 db bb 3b
       0.023203881 0.018062511 0.004553803 0.005732972
000230 b5 e5 a1 bc ca 1c 95 bc 79 a8 f1 3b 53 6a d3 bc
       -0.019762853 -0.018202204 0.00737482 -0.025807535
000240 7d 2c 89 bc 0a c6 b8 3c 81 20 bb 3c 1b 07 c5 bc
       -0.016744846 0.02255537 0.022842648 -0.02405124
000250 b8 0c 19 bc ed 9e 4e 3b e1 21 9a 3c 78 68 d4 3b
       -0.009341411 0.0031527833 0.018814983 0.00648218
000260 9b 06 a9 bc 41 da c0 3c 61 37 43 bc a1 a8 2f bc
       -0.020633033 0.023541572 -0.011915059 -0.010721357
000270 5b 9e 48 3c 04 1f 53 3c 5d 95 1f bc 1f 2e ba 3b
       0.012244786 0.012885813 -0.009740201 0.0056817676
000280 e2 76 b8 bc 0e e7 c3 bc bb 4e 89 bc e8 e3 b3 bc
       -0.022517625 -0.023913886 -0.016761174 -0.02195926
000290 54 66 6f bc d3 32 ba bb ae f8 85 bc fb 3b bf bc
       -0.014611799 -0.0056823283 -0.016353931 -0.02334403
0002a0 99 ec 1e 3c 2d f7 b7 bc 4e c2 6c 3c 81 d9 03 3c
       0.009699964 -0.02245673 0.014450623 0.008047462
0002b0 7c 6f d6 bc f6 2a ab bc 21 db b0 3c d4 c8 84 bc
       -0.026176207 -0.020894509 0.021588864 -0.016209044
0002c0 fc 72 a1 3c 18 8a 9e 3c 60 47 ba 3c 4d 89 9d 3b
       0.01970815 0.019352958 0.022739112 0.0048076273
0002d0 b1 96 96 3c 1a ba 6c bb 6d b6 9c bc 6c 39 b0 bc
       0.018382402 -0.0036121667 -0.019129956 -0.021511756
0002e0 e3 d6 0e bc 0e eb 67 bc 28 5b 50 3c 22 ce 72 3c
       -0.008718225 -0.0141551625 0.012717046 0.014819654
0002f0 11 57 a5 bb f3 8b 80 3c 5b 41 7c 3c 82 c6 e4 ba
       -0.0050457795 0.015691733 0.015396441 -0.001745418
000300 32 30 7f bc b6 07 45 3a 0c 62 b5 3b 8f 65 f5 bb
       -0.0155754555 0.00075161026 0.0055353697 -0.0074889134
000310 ee 1a 83 3c c8 4d 0d bc 79 21 c9 3b ce 2e b9 3c
       0.016004052 -0.0086245015 0.0061380235 0.022605326
000320 57 52 c0 bc 7f 34 2e bc a8 90 27 bc 4f 03 92 3c
       -0.023476763 -0.010632633 -0.01022736 0.017823843
000330 f4 06 36 3b 17 86 81 bc 9c ed 87 3c 40 8f ec 3a
       0.002777514 -0.01581101 0.016592793 0.0018048063
000340 a6 ef 18 bc aa a3 09 3b f0 e0 0b 3b 5d 58 aa bb
       -0.00933448 0.0021002092 0.002134379 -0.005198522
000350 34 6a 05 ba 02 fa 5e 3c 39 20 de bb 36 dd ec 3b
       -0.0005089373 0.013609411 -0.0067787436 0.007228519
000360 f1 14 48 bb 9a 9a e3 bb 31 97 f5 3b a0 f8 a4 3b
       -0.003053006 -0.00694592 0.00749483 0.005034521
000370 96 41 e4 bb 30 02 78 3c fc 99 85 bc 4b f5 8a 3c
       -0.0069658263 0.01513724 -0.016308777 0.016962668
000380 0d 1c e3 3b 15 9f 99 3c 5b ce 71 3b 0f 3d 81 3c
       0.006930834 0.018752614 0.003689668 0.015776185
000390 5e 94 51 bb 7a 4e 2b bc b8 28 bf 3c 2c 66 d2 bc
       -0.0031979303 -0.010455722 0.023334846 -0.025683485
0003a0 b4 34 0e bc 2e 99 d2 bb 71 04 b9 3c 3c 33 7a bc
       -0.008679558 -0.006426952 0.022585126 -0.015271004
0003b0 24 90 98 bc f9 9a c1 bb d0 a5 18 ba 3f 07 9f bc
       -0.01862342 -0.0059083668 -0.0005823048 -0.019412635
0003c0 b7 b1 a9 bb 8e 12 c7 3b 69 54 2a 3c c0 6b 0d bc
       -0.005178656 0.00607521 0.0103961015 -0.008631647
0003d0 a6 e7 29 bc 9e f6 22 bc c8 f8 8b bb b4 2f 87 3c
       -0.010370171 -0.009946493 -0.0042716004 0.016502239
0003e0 39 21 b3 3c ef 23 7c 3c 0c cb e4 3b d7 7b 99 3c
       0.021866428 0.015389427 0.006982213 0.01873581
0003f0 2e b8 2c bb 32 73 1e 3c 92 b8 88 3c 4e 3c ce ba
       -0.0026354897 0.009671019 0.016689572 -0.0015734525

net.2.bias f4 [32]
000000 ab d7 7f 3b 01 b5 ac 3c d3 db 84 3b 0f 03 35 3c
       0.003903846 0.021082403 0.0040545254 0.0110480925
000010 f6 6d 21 3c be 9b 71 bc 3c 9b 3b bc 7e 4d cb 3b
       0.009852877 -0.0147466045 -0.011450585 0.006204306
000020 0c ee 49 3b ec 04 84 bc fe 13 56 bb 7b 16 a9 3b
       0.0030812053 -0.016115628 -0.0032665725 0.0051601506
000030 16 84 3f 3c fb 3a d6 bb 91 6d 8a bc 92 09 9f 3c
       0.011689207 -0.0065377927 -0.016897948 0.019413743
000040 80 68 e4 bb dd 79 23 3b 84 f8 bc 3c d9 02 9e 3c
       -0.006970465 0.0024944462 0.02306772 0.019288467
000050 6e 6a 89 3c 7e 73 8c bc 1c 3d 90 bc 05 e0 b7 3c
       0.016774382 -0.017144915 -0.017607264 0.022445688
000060 07 a9 72 3c 9a c4 c2 ba 99 59 97 bc 1c 9d ca 3c
       0.014810807 -0.0014859617 -0.01847534 0.024733119
000070 de 82 0e 3b 50 7a 81 bc 84 97 29 3c 38 ca ae bc
       0.0021745483 -0.015805393 0.010351066 -0.02133666

net.4.weight f4 [3, 32, 5, 5]
000000 07 8f d0 3c c0 84 0b bd 75 52 e2 bc b6 62 5b bc
       0.025458826 -0.034062147 -0.02762721 -0.013390234
000010 f3 49 f2 bc db 7c 8a 3c 56 c4 4a bc 24 46 e7 3b
       -0.029576277 0.016905239 -0.012375912 0.007057922
000020 36 83 f6 bc 23 8d b9 3c 19 43 5d 3c bb 7a 9c bb
       -0.030091863 0.022650307 0.013504767 -0.004775373
000030 3f 84 09 bd a7 80 33 3b a6 d4 97 bc ff ee 6c bc
       -0.033573385 0.0027389915 -0.018534016 -0.014461278
000040 fb 91 e4 bc f3 09 e8 3b 19 3d 89 3c 13 79 25 bc
       -0.02790164 0.007081264 0.016752766 -0.010099667
000050 89 f3 0a 3d ac d3 12 3d dc 4e eb 3c a7 a7 89 bc
       0.03392366 0.035846397 0.028724127 -0.016803576
000060 b9 45 b1 3c 53 b8 1e bc 0c 7c d3 3c d1 59 37 bc
       0.021639692 -0.009687501 0.025815986 -0.0111908475
000070 67 a8 a6 3c a3 a5 9e 3c dc 3e 5f bd ed 29 0f bd
       0.020343972 0.019366091 -0.054503307 -0.034952093
000080 b7 82 2e bd 53 2a 7e bd 1c 14 08 3c e8 12 05 3c
       -0.04260513 -0.062052082 0.008305576 0.008122183
000090 ce 3a 75 bc dd 88 60 bc 30 22 a1 bc f4 71 05 bd
       -0.014967633 -0.013704506 -0.019669622 -0.032579377
0000a0 d9 04 bf 38 ba 03 ec bb cc 38 4c bb 35 33 f1 bc
       9.108493e-05 -0.0072025927 -0.0031161783 -0.029443363
0000b0 ca ec d9 3b ff 0b 9e 3c 44 94 c0 3b 1b a5 3b 3d
       0.006650542 0.01929283 0.0058770496 0.045811754
0000c0 2d 0b 70 3c 8f 3c e2 bb 68 26 40 3b a2 04 68 bb
       0.014651102 -0.006904192 0.0029319767 -0.0035403152
0000d0 c4 8f c0 bc fb 2f c8 3c 77 0b b1 3c c0 76 5f 3c
       -0.023506053 0.024436941 0.021611912 0.013639152
0000e0 f0 51 21 3c a2 ff 8c bc 95 52 6f 3c e9 1f 03 bd
       0.009846196 -0.017211739 0.014607091 -0.032012854
0000f0 33 51 c8 3c 80 35 a5 3c dd ac 9c bc 79 7f b3 bc
       0.024452781 0.020167112 -0.019125396 -0.02191137
000100 b7 2e af bc e7 ce e4 3b 5a c7 cb bb 6b e4 48 bb
       -0.02138458 0.0069826725 -0.006218833 -0.0030653726
000110 e6 d0 76 bc 35 3b 19 b9 f7 96 a6 3c d1 ff 37 bc
       -0.015064454 -0.00014613273 0.020335658 -0.011230425
000120 8d 02 d8 bc 22 d7 ce 3c 82 e3 f0 3c 53 fd 6c 3c
       -0.026368404 0.025249068 0.02940536 0.014464694
000130 cf 92 31 3c a4 fd d4 bc bc 60 00 3d e4 a8 63 bc
       0.010838225 -0.025999852 0.031342253 -0.013895247
000140 3a 17 ab bb 52 19 3a 3c 37 69 d3 bc e3 cf 10 bc
       -0.0052212747 0.011358576 -0.025807006 -0.008838627
000150 63 2b be 3c 46 2c b8 3c d6 cd 6a b9 36 51 cb ba
       0.023214048 0.022482049 -0.00022392659 -0.0015511874
000160 10 27 77 bb 34 bc cb bc 41 af cb ba b8 b3 5f 3c
       -0.0037712492 -0.024870016 -0.0015539901 0.013653688
000170 dc 4d 91 bb f4 f5 17 bd a5 29 33 3b a4 c3 34 bb
       -0.0044343304 -0.037099794 0.0027338054 -0.0027582431
000180 70 2c 00 bc 42 d7 08 3d 0b 8d 98 3c 9e c5 b1 3c
       -0.007823095 0.03340841 0.018621942 0.021700677
000190 89 55 3f bc cd db 0a bb 32 b7 c5 ba a4 87 94 3c
       -0.011678108 -0.002118814 -0.0015084504 0.018131085
0001a0 c7 ba 04 bd 39 4f e0 3a 59 3e 8c bc af b7 ea 3c
       -0.032404687 0.0017113454 -0.017119573 0.02865204
0001b0 70 b3 87 bc 2e 85 29 bd a9 3b 92 bc cd 64 8b 3c
       -0.016565055 -0.041386776 -0.017850714 0.017015839
0001c0 88 1d 0f bd d3 a6 46 bb b1 1c 2f bd 86 69 a6 3c
       -0.034940273 -0.0030311837 -0.04275197 0.02031399
0001d0 8e f8 e0 bc 52 da 09 bc 90 0a 18 bb 50 a8 be bc
       -0.02746227 -0.008413868 -0.0023199655 -0.023273617
0001e0 37 bd 6d 3c 15 ad 16 bd 28 75 9f bb ce 20 e5 bc
       0.014510444 -0.036786158 -0.004866261 -0.027969744
0001f0 cb 94 9c 3b 20 4f b7 bc d1 9e 3a 3c 31 80 24 3c
       0.0047784797 -0.022376597 0.011390404 0.010040329
000200 34 92 30 3d e5 e0 fd bc f7 80 ce bc 0c 91 4f 3c
       0.04310818 -0.030991027 -0.02520798 0.012668859
000210 17 1a 15 bc f7 1a 8d bc 15 6d aa 3c 1a 4b a9 bc
       -0.009100459 -0.017224772 0.020803967 -0.020665694
000220 f5 bb 7c 3b 66 aa 8c bc 9d ea 1d bb ef 15 8a 3b
       0.003856418 -0.017171096 -0.002409614 0.0042140405
000230 df b5 14 bd 2d ff 1e 3c 08 ab 02 bd 1c 93 ae 3a
       -0.03630626 0.009704393 -0.03190139 0.0013318988
000240 57 6e bd bc 79 8b 25 bd 18 f7 b6 bc cd db 0e bd
       -0.023123903 -0.040416215 -0.02233462 -0.034877587
000250 e3 7b 1d 3c 68 b2 f1 bc 5c 3c 24 3c 01 e6 60 bc
       0.009612056 -0.029504016 0.010024156 -0.013726712
000260 25 ca 00 bc 44 08 b3 3c ad 88 88 3c a8 db d6 3c
       -0.007860695 0.021854527 0.016666735 0.026227787
000270 c6 db 8d 3c af af e4 3c 43 e5 05 3d ae a1 81 bc
       0.01731671 0.027915804 0.032689344 -0.015824165
000280 52 6f 92 3c 66 bc 0d 3d e2 46 5c 3b f2 ae 7b bc
       0.017875347 0.0346035 0.0033611585 -0.015361534
000290 96 94 6c bc 9f 8b 43 3c 78 fc bb 3b c5 72 d6 3a
       -0.0144397225 0.011935144 0.0057368837 0.0016361108
0002a0 23 49 e9 bc 7c cb 04 bc 57 af c5 bc bb d1 60 3c
       -0.028477257 -0.008105155 -0.02413146 0.013721879
0002b0 40 57 0a 3d 92 d5 a1 bb 62 37 8f bb bd d3 3c 3c
       0.033774614 -0.0049387896 -0.004370616 0.011525092
0002c0 f9 fe 0e 3d 92 e8 14 3d 59 48 a9 39 c0 03 a4 3c
       0.03491113 0.03635461 0.00032288095 0.02002132
0002d0 8c 80 05 3d 38 0e b0 3b 8f 87 14 3c 0e 36 26 bc
       0.032593295 0.0053727888 0.009065523 -0.010144724
0002e0 93 f2 0b 3d e7 b0 af 3c ee 23 3b bc 5b 6c fe 3c
       0.034166884 0.021446658 -0.0114221405 0.031057527
0002f0 49 3f bf bc 39 4d d0 bc e3 8b 01 bd 09 cb 7b bc
       -0.023345606 -0.025427448 -0.031627547 -0.015368232
000300 d9 16 70 3c b4 c8 f8 3a 7a fb d8 3c 4d 9f 07 3d
       0.014653885 0.0018980713 0.0264871 0.033110905
000310 ef db f9 3c 2e 04 97 bc 96 6b 66 bc c0 69 cf 3a
       0.03050038 -0.01843461 -0.014063736 0.0015824363
000320 92 0e b0 3c d5 40 5d bc 9b 93 d4 bc d0 2a 4e 3b
       0.021491323 -0.013504227 -0.02594929 0.0031458624
000330 f9 69 b5 bc 0a 54 e7 bc a3 07 b9 bb 7f 82 fa bc
       -0.022145258 -0.028238315 -0.0056466623 -0.030579804
000340 03 92 fd 3b fe 48 59 bc ba 09 90 3c 5a d7 b4 bc
       0.007738353 -0.013262032 0.017582763 -0.022075344
000350 7c fc 6d bc b4 68 6d 3c 24 46 13 3a b6 82 64 bc
       -0.014525529 0.014490295 0.0005618057 -0.01394718
000360 57 9e 57 3b 58 1b 11 bc 17 c8 f9 bc 58 2e 01 3d
       0.0032900774 -0.008856617 -0.030490918 0.031538337
000370 50 3d cd bc 4f b6 f0 bc 2e 76 ee bc c4 b7 b1 3a
       -0.02505365 -0.029383807 -0.029109087 0.0013558795
000380 91 c9 27 bc b4 f9 8b bc 2b 89 68 bc a4 86 b3 3b
       -0.010240928 -0.017086841 -0.01419286 0.005478697
000390 2e d3 b5 3c ad 6e 45 bb 80 0c de ba 32 ed 1c 3d
       0.022195425 -0.0030125782 -0.0016940981 0.038312145
0003a0 e1 5d ca 3b 70 0d ec bc d0 3f 44 bc f5 c2 12 3d
       0.006175742 -0.028815001 -0.011978105 0.035830457
0003b0 e5 93 63 3c cc d5 f5 bc 52 8a 5f 3a c5 3f fa 3c
       0.013890241 -0.030009173 0.0008527386 0.030547986
0003c0 61 7f b6 bc f6 c3 19 bd 77 5e e4 bc 42 d2 36 bc
       -0.022277536 -0.0375404 -0.027877076 -0.011158528
0003d0 a1 00 e6 3c 73 07 f6 3c fc 18 11 3d 84 08 78 3c
       0.028076472 0.030032849 0.035424218 0.015138749
0003e0 99 21 42 3c f6 a7 06 bd 78 82 de bc f1 20 e8 bb
       0.011848831 -0.032875024 -0.027161822 -0.007084005
0003f0 d0 a1 a3 bc f0 ee 0b 3d b3 d8 f6 b9 82 d6 8c bb
       -0.01997462 0.034163415 -0.0004708223 -0.0042980323

net.4.bias f4 [3]
000000 3c 7b ba 3b cd 8e be 3c 2d ee 7a 3b
       0.00569096 0.023261452 0.0038288936
