checkpoints/srcnn_epoch27_2025-03-20_23-02-04.pth (torch, 280012 bytes, 6 tensors)

net.0.weight f4 [64, 3, 9, 9]
0.03277098 -0.019520575 0.031455543 0.05203416 -0.054863006 0.019077722 0.03623483 -0.019672735
-0.025821162 0.011161334 -0.040707126 -0.023760887 0.0013512799 -0.03265358 0.0020733841 0.061447997
0.06927856 -0.013302468 -0.043632068 -0.008539634 0.0019628876 0.056736894 -0.015122 -0.035837807
0.06251858 0.029340645 0.058936384 0.02341389 -0.03672514 -0.061091736 0.053256195 -0.043202233
-0.015257123 -0.042925347 0.06287069 -0.051062938 -0.011160908 0.00164689 -0.0057927556 -0.024330433
-0.012062378 0.064231895 -0.029338902 -0.028111983 0.041055933 0.068436846 -0.0535582 0.035056964
0.0140064815 0.02681286 -0.005308538 -0.0148455845 -0.0528973 0.060718253 0.06272075 -0.027996618
0.06955877 -0.034278136 0.051841505 0.07372158 0.011403978 -0.0045548477 0.01446467 0.038028523
0.065618575 -0.009007339 0.065914765 -0.01172155 -0.019875849 0.032179523 -0.0397533 -0.003298913
-0.027938671 -0.044022262 -0.04013457 -0.04618016 0.04505165 -0.010562171 -0.055886354 0.018922826
-0.027191449 -0.029981576 -0.01507768 -0.03539669 0.01940422 -0.054244973 0.015515348 -0.0077931997
-0.019113475 0.05251175 -0.01189781 -0.04709102 0.008542911 -0.053060625 -0.053431697 -0.022281371
0.038540978 0.008604477 0.010731321 0.06813535 0.04760224 0.066854544 -0.053009078 -0.0012349553
0.052794535 -0.039070502 -0.053131334 0.031645395 -0.045840908 -0.0036813035 -0.04838035 -0.024214327
0.041336745 0.027054759 0.011277654 -0.014754248 -0.053610425 0.04229961 0.033898257 -0.01327579
-0.04936879 0.05373148 -0.057130735 0.057164375 -0.02734481 -0.009782567 -0.032268696 -0.023757428
-0.039961442 -0.029089509 0.0455152 -0.040843997 0.0022707952 0.030578373 0.04924186 -0.038157415
-0.021975415 -0.011705453 0.057588138 -0.003125589 0.058303 0.011246896 -0.036365267 -0.047595613
0.04751572 0.048827365 -0.008820015 -0.056434076 0.00072382233 -0.030776272 0.038704824 -0.056355607
0.020979576 0.0023936557 -0.0069696596 -0.048023865 -0.04332426 0.054342248 -0.041990247 -0.02240661
-0.019500539 0.017514296 -0.038099326 0.02468153 0.021427426 -0.029793214 0.034182042 -0.0049296794
0.04004188 -0.011020056 -0.033528112 0.066019274 -0.051707506 -0.022970388 -0.052006733 0.06061102
-0.039186705 0.034227047 -0.054942504 0.034557104 0.032106347 0.06054738 -0.038550578 0.021152185
0.07421061 0.0687175 0.070588395 0.035265908 -0.012651482 0.0121528525 -0.045827445 -0.008221827
0.015634328 0.059952896 -0.0059776884 0.054800447 0.06192894 0.027671164 0.061606307 0.065135665
0.022795845 0.051871367 -0.0053583314 -0.01849727 0.023851043 0.014692988 -0.011001425 -0.056442928
-0.053564124 -0.023397246 -0.052991778 0.01186964 -0.052727263 -0.017309416 -0.020088805 0.032545913
0.017694134 0.017319426 0.009328062 -0.030175578 0.055458743 0.04234567 0.062415615 -0.031810362
-0.027612321 0.06089604 -0.05487717 0.035106838 -0.009167888 -0.056331668 -0.013117264 -0.017276436
-0.016972072 -0.04800501 -0.037250604 0.030469306 0.04595725 -0.0089202495 -0.014790151 0.00028391602
0.04772407 -0.05527859 0.042626157 0.020091219 -0.05023067 0.04508418 0.06273915 0.0106113795
-0.012414822 0.06044998 -0.04330981 -0.016126024 -0.0071745454 -0.037482575 0.022477444 0.00029949078
00000000: dd3a 063d 9de9 9fbc 87d7 003d c521 553d
00000010: 08b8 60bd e248 9c3c f96a 143d b728 a1bc
00000020: e786 d3bc 07de 363c 84bc 26bd 31a6 c2bc
00000030: 6e1d b13a c3bf 05bd 9de1 073b e5b0 7b3d
00000040: ebe1 8d3d 98f2 59bc 8ab7 32bd d2e9 0bbc
00000050: caa3 003b f264 683d 44c2 77bc aaca 12bd
00000060: be09 803d cb5b f03c 4767 713d 7cce bf3c
00000070: 1a6d 16bd 543b 7abd 2b23 5a3d d3f4 30bd
00000080: 03f9 79bc 7dd2 2fbd 59c2 803d 5f27 51bd
00000090: 3edc 36bc 75dc d73a 28d1 bdbb 9e50 c7bc
000000a0: 48a1 45bc 038c 833d 2358 f0bc 1a4b e6bc
000000b0: 442a 283d 9e28 8c3d d85f 5bbd e497 0f3d
000000c0: 717b 653c a5a6 db3c 3ff3 adbb e53a 73bc
000000d0: d7aa 58bd b4b3 783d bd73 803d 2a59 e5bc
000000e0: d474 8e3d 3b67 0cbd c257 543d 57fb 963d
000000f0: c0d7 3a3c d540 95bb 39fd 6c3c ccc3 1b3d
00000100: 0863 863d 8593 13bc 52fe 863d be0b 40bc
00000110: add2 a2bc adce 033d 5bd4 22bd 9332 58bb
00000120: a4df e4bc b050 34bd 2664 24bd 6827 3dbd
00000130: 1488 383d f50c 2dbc 17e9 64bd 0b04 9b3c
00000140: 9ac0 debc ec9b f5bc 6008 77bc 1ffc 10bd
00000150: 99f5 9e3c fa2f 5ebd 1634 7e3c 195e ffbb
00000160: dd93 9cbc 9016 573d 08ef 42bc 83e2 40bd
00000170: 91f7 0b3c 1956 59bd 32db 5abd 6c87 b6bc
00000180: 25dd 1d3d cbf9 0c3c 6cd2 2f3c 8c8a 8b3d
00000190: 91fa 423d 09eb 883d 0c20 59bd 39de a1ba
000001a0: 153f 583d 6408 20bd 3ea0 59bd 9a9e 013d
000001b0: adc3 3bbd 0642 71bb 792a 46bd 205d c6bc
000001c0: b850 293d f1a1 dd3c e9c5 383c cdbb 71bc
000001d0: 9b96 5bbd 5b42 2d3d e6d8 0a3d b382 59bc
000001e0: ee36 4abd 8a15 5c3d eb01 6abd 3125 6a3d
000001f0: 3902 e0bc 0f47 20bc 2e2c 04bd f09e c2bc
00000200: 9cae 23bd 1f4d eebc 256e 3a3d 094c 27bd
00000210: 9fd1 143b 7f7f fa3c d5b1 493d f34a 1cbd
00000220: c905 b4bc 3ac8 3fbc 8ae1 6b3d afd6 4cbb
00000230: 20cf 6e3d e744 383c bff3 14bd 9ef3 42bd
00000240: d89f 423d 34ff 473d d381 10bc 6b27 67bd
00000250: e5be 3d3a 851e fcbc f388 1e3d 23d5 66bd
00000260: 5cdd ab3c e1de 1c3b be61 e4bb acb4 44bd
00000270: c774 31bd fa95 5e3d f7fd 2bbd 118e b7bc
00000280: 98bf 9fbc 247a 8f3c 0a0e 1cbd ec30 ca3c
00000290: 9288 af3c e610 f4bc 7802 0c3d 2689 a1bb
000002a0: f402 243d 778d 34bc c654 09bd 1d35 873d
000002b0: 40cb 53bd 652c bcbc 0305 55bd 4343 783d
000002c0: 3d82 20bd a931 0c3d 640b 61bd c08b 0d3d
000002d0: f281 033d 8800 783d 36e7 1dbd 5947 ad3c
000002e0: bbfb 973d c3bb 8c3d a690 903d fc72 103d
000002f0: 2948 4fbc c21c 473c 8fb5 3bbd d8b4 06bc
00000300: 9013 803c 2b91 753d 7ce0 c3bb 6f76 603d
00000310: 33a9 7d3d a3ae e23c e556 7c3d d965 853d
00000320: 5abe ba3c 1277 543d f194 afbb 9687 97bc
00000330: 4363 c33c dcba 703c 523f 34bc b330 67bd
00000340: 0e66 5bbd 95ab bfbc e80d 59bd e178 423c
00000350: 8bf8 57bd 7acc 8dbc 4791 a4bc dd4e 053d
00000360: 4af3 903c 78e1 8d3c bad4 183c c632 f7bc
00000370: b528 633d a772 2d3d 84a7 7f3d 954b 02bd
00000380: 3c33 e2bc 206e 793d e2c6 60bd 30cc 0f3d
00000390: e934 16bc 09bc 66bd cbe9 56bc 5087 8dbc
000003a0: 0409 8bbc e7a0 44bd 1794 18bd c49a f93c
000003b0: ab3d 3c3d 3d26 12bc 6452 72bc 90da 9439
000003c0: 507a 433d ce6b 62bd c498 2e3d 5796 a43c
000003d0: adbe 4dbd 30aa 383d 627d 803d 5adb 2d3c
000003e0: 8a67 4bbc 669a 773d a165 31bd b91a 84bc
000003f0: 7318 ebbb 5487 19bd 9e22 b83c f904 9d39

net.0.bias f4 [64]
0.060793918 0.021958731 0.05759812 0.01714662 0.056100916 0.041415907 0.03200523 0.026859853
0.044996534 -0.0500612 0.020525439 -0.020427918 -0.006398709 0.002006608 -0.036760338 -0.009220168
-0.036190335 0.0007621375 0.0009500873 -0.03946313 -0.042117625 0.03303423 0.0015165957 0.015322139
0.04049823 0.009761013 -0.029669434 0.012355691 0.05069176 0.013163346 0.05458518 0.014888111
-0.019037709 0.020499445 -0.052201964 -0.025756238 0.03525074 0.030696707 0.054412715 0.04088705
0.009258539 -0.007058323 -0.032920722 -0.04681002 -0.026508328 0.062488813 -0.033065304 0.066246785
-0.004534332 0.03792363 -0.057573948 0.05176059 -0.05853965 -0.009514622 -0.006302166 0.017628895
0.050689887 -0.048824474 0.008094677 0.010351573 0.05976314 0.02717403 0.036230117 -0.014595141
00000000: 0b03 793d cce2 b33c 02ec 6b3d 1277 8c3c
00000010: 13ca 653d baa3 293d eb17 033d 3209 dc3c
00000020: 494e 383d f90c 4dbd f724 a83c 7358 a7bc
00000030: 43ac d1bb 4c81 033b 0292 16bd 3010 17bc
00000040: 513c 14bd 2fca 473a 480f 793a 17a4 21bd
00000050: 8883 2cbd e74e 073d 82c8 c63a b509 7b3c
00000060: 79e1 253d a8ec 1f3c 500d f3bc 866f 4a3c
00000070: 2aa2 4f3d 13ab 573c b694 5f3d 43ed 733c
00000080: f8f4 9bbc 74ee a73c bad1 55bd bffe d2bc
00000090: 1463 103d a977 fb3c dedf 5e3d 2e79 273d
000000a0: 21b1 173c 8149 e7bb e1d7 06bd ddbb 3fbd
000000b0: fe27 d9bc 45f4 7f3d 7c6f 07bd 65ac 873d
000000c0: bc94 94bb cf55 1b3d a9d2 6bbd ea02 543d
000000d0: 46c7 6fbd 38e3 1bbc 6682 cebb 796a 903c
000000e0: 33a0 4f3d 2cfc 47bd 899f 043c a599 293c
000000f0: 32ca 743d 129c de3c 0866 143d 7520 6fbc

net.2.weight f4 [32, 64, 5, 5]
-0.004175426 0.015998684 -0.0016516378 -0.023153225 0.01919482 0.00388169 0.0070937285 -0.0072734132
0.00017958868 -0.0034993084 -0.01121438 0.022748973 0.011069597 -0.024255637 -0.010161256 -0.004145034
0.009219912 -0.007861866 0.010773624 0.022199245 -0.011164641 0.012567304 0.018021194 -0.0017166703
0.014558893 -0.016532764 0.023750193 0.0014434977 0.0007451912 -0.02009161 -0.021899184 0.014424521
-0.00712486 0.018809719 -0.0057514734 0.007274265 0.013288603 -0.025026001 -0.009602287 0.019069083
-0.021585947 0.0022014068 -0.014884749 -0.022524979 0.007887035 0.010514542 -0.0070678024 0.006515665
-0.01934588 0.016749702 0.009798225 -0.0045653814 0.0061002746 -0.014225127 0.0031198936 -0.010517899
0.023212474 -0.0034804658 0.009934723 0.0010681879 0.004780421 -0.010502976 0.014680818 0.022986727
-0.010198282 0.0068129688 -0.005672503 0.006101868 -0.008349633 -0.002038635 0.02192101 -0.00050856604
0.00464027 -0.004676269 0.020422274 -0.003981617 0.01425038 -0.028123934 -0.012214157 -0.016945224
0.004644433 0.016015619 -0.029505158 -0.012532282 -0.012860867 -0.007328628 -0.028779952 0.015061749
0.0015279459 -0.018114612 0.017635431 -0.0036612728 -0.015514044 -0.0132777 -0.008758768 -0.0251651
-0.002155183 -0.019211546 0.011435299 0.011722742 0.00949104 0.02330234 0.018111778 -0.016020333
0.007535128 -0.021560114 -0.00058621325 -0.0011659305 -0.02111644 0.0044486537 -0.004202463 -0.022283508
-0.00054773886 0.021602983 0.02042582 -0.020960042 0.0108785685 -0.019333156 0.02346264 0.023853984
0.021898339 -0.011990725 -0.0064417715 -0.005146106 0.017846448 -0.024631863 -0.02341731 0.019233102
-0.02571065 -0.010886243 0.005587828 0.00086168596 -0.024051731 0.00916832 -0.01765849 0.012597367
0.023203876 0.018062424 0.0045533255 0.0057324497 -0.019762853 -0.018202204 0.007374782 -0.025807535
-0.016744874 0.022555359 0.022842648 -0.02405125 -0.00934172 0.0031523134 0.018814983 0.0064821662
-0.020633033 0.023541572 -0.011915059 -0.01072139 0.012244786 0.01288581 -0.009740209 0.0056817457
-0.022519613 -0.02391524 -0.016762467 -0.021960743 -0.014614697 -0.0056842286 -0.016354838 -0.023344722
0.0096996995 -0.02245696 0.014447465 0.008044602 -0.026177408 -0.020894855 0.021588642 -0.016211152
0.019705685 0.019351041 0.022736609 0.004804649 0.018380865 -0.003613959 -0.01913097 -0.021512665
-0.008720164 -0.014181552 0.012670422 0.014720475 -0.005204051 0.015500791 0.015368249 -0.001788593
-0.015660021 0.0006228678 0.005378223 -0.0075162845 0.01598183 -0.008662192 0.0060864436 0.022543201
-0.023476765 -0.010632696 -0.01022736 0.017823843 0.0027774211 -0.015811017 0.016592741 0.0018047193
-0.00933448 0.0021001936 0.0021289957 -0.0052028843 -0.000511632 0.013603784 -0.0067876037 0.007221735
-0.0030604722 -0.0069543174 0.0074834623 0.0050193067 -0.0069711665 0.015133139 -0.016312642 0.016957624
0.0069241384 0.018752614 0.0036896674 0.015776185 -0.0031979752 -0.010455722 0.023334846 -0.025683485
-0.008679558 -0.006426952 0.022585126 -0.015271004 -0.01862342 -0.005908588 -0.0005831038 -0.019413728
-0.005178657 0.0060751643 0.010395669 -0.008632634 -0.010371409 -0.009946494 -0.0042716004 0.016502239
0.021866426 0.01538907 0.0069821524 0.018735724 -0.0026357418 0.009670777 0.016689293 -0.0015735175
00000000: 03d2 88bb ac0f 833c c57b d8ba d5ab bdbc
00000010: 753e 9d3c f463 7e3b 8272 e83b d055 eebb
00000020: f84f 3c39 a754 65bb 85bc 37bc 0e5c ba3c
00000030: 415d 353c c2b3 c6bc 667b 26bc 11d3 87bb
00000040: 1d0f 173c 0ecf 00bc db83 303c 31db b53c
00000050: e6eb 36bc 18e7 4d3c 2fa1 933c e601 e1ba
00000060: 6c88 6e3c b86f 87bc c48f c23c bf33 bd3a
00000070: ef58 433a 2997 a4bc eb65 b3bc d354 6c3c
00000080: a877 e9bb d716 9a3c db76 bcbb f55c ee3b
00000090: 71b8 593c 5403 cdbc e952 1dbc c436 9c3c
000000a0: 03d5 b0bc 7a45 103b 2adf 73bc 4e86 b8bc
000000b0: 9f38 013c 3045 2c3c 0699 e7bb 5c81 d53b
000000c0: 407b 9ebc ac36 893c bc88 203c 3299 95bb
000000d0: d0e4 c73b 8210 69bc 2177 4c3b 4453 2cbc
000000e0: 1628 be3c 8718 64bb 40c5 223c 7002 8c3a
000000f0: 14a5 9c3b ad14 2cbc d087 703c a94e bc3c
00000100: b216 27bc 533f df3b 67e0 b9bb 2ef2 c73b
00000110: e6cc 08bc 9f9a 05bb b193 b33c 4a51 05ba
00000120: 680d 983b 633b 99bb 9d4c a73c 3978 82bb
00000130: 6d7a 693c 2a64 e6bc e31d 48bc b6d0 8abc
00000140: 5430 983b 3033 833c cdb4 f1bc 3354 4dbc
00000150: 63b6 52bc fd24 f0bb efc3 ebbc 8ec5 763c
00000160: 5b45 c83a 1865 94bc 2e78 903c f7f1 6fbb
00000170: 9e2e 7ebc b68a 59bc f080 0fbc 0a27 cebc
00000180: f93d 0dbb 8861 9dbc 1f5b 3b3c be10 403c
00000190: 4f80 1b3c 8de4 be3c 275f 943c 133d 83bc
000001a0: 3ce9 f63b d69e b0bc 1bac 19ba 23d2 98ba
000001b0: 62fc acbc 03c6 913b d1b4 89bb e78b b6bc
000001c0: 2296 0fba bdf8 b03c 0d54 a73c 65b4 abbc
000001d0: 063c 323c 9160 9ebc b934 c03c 6e69 c33c
000001e0: 2564 b33c bf74 44bc 7f15 d3bb aaa0 a8bb
000001f0: b732 923c c3c8 c9bc a9d5 bfbc bd8e 9d3c
00000200: 249f d2bc 365c 32bc 191a b73b c4e2 613a
00000210: 2308 c5bc b936 163c 8aa8 90bc 3065 4e3c
00000220: 0e16 be3c a6f7 933c 1034 953b 46d7 bb3b
00000230: b5e5 a1bc ca1c 95bc 28a8 f13b 536a d3bc
00000240: 8c2c 89bc 04c6 b83c 8120 bb3c 2107 c5bc
00000250: 030e 19bc 0b97 4e3b e121 9a3c 5a68 d43b
00000260: 9b06 a9bc 41da c03c 6137 43bc c5a8 2fbc
00000270: 5b9e 483c 011f 533c 6695 1fbc f02d ba3b
00000280: 0d7b b8bc e5e9 c3bc 7151 89bc 04e7 b3bc
00000290: 7b72 6fbc c442 babb 95fa 85bc 6e3d bfbc
000002a0: 7deb 1e3c a9f7 b7bc 0fb5 6c3c 82cd 033c
000002b0: 0172 d6bc b02b abbc aada b03c 40cd 84bc
000002c0: d16d a13c 1386 9e3c 2042 ba3c 5170 9d3b
000002d0: 7893 963c 2cd8 6cbb 8db8 9cbc 543b b0bc
000002e0: 05df 0ebc be59 68bc 9a97 4f3c 262e 713c
000002f0: be86 aabb 08f7 7d3c 1ccb 7b3c 396f eaba
00000300: 7249 80bc f347 233a ce3b b03b 2a4b f6bb
00000310: 54ec 823c deeb 0dbc ca70 c73b 85ac b83c
00000320: 5852 c0bc c234 2ebc a890 27bc 4f03 923c
00000330: 6505 363b 1b86 81bc 80ed 873c 558c ec3a
00000340: a6ef 18bc 67a3 093b 9f86 0b3b f57c aabb
00000350: 0b1f 06ba 68e2 5e3c 8c6a debb 4ea4 ec3b
00000360: 3492 48bb 0be1 e3bb d537 f53b ff78 a43b
00000370: 626e e4bb fcf0 773c 17a2 85bc b7ea 8a3c
00000380: e2e3 e23b 159f 993c 59ce 713b 0f3d 813c
00000390: 1f95 51bb 7a4e 2bbc b828 bf3c 2c66 d2bc
000003a0: b434 0ebc 2e99 d2bb 7104 b93c 3c33 7abc
000003b0: 2490 98bc d49c c1bb 6fdb 18ba 8a09 9fbc
000003c0: b9b1 a9bb 2c12 c73b 9952 2a3c e46f 0dbc
000003d0: d8ec 29bc 9ff6 22bc c8f8 8bbb b42f 873c
000003e0: 3821 b33c 7022 7c3c 8aca e43b a97b 993c
000003f0: 69bc 2cbb 2e72 1e3c fcb7 883c 7c3e ceba

net.2.bias f4 [32]
0.0039033904 0.021058364 0.004164197 0.011150775 0.009715543 -0.0146548655 -0.011510408 0.0062927073
0.0030569918 -0.016138365 -0.0032665606 0.005197394 0.010492188 -0.006766028 -0.016955962 0.019422121
-0.006873448 0.0024943808 0.02286063 0.01891542 0.016794818 -0.017171258 -0.017985553 0.021921778
0.014665972 -0.00130786 -0.018427229 0.023761379 0.0017967959 -0.018586755 0.010384704 -0.02131365
00000000: 06d0 7f3b 9782 ac3c d173 883b bdb1 363c
00000010: f12d 1f3c f61a 70bc 2696 3cbc 0e33 ce3b
00000020: d057 483b 9b34 84bc cb13 56bb e74e aa3b
00000030: 6de7 2b3c 8eb5 ddbb 3be7 8abc 241b 9f3c
00000040: a93a e1bb c478 233b 3746 bb3c 83f4 9a3c
00000050: 4995 893c bdaa 8cbc 7056 93bc 4d95 b33c
00000060: 8c49 703c 806c abba b3f4 96bc 39a7 c23c
00000070: 7782 eb3a 4043 98bc 9b24 2a3c f799 aebc

net.4.weight f4 [3, 32, 5, 5]
0.025458826 -0.034062147 -0.02762721 -0.013390234 -0.029576277 0.016905239 -0.012375912 0.007057922
-0.030091863 0.022650307 0.013504767 -0.004775371 -0.033573385 0.002738993 -0.018534016 -0.014461278
-0.02790164 0.007081264 0.016752766 -0.010099667 0.03392366 0.035846397 0.028724127 -0.016803576
0.021639692 0.029562743 0.024427945 -0.013565357 0.03329477 0.017979858 -0.0013841309 -0.020941347
-0.03369174 -0.0330756 0.03115799 0.025978804 -0.029346453 -0.028117249 -0.016920932 -0.032402333
0.0150705855 -0.02401895 -0.01782688 -0.0290268 0.0021424834 0.028581565 -0.010874942 0.03381354
0.011970168 -0.016816873 0.0034092483 -0.0033502223 -0.023283588 0.02417672 0.02199313 0.013730636
0.009833674 -0.0169501 0.014393532 -0.03151484 0.024323689 0.020258969 -0.018854411 -0.021959351
-0.021088732 0.00716191 -0.0057382123 -0.002615654 -0.0150351925 -0.000110982364 0.02016053 -0.011076899
-0.025777873 0.025302298 0.029324083 0.015304242 0.01176642 -0.025463939 0.031736147 -0.013941702
-0.0048087887 0.01199096 -0.025372129 -0.009086362 0.02290124 0.022690743 -0.00023919334 -0.0016228381
-0.0033620342 -0.024698466 -0.0010552064 0.014118245 -0.003801544 -0.035607517 0.0029128455 -0.002271299
-0.007395991 0.033453453 0.018994687 0.02123145 -0.011508601 -0.0020807022 -0.0017784714 0.018336833
-0.03224633 0.0016103256 -0.017217686 0.029014958 -0.016296573 -0.04127636 -0.017917866 0.01709458
-0.034604482 -0.0027705613 -0.042531822 0.020694643 -0.026582696 -0.0084935585 -0.0019877192 -0.022880586
0.014976864 -0.03599145 -0.0050166505 -0.02775502 0.004971697 -0.014951913 0.017904095 0.013843334
0.042117793 -0.027420124 -0.021706033 0.014958963 -0.00959418 -0.021921726 0.020858692 -0.018462265
0.004331252 -0.01928839 -0.008289868 0.0035062355 -0.03104115 0.013071901 -0.030900002 -0.0012209525
-0.020096354 -0.034720074 -0.01845787 -0.033503316 0.007368952 -0.026382511 0.010330973 -0.013378992
-0.007764547 0.02184483 0.01679259 0.026114428 0.017554697 0.027690155 0.03249302 -0.015504211
0.017773995 0.034820404 0.0032722699 -0.015050013 -0.014349455 0.012403206 0.0063083693 0.0016132122
-0.028168645 -0.00811175 -0.023915028 0.01408588 0.03370186 -0.004893613 -0.004161379 0.011557253
0.035073183 0.036479656 0.0005896127 0.020207558 0.032624878 0.0055239103 0.009057589 -0.009877533
0.034237534 0.021629058 -0.011455052 0.03071804 -0.023200905 -0.025264539 -0.03154727 -0.015351093
0.014507009 0.0019428134 0.026769865 0.03320062 0.030694885 -0.01839267 -0.014144398 0.0016523745
0.021531163 -0.013566952 -0.026008736 0.0031416274 -0.022355605 -0.028058125 -0.004912681 -0.030571654
0.007877548 -0.013026476 0.017796034 -0.021367332 -0.014407868 0.014705868 0.00067312527 -0.013533741
0.0033839291 -0.0087197935 -0.029762408 0.031377953 -0.024755048 -0.029392863 -0.029203616 0.0019476359
-0.010306906 -0.016351236 -0.013142063 0.005263575 0.021824844 -0.0029990482 -0.0014255414 0.038193747
0.00629609 -0.028824115 -0.012249234 0.035327937 0.013561555 -0.029987803 0.0006297982 0.029338293
-0.022378135 -0.036948666 -0.02805551 -0.010847605 0.027517265 0.02969963 0.035298858 0.014565859
0.012528495 -0.032494258 -0.027161822 -0.007084005 -0.01997462 0.034163415 -0.0004708261 -0.0042980323
00000000: 078f d03c c084 0bbd 7552 e2bc b662 5bbc
00000010: f349 f2bc db7c 8a3c 56c4 4abc 2446 e73b
00000020: 3683 f6bc 238d b93c 1943 5d3c b77a 9cbb
00000030: 3f84 09bd ad80 333b a6d4 97bc ffee 6cbc
00000040: fb91 e4bc f309 e83b 193d 893c 1379 25bc
00000050: 89f3 0a3d acd3 123d dc4e eb3c a7a7 89bc
00000060: b945 b13c 912d f23c 1d1d c83c 3b41 5ebc
00000070: 1960 083d 7f4a 933c ba6b b5ba 308d abbc
00000080: 5a00 0abd 487a 07bd 0b3f ff3c 80d1 d43c
00000090: f967 f0bc 2556 e6bc c49d 8abc 4fb8 04bd
000000a0: 9eea 763c 64c3 c4bc ad09 92bc 9dc9 edbc
000000b0: e868 0c3b e323 ea3c d02c 32bc 1180 0a3d
000000c0: 861e 443c 8ac3 89bc b26d 5f3b 678f 5bbb
000000d0: 39bd bebc 420e c63c f02a b43c 76f6 603c
000000e0: 6b1d 213c f0da 8abc d9d2 6b3c b415 01bd
000000f0: 7942 c73c 23f6 a53c 9174 9abc 19e4 b3bc
00000100: 47c2 acbc 75ae ea3b 9d07 bcbb 646b 2bbb
00000110: 2b56 76bc 34bf e8b8 b227 a53c e27b 35bc
00000120: 1e2c d3bc c446 cf3c 0f39 f03c a5be 7a3c
00000130: f1c7 403c c099 d0bc c3fd 013d bd6b 64bc
00000140: 0b93 9dbb bb75 443c 36d9 cfbc f7de 14bc
00000150: 629b bb3c f0e1 b93c f9cf 7ab9 69b5 d4ba
00000160: 9355 5cbb 7054 cabc da4e 8aba 3650 673c
00000170: 5323 79bb 30d9 11bd 70e5 3e3b 13da 14bb
00000180: 125a f2bb 7d06 093d bf9a 9b3c 94ed ad3c
00000190: 928e 3cbc 645c 08bb 991b e9ba 2037 963c
000001a0: ba14 04bd 9011 d33a 1b0c 8dbc c7b0 ed3c
000001b0: 6480 85bc 6711 29bd 7dc8 92bc ef09 8c3c
000001c0: 6ebd 0dbd 4e92 35bb d935 2ebd d087 a93c
000001d0: f4c3 d9bc 9128 0bbc 6544 02bb 1170 bbbc
000001e0: 8561 753c c56b 13bd b762 a4bb 7f5e e3bc
000001f0: 9ee9 a23b def8 74bc 9cab 923c 27cf 623c
00000200: b583 2c3d 2ba0 e0bc dad0 b1bc 7016 753c
00000210: e830 1dbc 3195 b3bc d9df aa3c 2d3e 97bc
00000220: 2ded 8d3b b002 9ebc 3ad2 07bc dfc8 653b
00000230: 034a febc 872b 563c 0022 fdbc 5e08 a0ba
00000240: 1ca1 a4bc a336 0ebd f634 97bc c63a 09bd
00000250: 4077 f13b 2320 d8bc 3e43 293c 8f33 5bbc
00000260: be6d febb eef3 b23c 9d90 893c eded d53c
00000270: dece 8f3c 77d6 e23c 6717 053d 6005 7ebc
00000280: c59a 913c d79f 0e3d 9473 563b 5494 76bc
00000290: fa19 6bbc d136 4b3c 70b6 ce3b 6b72 d33a
000002a0: eec1 e6bc 25e7 04bc 73e9 c3bc 76c8 663c
000002b0: f60a 0a3d 9a5a a0bb 2d5c 88bb a25a 3d3c
000002c0: e6a8 0f3d b16b 153d 3d90 1a3a 528a a53c
000002d0: aaa1 053d eb01 b53b 4866 143c 60d5 21bc
000002e0: a83c 0c3d 6c2f b13c f8ad 3bbc 66a4 fb3c
000002f0: d30f bebc 94f7 cebc b637 01bd 2783 7bbc
00000300: ceae 6d3c 00a6 fe3a 7a4c db3c 60fd 073d
00000310: d773 fb3c 3aac 96bc e8bd 67bc 7d94 d83a
00000320: 1f62 b03c ec47 5ebc 4610 d5bc c3e3 4d3b
00000330: 1a23 b7bc 27da e5bc 8efa a0bb 6871 fabc
00000340: d510 013c 006d 55bc fdc8 913c 8b0a afbc
00000350: fa0e 6cbc e2f0 703c ac74 303a a0bc 5dbc
00000360: e9c4 5d3b 77dd 0ebc 4bd0 f3bc 2b86 003d
00000370: 19cb cabc 4dc9 f0bc 6c3c efbc d147 ff3a
00000380: 4cde 28bc 07f3 85bc cf51 57bc 117a ac3b
00000390: 04ca b23c ae8b 44bb 3bd9 baba 0c71 1c3d
000003a0: 6e4f ce3b 8d20 ecbc 03b1 48bc 07b4 103d
000003b0: 4931 5e3c fba8 f5bc 0b19 253a dc56 f03c
000003c0: 5a52 b7bc 7c57 17bd abd4 e5bc 27ba 31bc
000003d0: e36b e13c a34c f33c 8995 103d a4a5 6e3c
000003e0: 5144 4d3c b318 05bd 7882 debc f120 e8bb
000003f0: d0a1 a3bc f0ee 0b3d 36d9 f6b9 82d6 8cbb

net.4.bias f4 [3]
0.005632817 0.023344258 0.0039436547
00000000: 7e93 b83b 753c bf3c c639 813b
