checkpoints/srcnn_epoch48_2025-03-20_23-02-04.pth (torch, 280012 bytes, 6 tensors)

net.0.weight f4 [64, 3, 9, 9]
00000000: 76cb 043d 0851 9fbc 5333 fe3c d243 573d
00000010: 8745 5ebd e6ff a33c e6b0 183d cf1f 95bc
00000020: 7e1d cdbc 270e 303c edc1 25bd 3e6f b9bc
00000030: df1a 363b b99e 05bd b337 3d3b 2218 803d
00000040: 5f40 8f3d 5afe 4ebc 6881 33bd f5e6 06bc
00000050: c3c5 2e3b becf 693d 3d78 77bc e99c 11bd
00000060: f9c5 803d 03d2 e83c e4a8 723d 0187 bf3c
00000070: 92a0 14bd 42cb 7abd 1dd7 563d d7d5 2fbd
00000080: 87e5 82bc 72d9 2fbd 9a04 7c3d 40f2 50bd
00000090: c364 3abc aac3 d53a 4ec8 adbb 0858 c9bc
000000a0: 8a76 31bc d64b 823d 2aca eebc 5fa7 eabc
000000b0: 9b00 293d 1a8c 8a3d 3c51 60bd 4c2d 113d
000000c0: 2007 5e3c 7e26 e93c b280 9fbb 95b2 75bc
000000d0: 4413 5abd e922 7a3d 339e 7d3d 07b4 ecbc
000000e0: e229 8f3d 3e1d 0dbd 51a6 5a3d ce97 983d
000000f0: 6048 313c 294f abbb 6b17 6f3c c79a 173d
00000100: 4b23 853d abf0 19bc 5045 863d e04a 48bc
00000110: ae9b adbc df80 fc3c ec2a 26bd 2fb2 63bb
00000120: 57f3 eebc 9ce5 37bd ffeb 27bd e80d 3fbd
00000130: 128f 333d fbb2 48bc 95ab 69bd 9b0b 983c
00000140: 20ed debc 0d80 ecbc 345b 60bc 5df3 0fbd
00000150: 71dd a53c 3e5d 5cbd 2091 803c d3ed f0bb
00000160: 0683 93bc 39ee 593d 0746 37bc 2bc3 3cbd
00000170: 43b4 1c3c 4a8c 55bd 92e2 5dbd 1c37 babc
00000180: e8c3 1d3d 6f23 0b3c 2c86 363c 1991 8c3d
00000190: 6b4d 453d c825 893d d334 5bbd 4e3e 02bb
000001a0: 6dac 553d 2adc 1fbd 71ae 5cbd 9e5d 043d
000001b0: 9658 39bd 6ccc 43bb 7c32 48bd 6e0a d2bc
000001c0: b65a 273d 2b45 d03c 8064 3f3c 509d 76bc
000001d0: 6c0a 59bd 5aa2 303d 476a 0d3d eb0d 51bc
000001e0: 1805 4ebd 4fdc 5a3d 95b7 73bd 2a56 6b3d
000001f0: 6675 ddbc ef47 1bbc a85f 01bd 836e c6bc
00000200: 5235 23bd 6d0b fdbc bc0d 373d d2e0 2ebd
00000210: 1bbe 033b bbc5 fc3c 0d07 4b3d e32d 19bd
00000220: c805 b5bc 7a3f 3dbc 5754 673d edc5 53bb
00000230: fa7f 6d3d 4ced 3b3c 361f 13bd 2e3d 40bd
00000240: f7e5 443d 7e39 4a3d a3f4 0cbc e6b0 66bd
00000250: 441c 2f3a 0df3 ffbc b709 203d 5e03 64bd
00000260: 26ed b23c 875c 2c3b 6d00 d7bb eb30 44bd
00000270: ac3b 2ebd d9c6 603d 5b1e 2bbd e57b b2bc
00000280: df48 98bc 8a57 973c 2727 1cbd fa75 cb3c
00000290: b5e2 a93c b413 f0bc 9cc8 0b3d 537a c1bb
000002a0: cae4 1f3d 83e3 44bc fef0 0fbd 2fc3 853d
000002b0: b49c 55bd 5261 babc 36b5 50bd df65 773d
000002c0: f0bf 22bd 2c01 093d 8bf3 68bd f146 073d
000002d0: 5a0b fd3c 5146 753d 74ff 1cbd fb9b b13c
000002e0: 32fa 993d 555d 8e3d 1b13 923d 870b 0a3d
000002f0: 40c3 57bc 3820 313c 5e66 3cbd beb0 f5bb
00000300: 47e2 853c 1775 7d3d 9394 afbb 3d8a 683d
00000310: cfad 7b3d 47fe e03c 9af8 783d 09e6 853d
00000320: 66d1 cb3c 5981 593d a6aa 83bb 5c85 9ebc
00000330: 700d ce3c d7ff 6c3c 5fc7 3fbc 16d2 67bd
00000340: 45be 5cbd b390 b6bc be16 5dbd 4c2e 343c
00000350: ad76 5ebd 1e47 8dbc 706c a9bc a335 023d
00000360: b4bd 943c 8207 8f3c 3780 223c e810 00bd
00000370: 95ab 603d 7497 2c3d df0d 813d 0dd7 03bd
00000380: e47f e4bc d8b9 7b3d 2bf0 5cbd f52d 133d
00000390: b96c 0abc ad4f 64bd b01c 50bc 0374 87bc
000003a0: 6408 8ebc 82ee 44bd f0a8 17bd 19e8 fe3c
000003b0: 8963 3e3d bc74 f5bb 8f62 59bc 5545 a03a
000003c0: 3747 443d 06bc 65bd 084f 2d3d 99cf 9f3c
000003d0: b632 50bd 97b6 313d 5bd1 813d a1d9 3b3c
000003e0: 7df9 51bc 6ee6 793d 40d0 2ebd 1859 80bc
000003f0: a22f 00bc 03e0 1ebd 5508 b93c 534a f139
0.032420598 -0.019447818 0.031030333 0.052554913 -0.054265525 0.020019483 0.03727808 -0.018203644
-0.025038477 0.010745562 -0.040468145 -0.022636052 0.0027787013 -0.032622073 0.002887231 0.06254603
0.069947 -0.012633884 -0.043824583 -0.008233775 0.0026668168 0.057082884 -0.015104351 -0.03555003
0.0628776 0.028420454 0.059243098 0.023379805 -0.036285944 -0.061228998 0.05245124 -0.042928543
-0.015978588 -0.04293198 0.061527826 -0.051012278 -0.0113765625 0.0016308923 -0.005303419 -0.02457811
-0.010831485 0.06362121 -0.029149134 -0.028644262 0.041260343 0.067650035 -0.05476497 0.03544359
0.013551503 0.028460737 -0.0048676366 -0.014996191 -0.05324103 0.06106845 0.06191845 -0.028894437
0.069904104 -0.034451716 0.053381268 0.074508294 0.010820478 -0.0052279425 0.014592986 0.03701284
0.06500872 -0.009395759 0.06556189 -0.012224883 -0.021192398 0.03082317 -0.040568277 -0.0034743657
-0.029168768 -0.044896707 -0.040996548 -0.04664412 0.043837614 -0.0122497035 -0.0570484 0.018560221
-0.02721268 -0.028869653 -0.0136936195 -0.0351442 0.020247193 -0.05379986 0.015694201 -0.0073525696
-0.018006813 0.053205702 -0.011186129 -0.046084564 0.009564462 -0.052135743 -0.054171152 -0.022731356
0.03851691 0.008492335 0.0111403875 0.06863613 0.048169535 0.06696659 -0.053517174 -0.0019873562
0.05216639 -0.039028324 -0.053877298 0.032315843 -0.045250498 -0.0029876484 -0.04887627 -0.025639739
0.040857993 0.025423607 0.011681676 -0.015052155 -0.052988455 0.04312358 0.034525182 -0.012759666
-0.050297827 0.05343276 -0.05950125 0.05745522 -0.027033519 -0.0094775995 -0.031585366 -0.024222618
-0.039845772 -0.030889237 0.044690832 -0.042694874 0.0020102325 0.030856004 0.04956727 -0.037397277
-0.022097483 -0.0115507785 0.056476917 -0.0032314018 0.057983376 0.01147015 -0.035918437 -0.046933345
0.048070874 0.049371235 -0.008603248 -0.056321047 0.0006679932 -0.031243825 0.039071765 -0.055667274
0.021841597 0.0026300268 -0.00656133 -0.047898214 -0.042537376 0.054877136 -0.041776996 -0.021787593
-0.018589435 0.018474359 -0.038123276 0.024836529 0.020737985 -0.02930627 0.034126863 -0.0059044748
0.03903655 -0.012017134 -0.035141937 0.06531369 -0.052151397 -0.022751484 -0.050954066 0.060399886
-0.039733827 0.033448383 -0.056872886 0.03302664 0.030889202 0.059881512 -0.038329557 0.021680823
0.07518424 0.069513954 0.0713255 0.0337024 -0.01316911 0.010810904 -0.045996062 -0.007497876
0.016343249 0.061879244 -0.0053582876 0.05677246 0.061445054 0.027464999 0.06078396 0.06538016
0.024880122 0.05310187 -0.0040181456 -0.0193507 0.025152892 0.014465294 -0.011705249 -0.056596838
-0.053892393 -0.022285795 -0.053976767 0.010997366 -0.054312397 -0.017245825 -0.02068159 0.031789433
0.018156864 0.017459635 0.009918264 -0.031266123 0.054851133 0.042136624 0.06301474 -0.03218751
-0.027893014 0.06145653 -0.05393998 0.0359325 -0.008448773 -0.055740047 -0.012702152 -0.01653481
-0.017337985 -0.04807902 -0.037026346 0.031116532 0.046481643 -0.0074907225 -0.013268127 0.0012227694
0.04791948 -0.056087516 0.0423117 0.01950817 -0.05082961 0.043387022 0.063387595 0.011465461
-0.01281583 0.06101077 -0.04267907 -0.015667483 -0.007823857 -0.038787853 0.02258698 0.00046022478

net.0.bias f4 [64]
00000000: bd1f 7e3d 4cac b83c ecd9 6c3d 6d03 923c
00000010: 40f0 663d 9a6e 283d b874 023d 4fb7 e03c
00000020: 8a00 3a3d 6763 4abd dd1c ad3c d984 93bc
00000030: 252f 02bb a255 363b 2293 15bd 5c75 09bc
00000040: 3c50 09bd a381 4339 9b31 563a 757b 21bd
00000050: 178e 26bd dbfe 093d eac1 863b f4b2 823c
00000060: efd2 2c3d f039 2b3c 3be2 ebbc 8610 4d3c
00000070: 574f 4f3d 29e2 563c f974 5e3d 8ee7 943c
00000080: 1dab 91bc 59a2 aa3c 61e7 48bd d4d3 cebc
00000090: 81a9 103d 6805 023d 2334 5e3d e520 253d
000000a0: dc50 193c 876d ddbb d8fa 05bd d9e3 3bbd
000000b0: 7714 cabc d745 7f3d 8276 f8bc 00f2 8b3d
000000c0: 67e7 6abb 47c9 1b3d 49d2 68bd a614 593d
000000d0: 75d1 70bd d1ba 1abc 5c1a c7bb 9244 903c
000000e0: 7523 533d 099f 46bd 4d7d 023c 9952 293c
000000f0: c350 613d a6d4 e53c 8a07 133d 94d2 68bc
0.062041987 0.022543095 0.057825014 0.0178239 0.056381464 0.041121103 0.031849593 0.027431158
0.04541067 -0.049411204 0.021131927 -0.018007683 -0.0019864526 0.0027822037 -0.03651727 -0.008389797
-0.033523783 0.00018644943 0.0008170844 -0.03942438 -0.04066285 0.033690315 0.004112472 0.015954472
0.04219335 0.010450825 -0.028794399 0.0125161465 0.050612774 0.013115444 0.054310773 0.01817682
-0.017781788 0.020829367 -0.049048785 -0.025247492 0.0353179 0.031743437 0.05424894 0.040314574
0.009357657 -0.0067574414 -0.032709926 -0.04587159 -0.024667962 0.062322464 -0.030329946 0.06833267
-0.0035843493 0.03803375 -0.05684117 0.052998208 -0.058793504 -0.009443955 -0.0060761403 0.017610822
0.051547486 -0.04849151 0.007964444 0.010334634 0.05500866 0.0280555 0.03589586 -0.014210362

net.2.weight f4 [32, 64, 5, 5]
00000000: dece 88bb fa11 833c 985b d8ba 84aa bdbc
00000010: 703f 9d3c 856b 7e3b 1779 e83b 6151 eebb
00000020: 9393 3c39 fd4b 65bb 8ace 36bc b3bc ba3c
00000030: 52cd 353c d079 c6bc f3d2 25bc 08a2 86bb
00000040: 09a9 173c c637 00bc 5918 313c a13e b63c
00000050: ad1c 36bc 51de 4e3c 4b48 943c c108 d4ba
00000060: 2589 703c b86f 87bc c48f c23c d533 bd3a
00000070: 7159 433a 2997 a4bc eb65 b3bc d354 6c3c
00000080: a877 e9bb d716 9a3c db76 bcbb ab5d ee3b
00000090: 7bb8 593c 4603 cdbc 6d50 1dbc dc37 9c3c
000000a0: 03d5 b0bc 7c47 103b 9fde 73bc 8985 b8bc
000000b0: 9a3c 013c 3045 2c3c 0699 e7bb 5c81 d53b
000000c0: 407b 9ebc d436 893c 088a 203c 0197 95bb
000000d0: 65e7 c73b ad0e 69bc 537e 4c3b c152 2cbc
000000e0: 1c28 be3c ca15 64bb e7c5 223c 1d09 8c3a
000000f0: d3c0 9c3b 130c 2cbc 548b 703c 0850 bc3c
00000100: 6515 27bc bc68 df3b fecc b9bb b5fa c73b
00000110: 2acb 08bc f195 05bb bbb1 b33c 9f9b 01ba
00000120: 737d 983b edc6 98bb 3a6a a73c c468 82bb
00000130: ce7e 693c 2c62 e6bc b818 48bc 22cd 8abc
00000140: cf3c 983b 9d34 833c e2b2 f1bc e24b 4dbc
00000150: 70ad 52bc b251 efbb 4d73 ebbc e214 783c
00000160: 9924 d83a 5522 93bc 3dec 903c b31e 6dbb
00000170: b2fb 7cbc 301d 57bc 9f43 0cbc c465 cdbc
00000180: dc77 07bb aecb 9cbc 5f62 3c3c def5 403c
00000190: 4f80 1b3c 8de4 be3c 275f 943c 133d 83bc
000001a0: 3ce9 f63b d69e b0bc 56aa 19ba 11d1 98ba
000001b0: 62fc acbc 03c6 913b 53b0 89bb 2a8b b6bc
000001c0: b176 0fba d9f8 b03c 0e54 a73c d9b3 abbc
000001d0: e93e 323c 245f 9ebc 9935 c03c b569 c33c
000001e0: b064 b33c c272 44bc 300f d3bb 9699 a8bb
000001f0: 9533 923c c3c8 c9bc a9d5 bfbc bd8e 9d3c
00000200: 249f d2bc 365c 32bc 191a b73b d0e2 613a
00000210: 2308 c5bc b936 163c 8aa8 90bc ac65 4e3c
00000220: 2116 be3c 1ff8 933c e739 953b c7dd bb3b
00000230: b5e5 a1bc ca1c 95bc e5a8 f13b 526a d3bc
00000240: 4a2c 89bc 1ec6 b83c 8620 bb3c f206 c5bc
00000250: 060c 19bc 8ba2 4e3b e121 9a3c 8068 d43b
00000260: 9b06 a9bc 41da c03c 6137 43bc 8aa8 2fbc
00000270: 5b9e 483c 051f 533c 5b95 1fbc 272e ba3b
00000280: c474 b8bc 94e5 c3bc 9e4d 89bc bfe2 b3bc
00000290: fe61 6fbc 9b2a babb 62f7 85bc 2f3b bfbc
000002a0: 40ed 1e3c 00f7 b7bc 23c8 6c3c ecde 033c
000002b0: 7d6e d6bc 8b2a abbc 4ddb b03c 2bc7 84bc
000002c0: e974 a13c 968b 9e3c 5249 ba3c 9092 9d3b
000002d0: db97 963c 80af 6cbb bab5 9cbc b838 b0bc
000002e0: d9d3 0ebc c6bd 67bc 37a7 503c 5a6d 733c
000002f0: 235a a3bb fb2a 813c 5271 7c3c c190 e2ba
00000300: 97a6 7ebc 015e 523a dd6c b73b b405 f5bb
00000310: 562f 833c 3905 0dbc 0aee c93b bf69 b93c
00000320: 5252 c0bc 5c34 2ebc a790 27bc 4f03 923c
00000330: 8207 363b 1186 81bc b1ed 873c 6690 ec3a
00000340: a6ef 18bc b7a3 093b dc06 0c3b d246 aabb
00000350: 0616 05ba 7903 5f3c b403 debb 6bf4 ec3b
00000360: 13e0 47bb 5f7d e3bb 5cbe f53b e42c a53b
00000370: 022f e4bb 7b09 783c a296 85bc 71f9 8a3c
00000380: 0533 e33b 159f 993c 5bce 713b 0f3d 813c
00000390: 0d94 51bb 784e 2bbc b828 bf3c 2c66 d2bc
000003a0: b434 0ebc 2e99 d2bb 7104 b93c 3c33 7abc
000003b0: 2490 98bc 5f9a c1bb e794 18ba 7906 9fbc
000003c0: b7b1 a9bb b412 c73b 0155 2a3c 5b6a 0dbc
000003d0: d9e5 29bc 9ef6 22bc c8f8 8bbb b52f 873c
000003e0: 3b21 b33c 7824 7c3c 47cb e43b f37b 993c
000003f0: 83b6 2cbb a073 1e3c d5b8 883c 5f3b ceba
-0.004175051 0.015999783 -0.0016506789 -0.023152597 0.019195288 0.003882141 0.007094513 -0.0072728847
0.00017984053 -0.003498792 -0.011157641 0.022795057 0.011096315 -0.024228007 -0.010121095 -0.004108671
0.00925661 -0.007825797 0.010809028 0.02224666 -0.011115235 0.012626247 0.018100878 -0.0016176925
0.014681135 -0.016532764 0.023750193 0.0014435003 0.00074519875 -0.02009161 -0.021899184 0.014424521
-0.00712486 0.018809719 -0.0057514734 0.0072743497 0.0132886125 -0.025025975 -0.0096016945 0.019069605
-0.021585947 0.0022015264 -0.01488462 -0.022524612 0.007887984 0.010514542 -0.0070678024 0.006515665
-0.01934588 0.016749777 0.009798534 -0.00456512 0.0061005824 -0.01422469 0.0031203225 -0.010517777
0.023212485 -0.0034803026 0.009934879 0.0010683868 0.0047837286 -0.010500926 0.014681656 0.02298738
-0.010197972 0.006817905 -0.005670189 0.0061028847 -0.008349219 -0.0020383561 0.021935334 -0.0004944149
0.0046536266 -0.0046623857 0.020436395 -0.003979774 0.014251424 -0.028122984 -0.012212925 -0.016943518
0.004645921 0.016016299 -0.029504243 -0.012530299 -0.012858734 -0.00730344 -0.028741503 0.015141698
0.0016490399 -0.017960707 0.017690772 -0.0036181628 -0.015440868 -0.013129517 -0.008561044 -0.02507294
-0.0020670807 -0.01914009 0.011498063 0.011777369 0.00949104 0.02330234 0.018111778 -0.016020333
0.007535128 -0.021560114 -0.0005861869 -0.0011658986 -0.02111644 0.0044486537 -0.0042019277 -0.022283155
-0.00054727035 0.021603035 0.020425823 -0.020959781 0.010879257 -0.019332476 0.023463057 0.023854116
0.021898597 -0.011990251 -0.0064410195 -0.005145262 0.017846862 -0.024631863 -0.02341731 0.019233102
-0.02571065 -0.010886243 0.005587828 0.00086168665 -0.024051731 0.00916832 -0.01765849 0.012597483
0.023203911 0.01806265 0.0045540216 0.005733225 -0.019762853 -0.018202204 0.00737487 -0.025807533
-0.016744751 0.022555407 0.022842657 -0.024051163 -0.0093412455 0.0031529989 0.018814983 0.006482184
-0.020633033 0.023541572 -0.011915059 -0.010721335 0.012244786 0.012885814 -0.009740199 0.0056817713
-0.022516616 -0.023913182 -0.016760644 -0.021958707 -0.0146107655 -0.0056813485 -0.016353313 -0.02334365
0.0097001195 -0.022456646 0.014452013 0.008048754 -0.026175732 -0.02089431 0.021588946 -0.016208252
0.019709067 0.01935367 0.02274004 0.0048087314 0.018382957 -0.0036115348 -0.019129623 -0.02151142
-0.008717501 -0.014144367 0.01273518 0.014857614 -0.0049851104 0.015767565 0.015407877 -0.0017285572
-0.015542648 0.0008024872 0.0055976943 -0.0074774865 0.016013782 -0.008607202 0.0061624097 0.022633431
-0.023476753 -0.010632601 -0.010227359 0.017823843 0.002777547 -0.015810998 0.016592832 0.0018048405
-0.00933448 0.0021002123 0.0021366393 -0.0051964307 -0.0005076829 0.013611668 -0.006775344 0.0072312853
-0.003049855 -0.0069424356 0.0074994992 0.005040752 -0.0069636116 0.015138979 -0.016307179 0.016964646
0.0069335722 0.018752614 0.003689668 0.015776185 -0.0031979114 -0.01045572 0.023334846 -0.025683485
-0.008679558 -0.006426952 0.022585126 -0.015271004 -0.01862342 -0.005908295 -0.0005820528 -0.019412266
-0.005178656 0.0060752276 0.010396243 -0.008631314 -0.010369741 -0.009946493 -0.0042716004 0.01650224
0.021866431 0.015389554 0.0069822404 0.018735861 -0.0026353903 0.009671122 0.016689697 -0.0015734247

net.2.bias f4 [32]
00000000: 2adb 7f3b c681 b33c ac56 833b b6ad 343c
00000010: c7bb 213c 96b3 71bc 1f7d 3bbc 4364 ca3b
00000020: 54f6 473b 5d9a 83bc 1814 56bb 1145 aa3b
00000030: e75e 433c 283e d4bb f074 8abc d2cd 9e3c
00000040: 339c e5bb 537a 233b 41d0 bc3c 055f 9e3c
00000050: eb62 893c ec5b 8cbc eca3 8fbc b7a2 b83c
00000060: cffe 723c 8cf4 c5ba 3195 97bc d314 cc3c
00000070: 97cd 0f3b 95e2 77bc 7c63 293c 16c4 aebc
0.0039040544 0.021912467 0.004008135 0.011027744 0.00987143 -0.014752289 -0.011443405 0.006176503
0.0030511813 -0.016064817 -0.0032665785 0.0051962216 0.011924482 -0.006477136 -0.016901463 0.019385252
-0.007007146 0.0024944737 0.023048522 0.019332418 0.0167708 -0.017133676 -0.017534219 0.022538526
0.014831259 -0.0015102788 -0.018503757 0.024912274 0.002194261 -0.015129705 0.01033866 -0.021333735

net.4.weight f4 [3, 32, 5, 5]
00000000: 078f d03c c084 0bbd 7552 e2bc b662 5bbc
00000010: f349 f2bc db7c 8a3c 56c4 4abc 2446 e73b
00000020: 3683 f6bc 238d b93c 1943 5d3c d57a 9cbb
00000030: 3f84 09bd 8480 333b a6d4 97bc ffee 6cbc
00000040: fb91 e4bc f309 e83b 193d 893c 1379 25bc
00000050: 89f3 0a3d acd3 123d dc4e eb3c a7a7 89bc
00000060: b945 b13c 886e 51bc 6b78 af3c 1849 5fbc
00000070: f668 773c fbc3 993c 8fb2 71bd f1a6 14bd
00000080: 1920 2bbd 2519 8abd 31cf 513b f256 043c
00000090: 2503 26bc b81d 09bc 533f a6bc 5ccf 0bbd
000000a0: 2435 d9ba 835d b0bb 6c73 acba d168 04bd
000000b0: 2cf9 963b 527f 9a3c ebc4 d43b eae1 383d
000000c0: ed4c 503c f0e4 d6bb c5e2 3c3b 345b 68bb
000000d0: 81a3 c0bc 06d4 c83c f290 b03c badb 5f3c
000000e0: 38df 213c 6742 8dbc dd44 703c bc78 03bd
000000f0: 80c6 c83c 9643 a53c 7dfa 9cbc ef7f b3bc
00000100: 51a1 afbc 4ec5 e43b 22cd cdbb c40a 4dbb
00000110: 9ff3 76bc 2860 11b9 e736 a73c f8ff 37bc
00000120: ade5 d8bc ccce ce3c db3a f13c 146b 6b3c
00000130: c5be 2f3c 8087 d5bc 952a 003d 9364 63bc
00000140: 6c2a acbb 1ed2 383c 88da d3bc 67d1 0fbc
00000150: 9493 be3c 4d3f b83c 038d 4fb9 0187 c8ba
00000160: 7d41 7cbb 3041 ccbc b7e3 ceba dfe4 5e3c
00000170: 89a9 94bb e6f6 18bd 1b21 313b 478d 38bb
00000180: f40c 01bc cedd 083d 814f 983c 4f83 b23c
00000190: 89ce 3fbc 42fc 0bbb 2348 c0ba a77b 943c
000001a0: 16bd 04bd d903 e13a e635 8cbc ff06 ea3c
000001b0: d7f2 87bc 0c8c 29bd 1158 92bc 2437 8b3c
000001c0: 7475 0fbd 61a8 49bb 3f47 2fbd c1d4 a53c
000001d0: 202f e2bc 87e7 09bc 595c 1cbb 2932 bfbc
000001e0: ca85 6c3c 6a33 17bd a466 9fbb e69a e5bc
000001f0: 2d92 9b3b de70 c1bc 7763 233c 03e8 133c
00000200: 34e1 2f3d 6c17 00bd 6da8 d3bc 89f0 433c
00000210: 15d3 19bc 5ad7 89bc b60e ac3c 6ca1 abbc
00000220: 5612 6f3b ba61 8bbc b197 deba 0aa6 963b
00000230: 3ed1 17bd eae0 143c 1bfd 03bd 51ff c23a
00000240: 68de bfbc ffd1 28bd 8a76 bcbc a52d 10bd
00000250: 7632 213c dbdb f2bc 6d0f 233c 5d6d 62bc
00000260: 1a57 01bc 0209 b33c 437d 883c e6bf d63c
00000270: af42 8d3c d702 e53c 2a0d 063d 4d3e 82bc
00000280: 9c4e 923c 4082 0d3d a71b 5d3b 4d16 7dbc
00000290: e80c 6dbc 5677 413c 2f2e b73b 1fa7 d33a
000002a0: 5f1b eabc a511 05bc 6541 c6bc 46c4 5e3c
000002b0: e92d 0a3d ad80 a3bb c058 92bb ce86 3c3c
000002c0: dfe0 0e3d 20cc 143d 3aa3 8639 60a5 a33c
000002d0: 5870 053d afdd ae3b 1f92 143c d225 27bc
000002e0: 05e8 0b3d 1263 af3c 7e3d 3bbc a001 ff3c
000002f0: 8f73 bfbc 35a0 d0bc 1d8b 01bd ead1 7bbc
00000300: 27a4 703c 99a4 f83a 4754 d83c 9e96 073d
00000310: 289d f93c 40fb 96bc 2e2c 66bc 8774 ca3a
00000320: 9fa2 b03c 1464 5bbc 0ec6 d3bc 302a 523b
00000330: 4c4c b4bc 77f7 e6bc ab53 babb 41d5 f9bc
00000340: fdc7 fe3b 6a82 58bc df27 903c 5b4c b5bc
00000350: 6c1c 6dbc 8df5 6d3c 7e06 233a f3e4 64bc
00000360: a4c6 5a3b b27c 10bc e463 fabc 558c 013d
00000370: 4016 cdbc 4836 f0bc dcce edbc 28af ab3a
00000380: edd2 26bc cd86 8dbc 5ab5 6cbc d130 b23b
00000390: f5ec b53c 52d6 4abb ac9c f0ba 3da5 1c3d
000003a0: fe2c c63b 534c ecbc fc8c 44bc 0ede 123d
000003b0: 0670 633c 61b5 f6bc ad3b 5e3a 6e4f fb3c
000003c0: ec7f b6bc c953 1abd 3992 e4bc e731 38bc
000003d0: c45c e63c 9e18 f63c 6dee 103d b43f 783c
000003e0: 3681 3f3c 8328 07bd 7882 debc f120 e8bb
000003f0: d0a1 a3bc f0ee 0b3d 99d8 f6b9 82d6 8cbb
0.025458826 -0.034062147 -0.02762721 -0.013390234 -0.029576277 0.016905239 -0.012375912 0.007057922
-0.030091863 0.022650307 0.013504767 -0.004775385 -0.033573385 0.0027389834 -0.018534016 -0.014461278
-0.02790164 0.007081264 0.016752766 -0.010099667 0.03392366 0.035846397 0.028724127 -0.016803576
0.021639692 -0.0127827 0.021419724 -0.013628267 0.015100708 0.018770209 -0.059008177 -0.03629202
-0.041778658 -0.06743077 0.0032014365 0.00807737 -0.010132586 -0.008368902 -0.020293867 -0.0341333
-0.0016571623 -0.005382241 -0.0013156957 -0.032326523 0.0046073403 0.01885954 0.006493201 0.045137323
0.012713653 -0.006558053 0.0028821689 -0.0035454752 -0.023515465 0.024515163 0.02155349 0.013663227
0.00987988 -0.017243577 0.014664856 -0.032097563 0.024508715 0.020173829 -0.01916241 -0.02191159
-0.021439226 0.0069815284 -0.0062805573 -0.0031286934 -0.015072732 -0.00013864099 0.020411922 -0.011230461
-0.026476705 0.025245093 0.02944701 0.014368791 0.010726635 -0.026065588 0.03129061 -0.013878959
-0.0052540805 0.011280565 -0.02586104 -0.008777953 0.02326373 0.022491122 -0.0001979359 -0.0015299023
-0.0038491182 -0.024933428 -0.0015784417 0.013604372 -0.0045368117 -0.037344836 0.002702779 -0.002816038
-0.007876623 0.033414654 0.018592598 0.021791128 -0.011706957 -0.0021360074 -0.0014669936 0.018125368
-0.03240689 0.0017167284 -0.017115545 0.02856779 -0.016595287 -0.041393325 -0.017864259 0.016994067
-0.03502412 -0.0030770528 -0.042792555 0.02024305 -0.027610362 -0.008417017 -0.0023858754 -0.023339348
0.014436195 -0.036914267 -0.0048645306 -0.028027963 0.00474765 -0.02361339 0.009972445 0.009027484
0.04293938 -0.031272337 -0.025837148 0.0119592035 -0.009388705 -0.01682632 0.021003108 -0.020950995
0.0036479435 -0.017014373 -0.0016982463 0.00459743 -0.037064783 0.009086827 -0.032223802 0.0014877116
-0.023421481 -0.041215893 -0.023005743 -0.03519978 0.009838691 -0.02964585 0.009952408 -0.01382002
-0.007894302 0.021854881 0.016661292 0.026214551 0.017243711 0.027955456 0.032727398 -0.015898848
0.01785975 0.034548044 0.0033738406 -0.015447211 -0.014468409 0.011808237 0.0055902223 0.0016147828
-0.028577505 -0.008121883 -0.024201104 0.0135966 0.03373519 -0.0049897046 -0.004466146 0.011506749
0.034882423 0.03632748 0.00025680085 0.019976318 0.032577842 0.0053364853 0.009068041 -0.010201888
0.034156818 0.021409545 -0.011428235 0.031128705 -0.023370532 -0.025467018 -0.03162681 -0.015369872
0.0146875745 0.0018969952 0.026407374 0.033102624 0.030470446 -0.018430352 -0.014048619 0.0015446105
0.021561919 -0.01339056 -0.025851276 0.0032068603 -0.022009037 -0.028194172 -0.0056862435 -0.030497195
0.0077753053 -0.013214687 0.017597137 -0.022131136 -0.014472108 0.014523876 0.0006218924 -0.013970601
0.003338256 -0.008818792 -0.03056521 0.03162797 -0.025035024 -0.029322758 -0.029029302 0.0013098465
-0.010182125 -0.017276192 -0.014447534 0.0054379483 0.022207716 -0.0030950499 -0.0018357239 0.03824352
0.006047844 -0.028844988 -0.011996504 0.0358563 0.013881689 -0.030115785 0.00084775203 0.030677523
-0.022277795 -0.03767756 -0.027901756 -0.011242366 0.028120406 0.030041035 0.03538363 0.015151907
0.011688521 -0.03299762 -0.027161822 -0.007084005 -0.01997462 0.034163415 -0.00047082154 -0.0042980323

net.4.bias f4 [3]
00000000: 31ee ba3b 043e be3c df98 763b
0.005704664 0.02322293 0.003762774
