checkpoints/srcnn_epoch28_2025-03-20_23-02-04.pth (torch, 280012 bytes, 6 tensors)

net.0.weight f4 [64, 3, 9, 9]
000000 0b 36 06 3d 4a e2 9f bc 27 be 00 3d 2c 3f 55 3d
       0.032766383 -0.019517083 0.031431343 0.0520622
000010 1b 9a 60 bd 02 b3 9c 3c f5 b0 14 3d 0c 85 a0 bc
       -0.054834466 0.019128326 0.036301572 -0.019594692
000020 99 11 d3 bc 0d ac 36 3c 81 b0 26 bd 37 1c c2 bc
       -0.025765227 0.011149419 -0.04069567 -0.023695095
000030 54 3f bb 3a 40 c9 05 bd bc 70 0a 3b b5 f8 7b 3d
       0.0014285841 -0.03266263 0.0021124324 0.061516482
000040 e6 e8 8d 3d 54 65 59 bc a5 c1 32 bd 4b c6 0b bc
       0.069291875 -0.013268787 -0.043641705 -0.008531163
000050 99 5d 02 3b c1 6f 68 3d a1 90 77 bc 58 ba 12 bd
       0.0019892214 0.0567472 -0.015110166 -0.035822242
000060 00 17 80 3d 1e b2 ef 3c e7 68 71 3d 88 cc bf 3c
       0.06254387 0.029259738 0.058937933 0.023412958
000070 e5 51 16 bd ae 4d 7a bd af ef 59 3d 93 c4 30 bd
       -0.036699194 -0.061109237 0.053207096 -0.043156218
000080 ac dc 7a bc 51 da 2f bd aa 94 80 3d 83 32 51 bd
       -0.015311401 -0.042932812 0.062783554 -0.051073562
000090 52 ee 36 bc 8f 60 da 3a f6 69 bc bb 6d 41 c7 bc
       -0.011165218 0.0016660857 -0.005749936 -0.02432319
0000a0 07 bf 43 bc 3b 73 83 3d dc 3a f0 bc 1c 61 e6 bc
       -0.0119474 0.06418463 -0.029324941 -0.028122477
0000b0 b9 3a 28 3d 2f 13 8c 3d ad 98 5b bd ab c2 0f 3d
       0.041071627 0.068395965 -0.0536124 0.03509776
0000c0 33 7f 65 3c d7 c7 dc 3c 07 b7 ac bb 82 06 73 bc
       0.014007377 0.02695076 -0.005270842 -0.014833095
0000d0 b7 b2 58 bd 50 c7 78 3d 7e 63 80 3d 5e b6 e5 bc
       -0.05290481 0.060736954 0.06268977 -0.028041061
0000e0 c4 88 8e 3d 7a 51 0c bd 7e eb 54 3d c3 2b 97 3d
       0.0695968 -0.03425739 0.051982395 0.07381394
0000f0 9f cb 3a 3c 52 b1 96 bb aa 11 6d 3c 22 9c 1b 3d
       0.011401086 -0.004598775 0.0144695435 0.037990697
000100 d4 4e 86 3d f3 c0 13 bc a3 03 87 3d ac ad 3f bc
       0.06558004 -0.009018171 0.065924905 -0.011699121
000110 2c 18 a3 bc df 8e 03 3d 7f 12 23 bd 29 f1 58 bb
       -0.019908987 0.032118674 -0.03981256 -0.0033102727
000120 04 63 e5 bc 92 95 34 bd d3 9f 24 bd c3 35 3d bd
       -0.028001316 -0.044087954 -0.040191483 -0.04619385
000130 45 59 38 3d cf 8f 2e bc 2e 2f 65 bd fb c3 9a 3c
       0.04500701 -0.010654404 -0.055953197 0.018892279
000140 6f ca de bc 24 03 f5 bc 07 09 76 bc 2f 05 11 bd
       -0.027196137 -0.029908724 -0.015016801 -0.035405334
000150 c6 15 9f 3c b7 3e 5e bd 53 e9 7d 3c a7 cc fe bb
       0.019419562 -0.05425903 0.015497523 -0.0077758613
000160 53 2f 9c bc 44 4a 57 3d 15 1b 42 bc 2f b4 40 bd
       -0.019065535 0.05256106 -0.011847277 -0.047046836
000170 49 b9 0c 3c f2 3a 59 bd 15 32 5b bd d9 f3 b6 bc
       0.008589097 -0.05303473 -0.05351456 -0.022333072
000180 dd df 1d 3d 19 85 0c 3c 42 36 30 3c 2f 9d 8b 3d
       0.03854357 0.008576655 0.010755124 0.0681709
000190 24 11 43 3d e0 e4 88 3d 2d 59 59 bd b6 7f a9 ba
       0.04762377 0.066842794 -0.05306356 -0.0012931738
0001a0 70 09 58 3d b3 fc 1f bd 55 e1 59 bd 05 bf 01 3d
       0.052743375 -0.039059352 -0.05319341 0.03167631
0001b0 46 97 3b bd e2 a3 6e bb c1 59 46 bd 69 3d c7 bc
       -0.045798562 -0.00364136 -0.04842544 -0.024321275
0001c0 b5 34 29 3d 7d a1 dc 3c 39 04 39 3c 59 17 72 bc
       0.04131003 0.026932472 0.011292511 -0.014776074
0001d0 2b 75 5b bd 62 7d 2d 3d 66 0a 0b 3d 21 1c 59 bc
       -0.053578537 0.042355902 0.033945464 -0.013251335
0001e0 5d 7f 4a bd 65 08 5c 3d 56 b6 6a bd 5a 2d 6a 3d
       -0.04943787 0.053718943 -0.057302795 0.057172157
0001f0 00 b5 df bc 0d c2 1f bc 33 07 04 bd 31 dd c2 bc
       -0.027307987 -0.009750855 -0.03223343 -0.023787113
000200 25 b4 23 bd b9 56 ef bc 84 32 3a 3d 91 d6 27 bd
       -0.03996672 -0.029216157 0.04545833 -0.04097611
000210 02 7d 13 3b 22 a5 fa 3c e1 cb 49 3d 81 15 1c bd
       0.002250493 0.03059632 0.0492667 -0.038106445
000220 72 2c b4 bc 86 e0 3f bc 48 84 6b 3d ae c5 4d bb
       -0.02199385 -0.011711245 0.0574992 -0.0031398344
000230 8f ba 6e 3d aa 65 38 3c 37 ed 14 bd e4 c6 42 bd
       0.058283385 0.011254707 -0.03635904 -0.047552958
000240 be d9 42 3d e8 11 48 3d e9 81 10 bc 5c 2f 67 bd
       0.047570936 0.0488452 -0.0088200355 -0.05644165
000250 e5 2e 3d 3a f5 51 fc bc 3b 96 1e 3d 07 bd 66 bd
       0.00072167657 -0.030800799 0.03871749 -0.056332614
000260 e7 5e ac 3c 7b 46 1f 3b bc ff e3 bb 99 bb 44 bd
       0.021041347 0.0024303484 -0.006957976 -0.04803047
000270 f2 4d 31 bd 2f b4 5e 3d 4d 00 2c bd 1f 4d b7 bc
       -0.043287225 0.054371055 -0.041992474 -0.022375641
000280 b3 50 9f bc 74 10 90 3c ea 2a 1c bd a0 e5 c9 3c
       -0.01944766 0.01758597 -0.038126864 0.024645627
000290 9e ea ae 3c 1f 24 f4 bc c8 d5 0b 3d e2 6a a4 bb
       0.021352109 -0.02980238 0.034139425 -0.0050176242
0002a0 00 aa 23 3d b4 3f 36 bc f3 cf 09 bd bc 17 87 3d
       0.039957047 -0.011123586 -0.03364558 0.06596324
0002b0 fc ff 53 bd 7a 22 bc bc 77 d4 54 bd f0 18 78 3d
       -0.051757798 -0.022965658 -0.051960435 0.060570657
0002c0 cf b4 20 bd 1b 05 0c 3d 12 a4 61 bd be 14 0d 3d
       -0.039234933 0.034184556 -0.05508811 0.03444361
0002d0 59 32 03 3d 88 ce 77 3d 08 de 1d bd 24 86 ad 3c
       0.032030437 0.060499698 -0.038541824 0.021182127
0002e0 65 1d 98 3d db d6 8c 3d ff b1 90 3d c8 02 10 3d
       0.074274816 0.06876918 0.070652 0.035158902
0002f0 c1 29 50 bc 50 f7 45 3c 18 b6 3b bd ea 16 06 bc
       -0.012705267 0.01208289 -0.045827955 -0.008184174
000300 68 65 80 3c 38 26 76 3d a5 99 c2 bb 1f fb 60 3d
       0.015673354 0.060095042 -0.005938726 0.054926988
000310 45 92 7d 3d b9 7b e2 3c d3 32 7c 3d e0 78 85 3d
       0.06190707 0.027646886 0.061571907 0.06517196
000320 0b c2 bb 3c b5 c1 54 3d ab db ab bb cb ec 97 bc
       0.022919675 0.051942546 -0.0052446923 -0.018545529
000330 c6 22 c4 3c 79 0d 71 3c aa bb 34 bc 39 3e 67 bd
       0.023942363 0.014712685 -0.011031071 -0.056455825
000340 f4 75 5b bd b0 2d bf bc 3f 55 59 bd 21 e7 41 3c
       -0.053579286 -0.023337215 -0.053059813 0.011834891
000350 4d 56 58 bd c0 a9 8d bc d1 bc a4 bc 2d 26 05 3d
       -0.052816678 -0.017292857 -0.020109566 0.03250711
000360 4c 37 91 3c cf e4 8d 3c 0e 48 19 3c 2c d8 f7 bc
       0.017726563 0.017321019 0.009355558 -0.030254446
000370 05 0b 63 3d 8c 74 2d 3d e5 d1 7f 3d 34 69 02 bd
       0.05543043 0.042347476 0.06245603 -0.03183861
000380 65 42 e2 bc 31 ab 79 3d d3 93 60 bd 44 fc 0f 3d
       -0.02761955 0.060954276 -0.054828476 0.03515269
000390 b5 99 15 bc a2 8a 66 bd 1c 40 56 bc c9 1c 8d bc
       -0.009130885 -0.056284554 -0.013076808 -0.01722564
0003a0 f0 28 8b bc dc 8a 44 bd 25 68 18 bd ce e8 f9 3c
       -0.016987294 -0.04798399 -0.037208695 0.030506518
0003b0 47 60 3c 3d 92 a8 10 bc 3c a0 70 bc 47 b0 b4 39
       0.045990255 -0.008829253 -0.01468664 0.00034463612
0003c0 9b 9a 43 3d ed 80 62 bd b9 a5 2e 3d 5d 67 a4 3c
       0.047754865 -0.055298734 0.042638514 0.020068819
0003d0 82 c1 4d bd d2 6f 38 3d 72 85 80 3d a1 96 2e 3c
       -0.05023337 0.045028515 0.06275453 0.01065603
0003e0 61 78 4b bc a0 d0 77 3d 7f 24 31 bd b4 c3 83 bc
       -0.012418837 0.060501695 -0.043247696 -0.01608453
0003f0 58 c7 eb bb 9d 94 19 bd c3 7b b8 3c 33 99 97 39
       -0.0071953945 -0.037495244 0.022519952 0.00028915107

net.0.bias f4 [64]
000000 c2 2b 79 3d f5 48 b4 3c 7b f7 6b 3d db b0 8c 3c
       0.060832746 0.022007445 0.057609063 0.017174175
000010 08 e5 65 3d f1 9c 29 3d cb 26 03 3d 8d 55 dc 3c
       0.056126624 0.041409437 0.032019418 0.026896263
000020 66 5f 38 3d 54 f3 4c bd 3c 62 a8 3c 8e 0e a6 bc
       0.045012854 -0.050036743 0.020554654 -0.020270612
000030 dc b2 cc bb 70 c8 06 3b 68 8a 16 bd 24 57 16 bc
       -0.0062469076 0.0020566247 -0.03675309 -0.009176049
000040 3c 80 13 bd ff 09 44 3a 64 17 78 3a 3c a3 21 bd
       -0.036010966 0.0007478296 0.00094639347 -0.039462313
000050 84 44 2c bd 88 72 07 3d 88 1c d5 3a df d6 7b 3c
       -0.04205753 0.03306821 0.0016259113 0.0153710535
000060 48 25 26 3d 8f c7 20 3c f1 9c f2 bc 53 99 4a 3c
       0.040562898 0.0098132035 -0.029615851 0.012365657
000070 a7 8e 4f 3d 8e e0 57 3c 8a 88 5f 3d 26 c1 72 3c
       0.050673153 0.013176097 0.054573573 0.014816558
000080 87 3f 9b bc ba 1d a8 3c bb 2a 55 bd f7 b1 d2 bc
       -0.01895119 0.020521987 -0.052042704 -0.025719626
000090 3f 6d 10 3d f5 e8 fb 3c c1 f0 5e 3d ac 62 27 3d
       0.035260435 0.030750731 0.05442882 0.040865585
0000a0 3b b0 17 3c f6 c8 e6 bb e6 c5 06 bd 6d 8c 3f bd
       0.009258325 -0.0070429994 -0.032903574 -0.04676478
0000b0 aa 75 d8 bc 14 f2 7f 3d 8e c5 06 bd fe fd 87 3d
       -0.026423294 0.062486723 -0.032903247 0.06640242
0000c0 a1 3a 92 bb d0 5c 1b 3d e5 ad 6b bd 94 6b 54 3d
       -0.0044625555 0.03793031 -0.057538886 0.051860407
0000d0 54 d1 6f bd 6e c1 1b bc fc eb cd bb ab 4a 90 3c
       -0.05854924 -0.009506566 -0.006284235 0.01761373
0000e0 af d0 4f 3d 22 f9 47 bd 46 a4 04 3c c5 9d 29 3c
       0.050736126 -0.048821576 0.008095806 0.010352557
0000f0 bc ab 73 3d 92 f3 de 3c 38 5d 14 3d 25 98 6e bc
       0.05948995 0.027215753 0.036221713 -0.014562641

net.2.weight f4 [32, 64, 5, 5]
000000 f6 d1 88 bb ac 0f 83 3c 91 7b d8 ba d3 ab bd bc
       -0.00417542 0.015998684 -0.0016516318 -0.023153221
000010 7b 3e 9d 3c 2f 64 7e 3b 91 72 e8 3b ca 55 ee bb
       0.019194832 0.0038817038 0.0070937355 -0.0072734104
000020 8f 4f 3c 39 a4 54 65 bb 21 b6 37 bc 65 5e ba 3c
       0.00017958715 -0.0034993077 -0.0112128565 0.022750089
000030 9b 5f 35 3c 18 b2 c6 bc 64 76 26 bc 12 cb 87 bb
       0.011070157 -0.024254844 -0.010160062 -0.004144081
000040 10 13 17 3c 7f cb 00 bc b4 87 30 3c f1 dd b5 3c
       0.009220853 -0.007861017 0.010774542 0.022200556
000050 5e e6 36 bc bf ed 4d 3c 60 a5 93 3c 65 ad e0 ba
       -0.011163322 0.01256889 0.018023193 -0.0017141519
000060 a3 95 6e 3c b8 6f 87 bc c4 8f c2 3c bf 33 bd 3a
       0.014562043 -0.016532764 0.023750193 0.0014434977
000070 ef 58 43 3a 29 97 a4 bc eb 65 b3 bc d3 54 6c 3c
       0.0007451912 -0.02009161 -0.021899184 0.014424521
000080 a8 77 e9 bb d7 16 9a 3c db 76 bc bb f6 5c ee 3b
       -0.00712486 0.018809719 -0.0057514734 0.0072742654
000090 71 b8 59 3c 54 03 cd bc de 52 1d bc c5 36 9c 3c
       0.013288603 -0.025026001 -0.009602277 0.019069085
0000a0 03 d5 b0 bc 84 45 10 3b 2a df 73 bc 4d 86 b8 bc
       -0.021585947 0.002201409 -0.014884749 -0.022524977
0000b0 b6 38 01 3c 30 45 2c 3c 06 99 e7 bb 5c 81 d5 3b
       0.007887056 0.010514542 -0.0070678024 0.006515665
0000c0 40 7b 9e bc ac 36 89 3c bf 88 20 3c 2c 99 95 bb
       -0.01934588 0.016749702 0.009798228 -0.0045653787
0000d0 d7 e4 c7 3b 7c 10 69 bc 41 77 4c 3b 44 53 2c bc
       0.006100278 -0.014225122 0.003119901 -0.010517899
0000e0 16 28 be 3c 7d 18 64 bb 40 c5 22 3c 98 02 8c 3a
       0.023212474 -0.0034804635 0.009934723 0.0010681925
0000f0 b5 a5 9c 3b 86 14 2c bc e2 87 70 3c b1 4e bc 3c
       0.004780496 -0.01050294 0.0146808345 0.022986742
000100 a8 16 27 bc 41 40 df 3b 0a e0 b9 bb 61 f2 c7 3b
       -0.010198273 0.0068130796 -0.0056724595 0.006101892
000110 e2 cc 08 bc 83 9a 05 bb 73 94 b3 3c b6 3a 05 ba
       -0.008349629 -0.0020386286 0.021921372 -0.0005082296
000120 fc 0f 98 3b 76 38 99 bb 55 4d a7 3c 48 78 82 bb
       0.0046405774 -0.00467592 0.020422617 -0.003981624
000130 68 7a 69 3c 2a 64 e6 bc ea 1d 48 bc b9 d0 8a bc
       0.014250375 -0.028123934 -0.012214163 -0.01694523
000140 69 30 98 3b 34 33 83 3c cc b4 f1 bc 33 54 4d bc
       0.004644443 0.016015626 -0.029505156 -0.012532282
000150 63 b6 52 bc dd 1f f0 bb 81 c1 eb bc 44 cf 76 3c
       -0.012860867 -0.007328017 -0.028778793 0.015064064
000160 6f af c8 3a e5 5c 94 bc f3 7a 90 3c ff e0 6f bb
       0.0015311072 -0.018110702 0.017636752 -0.0036602614
000170 eb 25 7e bc 3d 7a 59 bc 05 6c 0f bc c6 21 ce bc
       -0.01551197 -0.013273773 -0.008753781 -0.025162589
000180 75 18 0d bb 18 5e 9d bc fb 5f 3b 3c 41 13 40 3c
       -0.002152947 -0.019209906 0.011436458 0.0117233405
000190 4f 80 1b 3c 8d e4 be 3c 27 5f 94 3c 13 3d 83 bc
       0.00949104 0.02330234 0.018111778 -0.016020333
0001a0 3c e9 f6 3b d6 9e b0 bc 16 ac 19 ba 23 d2 98 ba
       0.007535128 -0.021560114 -0.00058621296 -0.0011659305
0001b0 62 fc ac bc 03 c6 91 3b b7 b4 89 bb e6 8b b6 bc
       -0.02111644 0.0044486537 -0.004202451 -0.022283506
0001c0 99 95 0f ba bd f8 b0 3c 0d 54 a7 3c 65 b4 ab bc
       -0.0005477309 0.021602983 0.02042582 -0.020960042
0001d0 15 3c 32 3c 8f 60 9e bc b9 34 c0 3c 6e 69 c3 3c
       0.0108785825 -0.019333152 0.02346264 0.023853984
0001e0 25 64 b3 3c b5 74 44 bc 59 15 d3 bb 84 a0 a8 bb
       0.021898339 -0.011990716 -0.006441754 -0.005146088
0001f0 b7 32 92 3c c3 c8 c9 bc a9 d5 bf bc bd 8e 9d 3c
       0.017846448 -0.024631863 -0.02341731 0.019233102
000200 24 9f d2 bc 36 5c 32 bc 19 1a b7 3b c4 e2 61 3a
       -0.02571065 -0.010886243 0.005587828 0.00086168596
000210 23 08 c5 bc b9 36 16 3c 8a a8 90 bc 30 65 4e 3c
       -0.024051731 0.00916832 -0.01765849 0.012597367
000220 0e 16 be 3c a6 f7 93 3c 32 34 95 3b 67 d7 bb 3b
       0.023203876 0.018062424 0.0045533413 0.005732465
000230 b5 e5 a1 bc ca 1c 95 bc 2a a8 f1 3b 53 6a d3 bc
       -0.019762853 -0.018202204 0.007374783 -0.025807535
000240 8c 2c 89 bc 04 c6 b8 3c 81 20 bb 3c 21 07 c5 bc
       -0.016744874 0.022555359 0.022842648 -0.02405125
000250 fd 0d 19 bc 4e 97 4e 3b e1 21 9a 3c 5a 68 d4 3b
       -0.009341714 0.003152329 0.018814983 0.0064821662
000260 9b 06 a9 bc 41 da c0 3c 61 37 43 bc c5 a8 2f bc
       -0.020633033 0.023541572 -0.011915059 -0.01072139
000270 5b 9e 48 3c 01 1f 53 3c 66 95 1f bc f2 2d ba 3b
       0.012244786 0.01288581 -0.009740209 0.0056817466
000280 f0 7a b8 bc cf e9 c3 bc 56 51 89 bc e5 e6 b3 bc
       -0.022519559 -0.0239152 -0.016762417 -0.021960685
000290 fc 71 6f bc 50 42 ba bb 85 fa 85 bc 62 3d bf bc
       -0.014614578 -0.0056841746 -0.016354809 -0.0233447
0002a0 83 eb 1e 3c a3 f7 b7 bc 86 b5 6c 3c ec cd 03 3c
       0.009699705 -0.02245695 0.014447575 0.008044701
0002b0 e9 71 d6 bc ab 2b ab bc ae da b0 3c 47 cd 84 bc
       -0.026177363 -0.020894846 0.02158865 -0.016211165
0002c0 c8 6d a1 3c 0b 86 9e 3c 15 42 ba 3c 11 70 9d 3b
       0.019705668 0.019351026 0.022736588 0.004804619
0002d0 7e 93 96 3c f1 d7 6c bb 87 b8 9c bc 54 3b b0 bc
       0.018380877 -0.0036139453 -0.019130958 -0.021512665
0002e0 18 df 0e bc 9d 55 68 bc 4c 9f 4f 3c 4d 3e 71 3c
       -0.008720182 -0.014180568 0.012672257 0.014724326
0002f0 05 54 aa bb d8 14 7e 3c a6 cf 7b 3c c4 34 ea ba
       -0.005198004 0.015507899 0.015369331 -0.0017868509
000300 78 42 80 bc e2 8d 24 3a 4d 6c b0 3b 77 42 f6 bb
       -0.015656695 0.00062772457 0.005384004 -0.0075152474
000310 49 ee 82 3c 1b e5 0d bc 4f 80 c7 3b f2 b0 b8 3c
       0.015982764 -0.00866058 0.0060882936 0.022545312
000320 58 52 c0 bc c2 34 2e bc a8 90 27 bc 4f 03 92 3c
       -0.023476765 -0.010632696 -0.01022736 0.017823843
000330 6b 05 36 3b 1b 86 81 bc 80 ed 87 3c 5b 8c ec 3a
       0.0027774225 -0.015811017 0.016592741 0.00180472
000340 a6 ef 18 bc 6b a3 09 3b d5 89 0b 3b df 7b aa bb
       -0.00933448 0.0021001946 0.002129187 -0.005202755
000350 fd 1a 06 ba 47 e3 5e 3c e1 67 de bb 65 a6 ec 3b
       -0.0005115716 0.013603992 -0.0067872857 0.007221984
000360 d0 8d 48 bb b9 de e3 bb 2d 3b f5 3b 8d 7d a4 3b
       -0.0030602105 -0.006954041 0.007483861 0.0050198496
000370 d5 6c e4 bb 95 f1 77 3c d0 a1 85 bc 1b eb 8a 3c
       -0.0069709816 0.015133281 -0.01631251 0.01695781
000380 e4 e5 e2 3b 15 9f 99 3c 59 ce 71 3b 0f 3d 81 3c
       0.0069243778 0.018752614 0.0036896674 0.015776185
000390 1f 95 51 bb 7a 4e 2b bc b8 28 bf 3c 2c 66 d2 bc
       -0.0031979752 -0.010455722 0.023334846 -0.025683485
0003a0 b4 34 0e bc 2e 99 d2 bb 71 04 b9 3c 3c 33 7a bc
       -0.008679558 -0.006426952 0.022585126 -0.015271004
0003b0 24 90 98 bc c2 9c c1 bb 62 d9 18 ba 74 09 9f bc
       -0.01862342 -0.0059085796 -0.00058307324 -0.019413687
0003c0 b9 b1 a9 bb 2d 12 c7 3b ad 52 2a 3c bf 6f 0d bc
       -0.005178657 0.006075165 0.010395688 -0.008632599
0003d0 ac ec 29 bc 9f f6 22 bc c8 f8 8b bb b4 2f 87 3c
       -0.010371368 -0.009946494 -0.0042716004 0.016502239
0003e0 38 21 b3 3c 7e 22 7c 3c 8a ca e4 3b a9 7b 99 3c
       0.021866426 0.015389083 0.0069821524 0.018735724
0003f0 63 bc 2c bb 2e 72 1e 3c fc b7 88 3c 7d 3e ce ba
       -0.0026357404 0.009670777 0.016689293 -0.0015735176

net.2.bias f4 [32]
000000 44 d0 7f 3b 91 fa a7 3c e2 6b 88 3b 64 ad 36 3c
       0.0039034048 0.020505222 0.0041632513 0.011149738
000010 5f 30 1f 3c 76 38 70 bc da 7d 3c bc a2 33 ce 3b
       0.009716122 -0.014661899 -0.011504615 0.006292776
000020 85 a8 49 3b 63 52 84 bc cb 13 56 bb bd e4 a9 3b
       0.0030770611 -0.016152566 -0.0032665606 0.0051847384
000030 10 c8 2c 3c 89 9b dd bb de e2 8a bc 50 34 9f 3c
       0.0105457455 -0.006762926 -0.016953882 0.019434124
000040 a7 39 e1 bb ce 78 23 3b a1 8a bb 3c aa 83 9b 3c
       -0.006873328 0.0024943831 0.022893252 0.01898368
000050 66 b1 89 3c e8 a4 8c bc 0a 51 93 bc 73 ac b3 3c
       0.016808223 -0.017168477 -0.017982978 0.021932816
000060 b3 7e 70 3c cb 5a ac ba 50 f6 96 bc cf f9 c2 3c
       0.014678645 -0.0013149617 -0.018427998 0.023800759
000070 be 4d ef 3a 94 b0 97 bc 7c 2a 2a 3c c0 a0 ae bc
       0.0018257422 -0.018516816 0.010386106 -0.021316886

net.4.weight f4 [3, 32, 5, 5]
000000 07 8f d0 3c c0 84 0b bd 75 52 e2 bc b6 62 5b bc
       0.025458826 -0.034062147 -0.02762721 -0.013390234
000010 f3 49 f2 bc db 7c 8a 3c 56 c4 4a bc 24 46 e7 3b
       -0.029576277 0.016905239 -0.012375912 0.007057922
000020 36 83 f6 bc 23 8d b9 3c 19 43 5d 3c b7 7a 9c bb
       -0.030091863 0.022650307 0.013504767 -0.004775371
000030 3f 84 09 bd ad 80 33 3b a6 d4 97 bc ff ee 6c bc
       -0.033573385 0.002738993 -0.018534016 -0.014461278
000040 fb 91 e4 bc f3 09 e8 3b 19 3d 89 3c 13 79 25 bc
       -0.02790164 0.007081264 0.016752766 -0.010099667
000050 89 f3 0a 3d ac d3 12 3d dc 4e eb 3c a7 a7 89 bc
       0.03392366 0.035846397 0.028724127 -0.016803576
000060 b9 45 b1 3c 70 e1 00 3d 8a 31 d7 3c 7c 09 43 bc
       0.021639692 0.031464994 0.02626874 -0.011904117
000070 13 e1 0e 3d 2e f2 9e 3c 21 30 a0 b8 7c 06 a1 bc
       0.034882616 0.01940259 -7.638359e-05 -0.019656412
000080 2c 1d 05 bd 78 e7 02 bd 85 9c 03 3d ce 52 db 3c
       -0.032498524 -0.031959027 0.03213169 0.026772883
000090 64 d4 e9 bc f1 3d e0 bc b7 e3 84 bc fa 1f 02 bd
       -0.028543659 -0.027373286 -0.016221864 -0.031768776
0000a0 56 4b 85 3c 06 ff ba bc 8b 4e 89 bc 89 6a e5 bc
       0.016271275 -0.022826683 -0.016761085 -0.028004901
0000b0 0f cb 49 3b f5 64 f7 3c 9f 7b 18 bc 21 33 10 3d
       0.0030791198 0.030199507 -0.009306817 0.03520501
0000c0 a9 5c 5a 3c e9 be 7e bc d4 a8 5d 3b 62 0b 5c bb
       0.013327756 -0.015548446 0.0033822553 -0.003357612
0000d0 22 d7 be bc 37 3e c6 3c ad 13 b4 3c 45 de 60 3c
       -0.023295943 0.024199588 0.021982038 0.013724868
0000e0 27 28 21 3c 61 fc 8a bc 43 1c 6c 3c fa 2d 01 bd
       0.009836233 -0.016966047 0.014411035 -0.031537987
0000f0 e6 5f c7 3c 90 f7 a5 3c f5 8d 9a bc 63 c1 b3 bc
       0.02433772 0.020259649 -0.018866519 -0.0219428
000100 d5 cc ac bc 57 69 ea 3b 3e ef bc bb 06 22 2d bb
       -0.021093765 0.007153671 -0.0057658246 -0.0026417985
000110 d9 28 76 bc e9 ac d3 b8 b4 44 a5 3c 01 92 35 bc
       -0.015024387 -0.00010093471 0.020174362 -0.011082173
000120 21 6f d3 bc d9 54 cf 3c 58 59 f0 3c 8a e1 79 3c
       -0.025809826 0.025309013 0.029339477 0.015251527
000130 91 a5 3f 3c 1e c8 d0 bc 68 ee 01 3d 0f 06 64 bc
       0.011697189 -0.025486048 0.031721503 -0.01391746
000140 99 6a 9e bb ba a9 43 3c 6c 09 d0 bc 52 88 14 bc
       -0.004834485 0.011942321 -0.025395118 -0.009065704
000150 fd ec bb 3c d6 c6 b9 3c 85 db 79 b9 d9 92 d2 ba
       0.022940153 0.02267782 -0.00023828268 -0.0016065493
000160 3b af 5d bb 84 3a ca bc 53 9a 8f ba 39 b8 66 3c
       -0.003382637 -0.024686106 -0.0010956026 0.014082008
000170 e5 3a 7b bb 17 44 12 bd 49 1e 3f 3b 00 ba 16 bb
       -0.0038334664 -0.035709467 0.0029162338 -0.0022999048
000180 56 4a f3 bb d7 12 09 3d 94 64 9b 3c ce 54 ae 3c
       -0.007424633 0.033465233 0.018968858 0.021280672
000190 4b dd 3c bc cc 18 09 bb 68 ba e7 ba 7d e4 95 3c
       -0.01152737 -0.002091932 -0.0017679455 0.018297428
0001a0 c3 3c 04 bd 68 e4 d3 3a 07 0c 8d bc a9 70 ed 3c
       -0.03228451 0.0016166093 -0.01721765 0.028984385
0001b0 ff c9 85 bc 73 2d 29 bd be b2 92 bc 5c ef 8b 3c
       -0.01633167 -0.04130311 -0.017907497 0.017081909
0001c0 f3 d7 0d bd 84 4f 37 bb 62 52 2e bd 30 47 a9 3c
       -0.034629773 -0.002797098 -0.042559035 0.020663828
0001d0 50 68 da bc 25 18 0b bc 39 34 04 bb a1 ca bb bc
       -0.026661068 -0.008489643 -0.0020172729 -0.02292377
0001e0 dc a8 74 3c 3d ba 13 bd d2 0c a4 bb f8 83 e3 bc
       0.014932837 -0.036066283 -0.005006411 -0.027772889
0001f0 e1 de a1 3b 98 0b 7d bc c9 89 8f 3c 43 e2 5e 3c
       0.0049398993 -0.015444659 0.017521756 0.01360375
000200 67 52 2d 3d 68 17 e3 bc 5b f7 b3 bc 69 d5 72 3c
       0.042314913 -0.027721122 -0.021968534 0.014821389
000210 f7 f1 1c bc 2e 26 b0 bc 77 34 aa 3c ae 2c 99 bc
       -0.009579173 -0.02150258 0.02077697 -0.018698063
000220 89 0d 8b 3b c4 82 9d bc 05 89 00 bc ec df 60 3b
       0.004243557 -0.019227393 -0.007845168 0.0034313155
000230 56 e8 00 bd 31 96 51 3c e9 48 fe bc bb 0b 81 ba
       -0.031471573 0.012792156 -0.031040626 -0.0009845415
000240 1a 10 a7 bc df f3 0f bd d1 87 99 bc 23 cf 09 bd
       -0.02039342 -0.035144683 -0.01874152 -0.033644807
000250 1b 04 f9 3b db 85 da bc 46 ff 28 3c 88 7b 5b bc
       0.0075993664 -0.026675155 0.010314768 -0.013396151
000260 dd a0 fe bb d4 ef b2 3c fe 6e 89 3c 6c 10 d6 3c
       -0.0077706412 0.021842875 0.016776558 0.026130877
000270 51 ba 8f 3c 1f f0 e2 3c 92 22 05 3d 82 5a 7e bc
       0.017544897 0.02770239 0.032503672 -0.015524508
000280 a5 bc 91 3c ca 95 0e 3d db d0 56 3b a0 d5 76 bc
       0.017790148 0.03481082 0.0032778296 -0.015065581
000290 dd 2b 6b bc b6 de 4a 3c c0 d2 cd 3b 0d 6f d4 3a
       -0.01435372 0.0123822 0.006281227 0.0016207412
0002a0 2b d9 e6 bc 12 d8 04 bc dd ef c3 bc 6f ac 66 3c
       -0.028179726 -0.008108156 -0.023918087 0.014079197
0002b0 ef 1e 0a 3d 52 0d a0 bb a8 5a 88 bb 84 71 3d 3c
       0.033720907 -0.0048844004 -0.0041611977 0.011562709
0002c0 fd 9f 0f 3d 26 68 15 3d 34 c8 17 3a fd 7d a5 3c
       0.035064686 0.036476277 0.00057900255 0.020201677
0002d0 91 a3 05 3d 48 b2 b4 3b cc 69 14 3c 38 17 22 bc
       0.032626692 0.005514417 0.009058427 -0.009893231
0002e0 d5 38 0c 3d bf 1f b1 3c 01 97 3b bc 97 d4 fb 3c
       0.034233887 0.021621583 -0.011449576 0.03074102
0002f0 96 20 be bc ce 01 cf bc 8a 39 01 bd a3 7b 7b bc
       -0.023208898 -0.025269415 -0.031549014 -0.0153493015
000300 76 e1 6d 3c 23 96 fe 3a 95 3f db 3c c8 fc 07 3d
       0.014519086 0.0019423406 0.026763717 0.033200055
000310 d6 5c fb 3c 2d b2 96 bc d1 9d 67 bc 25 7b d9 3a
       0.030683916 -0.018395508 -0.014136747 0.0016592486
000320 1d 60 b0 3c 4a 53 5e bc fb 0e d5 bc 21 d1 4d 3b
       0.021530205 -0.013569662 -0.02600812 0.0031405168
000330 08 12 b7 bc c4 f6 e5 bc 0f f2 a2 bb 63 81 fa bc
       -0.022347465 -0.028071769 -0.0049727033 -0.030579275
000340 ba d2 00 3c c1 d1 55 bc dd b9 91 3c d4 76 af bc
       0.007862741 -0.0130504975 0.017788822 -0.021418966
000350 fe 49 6c bc ba 8a 70 3c 4d f1 2c 3a 1d fe 5d bc
       -0.014421938 0.0146815125 0.0006597236 -0.013549355
000360 75 b6 5d 3b 68 fc 0e bc 6a 40 f4 bc 38 96 00 3d
       0.0033830677 -0.0087271705 -0.029815871 0.03139326
000370 17 e9 ca bc c8 b9 f0 bc c6 27 ef bc c0 77 f9 3a
       -0.024769349 -0.029385462 -0.02919377 0.0019032881
000380 bf a4 28 bc e6 66 86 bc 97 b3 58 bc c5 16 ad 3b
       -0.010293185 -0.016406488 -0.013226411 0.0052822554
000390 41 ed b2 3c a7 be 44 bb af 92 bc ba 29 7a 1c 3d
       0.021841647 -0.0030020864 -0.0014386977 0.03820244
0003a0 d0 59 ce 3b 86 48 ec bc 16 85 48 bc d1 dd 10 3d
       0.0062973276 -0.028843176 -0.012238761 0.03536779
0003b0 ba a4 5e 3c 4f 7e f5 bc f5 0e 28 3a 30 1f f1 3c
       0.013589079 -0.029967455 0.000641092 0.029433817
0003c0 b2 61 b7 bc d6 91 17 bd 28 b3 e5 bc 81 62 32 bc
       -0.022385452 -0.037004314 -0.02803953 -0.010887743
0003d0 9e b0 e1 3c 79 77 f3 3c 40 98 10 3d fd 6e 6f 3c
       0.027550038 0.029720055 0.035301447 0.014613864
0003e0 40 1f 4c 3c 22 46 05 bd 78 82 de bc f1 20 e8 bb
       0.012458622 -0.032537587 -0.027161822 -0.007084005
0003f0 d0 a1 a3 bc f0 ee 0b 3d 35 d9 f6 b9 82 d6 8c bb
       -0.01997462 0.034163415 -0.00047082608 -0.0042980323

net.4.bias f4 [3]
000000 27 a0 b8 3b 27 42 bf 3c 4f 49 81 3b
       0.005634326 0.023346974 0.0039455066
