checkpoints/srcnn_epoch47_2025-03-20_23-02-04.pth (torch, 280012 bytes, 6 tensors)

net.0.weight f4 [64, 3, 9, 9]
0	0x3d04e5ab	0.03244559
1	0xbc9f4a78	-0.01944469
2	0x3cfe68f2	0.031055901
3	0x3d573a29	0.0525457
4	0xbd5e514b	-0.054276746
5	0x3ca3d045	0.019996772
6	0x3d189a40	0.03725648
7	0xbc957c71	-0.018247815
8	0xbccd2902	-0.025043968
9	0x3c30847b	0.010773773
10	0xbd25c61e	-0.040472142
11	0xbcb9bd85	-0.022673378
12	0x3b32e322	0.0027296026
13	0xbd059692	-0.0326143
14	0x3b3be617	0.002867108
15	0x3d800c07	0.06252294
16	0x3d8f33d5	0.06992308
17	0xbc4f28b8	-0.012643985
18	0xbd33783e	-0.043815844
19	0xbc0726c0	-0.008248985
20	0x3b2c7f41	0.0026320966
21	0x3d69bd20	0.05706513
22	0xbc77437f	-0.015091776
23	0xbd119eaa	-0.035551704
24	0x3d80c636	0.06287806
25	0x3ce91275	0.028451184
26	0x3d729d61	0.05923212
27	0x3cbf855e	0.023379024
28	0xbd14b2c5	-0.0363033
29	0xbd7acac4	-0.06122853
30	0x3d56f21b	0.052476984
31	0xbd2fcddb	-0.04292093
32	0xbc82af02	-0.01595259
33	0xbd2fd9f9	-0.042932484
34	0x3d7c38ea	0.061577715
35	0xbd50faf5	-0.05102058
36	0xbc3a48bf	-0.011369883
37	0x3ad6f4d3	0.0016399868
38	0xbbae451b	-0.0053182966
39	0xbcc93de3	-0.024565643
40	0xbc31f061	-0.010860533
41	0x3d8253a0	0.063636065
42	0xbceedfbf	-0.029159425
43	0xbcea705b	-0.028618028
44	0x3d28f360	0.041247725
45	0x3d8a9a65	0.0676773
46	0xbd6018a0	-0.054710984
47	0x3d112359	0.0354341
48	0x3c5e77c7	0.013578362
49	0x3ce8c36f	0.028413502
50	0xbba00a22	-0.0048840204
51	0xbc75818c	-0.0149845
52	0xbd5a08ff	-0.053231236
53	0x3d7a0998	0.061044306
54	0x3d7dc1f8	0.06195256
55	0xbcec6a5c	-0.02885931
56	0x3d8f248e	0.06989394
57	0xbd0d0b36	-0.03443452
58	0x3d5a7de8	0.05334273
59	0x3d989050	0.074494004
60	0x3c31c60d	0.010850442
61	0xbbaae573	-0.0052153408
62	0x3c6ede46	0.014579361
63	0x3d17c936	0.037057124
64	0x3d852ba4	0.065024644
65	0xbc19b133	-0.0093806265
66	0x3d865222	0.06558634
67	0xbc479116	-0.012180587
68	0xbcad1401	-0.021127703
69	0x3cfce608	0.030871406
70	0xbd261bdc	-0.040553913
71	0xbb63c732	-0.003475618
72	0xbcee913b	-0.029121986
73	0xbd37cde2	-0.04487408
74	0xbd27d01c	-0.040969953
75	0xbd3ef733	-0.046622466
76	0x3d33cb25	0.043894906
77	0xbc47c5a0	-0.012193114
78	0xbd698ab8	-0.057017058
79	0x3c9808be	0.018558856
80	0xbcdf01e1	-0.027222576
81	0xbcecdca3	-0.028913802
82	0xbc617970	-0.013761863
83	0xbd100cbb	-0.03516839
84	0x3ca5753e	0.020197507
85	0xbd5c824c	-0.0538352
86	0x3c806ed5	0.015677849
87	0xbbf17aec	-0.0073693898
88	0xbc93e2df	-0.018052517
89	0x3d59e0c8	0.053192884
90	0xbc37b553	-0.011212665
91	0xbd3cf8ef	-0.04613584
92	0x3c1bdf73	0.009513724
93	0xbd55c263	-0.052187335
94	0xbd5dd7a3	-0.054160725
95	0xbcba218e	-0.022721078
96	0x3d1dd0e5	0.038529295
97	0x3c0b254e	0.008492781
98	0x3c366849	0.011133262
99	0x3d8c846c	0.06861195
100	0x3d45272d	0.048133064
101	0x3d891a1f	0.06694435
102	0xbd5b3701	-0.053519253
103	0xbb011f8a	-0.0019702637
104	0x3d55be35	0.05218335
105	0xbd1fd4da	-0.03902135
106	0xbd5c9a4c	-0.053858086
107	0x3d043c17	0.03228387
108	0xbd3977ad	-0.045280147
109	0xbb463cf3	-0.003024873
110	0xbd4830c5	-0.048874635
111	0xbcd1d1c8	-0.025612727
112	0x3d276450	0.04086715
113	0x3cd0a1a5	0.025467703
114	0x3c3ef099	0.011654043
115	0xbc769e8b	-0.015052448
116	0xbd5930d3	-0.053025078
117	0x3d307558	0.043080658
118	0x3d0d4921	0.03449357
119	0xbc51ad6a	-0.012797693
120	0xbd4dff4c	-0.0502923
121	0x3d5ada0a	0.053430595
122	0xbd73752d	-0.05943792
123	0x3d6b347c	0.0574231
124	0xbcdd9ee8	-0.027053311
125	0xbc1b9a9b	-0.00949731
126	0xbd018dc6	-0.031629346
127	0xbcc663b4	-0.024217464
128	0xbd235093	-0.039871763
129	0xbcfcb98f	-0.0308502
130	0x3d3718cc	0.044701383
131	0xbd2eb130	-0.042649448
132	0x3b0316a3	0.0020002506
133	0x3cfc8453	0.030824816
134	0x3d4aec14	0.049541548
135	0xbd195611	-0.037435595
136	0xbcb5212a	-0.02211054
137	0xbc3db9c9	-0.011579939
138	0x3d676090	0.056488574
139	0xbb54e9ca	-0.0032487982
140	0x3d6d79e5	0.057977576
141	0x3c3b625a	0.011437023
142	0xbd13528d	-0.0359674
143	0xbd406432	-0.046970554
144	0x3d44cf4a	0.04804925
145	0x3d4a0d63	0.049329173
146	0xbc0d7113	-0.008632916
147	0xbd66ce98	-0.056349367
148	0x3a2c3ee6	0.0006570652
149	0xbcfff23e	-0.03124344
150	0x3d1fdbdb	0.03902803
151	0xbd643d5a	-0.055722572
152	0x3cb29548	0.021799698
153	0x3b2bcf41	0.0026216062
154	0xbbd814b5	-0.0065942653
155	0xbd4448b7	-0.04792091
156	0xbd2e6c8c	-0.042583987
157	0x3d60a24a	0.05484227
158	0xbd2b44ea	-0.04181377
159	0xbcb2e2bb	-0.02183663
160	0xbc98b886	-0.018642675
161	0x3c96f742	0.018428449
162	0xbd1c3838	-0.038139552
163	0x3ccb3814	0.024807014
164	0x3ca9fc69	0.020750241
165	0xbcf054c8	-0.029337302
166	0x3d0bc131	0.03411979
167	0xbbc05a9a	-0.0058701755
168	0x3d2005c9	0.039068017
169	0xbc448cf8	-0.0119965
170	0xbd0fb157	-0.035081234
171	0x3d85cc61	0.06533123
172	0xbd5597fe	-0.052146904
173	0xbcba7776	-0.022762042
174	0xbd50e25c	-0.050997123
175	0x3d776800	0.060401917
176	0xbd22a6f5	-0.039710004
177	0x3d092d29	0.033490334
178	0xbd68af57	-0.056807842
179	0x3d077f82	0.033080585
180	0x3cfd5bf9	0.030927645
181	0x3d75576c	0.059897825
182	0xbd1d100f	-0.038345393
183	0x3cb168c7	0.021656407
184	0x3d99e795	0.07514874
185	0x3d8e4f43	0.06948712
186	0x3d920aa8	0.07130939
187	0x3d0a4100	0.033753395
188	0xbc57bc62	-0.013167473
189	0x3c31ebf6	0.01085948
190	0xbd3c6268	-0.045992285
191	0xbbf70edd	-0.0075396136
192	0x3c85855c	0.016298942
193	0x3d7d2db3	0.06181116
194	0xbbb07e6a	-0.0053861635
195	0x3d6833eb	0.056690138
196	0x3d7bb7fe	0.061454765
197	0x3ce0e0e7	0.027450992
198	0x3d7914ff	0.06081104
199	0x3d85e101	0.06537057
200	0x3ccb006a	0.02478047
201	0x3d5933bc	0.053027853
202	0xbb853bb8	-0.004065957
203	0xbc9e5194	-0.019326009
204	0x3ccd8d98	0.025091931
205	0x3c6d1e93	0.0144726215
206	0xbc3f8ac2	-0.011690797
207	0xbd67dbfc	-0.056606278
208	0xbd5cbb12	-0.05388934
209	0xbcb71648	-0.022349492
210	0xbd5d0946	-0.053963922
211	0x3c34ab3b	0.011027153
212	0xbd5e4025	-0.05426039
213	0xbc8d6683	-0.017260795
214	0xbca959ac	-0.020672642
215	0x3d02440e	0.031803183
216	0x3c94864a	0.01813044
217	0x3c8edb42	0.017438535
218	0x3c21cdb9	0.009875708
219	0xbcfffe25	-0.031249115
220	0x3d60b958	0.054864258
221	0x3d2c9545	0.042134542
222	0x3d80f5fc	0.06296918
223	0xbd03e115	-0.032197077
224	0xbce47f2e	-0.027892675
225	0x3d7ba483	0.061436187
226	0xbd5d28f8	-0.05399415
227	0x3d12fa2a	0.035883106
228	0xbc0b34b7	-0.008496455
229	0xbd646fc7	-0.05577066
230	0xbc50957c	-0.012730952
231	0xbc87e26c	-0.016587459
232	0xbc8e0a34	-0.01733885
233	0xbd44eee6	-0.048079394
234	0xbd17af04	-0.037032142
235	0x3cfe98fc	0.031078808
236	0x3d3e4317	0.0464507
237	0xbbf7874c	-0.0075539704
238	0xbc5a7254	-0.013332922
239	0x3a99107e	0.0011677889
240	0x3d4431d5	0.047899086
241	0xbd659d5f	-0.056058284
242	0x3d2d577c	0.04231976
243	0x3c9fdb0a	0.019513626
244	0xbd501657	-0.050802555
245	0x3d321271	0.04347462
246	0x3d81b5c2	0.06333496
247	0x3c3b1486	0.011418467
248	0xbc51b310	-0.0127990395
249	0x3d79d3a1	0.06099284
250	0xbd2edd5c	-0.042691574
251	0xbc80884d	-0.015689993
252	0xbbfff62c	-0.0078113284
253	0xbd1e8508	-0.038701087
254	0x3cb93e06	0.022612583
255	0x39e1f7d1	0.00043099982

net.0.bias f4 [64]
0	0x3d7debcd	0.061992455
1	0x3cb86d14	0.02251295
2	0x3d6cc440	0.057804346
3	0x3c91b362	0.017785732
4	0x3d66db91	0.05636174
5	0x3d288225	0.04113974
6	0x3d026e8f	0.03184372
7	0x3ce08032	0.027404878
8	0x3d39fc4b	0.04540662
9	0xbd4a8a1b	-0.049448114
10	0x3cacd606	0.021098148
11	0xbc94596a	-0.018109042
12	0xbb08d1c8	-0.0020876992
13	0x3b33dbc7	0.002744423
14	0xbd15a3b4	-0.036533073
15	0xbc0a2650	-0.008431986
16	0xbd09d4a7	-0.033650067
17	0x395bed17	0.0002097379
18	0x3a56e12b	0.0008197005
19	0xbd2180f8	-0.039429635
20	0xbd26cc35	-0.04072209
21	0x3d09de4e	0.033659272
22	0x3b83cca8	0.0040221997
23	0x3c827931	0.01592693
24	0x3d2c89a6	0.04212346
25	0x3c2ae7c0	0.01043123
26	0xbcec285c	-0.028827839
27	0x3c4c7787	0.012479669
28	0x3d4f51bb	0.050615054
29	0x3c56f8a4	0.013120804
30	0x3d5e83ef	0.05432504
31	0x3c9376d1	0.018000992
32	0xbc922518	-0.017839953
33	0x3caa966b	0.020823678
34	0xbd4971e6	-0.049180888
35	0xbccefe1b	-0.025267651
36	0x3d10a899	0.035317037
37	0x3d01ca8f	0.031687316
38	0x3d5e44da	0.05426488
39	0x3d2534a8	0.04033342
40	0x3c193f67	0.009353495
41	0xbbddebda	-0.0067725005
42	0xbd05ffcf	-0.03271466
43	0xbd3c0b71	-0.04590935
44	0xbccab607	-0.024745
45	0x3d7f50fb	0.06233309
46	0xbcf955c4	-0.030436404
47	0x3d8bd288	0.06827265
48	0xbb6c886d	-0.0036092058
49	0x3d1bc88b	0.03803305
50	0xbd68fd38	-0.056882113
51	0x3d58e8c7	0.05295637
52	0xbd70c9b0	-0.058786094
53	0xbc1ad938	-0.009451203
54	0xbbc7cb3f	-0.006097227
55	0x3c902cff	0.01759958
56	0x3d52f07d	0.05149888
57	0xbd46b107	-0.04850867
58	0x3c02a43f	0.00797373
59	0x3c295ced	0.010337097
60	0x3d625e0a	0.055265464
61	0x3ce55418	0.0279942
62	0x3d1319f3	0.03591342
63	0xbc692645	-0.014230316

net.2.weight f4 [32, 64, 5, 5]
0	0xbb88cf35	-0.0041750916
1	0x3c8311ac	0.015999638
2	0xbad85f8a	-0.0016507965
3	0xbcbdaab0	-0.02315268
4	0x3c9d3f58	0.019195244
5	0x3b7e6adb	0.0038821015
6	0x3be87854	0.0070944224
7	0xbbee51f2	-0.0072729522
8	0x393c89b5	0.00017980377
9	0xbb654d25	-0.0034988609
10	0xbc36e3f8	-0.01116275
11	0x3cbab401	0.02279091
12	0x3c35c427	0.01109413
13	0xbcc67ee3	-0.024230426
14	0xbc25e0af	-0.0101243695
15	0xbb86be59	-0.0041120467
16	0x3c179a93	0.009253162
17	0xbc004597	-0.0078290915
18	0x3c310b07	0.010805852
19	0x3cb634b7	0.022241933
20	0xbc362ffc	-0.011119839
21	0x3c4ec786	0.012620812
22	0x3c94385c	0.01809328
23	0xbad53ae1	-0.0016268158
24	0x3c7057eb	0.014669399
25	0xbc876fb8	-0.016532764
26	0x3cc28fc4	0.023750193
27	0x3abd33d0	0.0014434997
28	0x3a43595e	0.00074519764
29	0xbca49729	-0.02009161
30	0xbcb365eb	-0.021899184
31	0x3c6c54d3	0.014424521
32	0xbbe977a8	-0.00712486
33	0x3c9a16d7	0.018809719
34	0xbbbc76db	-0.0057514734
35	0x3bee5d85	0.007274332
36	0x3c59b877	0.013288609
37	0xbccd034c	-0.025025986
38	0xbc1d50af	-0.009601756
39	0x3c9c37b4	0.01906953
40	0xbcb0d503	-0.021585947
41	0x3b104742	0.002201513
42	0xbc73deb6	-0.014884641
43	0xbcb885a8	-0.02252467
44	0x3c013c3a	0.007887894
45	0x3c2c4530	0.010514542
46	0xbbe79906	-0.0070678024
47	0x3bd5815c	0.006515665
48	0xbc9e7b40	-0.01934588
49	0x3c8936c4	0.016749747
50	0x3c2089e1	0.009798498
51	0xbb95973d	-0.004565148
52	0x3bc7e71f	0.00610055
53	0xbc690ee4	-0.014224742
54	0x3b4c7d91	0.0031202773
55	0xbc2c52d4	-0.010517795
56	0x3cbe2819	0.02321248
57	0xbb641611	-0.0034803192
58	0x3c22c5d4	0.009934861
59	0x3a8c0879	0.0010683677
60	0x3b9cbdff	0.0047833915
61	0xbc2c0d03	-0.010501149
62	0x3c708afe	0.014681576
63	0x3cbc4fd8	0.022987291
64	0xbc271587	-0.010198004
65	0x3bdf6481	0.006817401
66	0xbbb9cef6	-0.0056704236
67	0x3bc7f9e0	0.0061027855
68	0xbc08cb3e	-0.008349238
69	0xbb059631	-0.002038371
70	0x3cb3aee1	0.021933975
71	0xba01f224	-0.0004957041
72	0x3b987375	0.0046524354
73	0xbb98d1a9	-0.0046636653
74	0x3ca76783	0.0204351
75	0xbb826ac4	-0.0039800126
76	0x3c697e32	0.014251279
77	0xbce66274	-0.028123118
78	0xbc48196d	-0.012213093
79	0xbc8acd9c	-0.016943745
80	0x3b983b4f	0.004645742
81	0x3c833471	0.016016217
82	0xbcf1b321	-0.02950436
83	0xbc4d4cf1	-0.012530551
84	0xbc52ae90	-0.012859002
85	0xbbef6731	-0.0073060025
86	0xbceb7aee	-0.02874514
87	0x3c77f5a8	0.015134253
88	0x3ad6ab8f	0.0016378033
89	0xbc93409f	-0.01797515
90	0x3c90e20b	0.01768591
91	0xbb6d6806	-0.0036225333
92	0xbc7d1a48	-0.0154481605
93	0xbc575b83	-0.013144377
94	0xbc0c90e7	-0.008579469
95	0xbccd751f	-0.025080262
96	0xbb07ef09	-0.0020741841
97	0xbc9cd924	-0.01914651
98	0x3c3c44f2	0.011491047
99	0x3c40dd1f	0.011771469
100	0x3c1b804f	0.00949104
101	0x3cbee48d	0.02330234
102	0x3c945f27	0.018111778
103	0xbc833d13	-0.016020333
104	0x3bf6e93c	0.007535128
105	0xbcb09ed6	-0.021560114
106	0xba19aa8d	-0.0005861901
107	0xba98d138	-0.0011659032
108	0xbcacfc62	-0.02111644
109	0x3b91c603	0.0044486537
110	0xbb89b0c6	-0.0042019812
111	0xbcb68b4f	-0.022283224
112	0xba0f7a3e	-0.00054732326
113	0x3cb0f8cd	0.021603012
114	0x3ca7540d	0.02042582
115	0xbcabb3f6	-0.020959835
116	0x3c323ea0	0.010879189
117	0xbc9e5f4e	-0.019332554
118	0x3cc03573	0.023462987
119	0x3cc369a7	0.02385409
120	0x3cb36497	0.02189855
121	0xbc4472f8	-0.011990301
122	0xbbd30fd1	-0.0064410944
123	0xbba89a4a	-0.005145346
124	0x3c92336e	0.01784679
125	0xbcc9c8c3	-0.024631863
126	0xbcbfd5a9	-0.02341731
127	0x3c9d8ebd	0.019233102
128	0xbcd29f24	-0.02571065
129	0xbc325c36	-0.010886243
130	0x3bb71a19	0.005587828
131	0x3a61e2d0	0.00086168665
132	0xbcc50823	-0.024051731
133	0x3c1636b9	0.00916832
134	0xbc90a88a	-0.01765849
135	0x3c4e6590	0.012597457
136	0x3cbe161a	0.023203898
137	0x3c93f801	0.018062593
138	0x3b953951	0.004553952
139	0x3bbbdd1a	0.0057331445
140	0xbca1e5b5	-0.019762853
141	0xbc951cca	-0.018202204
142	0x3bf1a8bc	0.007374851
143	0xbcd36a53	-0.025807535
144	0xbc892c5f	-0.01674479
145	0x3cb8c616	0.022555392
146	0x3cbb2083	0.022842651
147	0xbcc50705	-0.024051199
148	0xbc190c42	-0.009341301
149	0x3b4ea162	0.0031529297
150	0x3c9a21e1	0.018814983
151	0x3bd4687f	0.0064821835
152	0xbca9069b	-0.020633033
153	0x3cc0da41	0.023541572
154	0xbc433761	-0.011915059
155	0xbc2fa896	-0.010721346
156	0x3c489e5b	0.012244786
157	0x3c531f05	0.012885814
158	0xbc1f955b	-0.009740199
159	0x3bba2e27	0.0056817713
160	0xbcb8756d	-0.02251693
161	0xbcc3e605	-0.023913393
162	0xbc894ded	-0.01676079
163	0xbcb3e30d	-0.021958852
164	0xbc6f634a	-0.014611075
165	0xbbba2d02	-0.005681635
166	0xbc85f7cb	-0.016353508
167	0xbcbf3b6c	-0.023343764
168	0x3c1eed19	0.009700083
169	0xbcb7f70b	-0.022456666
170	0x3c6cc65f	0.014451592
171	0x3c03dd40	0.008048356
172	0xbcd66ec7	-0.02617587
173	0xbcab2aa7	-0.020894362
174	0x3cb0db41	0.021588923
175	0xbc84c7f7	-0.016208632
176	0x3ca173fe	0.01970863
177	0x3c9e8adc	0.019353323
178	0x3cba4862	0.022739593
179	0x3b9d8e29	0.0048082066
180	0x3c969754	0.018382706
181	0xbb6cb43f	-0.0036118177
182	0xbc9cb608	-0.019129768
183	0xbcb0390f	-0.021511583
184	0xbc0ed54b	-0.008717845
185	0xbc67ccee	-0.01414798
186	0x3c508e45	0.012729232
187	0x3c733ae8	0.014845587
188	0xbba3f9de	-0.0050041517
189	0x3c80f951	0.015743883
190	0x3c7c6162	0.015404077
191	0xbae34c62	-0.001734149
192	0xbc7ed29f	-0.015553146
193	0x3a4e2620	0.00078639574
194	0x3bb6c9ed	0.0055782706
195	0xbbf52499	-0.0074811694
196	0x3c832874	0.0160105
197	0xbc0d1d43	-0.008612934
198	0x3bc9ac25	0.0061545544
199	0x3cb956c2	0.022624377
200	0xbcc05255	-0.023476759
201	0xbc2e346e	-0.010632617
202	0xbc2790a8	-0.01022736
203	0x3c92034f	0.017823843
204	0x3b360746	0.0027775331
205	0xbc818615	-0.015811006
206	0x3c87eda6	0.016592812
207	0x3aec8fdf	0.0018048248
208	0xbc18efa6	-0.00933448
209	0x3b09a3b7	0.0021002123
210	0x3b0bf9f8	0.002135871
211	0xbbaa4c9a	-0.00519712
212	0xba052f4b	-0.00050805946
213	0x3c5f005e	0.013610927
214	0xbbde0d1c	-0.006776465
215	0x3bececbc	0.0072303694
216	0xbb47f17b	-0.0030508924
217	0xbbe386b1	-0.0069435467
218	0x3bf5b19f	0.0074979807
219	0x3ba51bb5	0.0050387033
220	0xbbe434ee	-0.0069643175
221	0x3c780710	0.015138403
222	0xbc8597c8	-0.016307727
223	0x3c8af807	0.016963972
224	0x3be32b47	0.0069326493
225	0x3c999f15	0.018752614
226	0x3b71ce5b	0.003689668
227	0x3c813d0f	0.015776185
228	0xbb519432	-0.00319792
229	0xbc2b4e7a	-0.010455722
230	0x3cbf28b8	0.023334846
231	0xbcd2662c	-0.025683485
232	0xbc0e34b4	-0.008679558
233	0xbbd2992e	-0.006426952
234	0x3cb90471	0.022585126
235	0xbc7a333c	-0.015271004
236	0xbc989024	-0.01862342
237	0xbbc19a90	-0.005908318
238	0xba1899dd	-0.0005821267
239	0xbc9f06b1	-0.01941237
240	0xbba9b1b7	-0.005178656
241	0x3bc712ac	0.006075224
242	0x3c2a54cf	0.0103961965
243	0xbc0d6acb	-0.008631418
244	0xbc29e663	-0.01036987
245	0xbc22f69e	-0.009946493
246	0xbb8bf8c8	-0.0042716004
247	0x3c872fb4	0.016502239
248	0x3cb3213a	0.02186643
249	0x3c7c244b	0.015389512
250	0x3be4cb28	0.006982226
251	0x3c997be5	0.018735835
252	0xbb2cb74a	-0.0026354366
253	0x3c1e7368	0.00967107
254	0x3c88b8b2	0.016689632
255	0xbace3bd6	-0.0015734385

net.2.bias f4 [32]
0	0x3b7fda0c	0.0039039878
1	0x3cb21951	0.021740587
2	0x3b83d4f5	0.004023189
3	0x3c34d33f	0.011036693
4	0x3c216b8a	0.0098522995
5	0xbc71b8e2	-0.014753552
6	0xbc3b720d	-0.011440766
7	0x3bcacbe2	0.0061888555
8	0x3b48338e	0.0030548307
9	0xbc83bed1	-0.0160822
10	0xbb561412	-0.0032665771
11	0x3ba9d3cf	0.0051827203
12	0x3c429509	0.011876353
13	0xbbd49c2e	-0.0064883446
14	0xbc8a6ea3	-0.016898459
15	0x3c9edc44	0.01939214
16	0xbbe529fe	-0.0069935312
17	0x3b237a20	0.0024944618
18	0x3cbcd802	0.02305222
19	0x3c9e306c	0.019310199
20	0x3c898158	0.016785309
21	0xbc8c54e1	-0.017130317
22	0xbc8fc4ac	-0.017549835
23	0x3cb86866	0.022510719
24	0x3c72df1a	0.014823699
25	0xbac4a773	-0.0015003517
26	0xbc9773c5	-0.01848782
27	0x3ccbd350	0.024881035
28	0x3b0f8984	0.0021902034
29	0xbc77a564	-0.015115116
30	0x3c298695	0.010347028
31	0xbcaeb5c9	-0.021326916

net.4.weight f4 [3, 32, 5, 5]
0	0x3cd08f07	0.025458826
1	0xbd0b84c0	-0.034062147
2	0xbce25275	-0.02762721
3	0xbc5b62b6	-0.013390234
4	0xbcf249f3	-0.029576277
5	0x3c8a7cdb	0.016905239
6	0xbc4ac456	-0.012375912
7	0x3be74624	0.007057922
8	0xbcf68336	-0.030091863
9	0x3cb98d23	0.022650307
10	0x3c5d4319	0.013504767
11	0xbb9c7ac6	-0.004775378
12	0xbd09843f	-0.033573385
13	0x3b33809a	0.0027389885
14	0xbc97d4a6	-0.018534016
15	0xbc6ceeff	-0.014461278
16	0xbce491fb	-0.02790164
17	0x3be809f3	0.007081264
18	0x3c893d19	0.016752766
19	0xbc257913	-0.010099667
20	0x3d0af389	0.03392366
21	0x3d12d3ac	0.035846397
22	0x3ceb4edc	0.028724127
23	0xbc89a7a7	-0.016803576
24	0x3cb145b9	0.021639692
25	0xbc46e2f0	-0.012139067
26	0x3cb7e94b	0.02245011
27	0xbc55bf18	-0.013046049
28	0x3c8612af	0.01636633
29	0x3c9b2915	0.018940488
30	0xbd6d5d85	-0.057950515
31	0xbd13afee	-0.03605645
32	0xbd2c3cd4	-0.042050198
33	0xbd875d7c	-0.066096276
34	0x3b9653d8	0.0045876317
35	0x3c036962	0.008020731
36	0xbc3b90c3	-0.011448088
37	0xbc202544	-0.00977451
38	0xbca51bf6	-0.020154934
39	0xbd09df05	-0.033659954
40	0xba9bef41	-0.0011896865
41	0xbbbede98	-0.005824875
42	0xbae26028	-0.0017271088
43	0xbd0114b0	-0.03151387
44	0x3bacf30d	0.0052779973
45	0x3c9cd569	0.01914473
46	0x3bd68d6c	0.0065476205
47	0x3d3a7fdc	0.045532092
48	0x3c5c0cd6	0.013430795
49	0xbbd0f9f7	-0.0063774544
50	0x3b3e9b03	0.0029084093
51	0xbb675234	-0.00352968
52	0xbcc0855b	-0.023501089
53	0x3cc8ca20	0.024510443
54	0x3cb0cea3	0.021582907
55	0x3c5ff778	0.013669841
56	0x3c21f335	0.009884645
57	0xbc8d1b66	-0.017224979
58	0x3c703d5b	0.014663066
59	0xbd0355c0	-0.0320642
60	0x3cc8c440	0.024507642
61	0x3ca55c58	0.020185634
62	0xbc9ccede	-0.01914161
63	0xbcb363b1	-0.021898123
64	0xbcaf695e	-0.021412548
65	0x3be545fa	0.0069968672
66	0xbbccca9c	-0.006249739
67	0xbb4b184c	-0.0030989824
68	0xbc76a9c6	-0.015055126
69	0xb902deab	-0.00012480716
70	0x3ca72f6f	0.02040836
71	0xbc37bd74	-0.011214603
72	0xbcd88dda	-0.026434828
73	0x3ccef322	0.02526242
74	0x3cf1489c	0.029453568
75	0x3c6c03ee	0.014405234
76	0x3c306dd7	0.010768375
77	0xbcd547ba	-0.026035178
78	0x3d0047d0	0.031318486
79	0xbc632817	-0.013864539
80	0xbbab89a0	-0.005234912
81	0x3c395536	0.01131182
82	0xbcd3a60d	-0.025836015
83	0xbc0fd65a	-0.008779133
84	0x3cbe9ea3	0.023269003
85	0x3cb84a0d	0.022496248
86	0xb94c386f	-0.00019475979
87	0xbac8011b	-0.0015259119
88	0xbb7a6106	-0.0038204803
89	0xbccc031d	-0.024903828
90	0xbacd5d72	-0.0015668108
91	0x3c5f3b10	0.013624921
92	0xbb939061	-0.0045032953
93	0xbd18b082	-0.037277706
94	0x3b3274f5	0.0027230356
95	0xbb37191d	-0.0027938553
96	0xbc00ab62	-0.007853361
97	0x3d08e7af	0.033424076
98	0x3c9873d7	0.018609924
99	0x3cb274b5	0.021784166
100	0xbc3fd0e4	-0.011707518
101	0xbb0c2c5a	-0.002138874
102	0xbac27985	-0.0014837241
103	0x3c946da8	0.018118694
104	0xbd04c68a	-0.032415904
105	0x3adfe4e7	0.0017081768
106	0xbc8c477b	-0.017123928
107	0x3cea237a	0.02858137
108	0xbc87f59a	-0.016596604
109	0xbd299525	-0.041402
110	0xbc926136	-0.01786862
111	0x3c8b2f98	0.016990468
112	0xbd0f687a	-0.035011746
113	0xbb49879a	-0.003075099
114	0xbd2f4788	-0.042792827
115	0x3ca5e4ee	0.020250764
116	0xbce1fa55	-0.027585188
117	0xbc0a0d8d	-0.008426082
118	0xbb1bfb41	-0.0023800882
119	0xbcbf2761	-0.023334207
120	0x3c6ca1b0	0.014442846
121	0xbd17200f	-0.036895808
122	0xbb9fcb20	-0.0048765093
123	0xbce5953b	-0.02802526
124	0x3b9b6bde	0.0047430834
125	0xbcbd9dcd	-0.023146534
126	0x3c2b5eff	0.010459661
127	0x3c1acb05	0.009447818
128	0x3d30b46d	0.043140817
129	0xbcfe74ae	-0.031061497
130	0xbcd103f9	-0.02551459
131	0x3c491acb	0.012274454
132	0xbc15de38	-0.009147219
133	0xbc89512c	-0.016762339
134	0x3cace036	0.021103006
135	0xbca9c730	-0.020724863
136	0x3b7aaebb	0.003825112
137	0xbc8a6ad2	-0.016896639
138	0xbae1b97a	-0.0017221414
139	0x3b983129	0.004644532
140	0xbd168eb4	-0.036757186
141	0x3c18dca6	0.00932995
142	0xbd032780	-0.032020092
143	0x3ace0503	0.0015718046
144	0xbcbe564f	-0.023234515
145	0xbd278066	-0.040893935
146	0xbcba541a	-0.02274518
147	0xbd0f53c3	-0.03499199
148	0x3c224fcb	0.009906719
149	0xbcf1a78a	-0.029498834
150	0x3c234f48	0.009967633
151	0xbc621551	-0.013799028
152	0xbc013a26	-0.007887399
153	0x3cb30678	0.02185367
154	0x3c887998	0.016659543
155	0x3cd6c2d7	0.026215954
156	0x3c8d6335	0.01725922
157	0x3ce4e986	0.027943384
158	0x3d0600ab	0.03271548
159	0xbc821f57	-0.015884085
160	0x3c9256c5	0.01786364
161	0x3d0d8f94	0.034560755
162	0x3b5cdd6e	0.0033701318
163	0xbc7cbf03	-0.0154264
164	0xbc6cf49c	-0.014462616
165	0x3c41fa6f	0.011839493
166	0x3bb85aad	0.005626044
167	0x3ad44e2d	0.0016197615
168	0xbce9e7a2	-0.028552834
169	0xbc05031b	-0.008118416
170	0xbcc6227e	-0.024186369
171	0x3c5f3e3b	0.013625677
172	0x3d0a36cd	0.03374367
173	0xbba325bf	-0.004978865
174	0xbb91a125	-0.0044442588
175	0x3c3cb17d	0.011516926
176	0x3d0eec68	0.034893423
177	0x3d14d7ca	0.036338605
178	0x399228d7	0.00027877718
179	0x3ca3c90c	0.019993328
180	0x3d057860	0.0325855
181	0x3baf4008	0.0053482093
182	0x3c149c67	0.009070492
183	0xbc26da59	-0.010183894
184	0x3d0bee92	0.034163065
185	0x3caf7da2	0.021422211
186	0xbc3b27f8	-0.0114231035
187	0x3cfee442	0.031114701
188	0xbcbf5ea1	-0.023360552
189	0xbcd08328	-0.025453165
190	0xbd0186da	-0.031622745
191	0xbc7bbc64	-0.01536474
192	0x3c7094a2	0.014683874
193	0x3af94979	0.0019019089
194	0x3cd8895f	0.026432691
195	0x3d079db2	0.033109374
196	0x3cf9b66c	0.030482493
197	0xbc96f44b	-0.018427035
198	0xbc662509	-0.014046916
199	0x3acc8790	0.0015604366
200	0x3cb0a995	0.021565238
201	0xbc5b8eee	-0.013400776
202	0xbcd3d6e3	-0.025859302
203	0x3b5252c4	0.003209279
204	0xbcb46c66	-0.022024345
205	0xbce6e7dd	-0.028186733
206	0xbbb982fe	-0.0056613674
207	0xbcf9e0bc	-0.03050267
208	0x3bff0384	0.0077824015
209	0xbc586bd9	-0.013209307
210	0x3c904313	0.017610108
211	0xbcb512a7	-0.02210362
212	0xbc6d1ad6	-0.01447173
213	0x3c6e0fa8	0.0145301
214	0x3a2380d9	0.00062371563
215	0xbc6487a9	-0.0139483595
216	0x3b5b0010	0.0033416785
217	0xbc1065c6	-0.008813327
218	0xbcfa1d34	-0.030531503
219	0x3d018891	0.03162438
220	0xbcccfab2	-0.025021885
221	0xbcf02fa6	-0.029319596
222	0xbcedd27a	-0.029031027
223	0x3aaf8d1e	0.0013393497
224	0xbc26b7ca	-0.010175655
225	0xbc8d4fcf	-0.01724997
226	0xbc6bffee	-0.01440428
227	0x3bb1e6fa	0.005429146
228	0x3cb5b9ab	0.02218326
229	0xbb4aeae3	-0.0030962757
230	0xbaee9c3b	-0.0018204519
231	0x3d1ca2f0	0.038241327
232	0x3bc68c06	0.0060591726
233	0xbcec7021	-0.028862061
234	0xbc44d93b	-0.012014682
235	0x3d12c3f2	0.0358314
236	0x3c632695	0.013864179
237	0xbcf6a93f	-0.03011
238	0x3a583d38	0.00082488684
239	0x3cfae0dd	0.030624801
240	0xbcb6aac1	-0.022298219
241	0xbd1a4823	-0.03766645
242	0xbce4b350	-0.027917534
243	0xbc384130	-0.011246011
244	0x3ce61723	0.028087204
245	0x3cf5e1d1	0.030014904
246	0x3d10dda7	0.035367634
247	0x3c77ccc8	0.015124507
248	0x3c3fb5b7	0.011701039
249	0xbd0724c9	-0.032994065
250	0xbcde8278	-0.027161822
251	0xbbe820f1	-0.007084005
252	0xbca3a1d0	-0.01997462
253	0x3d0beef0	0.034163415
254	0xb9f6d89d	-0.00047082166
255	0xbb8cd682	-0.0042980323

net.4.bias f4 [3]
0	0x3bbafdfe	0.0057065478
1	0x3cbe560c	0.02323439
2	0x3b77e3e5	0.0037825045
