checkpoints/srcnn_epoch7_2025-03-20_23-02-04.pth (torch, 280002 bytes, 6 tensors)

net.0.weight f4 [64, 3, 9, 9]
0	0x3cffab3d	0.031209582
1	0xbca7be39	-0.020476447
2	0x3cf7bb1e	0.030240592
3	0x3d495bba	0.049159743
4	0xbd66b2c1	-0.056322817
5	0x3c87e6ad	0.016589487
6	0x3d05a27c	0.03262566
7	0xbcb2a952	-0.021809254
8	0xbce31204	-0.027718551
9	0x3c2f4e58	0.010699831
10	0xbd28e820	-0.041236997
11	0xbcd398f5	-0.025829772
12	0xbaa30e42	-0.0012440162
13	0xbd05b793	-0.032645773
14	0x397a88ba	0.00023892793
15	0x3d6fa129	0.058503304
16	0x3d8f09f6	0.06984322
17	0xbc55c849	-0.01304824
18	0xbd32b4d6	-0.04362949
19	0xbc0ed373	-0.008717406
20	0x3b011866	0.001969838
21	0x3d67632e	0.05649107
22	0xbc828a93	-0.015935218
23	0xbd16a126	-0.036774777
24	0x3d7babf2	0.061443277
25	0x3d044c7b	0.0322995
26	0x3d786bdb	0.060649734
27	0x3cb96ba1	0.02263433
28	0xbd1ae82b	-0.03781907
29	0xbd75dbd5	-0.0600241
30	0x3d5cbb38	0.053889483
31	0xbd3ab326	-0.045581006
32	0xbc6563d2	-0.01400085
33	0xbd2e9246	-0.042619966
34	0x3d84332c	0.06455073
35	0xbd4e56ac	-0.050375625
36	0xbc427760	-0.0118692815
37	0x3a550cbf	0.00081272045
38	0xbbbeda91	-0.005824395
39	0xbcccd939	-0.025005924
40	0xbc812d48	-0.015768662
41	0x3d870b4e	0.06593953
42	0xbcefdbd4	-0.029279627
43	0xbcee351b	-0.029078057
44	0x3d249d33	0.04018898
45	0x3d8c5cce	0.068536386
46	0xbd595a23	-0.053064477
47	0x3d0baf1d	0.034102548
48	0x3c530cbe	0.012881456
49	0x3cb808b6	0.022465091
50	0xbbe37671	-0.0069416096
51	0xbc842602	-0.016131405
52	0xbd5c9c28	-0.05385986
53	0x3d753499	0.059864614
54	0x3d805a32	0.062672034
55	0xbce2df95	-0.027694503
56	0x3d8a3566	0.06748466
57	0xbd15bf77	-0.03655955
58	0x3d40ac38	0.04703924
59	0x3d8d5e3f	0.06902742
60	0x3c198e96	0.009372374
61	0xbb728f84	-0.0037011812
62	0x3c6c5cd4	0.014426429
63	0x3d1d57a4	0.03841366
64	0x3d87e885	0.066361465
65	0xbc2504c2	-0.010071935
66	0x3d82d996	0.063891575
67	0xbc60443a	-0.0136881415
68	0xbcb2f396	-0.021844666
69	0x3d026035	0.03183003
70	0xbd19f5fe	-0.037588112
71	0xbb2f66a3	-0.0026764057
72	0xbcde2914	-0.027119197
73	0xbd2f6bee	-0.04282754
74	0xbd23eebf	-0.040022608
75	0xbd42f6fd	-0.047598828
76	0x3d37bdcd	0.044858743
77	0xbc257bb1	-0.010100291
78	0xbd632be4	-0.05546178
79	0x3ca5ba6a	0.02023049
80	0xbcdd3dfc	-0.027007096
81	0xbd098fa1	-0.03358424
82	0xbc8fd7b7	-0.017558916
83	0xbd18a4f5	-0.03726669
84	0x3c883339	0.016625987
85	0xbd60ac44	-0.054851785
86	0x3c654f3e	0.013995944
87	0xbc3b44d2	-0.011429982
88	0xbcb4e8e4	-0.022083707
89	0x3d488fdb	0.048965316
90	0xbc6cfc7c	-0.014464494
91	0xbd492ea7	-0.049116757
92	0x3bc31870	0.005953841
93	0xbd627776	-0.055289708
94	0xbd55f95b	-0.052239757
95	0xbcbbfe98	-0.022948548
96	0x3d116320	0.035494924
97	0x3c04b7cf	0.008100464
98	0x3c148794	0.0090655275
99	0x3d876ed1	0.066129334
100	0x3d3cb462	0.046070464
101	0x3d88177d	0.06645105
102	0xbd585b4f	-0.052821454
103	0xba870c0d	-0.0010303274
104	0x3d5734a3	0.052540433
105	0xbd296faa	-0.041366257
106	0xbd57817b	-0.052613717
107	0x3cfa4cdb	0.030554226
108	0xbd4706a2	-0.04859031
109	0xbbc613c3	-0.0060448362
110	0xbd433630	-0.0476591
111	0xbcbb89a0	-0.022892773
112	0x3d257bbb	0.0404012
113	0x3cf144e2	0.029451791
114	0x3c252a2d	0.010080856
115	0xbc84017e	-0.016113993
116	0xbd64353e	-0.05571484
117	0x3d21fda9	0.03954855
118	0x3d02cd2f	0.03193396
119	0xbc5789aa	-0.01315538
120	0xbd451a69	-0.04812089
121	0x3d5ac5d9	0.05341134
122	0xbd56546b	-0.0523266
123	0x3d6a0580	0.05713415
124	0xbcf7fcc2	-0.030271892
125	0xbc4a7d33	-0.012358951
126	0xbd0bea4e	-0.034158997
127	0xbcc30dcd	-0.023810292
128	0xbd219631	-0.039449874
129	0xbcd7b498	-0.026331231
130	0x3d3fc8b8	0.04682228
131	0xbd1a48e0	-0.037667155
132	0x3b0fb3f8	0.0021927338
133	0x3ceb9a44	0.028760083
134	0x3d42041c	0.0473672
135	0xbd23daa9	-0.040003452
136	0xbcb2980e	-0.021801021
137	0xbc409fa7	-0.011756814
138	0x3d73c937	0.059518065
139	0xbb209702	-0.002450407
140	0x3d6c89da	0.057748653
141	0x3c2408ff	0.01001191
142	0xbd1545d2	-0.03644354
143	0xbd489b8b	-0.048976462
144	0x3d3beda8	0.045880944
145	0x3d48383a	0.048881747
146	0xbc127c00	-0.008940697
147	0xbd66230f	-0.05618578
148	0x3abbd88a	0.0014331501
149	0xbcff9b35	-0.031201938
150	0x3d1ac758	0.037787765
151	0xbd648a98	-0.055796236
152	0x3ca03e33	0.019560909
153	0x3a3de92f	0.0007244525
154	0xbbef8daf	-0.007310591
155	0xbd460649	-0.048345838
156	0xbd36ce82	-0.044630535
157	0x3d5d4a58	0.054025978
158	0xbd2d6812	-0.042335577
159	0xbcc16479	-0.02360748
160	0xbca591fd	-0.020211214
161	0x3c7be114	0.015373487
162	0xbd1a069f	-0.03760397
163	0x3cd1716b	0.025566777
164	0x3cb0c266	0.021577071
165	0xbd021647	-0.031759527
166	0x3d0ce7ee	0.034400873
167	0xbb99eff2	-0.004697793
168	0x3d20130f	0.039080676
169	0xbc2405e6	-0.010011172
170	0xbd057931	-0.03258628
171	0x3d897ea2	0.067136064
172	0xbd517f3c	-0.05114673
173	0xbcccb389	-0.024987953
174	0xbd62a42e	-0.055332355
175	0x3d774a8a	0.06037382
176	0xbd24f384	-0.040271297
177	0x3d03073e	0.03198933
178	0xbd587fcf	-0.052856263
179	0x3d149849	0.036278043
180	0x3d08fc61	0.033443812
181	0x3d7832ae	0.060595207
182	0xbd24ce1d	-0.040235627
183	0x3c956841	0.018238189
184	0x3d90e75c	0.07075378
185	0x3d8629a6	0.065509126
186	0x3d887865	0.066635884
187	0x3d154812	0.036445685
188	0xbc40092a	-0.011720935
189	0x3c4ca25f	0.012489884
190	0xbd424a42	-0.0474341
191	0xbc26d5df	-0.010182827
192	0x3c4c5cc2	0.012473287
193	0x3d5de2e2	0.05417145
194	0xbc031d04	-0.008002523
195	0x3d4f7ffa	0.050659157
196	0x3d775e46	0.06039264
197	0x3cde01fb	0.027100554
198	0x3d7b7ec2	0.061400183
199	0x3d8198c8	0.06327969
200	0x3ca44e4e	0.02005687
201	0x3d490399	0.049075697
202	0xbc1b5549	-0.009480783
203	0xbc8d1db2	-0.017226074
204	0x3cb21641	0.021739127
205	0x3c4a46e1	0.012346
206	0xbc3e633b	-0.011620338
207	0xbd679a71	-0.05654377
208	0xbd5c4ae9	-0.053782377
209	0xbcc988e7	-0.024601413
210	0xbd55001c	-0.052002057
211	0x3c45f9af	0.012083455
212	0xbd508019	-0.050903413
213	0xbc942cd2	-0.018087778
214	0xbca878a9	-0.020565348
215	0x3d06bec0	0.032896757
216	0x3c8dc4a8	0.017305687
217	0x3c90c799	0.0176733
218	0x3c120649	0.008912631
219	0xbce6ffea	-0.028198201
220	0x3d67c12b	0.056580704
221	0x3d2a1aac	0.041529343
222	0x3d798550	0.060918152
223	0xbcfa135d	-0.030526811
224	0xbcdcf33e	-0.026971456
225	0x3d77ac5c	0.06046711
226	0xbd5f82c4	-0.054568067
227	0x3d0e8aba	0.03480027
228	0xbc14e07e	-0.009086726
229	0xbd658b0a	-0.0560408
230	0xbc6c34ed	-0.014416915
231	0xbc97c307	-0.018525613
232	0xbc7730b7	-0.015087298
233	0xbd433c62	-0.047665007
234	0xbd1aa59f	-0.037755605
235	0x3cfa2e81	0.030539753
236	0x3d3abcda	0.04559026
237	0xbc2e0bbb	-0.010622914
238	0xbc83d7d7	-0.016094131
239	0xba81523c	-0.0009866427
240	0x3d3fe807	0.046852138
241	0xbd5d74ec	-0.054066584
242	0x3d2e287b	0.042519074
243	0x3ca2ed9e	0.019888695
244	0xbd50aedb	-0.050948005
245	0x3d39dada	0.04537473
246	0x3d7f1340	0.062274218
247	0x3c1d55a0	0.009602934
248	0xbc527761	-0.012845845
249	0x3d70e4b0	0.058811843
250	0xbd37f356	-0.044909798
251	0xbc8f1e0d	-0.017470384
252	0xbbf6c7bc	-0.0075311344
253	0xbd1d5741	-0.03841329
254	0x3caa7abc	0.020810477
255	0xb890e2ba	-6.908686e-05

net.0.bias f4 [64]
0	0x3d6e6b65	0.05820789
1	0x3ca5bed1	0.02023259
2	0x3d686ee8	0.056746393
3	0x3c81eb62	0.01585931
4	0x3d62e871	0.055397455
5	0x3d2a4820	0.04157269
6	0x3cf4f0f7	0.029900057
7	0x3cce4ab3	0.025182104
8	0x3d30c4b6	0.04315635
9	0xbd4f1aa0	-0.0505625
10	0x3c9c24a1	0.019060435
11	0xbcd6ebe7	-0.026235534
12	0xbc07dc5b	-0.008292283
13	0xb8a07f7c	-7.65314e-05
14	0xbd173509	-0.036915813
15	0xbc229ee6	-0.00992558
16	0xbd324024	-0.0435182
17	0x3a8b191b	0.001061234
18	0x3a73d1da	0.00093009847
19	0xbd21bf79	-0.039489243
20	0xbd380f0e	-0.044936232
21	0x3d05f309	0.03270248
22	0xbabcca67	-0.0014403582
23	0x3c5e043e	0.013550816
24	0x3d1f6688	0.03891614
25	0x3be9ec76	0.007138784
26	0xbd081cc6	-0.033230565
27	0x3c4b7b69	0.01241956
28	0x3d4b124e	0.049578004
29	0x3c538cf6	0.012912026
30	0x3d5fc78a	0.054633655
31	0x3c885205	0.016640672
32	0xbcab6eef	-0.02092692
33	0x3ca00c39	0.019537078
34	0xbd63828a	-0.055544414
35	0xbce5cca2	-0.028051678
36	0x3d10d057	0.03535494
37	0x3ceb5b52	0.028730068
38	0x3d5bb784	0.05364181
39	0x3d28c158	0.041200012
40	0x3c059efe	0.0081555825
41	0xbbf1e668	-0.007382203
42	0xbd11510a	-0.035477675
43	0xbd496c1b	-0.049175363
44	0xbced2018	-0.028945968
45	0x3d80a59c	0.062815875
46	0xbd131778	-0.035911053
47	0x3d81a46f	0.06330191
48	0xbbe6f2be	-0.00704798
49	0x3d17ae1c	0.037031278
50	0xbd6f3223	-0.058397423
51	0x3d3d203c	0.04617332
52	0xbd6e3134	-0.058152393
53	0xbc2091c0	-0.0098003745
54	0xbbec6b23	-0.00721492
55	0x3c928712	0.017886672
56	0x3d47417a	0.048646428
57	0xbd48dbda	-0.04903779
58	0x3c033ef5	0.008010616
59	0x3c2b84f1	0.010468707
60	0x3d8220f6	0.06353943
61	0x3cd70f39	0.026252376
62	0x3d14ca2a	0.03632561
63	0xbc7e05f0	-0.015504345

net.2.weight f4 [32, 64, 5, 5]
0	0xbb88ad4a	-0.0041710483
1	0x3c831b80	0.016004324
2	0xbad7d8e8	-0.0016467841
3	0xbcbda39f	-0.02314931
4	0x3c9d447a	0.019197691
5	0x3b7e8a92	0.0038839919
6	0x3be88773	0.007096225
7	0xbbee4797	-0.007271718
8	0x393d64dd	0.00018062019
9	0xbb653850	-0.0034976192
10	0xbc38157f	-0.011235594
11	0x3cba3c9c	0.022733979
12	0x3c353e5d	0.011062232
13	0xbcc6c8e6	-0.024265718
14	0xbc26bc38	-0.010176711
15	0xbb884cd4	-0.0041595493
16	0x3c16d506	0.009206062
17	0xbc01094a	-0.00787575
18	0x3c304680	0.010758996
19	0x3cb5b38d	0.022180343
20	0xbc374376	-0.011185518
21	0x3c4d7c8d	0.012541902
22	0x3c93568d	0.017985607
23	0xbae6d998	-0.0017612455
24	0x3c6da314	0.014504213
25	0xbc876fb8	-0.016532764
26	0x3cc28fc4	0.023750193
27	0x3abd3477	0.0014435191
28	0x3a435ae1	0.00074522017
29	0xbca49729	-0.02009161
30	0xbcb365eb	-0.021899184
31	0x3c6c54d3	0.014424521
32	0xbbe977a8	-0.00712486
33	0x3c9a16d7	0.018809719
34	0xbbbc76d5	-0.0057514706
35	0x3bee5cf4	0.0072742645
36	0x3c59b871	0.013288603
37	0xbccd0354	-0.025026001
38	0xbc1d5345	-0.009602373
39	0x3c9c36be	0.019069072
40	0xbcb0d503	-0.021585947
41	0x3b104541	0.0022013935
42	0xbc73df2e	-0.014884753
43	0xbcb88654	-0.02252499
44	0x3c013761	0.0078867385
45	0x3c2c4530	0.010514542
46	0xbbe79906	-0.0070678024
47	0x3bd5815c	0.006515665
48	0xbc9e7b40	-0.01934588
49	0x3c8936ac	0.016749702
50	0x3c208d53	0.009799319
51	0xbb9591b6	-0.0045644892
52	0x3bc7ed9f	0.0061013247
53	0xbc690a5d	-0.014223662
54	0x3b4c9284	0.003121526
55	0xbc2c500b	-0.010517131
56	0x3cbe2947	0.023213042
57	0xbb640c81	-0.0034797492
58	0x3c22c862	0.00993547
59	0x3a8c1c1b	0.0010689528
60	0x3b9ca017	0.0047798264
61	0xbc2c1510	-0.010503069
62	0x3c708901	0.014681102
63	0x3cbc4f77	0.02298711
64	0xbc271434	-0.010197688
65	0x3bdf3692	0.006811925
66	0xbbb9e0ee	-0.0056725657
67	0x3bc7f2bf	0.0061019356
68	0xbc08cc6d	-0.00834952
69	0xbb059736	-0.0020384318
70	0x3cb38988	0.021916166
71	0xba06a20b	-0.00051358406
72	0x3b97e22f	0.0046351175
73	0xbb996bb8	-0.0046820305
74	0x3ca740d6	0.020416658
75	0xbb825604	-0.003977539
76	0x3c69812c	0.014251988
77	0xbce65fe9	-0.028121905
78	0xbc4812ba	-0.012211496
79	0xbc8ac864	-0.016941257
80	0x3b98586f	0.004649214
81	0x3c833699	0.016017245
82	0xbcf1b0aa	-0.029503185
83	0xbc4d4181	-0.012527824
84	0xbc52a15f	-0.012855857
85	0xbbf04936	-0.007332946
86	0xbcebdec8	-0.028792754
87	0x3c76312e	0.015026374
88	0x3ac17017	0.0014758137
89	0xbc94f402	-0.018182758
90	0x3c9050f7	0.017616732
91	0xbb70b335	-0.003672791
92	0xbc7eb8c9	-0.015546986
93	0xbc5aa87b	-0.013345833
94	0xbc1120cb	-0.008857916
95	0xbcce8062	-0.025207702
96	0xbb0fc018	-0.0021934565
97	0xbc9da9ec	-0.019246064
98	0x3c3af5c0	0.01141113
99	0x3c3fa8b5	0.011697938
100	0x3c1b8062	0.009491058
101	0x3cbee48d	0.02330234
102	0x3c945f27	0.018111778
103	0xbc833d13	-0.016020333
104	0x3bf6e97d	0.007535158
105	0xbcb09ed6	-0.021560114
106	0xba19a5ac	-0.0005861174
107	0xba98ced7	-0.0011658323
108	0xbcacfc62	-0.02111644
109	0x3b91c645	0.0044486844
110	0xbb89b619	-0.004202616
111	0xbcb68bea	-0.022283513
112	0xba0f9a91	-0.0005478049
113	0x3cb0f8bd	0.021602983
114	0x3ca7540d	0.02042582
115	0xbcabb466	-0.020960044
116	0x3c323b54	0.010878403
117	0xbc9e60a4	-0.019333191
118	0x3cc034b6	0.023462635
119	0x3cc3696e	0.023853984
120	0x3cb36424	0.021898337
121	0xbc447500	-0.011990786
122	0xbbd317b2	-0.0064420337
123	0xbba8a32a	-0.005146404
124	0x3c9232b6	0.017846446
125	0xbcc9c8c3	-0.024631863
126	0xbcbfd5a9	-0.02341731
127	0x3c9d8ebd	0.019233102
128	0xbcd29f24	-0.02571065
129	0xbc325c35	-0.010886242
130	0x3bb71a3a	0.0055878432
131	0x3a61e4de	0.0008617173
132	0xbcc50823	-0.024051731
133	0x3c1636be	0.009168325
134	0xbc90a88a	-0.01765849
135	0x3c4e652f	0.012597366
136	0x3cbe160e	0.023203876
137	0x3c93f7a5	0.018062422
138	0x3b9531f6	0.004553075
139	0x3bbbd510	0.005732186
140	0xbca1e5b5	-0.019762853
141	0xbc951cca	-0.018202204
142	0x3bf1a824	0.0073747803
143	0xbcd36a53	-0.025807535
144	0xbc892c8c	-0.016744874
145	0x3cb8c604	0.022555359
146	0x3cbb2081	0.022842648
147	0xbcc50721	-0.02405125
148	0xbc190e52	-0.009341793
149	0x3b4e9254	0.0031520324
150	0x3c9a222b	0.01881512
151	0x3bd469ca	0.0064823376
152	0xbca90667	-0.020632936
153	0x3cc0da7a	0.023541678
154	0xbc43366e	-0.0119148325
155	0xbc2fa746	-0.010721033
156	0x3c489f45	0.012245004
157	0x3c531fbb	0.012885983
158	0xbc1f947d	-0.009739992
159	0x3bba305e	0.0056820353
160	0xbcb87baf	-0.022519914
161	0xbcc3ea02	-0.023915295
162	0xbc8951f5	-0.016762713
163	0xbcb3e7a6	-0.021961045
164	0xbc6f7735	-0.0146158235
165	0xbbba47fd	-0.005684851
166	0xbc85fb16	-0.016355079
167	0xbcbf3e0e	-0.02334502
168	0x3c1eeb0e	0.009699596
169	0xbcb7f7c0	-0.022457004
170	0x3c6caf9b	0.0144461645
171	0x3c03c82d	0.008043331
172	0xbcd672f2	-0.026177857
173	0xbcab2bc2	-0.020894889
174	0x3cb0da8c	0.021588586
175	0xbc84ae99	-0.016196536
176	0x3ca1940f	0.01972392
177	0x3c9eacd1	0.019369515
178	0x3cba692c	0.022755228
179	0x3b9dea11	0.0048191627
180	0x3c96a71b	0.018390229
181	0xbb6c24f0	-0.0036032759
182	0xbc9ca3bd	-0.019121045
183	0xbcb0231d	-0.021501118
184	0xbc0ea1ad	-0.008705539
185	0xbc687ff1	-0.01419066
186	0x3c4f368c	0.012647282
187	0x3c702298	0.014656685
188	0xbbae0e2a	-0.005311747
189	0x3c7bcac1	0.0153681645
190	0x3c7b940e	0.015355123
191	0xbaed8b6c	-0.0018123216
192	0xbc80ba23	-0.015713757
193	0x3a0d53b9	0.0005391199
194	0x3bace3c9	0.0052761775
195	0xbbf6a151	-0.0075265546
196	0x3c82df69	0.01597567
197	0xbc0e2f8d	-0.008678329
198	0x3bc6bf24	0.006065266
199	0x3cb879ed	0.022519076
200	0xbcc051ac	-0.023476444
201	0xbc2e32f4	-0.010632265
202	0xbc278f79	-0.010227078
203	0x3c9203bb	0.017824044
204	0x3b360dfb	0.002777933
205	0xbc81852b	-0.01581057
206	0x3c87eee7	0.01659341
207	0x3aec9f10	0.0018052775
208	0xbc18ee5b	-0.009334172
209	0x3b09a9b3	0.002100569
210	0x3b0b6c48	0.0021274257
211	0xbbaa8445	-0.005203756
212	0xba0638bd	-0.0005120149
213	0x3c5ed68c	0.013600957
214	0xbbde9274	-0.006792361
215	0x3bec89f6	0.0072185947
216	0xbb48d1a0	-0.0030642524
217	0xbbe407be	-0.0069589308
218	0x3bf50019	0.0074768183
219	0x3ba42d14	0.0050102565
220	0xbbe47fed	-0.0069732578
221	0x3c77ea3f	0.015131532
222	0xbc85a5e7	-0.01631446
223	0x3c8ae505	0.016954908
224	0x3be2c473	0.006920391
225	0x3c999f15	0.018752614
226	0x3b71ce59	0.0036896674
227	0x3c813d0f	0.015776185
228	0xbb519347	-0.0031978653
229	0xbc2b4e39	-0.010455661
230	0x3cbf28b8	0.023334846
231	0xbcd2662c	-0.025683485
232	0xbc0e34b2	-0.008679556
233	0xbbd298f7	-0.0064269262
234	0x3cb90478	0.022585139
235	0xbc7a3331	-0.015270994
236	0xbc989024	-0.01862342
237	0xbbc19d79	-0.005908665
238	0xba18fa63	-0.00058356504
239	0xbc9f0aa0	-0.019414246
240	0xbba9b199	-0.005178642
241	0x3bc7123e	0.0060751727
242	0x3c2a51e1	0.010395498
243	0xbc0d7210	-0.008633152
244	0xbc29efa8	-0.01037208
245	0xbc22f69f	-0.009946494
246	0xbb8bf8bb	-0.0042715943
247	0x3c872fb4	0.016502239
248	0x3cb32138	0.021866426
249	0x3c7c220c	0.015388977
250	0x3be4cce5	0.006982433
251	0x3c997cae	0.01873621
252	0xbb2cb08a	-0.0026350343
253	0x3c1e74e6	0.009671425
254	0x3c88b95f	0.016689954
255	0xbace3774	-0.0015733079

net.2.bias f4 [32]
0	0x3b7fcc06	0.003903152
1	0x3cac1ff1	0.021011325
2	0x3b8b1b78	0.004245218
3	0x3c37bcb5	0.011214425
4	0x3c177314	0.009243745
5	0xbc67feb2	-0.014159845
6	0xbc40b260	-0.011761278
7	0x3bcc06ef	0.0062264125
8	0x3b39c655	0.0028346975
9	0xbc82d152	-0.015968952
10	0xbb5613cb	-0.0032665606
11	0x3bac7b55	0.0052637258
12	0x3c137c1b	0.009001757
13	0xbbf88308	-0.0075839795
14	0xbc8a4b35	-0.016881565
15	0x3c9e8fac	0.019355617
16	0xbbe14e36	-0.0068757785
17	0x3b2378b5	0.0024943773
18	0x3cb4c2b1	0.022065492
19	0x3c912e17	0.017722173
20	0x3c801608	0.015635505
21	0xbc8d96b7	-0.01728378
22	0xbc945da7	-0.018111063
23	0x3cb0f7d0	0.021602541
24	0x3c70f024	0.0147056915
25	0xbaafbfe9	-0.0013408634
26	0xbc997d2d	-0.018736446
27	0x3cb44821	0.02200705
28	0x3a9088d9	0.0011027112
29	0xbcb9430e	-0.022614982
30	0x3c2805bd	0.010255274
31	0xbcaf37f6	-0.021388989

net.4.weight f4 [3, 32, 5, 5]
0	0x3cd08f07	0.025458826
1	0xbd0b84c0	-0.034062147
2	0xbce25275	-0.02762721
3	0xbc5b62b6	-0.013390234
4	0xbcf249f3	-0.029576277
5	0x3c8a7cdb	0.016905239
6	0xbc4ac456	-0.012375912
7	0x3be74624	0.007057922
8	0xbcf68336	-0.030091863
9	0x3cb98d23	0.022650307
10	0x3c5d4319	0.013504767
11	0xbb9c7ab7	-0.004775371
12	0xbd09843f	-0.033573385
13	0x3b3380ad	0.002738993
14	0xbc97d4a6	-0.018534016
15	0xbc6ceeff	-0.014461278
16	0xbce491fb	-0.02790164
17	0x3be809f3	0.007081264
18	0x3c893d19	0.016752766
19	0xbc257913	-0.010099667
20	0x3d0af389	0.03392366
21	0x3d12d3ac	0.035846397
22	0x3ceb4edc	0.028724127
23	0xbc89a7a7	-0.016803576
24	0x3cb145b9	0.021639692
25	0x3cf22eae	0.029563274
26	0x3cc81d23	0.024427956
27	0xbc5e40e3	-0.013565275
28	0x3d086019	0.03329477
29	0x3c934a84	0.017979868
30	0xbab55f85	-0.0013837671
31	0xbcab8cf9	-0.020941244
32	0xbd0a0063	-0.033691775
33	0xbd077a40	-0.03307557
34	0x3cff3f45	0.031158099
35	0x3cd4ee9d	0.025992686
36	0xbcf041ef	-0.029328315
37	0xbce62b04	-0.028096683
38	0xbc8a68d9	-0.016895698
39	0xbd049e9a	-0.032377817
40	0x3c771912	0.015081661
41	0xbcc4a879	-0.024006115
42	0xbc91ecdf	-0.017813144
43	0xbcedab8f	-0.02901247
44	0x3b0d5a60	0.002156876
45	0x3cea2f82	0.028587107
46	0xbc3212b7	-0.01086872
47	0x3d0a8907	0.033822086
48	0x3c4442e2	0.011978837
49	0xbc89b7ae	-0.016811218
50	0x3b86c8eb	0.0041133068
51	0xbb3da5cf	-0.002893794
52	0xbcba6523	-0.022753304
53	0x3cc2e54a	0.023790974
54	0x3cb337fb	0.02187728
55	0x3c6639e8	0.014051892
56	0x3c24822f	0.010040804
57	0xbc8663ed	-0.01640507
58	0x3c68ad69	0.0142015
59	0xbcff85db	-0.031191757
60	0x3cc60624	0.02417285
61	0x3ca65c7a	0.020307768
62	0xbc989c2b	-0.018629154
63	0xbcb67af1	-0.02227542
64	0xbcac0827	-0.020999981
65	0x3bf5b6ab	0.0074985824
66	0xbba735ef	-0.005102865
67	0xbb07b610	-0.0020707883
68	0xbc78572c	-0.015157502
69	0xb9642d7f	-0.00021760723
70	0x3ca4b65c	0.020106487
71	0xbc322500	-0.010873079
72	0xbcceaa52	-0.0252277
73	0x3cce2ec3	0.025168782
74	0x3ced53c6	0.02897061
75	0x3c868007	0.01641847
76	0x3c5af91f	0.013365059
77	0xbccef511	-0.025263341
78	0x3d026ea0	0.03184378
79	0xbc6e736c	-0.014553886
80	0xbb8ce28a	-0.0042994665
81	0x3c57fba9	0.013182559
82	0xbcca51c6	-0.024697196
83	0xbc19c78c	-0.009385955
84	0x3cb34baf	0.021886675
85	0x3cbe001f	0.023193417
86	0x38b4c378	8.619478e-05
87	0xbae6a21e	-0.0017595922
88	0xbb4c7467	-0.003119731
89	0xbcd27e80	-0.025695086
90	0x3a1483cf	0.0005665393
91	0x3c7dff0a	0.015502701
92	0xbb49178f	-0.0030684208
93	0xbd09cf7f	-0.03364515
94	0x3b12c741	0.0022396597
95	0xba923b1e	-0.0011156534
96	0xbbd23dd8	-0.0064160638
97	0x3d0776d7	0.03307232
98	0x3ca0db30	0.019635767
99	0x3ca21dd3	0.019789612
100	0xbc1a2a18	-0.00940945
101	0xb9252fa0	-0.00015753368
102	0xba9726f2	-0.0011531992
103	0x3cb340d9	0.021881508
104	0xbce6384e	-0.02810302
105	0x3b3dc8ea	0.0028958865
106	0xbc81e977	-0.015858395
107	0x3cf314dd	0.029673034
108	0xbc617d4c	-0.013762783
109	0xbd195a28	-0.037439495
110	0xbc935da4	-0.017988987
111	0x3c96c31d	0.018403584
112	0xbd0a8e08	-0.033826858
113	0xb90352c3	-0.00012523965
114	0xbd1e1899	-0.038597677
115	0x3cb7c16a	0.022431094
116	0xbcb90afb	-0.022588244
117	0xbbe39889	-0.006945674
118	0x3af59f43	0.001873948
119	0xbc91c8b7	-0.017795904
120	0x3c8e2653	0.017352259
121	0xbd049523	-0.03236879
122	0xbb89d3c3	-0.004206152
123	0xbcd2a67b	-0.02571415
124	0x3c091549	0.008366891
125	0xbc0bd987	-0.008535749
126	0x3ca22576	0.019793253
127	0x3c83ca56	0.016087692
128	0x3d100e9b	0.03517018
129	0xbcc5d7e2	-0.024150793
130	0xbc9366e0	-0.01799339
131	0x3c671842	0.014104905
132	0xbc2b2d44	-0.010447804
133	0xbd00b213	-0.031419825
134	0x3cb15b56	0.021649998
135	0xbc6f9d81	-0.014624954
136	0x3b68c5f5	0.0035518382
137	0xbca53ecc	-0.020171545
138	0xbc8fc694	-0.017550744
139	0x3b9b829e	0.0047457954
140	0xbcd094a6	-0.025461506
141	0x3c68f22a	0.014217893
142	0xbcf41737	-0.029796226
143	0xbc0a1599	-0.008428001
144	0xbc8a1a40	-0.01685822
145	0xbcef0033	-0.0291749
146	0xbc8c9a97	-0.017163558
147	0xbd04422e	-0.032289676
148	0x3a128812	0.0005589734
149	0xbcbbd15c	-0.022926979
150	0x3c2da3ca	0.010598132
151	0xbc5493bd	-0.012974677
152	0xbbfc010b	-0.007690554
153	0x3cb3624d	0.02189746
154	0x3c8d9aae	0.017285671
155	0x3cd1ec39	0.025625335
156	0x3c91203f	0.017715571
157	0x3ce0fe6f	0.027465073
158	0x3d048ecf	0.032362755
159	0xbc77089f	-0.015077739
160	0x3c8dd5c7	0.017313851
161	0x3d0f20ea	0.0349435
162	0x3b5094fd	0.0031827085
163	0xbc7097ba	-0.014684612
164	0xbc6829c1	-0.014170111
165	0x3c505b6a	0.012717107
166	0x3bdd2aa4	0.006749468
167	0x3ac77411	0.0015217086
168	0xbce42f6d	-0.027854646
169	0xbc03e26b	-0.008049588
170	0xbcc43643	-0.023951655
171	0x3c659113	0.014011639
172	0x3d07cdb7	0.03315517
173	0xbba93c04	-0.005164625
174	0xbb8c6367	-0.0042843106
175	0x3c3cdd72	0.011527406
176	0x3d10c3f7	0.035343137
177	0x3d1545a2	0.03644336
178	0x3a18ef36	0.0005833985
179	0x3ca5de1a	0.020247508
180	0x3d05d9a4	0.03267826
181	0x3bbe43ad	0.0058064074
182	0x3c119f43	0.008888069
183	0xbc219516	-0.009862205
184	0x3d0c3d82	0.034238346
185	0x3cb2430c	0.021760486
186	0xbc3e0a78	-0.011599176
187	0x3cf6aa3b	0.03011047
188	0xbcbee34f	-0.023301749
189	0xbccf94e2	-0.025339548
190	0xbd0103a7	-0.031497624
191	0xbc7cf4f1	-0.015439258
192	0x3c695260	0.014240831
193	0x3b001713	0.0019545003
194	0x3cdb3a63	0.02676124
195	0x3d07827e	0.03308343
196	0x3cfbdc36	0.030744653
197	0xbc966b2a	-0.018361647
198	0xbc699575	-0.014256825
199	0x3aae76ea	0.0013310586
200	0x3cb108a9	0.021610575
201	0xbc57f6d6	-0.013181409
202	0xbcd19e02	-0.02558804
203	0x3b74038f	0.0037233566
204	0xbcb34875	-0.021885136
205	0xbce1a186	-0.02754284
206	0xbb4bcc11	-0.0031096975
207	0xbcf36a5c	-0.029713802
208	0x3c0efa11	0.008726613
209	0xbc46acb0	-0.012126133
210	0x3c91c433	0.01779375
211	0xbca39ab1	-0.019971224
212	0xbc5e7e6b	-0.013579945
213	0x3c7fcb05	0.0156123685
214	0x3a90bdb2	0.0011042862
215	0xbc5fe420	-0.013665229
216	0x3b5cd57f	0.003369659
217	0xbc0b1fda	-0.008491481
218	0xbceae43b	-0.028673282
219	0x3cfd1012	0.030891452
220	0xbccbad3a	-0.024862874
221	0xbcf4a95b	-0.029865911
222	0xbcf2926f	-0.02961084
223	0x3b2d40fa	0.0026436434
224	0xbc368c67	-0.011141873
225	0xbc6e8cbe	-0.014559923
226	0xbc26a59b	-0.010171319
227	0x3b9331e6	0.0044920323
228	0x3cb5ab31	0.022176357
229	0xbb372c98	-0.0027950164
230	0xbb13d94d	-0.0022559941
231	0x3d181ef8	0.03713891
232	0x3bab0c8c	0.0052200016
233	0xbcdc1a6d	-0.02686807
234	0xbc44c336	-0.012009433
235	0x3d0a529f	0.0337702
236	0x3c44340b	0.011975299
237	0xbd033d3a	-0.032040812
238	0x3ab87c6e	0.0014075169
239	0x3cdaacdd	0.026693756
240	0xbca5f2c5	-0.020257363
241	0xbd0c3ba2	-0.034236558
242	0xbcea1811	-0.028575929
243	0xbc00d40e	-0.007863058
244	0x3ce3ef18	0.02782397
245	0x3cf5969f	0.029979048
246	0x3d127e5d	0.03576504
247	0x3c40d3ff	0.011769294
248	0x3c6e2ae9	0.014536598
249	0xbcfcbae7	-0.03085084
250	0xbcde8278	-0.027161822
251	0xbbe820f1	-0.007084005
252	0xbca3a1d0	-0.01997462
253	0x3d0beef0	0.034163415
254	0xb9f6d941	-0.00047082643
255	0xbb8cd682	-0.0042980323

net.4.bias f4 [3]
0	0x3bb4737a	0.00550693
1	0x3cbe637b	0.023240795
2	0x3b8000e5	0.0039063566
