checkpoints/srcnn_epoch5_2025-03-20_23-02-04.pth (torch, 280002 bytes, 6 tensors)

net.0.weight f4 [64, 3, 9, 9]
000000 79 bc fa 3c 35 f8 ab bc 86 ac f1 3c d4 99 45 3d
       0.030607449 -0.020992378 0.02950121 0.048242405
000010 9d 04 68 bd ff 1b 84 3c af 6b 02 3d 7b 38 b5 bc
       -0.056645025 0.01612663 0.031840976 -0.022121659
000020 46 48 e4 bc 34 cc 29 3c 9a 56 2a bd 3b 07 d8 bc
       -0.027866494 0.010363627 -0.041586496 -0.026370635
000030 be 3c f4 ba 55 3d 06 bd 60 cd 25 b9 82 39 6d 3d
       -0.0018633825 -0.032773335 -0.00015812134 0.05791617
000040 f8 76 8f 3d b8 8d 4f bc 73 f1 33 bd bf 56 14 bc
       0.07005113 -0.012668066 -0.043931436 -0.009053885
000050 6a c2 dd 3a 46 9b 65 3d 15 ae 86 bc 5b 53 18 bd
       0.0016918902 0.056056283 -0.01644043 -0.03718887
000060 78 83 7a 3d fd 13 06 3d 96 54 7a 3d 7a 8d b5 3c
       0.061160535 0.032733906 0.061115824 0.022162188
000070 ef 94 1c bd a7 f7 75 bd 81 9e 5b 3d a0 e5 3d bd
       -0.03822797 -0.060050633 0.053617958 -0.046361566
000080 70 54 68 bc c7 ac 2e bd b3 55 84 3d 24 6f 4e bd
       -0.014180288 -0.042645242 0.06461658 -0.05039896
000090 50 66 44 bc 3c 74 65 3a 45 f4 ad bb 5e 4a ca bc
       -0.011987284 0.0008752977 -0.00530866 -0.024693664
0000a0 33 5f 83 bc f4 d8 87 3d 41 7d ec bc 61 c6 ed bc
       -0.016036605 0.066331774 -0.02886832 -0.029025258
0000b0 e7 6e 24 3d ce 4d 8c 3d 18 89 59 bd e6 08 0c 3d
       0.040144827 0.068507776 -0.05310926 0.034188174
0000c0 57 e2 54 3c 98 b4 b5 3c 14 c4 e6 bb 15 06 84 bc
       0.012993417 0.02218084 -0.0070424173 -0.016116181
0000d0 fc a3 5c bd 82 f2 74 3d ad 6d 80 3d ea 17 e5 bc
       -0.053867325 0.059801586 0.06270919 -0.027965505
0000e0 e5 00 89 3d d1 a0 17 bd 4d 69 3e 3d 9e e3 8b 3d
       0.06689624 -0.0370186 0.04648714 0.06830524
0000f0 0b 5f 13 3c d2 e3 66 bb 43 a3 6d 3c 55 7c 1e 3d
       0.008994828 -0.0035231006 0.014504257 0.03869279
000100 b0 e3 87 3d ab 58 2c bc 7b 03 82 3d 1a 22 63 bc
       0.06635225 -0.010519187 0.0634832 -0.013863111
000110 ca ec b5 bc e4 da 01 3d cb db 17 bd ab a9 19 bb
       -0.022207636 0.03170289 -0.037074845 -0.0023447077
000120 c6 6e dc bc a6 4b 2f bd 44 1b 25 bd 0f 42 44 bd
       -0.02690829 -0.042796753 -0.040309206 -0.04791456
000130 e2 13 38 3d 97 2b 25 bc fc 5a 63 bd dd 6f a8 3c
       0.044940837 -0.010081193 -0.05550669 0.020561153
000140 dd 87 db bc 52 54 0c bd 07 04 95 bc d7 1f 1c bd
       -0.026798183 -0.0342601 -0.018190397 -0.038116302
000150 35 b2 80 3c 75 67 61 bd 9b 7d 5f 3c 17 2b 4a bc
       0.015709976 -0.055030305 0.0136407865 -0.012339375
000160 f7 4c ba bc d6 cd 45 3d 1b b8 74 bc 80 5c 4b bd
       -0.022741778 0.048292004 -0.014936472 -0.04964876
000170 0e 15 ab 3b fb 3f 65 bd 9d ed 55 bd 39 38 be bc
       0.005221016 -0.05596922 -0.05222856 -0.023220168
000180 a9 63 0e 3d 50 5f 01 3c 07 ea 10 3c ff 85 86 3d
       0.034763012 0.007896259 0.008844859 0.065685265
000190 53 9f 3a 3d 71 23 87 3d ce 58 5a bd 9e a7 b5 ba
       0.0455621 0.06598557 -0.053307347 -0.0013859158
0001a0 f9 13 56 3d 86 59 2b bd 8d cd 57 bd 93 af f8 3c
       0.05226514 -0.041833423 -0.052686263 0.030357158
0001b0 61 9b 49 bd 11 b3 d8 bb 6c e9 43 bd 46 73 bd bc
       -0.049220446 -0.0066131433 -0.04783003 -0.023126256
0001c0 89 4e 23 3d be dd f1 3c f2 ed 22 3c 24 56 87 bc
       0.03986982 0.02952468 0.009944426 -0.016520567
0001d0 0d ba 66 bd d6 bb 20 3d cf 68 02 3d d3 10 50 bc
       -0.056329776 0.039241634 0.031838235 -0.012699324
0001e0 31 e1 42 bd 49 cd 5b 3d c1 a9 52 bd fd 22 6c 3d
       -0.04757804 0.053662572 -0.05143142 0.057650555
0001f0 7b c6 f9 bc 99 a9 51 bc cd ea 0c bd 09 77 c4 bc
       -0.03049015 -0.012796783 -0.03440361 -0.023982542
000200 71 d0 20 bd 46 cd d2 bc e2 df 41 3d c4 e3 17 bd
       -0.039261285 -0.025732648 0.047332652 -0.03708245
000210 e2 dc 1f 3b 7b 6b ea 3c e1 9c 40 3d 33 74 24 bd
       0.002439313 0.028615704 0.04702461 -0.04014988
000220 47 47 b5 bc 8b 7c 46 bc 77 6b 74 3d 3d 7a 0d bb
       -0.022128714 -0.012114654 0.0596728 -0.0021587752
000230 c5 3e 6c 3d f0 ef 20 3c 80 19 15 bd 71 6d 49 bd
       0.05767705 0.009822831 -0.03640127 -0.049176637
000240 9a 41 3c 3d 3a d7 47 3d e0 11 17 bc 09 ee 65 bd
       0.045961 0.04878924 -0.00922057 -0.05613521
000250 75 79 f0 3a 34 53 ff bc 6e 6f 1a 3d c1 48 63 bd
       0.0018346744 -0.031167604 0.037703924 -0.055489305
000260 3d 43 a0 3c e3 0b 2b 3a 34 c1 f4 bb fc 2e 47 bd
       0.019563312 0.00065249036 -0.0074693207 -0.048628792
000270 68 4d 37 bd 3e 93 5e 3d 8f e4 2c bd 98 a1 c2 bc
       -0.044751555 0.05433964 -0.042210158 -0.023758695
000280 20 19 a5 bc 71 4e 79 3c c3 39 19 bd 14 45 d1 3c
       -0.020153582 0.015216456 -0.0374086 0.025545634
000290 73 2d ac 3c 59 6d 05 bd 1b 8b 0c 3d 77 27 a0 bb
       0.021017766 -0.032574985 0.03431235 -0.004887517
0002a0 1e 66 1d 3d b5 ac 28 bc 89 7c 06 bd ad 09 8a 3d
       0.038427465 -0.010295083 -0.03283361 0.06740127
0002b0 5b 02 52 bd 04 e8 d2 bc 5d 8d 66 bd 30 34 76 3d
       -0.051271778 -0.0257454 -0.05628716 0.060108364
0002c0 25 a8 26 bd 36 f3 ff 3c 02 b9 58 bd 70 af 14 3d
       -0.0406877 0.031243902 -0.052910812 0.036300123
0002d0 07 c4 09 3d 66 0f 77 3d 52 f5 27 bd 68 9c 8c 3c
       0.033634212 0.06031742 -0.04100544 0.017164424
0002e0 2b fc 8e 3d b8 b3 84 3d b7 f2 86 3d eb c5 14 3d
       0.06981691 0.06479591 0.06589263 0.03632156
0002f0 57 94 41 bc 22 23 4b 3c c2 56 44 bd 64 42 32 bc
       -0.011815152 0.012398513 -0.0479343 -0.010880087
000300 f2 52 3b 3c 82 96 58 3d 8a 0e 0c bc 78 5d 4d 3d
       0.01143335 0.05287791 -0.008548388 0.050137967
000310 55 64 75 3d 40 e2 d9 3c 0b fe 7b 3d c7 44 81 3d
       0.059910137 0.026597142 0.06152157 0.06311946
000320 e3 1a a3 3c f0 f6 47 3d 68 af 22 bc 65 4a 8a bc
       0.019910282 0.048819482 -0.009929515 -0.016881177
000330 47 2b b4 3c 03 1e 48 3c df 8c 41 bc 15 44 67 bd
       0.021993292 0.012214187 -0.011813371 -0.056461412
000340 f9 5b 5d bd a1 b8 cb bc 8d ad 54 bd 26 09 48 3c
       -0.05404279 -0.024868311 -0.051923323 0.012209212
000350 c1 60 4f bd a3 08 93 bc 58 09 a8 bc d7 a6 06 3d
       -0.05062938 -0.017948454 -0.020512268 0.032873955
000360 1e 49 8f 3c 74 6c 8e 3c 02 97 09 3c 92 0d e7 bc
       0.01749092 0.017385699 0.0083978195 -0.028204713
000370 5a 98 68 3d 7e 58 29 3d 84 97 78 3d cd 10 f8 bc
       0.05678592 0.04134416 0.06069137 -0.030281449
000380 a3 fb db bc 02 75 79 3d eb 5b 5f bd bb 65 0d 3d
       -0.026853388 0.060902603 -0.05453102 0.034520846
000390 6f 6e 14 bc 5f 17 64 bd 6d 2e 6d bc b5 a5 98 bc
       -0.009059533 -0.05568635 -0.014476401 -0.018633703
0003a0 c2 30 6f bc 5d 14 42 bd ea 5d 19 bd 92 7f fa 3c
       -0.014599027 -0.0473827 -0.03744308 0.030578408
0003b0 51 f0 39 3d 3a 77 2f bc 8c 98 81 bc 9e b0 6f ba
       0.0453952 -0.010709578 -0.01581981 -0.00091434445
0003c0 d1 8a 3f 3d a7 43 5c bd a9 b6 2e 3d 83 02 a3 3c
       0.046763245 -0.053775456 0.042654667 0.019898659
0003d0 65 f1 50 bd a6 c1 39 3d f0 c3 7e 3d 8d 00 1c 3c
       -0.05101146 0.045350693 0.06219858 0.009521616
0003e0 ca 55 52 bc d0 4e 70 3d 14 a2 38 bd 03 eb 90 bc
       -0.0128378365 0.05866891 -0.045076445 -0.017690187
0003f0 ef e2 f7 bb 3a da 1d bd f9 2c a9 3c d7 c9 07 b9
       -0.0075648944 -0.038538195 0.020651327 -0.00012949794

net.0.bias f4 [64]
000000 4b 07 6d 3d 02 ab a4 3c bf 18 66 3d c6 5e 7b 3c
       0.057868283 0.020101074 0.056175943 0.01534242
000010 2a ab 62 3d 35 87 2a 3d 66 32 f0 3c fa 6b c9 3c
       0.055339016 0.04163285 0.029320907 0.02458762
000020 da 93 2e 3d df 95 4f bd b2 7f 97 3c 86 9d e7 bc
       0.04262147 -0.050680038 0.018493507 -0.028273355
000030 90 5b 09 bc 8e df 38 ba 28 4a 17 bd 18 df 23 bc
       -0.008383647 -0.0007052355 -0.036935955 -0.01000192
000040 af c9 3b bd 67 53 98 3a ff 79 85 3a 60 38 22 bd
       -0.045846637 0.0011621536 0.0010183452 -0.039604545
000050 ac 2a 3a bd 4d c9 05 3d b8 7d 0a bb ec bc 52 3c
       -0.04545085 0.03266268 -0.0021132063 0.012862425
000060 76 cf 1d 3d fd f6 ca 3b 03 26 0f bd dd 6a 4c 3c
       0.03852793 0.006193994 -0.03494836 0.01247665
000070 31 9b 4a 3d 77 2f 53 3c fd d7 5f 3d c8 4f 6a 3c
       0.04946441 0.0128897345 0.05464934 0.014301248
000080 61 37 ad bc ec 4c 9f 3c 38 0b 64 bd f7 23 ee bc
       -0.02114457 0.019445859 -0.05567476 -0.029069884
000090 e2 f9 10 3d 65 13 e8 3c 55 6f 5a 3d 2a b2 28 3d
       0.035394557 0.02832956 0.05332883 0.041185535
0000a0 f7 21 05 3c b5 fe f2 bb ce 4c 16 bd f4 8d 4b bd
       0.008125774 -0.0074156174 -0.03669434 -0.049695924
0000b0 d9 e4 f0 bc 8f bd 80 3d cc dd 13 bd 42 ce 81 3d
       -0.029405998 0.062861554 -0.036100194 0.06338169
0000c0 78 72 eb bb 84 d6 16 3d f6 9d 6f bd 51 7d 38 3d
       -0.0071852766 0.03682567 -0.058500253 0.045041386
0000d0 90 54 6e bd 33 6d 29 bc c0 eb 00 bc 57 d5 93 3c
       -0.058186114 -0.0103409765 -0.007868707 0.018046064
0000e0 17 ce 45 3d fd f9 48 bd 58 34 03 3c 4d a1 2c 3c
       0.048292246 -0.049066532 0.008008085 0.010536504
0000f0 cf 5e 80 3d 71 8b d5 3c 79 e5 14 3d 49 59 7e bc
       0.06268083 0.026067467 0.036351655 -0.015524217

net.2.weight f4 [32, 64, 5, 5]
000000 5d 98 88 bb 27 21 83 3c 1e 8c d7 ba c3 9e bd bc
       -0.0041685537 0.01600702 -0.0016444956 -0.023146993
000010 3c 49 9d 3c 48 9b 7e 3b 51 8d e8 3b 6d 44 ee bb
       0.01919996 0.003884988 0.0070969244 -0.0072713406
000020 f0 e4 3d 39 40 26 65 bb 6e 16 38 bc e1 3d ba 3c
       0.0001810973 -0.0034965426 -0.011235816 0.022734584
000030 ac 42 35 3c a6 c7 c6 bc 89 ba 26 bc 65 53 88 bb
       0.011063259 -0.024265122 -0.010176309 -0.004160332
000040 bd d4 16 3c 42 09 01 bc f9 46 30 3c 2a b3 b5 3c
       0.009205994 -0.007875742 0.010759109 0.022180159
000050 f7 46 37 bc 54 7a 4d 3c 0a 54 93 3c c4 02 e7 ba
       -0.011186353 0.012541372 0.017984409 -0.0017624726
000060 96 9b 6d 3c b8 6f 87 bc c4 8f c2 3c c6 34 bd 3a
       0.014502427 -0.016532764 0.023750193 0.0014435283
000070 bb 5b 43 3a 29 97 a4 bc eb 65 b3 bc d3 54 6c 3c
       0.00074523286 -0.02009161 -0.021899184 0.014424521
000080 a4 77 e9 bb d7 16 9a 3c c8 76 bc bb ff 5c ee 3b
       -0.007124858 0.018809719 -0.0057514645 0.0072742696
000090 71 b8 59 3c 54 03 cd bc 45 53 1d bc be 36 9c 3c
       0.013288603 -0.025026001 -0.009602373 0.019069072
0000a0 03 d5 b0 bc 52 45 10 3b 2e df 73 bc 54 86 b8 bc
       -0.021585947 0.0022013974 -0.014884753 -0.02252499
0000b0 61 37 01 3c 30 45 2c 3c 06 99 e7 bb 5c 81 d5 3b
       0.0078867385 0.010514542 -0.0070678024 0.006515665
0000c0 40 7b 9e bc ac 36 89 3c 11 90 20 3c 0b 8d 95 bb
       -0.01934588 0.016749702 0.009799973 -0.004563933
0000d0 98 f2 c7 3b 6d 07 69 bc ad 9f 4c 3b 1a 4e 2c bc
       0.0061019175 -0.014222962 0.0031223104 -0.010516668
0000e0 39 2a be 3c 9e 04 64 bb 8f ca 22 3c 14 2d 8c 3a
       0.023213493 -0.003479279 0.009935989 0.0010694587
0000f0 26 a2 9c 3b e9 13 2c bc 5c 8a 70 3c 2c 50 bc 3c
       0.004780072 -0.010502794 0.014681425 0.022987448
000100 6a 12 27 bc ce 37 df 3b ee df b9 bb 8f f3 c7 3b
       -0.010197261 0.0068120724 -0.0056724465 0.0061020325
000110 12 cc 08 bc eb 94 05 bb be 89 b3 3c 70 a0 06 ba
       -0.008349435 -0.0020382951 0.021916267 -0.00051356014
000120 7a e1 97 3b 06 6d 99 bb 8f 40 a7 3c 6d 46 82 bb
       0.004635033 -0.004682186 0.020416526 -0.0039756806
000130 1c 83 69 3c 01 60 e6 bc 38 15 48 bc 5d ca 8a bc
       0.01425245 -0.02812195 -0.01221209 -0.016942197
000140 8d 71 98 3b cf 39 83 3c d3 ae f1 bc 50 3e 4d bc
       0.004652208 0.016018776 -0.029502308 -0.0125270635
000150 5b a2 52 bc 86 31 f0 bb 21 d7 eb bc 97 3c 76 3c
       -0.012856091 -0.0073301224 -0.028789105 0.015029094
000160 8d bc c1 3a 36 f2 94 bc ec 51 90 3c 9c 96 70 bb
       0.0014780924 -0.018181901 0.017617188 -0.0036710864
000170 42 b6 7e bc 1f ac 5a bc cb 25 11 bc 93 80 ce bc
       -0.015546383 -0.013346701 -0.008859108 -0.025207793
000180 bd a4 0f bb 66 a7 9d bc 80 f2 3a 3c 13 a6 3f 3c
       -0.002191826 -0.01924486 0.011410356 0.01169731
000190 83 80 1b 3c 94 e4 be 3c 2c 5f 94 3c 0f 3d 83 bc
       0.009491089 0.023302354 0.018111788 -0.016020326
0001a0 cb e9 f6 3b cc 9e b0 bc 93 a2 19 ba 65 cd 98 ba
       0.0075351945 -0.021560095 -0.0005860712 -0.0011657892
0001b0 5b fc ac bc 9b c6 91 3b 05 b6 89 bb ea 8b b6 bc
       -0.021116426 0.0044487244 -0.0042026066 -0.022283513
0001c0 32 99 0f ba c1 f8 b0 3c 11 54 a7 3c 66 b4 ab bc
       -0.0005477845 0.02160299 0.020425828 -0.020960044
0001d0 54 3b 32 3c a4 60 9e bc b6 34 c0 3c 6e 69 c3 3c
       0.010878403 -0.019333191 0.023462635 0.023853984
0001e0 24 64 b3 3c 00 75 44 bc b6 17 d3 bb 36 a3 a8 bb
       0.021898337 -0.011990786 -0.0064420355 -0.0051464094
0001f0 b6 32 92 3c c1 c8 c9 bc a6 d5 bf bc c0 8e 9d 3c
       0.017846446 -0.02463186 -0.023417305 0.019233108
000200 20 9f d2 bc 23 5c 32 bc 6e 1a b7 3b a0 e6 61 3a
       -0.025710642 -0.010886225 0.0055878675 0.00086174347
000210 1e 08 c5 bc d0 36 16 3c 86 a8 90 bc 2f 65 4e 3c
       -0.024051722 0.009168342 -0.017658483 0.012597366
000220 0e 16 be 3c a5 f7 93 3c 01 32 95 3b 08 d5 bb 3b
       0.023203876 0.018062422 0.00455308 0.0057321824
000230 b5 e5 a1 bc ca 1c 95 bc 24 a8 f1 3b 53 6a d3 bc
       -0.019762853 -0.018202204 0.0073747803 -0.025807535
000240 8c 2c 89 bc 04 c6 b8 3c 81 20 bb 3c 21 07 c5 bc
       -0.016744874 0.022555359 0.022842648 -0.02405125
000250 52 0e 19 bc 38 92 4e 3b 7d 22 9a 3c 1e 6b d4 3b
       -0.009341793 0.0031520259 0.018815273 0.006482496
000260 1a 06 a9 bc ae da c0 3c 1e 36 43 bc 81 a6 2f bc
       -0.020632792 0.023541775 -0.011914758 -0.01072085
000270 0d a0 48 3c 72 20 53 3c cb 93 1f bc 71 31 ba 3b
       0.01224519 0.0128861535 -0.009739826 0.0056821634
000280 2b 7b b8 bc 5d e9 c3 bc 6c 51 89 bc 40 e7 b3 bc
       -0.022519669 -0.023914987 -0.016762458 -0.021960855
000290 52 76 6f bc 88 47 ba bb 05 fb 85 bc 01 3e bf bc
       -0.014615612 -0.0056847967 -0.016355047 -0.023344995
0002a0 20 eb 1e 3c bb f7 b7 bc fb af 6c 3c 55 c8 03 3c
       0.009699613 -0.022456994 0.014446254 0.008043368
0002b0 df 72 d6 bc b8 2b ab bc 91 da b0 3c 9a a2 84 bc
       -0.026177822 -0.02089487 0.021588596 -0.016190816
0002c0 6b a1 a1 3c 90 b9 9e 3c 95 77 ba 3c e6 12 9e 3b
       0.01973029 0.019375592 0.0227621 0.00482403
0002d0 c6 af 96 3c 13 ea 6b bb 3c 9c 9c bc 76 19 b0 bc
       0.018394362 -0.0035997673 -0.019117467 -0.021496516
0002e0 e6 8c 0e bc 60 75 68 bc 44 40 4f 3c 04 28 70 3c
       -0.008700585 -0.014188141 0.012649599 0.014657978
0002f0 72 1c ae bb f9 b9 7b 3c e3 95 7b 3c b6 8b ed ba
       -0.0053134495 0.015364164 0.01535556 -0.0018123302
000300 9b bc 80 bc 56 7e 0c 3a 43 cb ac 3b eb 99 f6 bb
       -0.015714934 0.00053594017 0.005273254 -0.0075256727
000310 35 e2 82 3c 08 2c 0e bc eb c1 c6 3b cf 7b b8 3c
       0.015977005 -0.00867749 0.0060655973 0.022519974
000320 43 51 c0 bc 02 32 2e bc af 8e 27 bc 29 04 92 3c
       -0.023476249 -0.01063204 -0.0102268895 0.01782425
000330 e0 11 36 3b b5 84 81 bc 6e ef 87 3c 93 a6 ec 3a
       0.002778165 -0.01581035 0.016593661 0.0018055014
000340 91 ed 18 bc a1 ac 09 3b 7e 75 0b 3b 8e 80 aa bb
       -0.009333984 0.0021007436 0.0021279748 -0.005203313
000350 85 1e 06 ba 69 d7 5e 3c cd 91 de bb 89 8a ec 3b
       -0.0005116242 0.0136011625 -0.006792283 0.007218663
000360 be d1 48 bb 32 08 e4 bb f5 fe f4 3b c1 2a a4 3b
       -0.0030642594 -0.006958985 0.0074766823 0.0050099795
000370 b5 7e e4 bb d7 ea 77 3c c0 a5 85 bc 22 e5 8a 3c
       -0.0069731125 0.015131674 -0.016314387 0.016954962
000380 36 c4 e2 3b 15 9f 99 3c 6c ce 71 3b 0f 3d 81 3c
       0.006920363 0.018752614 0.0036896719 0.015776185
000390 f8 92 51 bb 31 4e 2b bc b9 28 bf 3c 2c 66 d2 bc
       -0.003197847 -0.010455654 0.023334848 -0.025683485
0003a0 ae 34 0e bc c0 98 d2 bb 7c 04 b9 3c 1f 33 7a bc
       -0.008679552 -0.0064269006 0.022585146 -0.015270977
0003b0 21 90 98 bc 4d 9d c1 bb f8 fa 18 ba b2 0a 9f bc
       -0.018623414 -0.0059086443 -0.0005835737 -0.01941428
0003c0 90 b1 a9 bb 46 12 c7 3b e1 51 2a 3c 12 72 0d bc
       -0.005178638 0.0060751764 0.010395498 -0.0086331535
0003d0 b6 ef 29 bc 9f f6 22 bc b6 f8 8b bb b4 2f 87 3c
       -0.010372093 -0.009946494 -0.004271592 0.016502239
0003e0 38 21 b3 3c 0c 22 7c 3c 3a cd e4 3b b3 7c 99 3c
       0.021866426 0.015388977 0.0069824727 0.018736219
0003f0 a2 ae 2c bb ad 75 1e 3c 85 b9 88 3c 39 36 ce ba
       -0.0026349206 0.009671611 0.016690025 -0.0015732712

net.2.bias f4 [32]
000000 22 cc 7f 3b 93 20 ac 3c c4 42 8c 3b ec c9 37 3c
       0.0039031585 0.021011626 0.00428042 0.0112175755
000010 3b ca 13 3c b0 c3 67 bc 41 45 41 bc 48 23 cc 3b
       0.0090203835 -0.014145777 -0.011796297 0.006229792
000020 b8 f7 34 3b 3c 16 83 bc cb 13 56 bb 7f 4d aa 3b
       0.0027613472 -0.016001813 -0.0032665606 0.0051972265
000030 48 84 0d 3c 42 ae f8 bb 43 fe 89 bc c2 82 9e 3c
       0.008637495 -0.0075891325 -0.016844874 0.01934946
000040 00 85 e1 bb e5 78 23 3b 97 51 b4 3c 0b 1e 8f 3c
       -0.00688231 0.0024943885 0.022011561 0.01747038
000050 c8 c4 7c 3c 52 61 8d bc ae 3b 94 bc 7f e6 b0 3c
       0.015427776 -0.01725832 -0.018094864 0.021594284
000060 a4 05 70 3c 09 64 b0 ba f1 ea 99 bc fe 14 b3 3c
       0.014649782 -0.0013457547 -0.018788787 0.021860596
000070 17 97 88 3a 24 43 b9 bc 88 bf 27 3c 1f 99 af bc
       0.0010421005 -0.022615023 0.010238536 -0.021435319

net.4.weight f4 [3, 32, 5, 5]
000000 07 8f d0 3c c0 84 0b bd 75 52 e2 bc b6 62 5b bc
       0.025458826 -0.034062147 -0.02762721 -0.013390234
000010 f3 49 f2 bc db 7c 8a 3c 56 c4 4a bc 24 46 e7 3b
       -0.029576277 0.016905239 -0.012375912 0.007057922
000020 36 83 f6 bc 23 8d b9 3c 19 43 5d 3c b7 7a 9c bb
       -0.030091863 0.022650307 0.013504767 -0.004775371
000030 3f 84 09 bd ad 80 33 3b a6 d4 97 bc ff ee 6c bc
       -0.033573385 0.002738993 -0.018534016 -0.014461278
000040 fb 91 e4 bc f3 09 e8 3b 19 3d 89 3c 13 79 25 bc
       -0.02790164 0.007081264 0.016752766 -0.010099667
000050 89 f3 0a 3d ac d3 12 3d dc 4e eb 3c a7 a7 89 bc
       0.03392366 0.035846397 0.028724127 -0.016803576
000060 b9 45 b1 3c ae 2e f2 3c 23 1d c8 3c e3 40 5e bc
       0.021639692 0.029563274 0.024427956 -0.013565275
000070 19 60 08 3d 84 4a 93 3c f9 5e b5 ba f9 8c ab bc
       0.03329477 0.017979868 -0.0013837508 -0.020941244
000080 63 00 0a bd 40 7a 07 bd 45 3f ff 3c aa ee d4 3c
       -0.033691775 -0.03307557 0.031158099 0.02599271
000090 c2 41 f0 bc c5 2a e6 bc 7b 68 8a bc 7f 9e 04 bd
       -0.02932823 -0.028096566 -0.016895523 -0.032377716
0000a0 a4 19 77 3c 2e a8 c4 bc 90 ec 91 bc 3b ab ed bc
       0.015081797 -0.024005976 -0.017812997 -0.029012313
0000b0 98 5d 0d 3b a6 2f ea 3c 89 12 32 bc 07 89 0a 3d
       0.0021570679 0.028587174 -0.010868677 0.033822086
0000c0 08 43 44 3c 7f b7 89 bc 27 b9 89 3b 33 b6 37 bb
       0.011978872 -0.01681113 0.00420298 -0.0028032183
0000d0 1d 6b b9 bc 7d 29 c3 3c d7 dc b2 3c 5e cd 66 3c
       -0.022634083 0.023823494 0.02183382 0.014087049
0000e0 83 d3 24 3c 03 c4 85 bc 17 72 69 3c b9 52 ff bc
       0.010060194 -0.016328817 0.014248393 -0.031167375
0000f0 ec d1 c5 3c 36 f5 a5 3c 20 ab 98 bc af 57 b6 bc
       0.02414795 0.020258527 -0.018636286 -0.022258608
000100 44 c9 ab bc 69 43 f7 3b d7 93 a6 bb 8d 7e 05 bb
       -0.020969994 0.0075458777 -0.005083542 -0.002036962
000110 cb 78 77 bc eb 16 3b b9 f2 ed a4 3c e0 32 32 bc
       -0.015104483 -0.00017842247 0.020132992 -0.010876387
000120 3d 7c ce bc 40 58 ce 3c 8c 18 ed 3c 60 c0 87 3c
       -0.025205726 0.025188565 0.028942369 0.016571224
000130 60 b6 5d 3c 96 1c ce bc 6b c3 02 3d 39 eb 6e bc
       0.013532251 -0.025160115 0.031924646 -0.014582449
000140 3a 95 8a bb 39 3c 5a 3c 03 86 c8 bc a7 57 18 bc
       -0.004229215 0.013320022 -0.024477964 -0.009298242
000150 94 81 b2 3c ac 67 be 3c 41 31 cc 38 2f 44 e1 ba
       0.021790303 0.023242794 9.736652e-05 -0.0017186458
000160 32 c9 4e bb fe e5 d4 bc ec e6 4e 3a 44 e0 7f 3c
       -0.0031553027 -0.025988575 0.00078926864 0.015617434
000170 fe 3f 48 bb e4 ca 09 bd cc e7 f8 3a fb 03 6c ba
       -0.003055572 -0.033640757 0.0018989979 -0.00090032787
000180 20 4a cf bb 7a 1f 07 3d 38 92 a0 3c ea 9d 9f 3c
       -0.006325975 0.032989003 0.019600973 0.019484479
000190 01 69 09 bc 8e e2 35 3a 3e 30 91 ba 55 5a bb 3c
       -0.008386851 0.00069383613 -0.0011076999 0.022870222
0001a0 5a 0b d6 bc 99 c8 6c 3b f0 ff 78 bc bb 25 f2 3c
       -0.02612846 0.0036130308 -0.015197739 0.029559007
0001b0 0e 6b 56 bc 80 d6 11 bd 22 62 92 bc c5 a8 9c 3c
       -0.013087047 -0.035604954 -0.017869059 0.019123444
0001c0 52 9c 08 bd 64 fd a3 3a 38 16 15 bd 99 0b bd 3c
       -0.033352204 0.0012511429 -0.036398143 0.02307682
0001d0 65 60 ac bc 24 9f b8 bb 37 fb 84 3b 2e 22 76 bc
       -0.021042058 -0.0056342054 0.0040582675 -0.0150227975
0001e0 1a 1a 94 3c fb 1a ff bc d7 78 60 bb 05 23 ca bc
       0.018078852 -0.031140795 -0.0034251714 -0.024674902
0001f0 5e 69 25 3c 47 e3 08 bc db 2c a1 3c 5d 56 84 3c
       0.010095922 -0.008354968 0.019674709 0.016154462
000200 c5 b1 0f 3d eb b0 c5 bc f8 49 92 bc be ad 64 3c
       0.035081644 -0.024132213 -0.017857537 0.013957439
000210 ca 64 2b bc 23 4a 01 bd 81 a7 b1 3c f4 2a 6e bc
       -0.010461042 -0.031564843 0.021686317 -0.014536608
000220 95 1c 5f 3b a1 78 a5 bc 47 18 91 bc 51 bc 9c 3b
       0.0034044136 -0.020199122 -0.017711772 0.0047831913
000230 3d ee cf bc f7 16 67 3c 00 0e f4 bc 9e 4b 0c bc
       -0.025382156 0.014104596 -0.029791832 -0.00856295
000240 00 11 8a bc 93 32 ee bc 44 72 8d bc 18 40 04 bd
       -0.01685381 -0.02907685 -0.0172664 -0.032287687
000250 7a ad f6 39 86 b6 bb bc fd 65 2d 3c 49 e9 53 bc
       0.00047050026 -0.022914182 0.010583398 -0.0129340375
000260 ee d9 fc bb 56 04 b3 3c 8f b2 8d 3c 90 74 d1 3c
       -0.007716409 0.021852653 0.017297057 0.025568277
000270 5e 56 91 3c 15 d4 e0 3c 11 82 04 3d 8d 99 76 bc
       0.017741378 0.027444879 0.032350603 -0.015051258
000280 4e 93 8d 3c 88 3c 0f 3d a8 eb 50 3b 0b 94 6f bc
       0.017282154 0.034969836 0.0031878743 -0.014622699
000290 8b 3d 67 bc 87 98 50 3c 21 47 de 3b 31 2f c6 3a
       -0.014113794 0.012731678 0.0067833816 0.0015120265
0002a0 97 db e3 bc 01 45 03 bc 1c 7c c4 bc 21 16 65 3c
       -0.02781467 -0.008012057 -0.023984961 0.013982327
0002b0 dd 6e 07 3d 36 6f ab bb b4 8d 8d bb 74 09 3d 3c
       0.03306471 -0.0052317632 -0.004319871 0.011537898
0002c0 fe eb 10 3d 75 30 15 3d 5b 16 0f 3a 89 e6 a5 3c
       0.03538131 0.036423165 0.00054583483 0.02025153
0002d0 3a da 05 3d 79 05 bf 3b 4f aa 10 3c dc de 22 bc
       0.03267882 0.00582951 0.008829667 -0.009940829
0002e0 aa 1b 0c 3d 28 08 b2 3c 8c b3 3e bc 9d df f5 3c
       0.03420607 0.021732405 -0.011639487 0.030013854
0002f0 b7 92 bf bc 16 08 d0 bc b9 2c 01 bd 91 9e 7d bc
       -0.023385389 -0.02539448 -0.03153679 -0.0154797
000300 a8 ba 68 3c b6 96 fe 3a 53 10 db 3c 8d 2c 07 3d
       0.014204659 0.0019423577 0.026741182 0.03300147
000310 4f 5d fb 3c 86 97 96 bc 81 c7 69 bc f7 5c a7 3a
       0.030684141 -0.018382799 -0.014268757 0.0012768795
000320 86 0f b1 3c 97 07 57 bc 3e 13 d0 bc 28 79 82 3b
       0.021613847 -0.013124368 -0.0253998 0.003981728
000330 c5 73 b1 bc 37 c0 e0 bc 21 06 3b bb 0a 21 f1 bc
       -0.021661649 -0.027435405 -0.0028537589 -0.0294347
000340 79 5f 13 3c 37 35 43 bc 11 2f 91 3c e5 b5 a2 bc
       0.00899493 -0.011914543 0.017722638 -0.019862125
000350 cc ee 5b bc c3 fa 80 3c bb 45 94 3a c1 1e 63 bc
       -0.013423633 0.015744573 0.0011312285 -0.013862313
000360 f0 25 54 3b 9a 7e 0b bc 10 97 ea bc 32 fc fb 3c
       0.0032371245 -0.008514071 -0.028636485 0.030759905
000370 0d 06 cd bc d9 1e f6 bc 09 35 f3 bc b0 6a 2f 3b
       -0.0250273 -0.030044006 -0.029688375 0.0026766472
000380 ec d5 38 bc 5b 4e 6b bc f0 d9 20 bc 40 c9 87 3b
       -0.011281472 -0.014361943 -0.009817585 0.004143864
000390 36 78 b8 3c 05 ab 26 bb ef 14 39 bb 60 be 15 3d
       0.022518259 -0.0025431525 -0.0028241237 0.03655851
0003a0 46 49 95 3b 70 36 d8 bc 3d 8a 42 bc 3a e3 09 3d
       0.004555854 -0.026393145 -0.011873779 0.033663966
0003b0 45 75 3f 3c 29 0f 06 bd c6 8c eb 3a 9a a4 d9 3c
       0.011685674 -0.0327293 0.0017971031 0.026567746
0003c0 93 24 9c bc 91 6b 08 bd 8c ad eb bc 5c fd e5 bb
       -0.019060409 -0.03330571 -0.028769277 -0.007018728
0003d0 a3 28 e9 3c 94 79 f6 3c d7 e6 11 3d a5 76 29 3c
       0.02846176 0.03008727 0.035620537 0.0103432285
0003e0 d8 a7 68 3c 24 71 fc bc 78 82 de bc f1 20 e8 bb
       0.014200173 -0.030815668 -0.027161822 -0.007084005
0003f0 d0 a1 a3 bc f0 ee 0b 3d 41 d9 f6 b9 82 d6 8c bb
       -0.01997462 0.034163415 -0.00047082643 -0.0042980323

net.4.bias f4 [3]
000000 2e 17 b3 3b 0d 1f be 3c c5 d1 7e 3b
       0.0054654097 0.023208166 0.0038882357
