checkpoints/srcnn_epoch21_2025-03-20_23-02-04.pth (torch, 280012 bytes, 6 tensors)

net.0.weight f4 [64, 3, 9, 9]
00000000: 4a95 053d f20e a1bc c6d9 003d 7cc2 533d
00000010: 0bcc 61bd 45c6 983c 8c11 123d f9c3 a5bc
00000020: 3495 d7bc ad26 363c ae4f 27bd 969e c6bc
00000030: 95f0 4f3a 23b9 05bd 2fb4 e53a 0680 793d
00000040: b0b1 8d3d 333a 5ebc e6bc 32bd 2094 0dbc
00000050: 6ebd e93a d9fb 673d 873c 7abc 7380 13bd
00000060: c31a 7f3d 8d54 f43c 7559 713d 5d61 bf3c
00000070: 4e58 17bd 36d0 79bd 4b27 5b3d ee91 32bd
00000080: d619 75bc fac4 2fbd 62b3 813d 4503 51bd
00000090: 7dcf 37bc 12a6 ba3a a6be c7bb 7ea4 c8bc
000000a0: b692 53bc 320a 843d cd90 f1bc 7405 e7bc
000000b0: ce5d 273d 4581 8c3d 2179 5abd 9037 0e3d
000000c0: 1ebc 623c 9a74 d33c 63d8 b9bb ffbf 76bc
000000d0: 84fb 58bd f0e6 773d 989d 803d 0d08 e4bc
000000e0: 35ad 8d3d 67c7 0dbd 6100 503d d151 953d
000000f0: 4ceb 373c e6be 8ebb 6027 6b3c ed3a 1c3d
00000100: 1db3 863d eafc 14bc 606f 863d 6eb7 45bc
00000110: 9139 a3bc 1daa 043d dc7c 21bd 5502 5abb
00000120: 029d e2bc 21f6 32bd 7273 23bd a789 3dbd
00000130: 23f4 383d 1c75 26bc cfb3 63bd fe1b 9c3c
00000140: 7975 dfbc eb5b fbbc eed4 7fbc 7e81 11bd
00000150: b5b1 9c3c a83e 5ebd 2f3c 7d3c 4f83 05bc
00000160: a487 a0bc 49ba 543d a477 4bbc 859b 42bd
00000170: b4b4 043c d393 5abd 0521 59bd bd35 b5bc
00000180: 35d3 1c3d b147 0d3c a828 2a3c c1b6 8a3d
00000190: a1c8 413d c4cd 883d e640 58bd 342a 84ba
000001a0: f0e3 583d 102c 21bd 31b9 58bd 8b36 003d
000001b0: e78d 3dbd ed22 86bb 9c68 45bd f9da c1bc
000001c0: 176a 293d c20d e33c 4234 353c 0bc2 72bc
000001d0: 7513 5dbd 7227 2b3d 29ff 083d b70b 5dbc
000001e0: 69e7 48bd e0e5 5b3d b6e9 65bd f082 693d
000001f0: 7ecc e3bc 7503 27bc 4e94 05bd 5a26 c2bc
00000200: 42cb 23bd 22af e8bc 5d88 3b3d ba56 24bd
00000210: 4273 143b 6f39 f83c 385a 483d b521 1ebd
00000220: 21e2 b3bc 8a96 40bc 6ebc 6d3d fdd1 4bbb
00000230: d4ab 6e3d 7425 353c 7971 15bd 19a6 44bd
00000240: 0d9f 403d 0e46 473d 2bf6 11bc 245c 67bd
00000250: 4852 2c3a 1d2a fcbc 9cc0 1d3d 539e 67bd
00000260: 9366 a73c b924 033b 73b0 e9bb 78f5 44bd
00000270: 84e3 32bd 057a 5d3d 2b65 2cbd a407 babc
00000280: bc44 a3bc e437 8a3c 54ec 1bbd 0857 cb3c
00000290: 0138 b23c 71ce f4bc a2cd 0c3d 1435 94bb
000002a0: 2a63 253d 38ba 2bbc e410 07bd 06a5 873d
000002b0: 8fff 52bd c1c7 bdbc 9ed6 56bd 05eb 783d
000002c0: 48e6 1fbd 3b69 0c3d d4ca 5dbd 77ef 0f3d
000002d0: 6cd4 043d 1d8e 783d 7bca 1ebd 6a59 aa3c
000002e0: 2dda 963d 8cbe 8b3d ab5c 8f3d c99b 123d
000002f0: b72a 4bbc 2e97 4b3c 7f6a 3cbd 1f60 0cbc
00000300: 28e3 793c 4d4d 713d 031d cfbb 3ed5 5c3d
00000310: b190 7d3d 6a2a e33c cc9a 7c3d f79b 843d
00000320: 77fc b33c c03b 523d 171b cbbb 57ae 95bc
00000330: 0b20 be3c 29b1 6b3c 1681 33bc 4832 67bd
00000340: 756a 5bbd eb01 c3bc 28ab 57bd a886 443c
00000350: 9912 56bd d25d 8fbc 0e70 a4bc dbe2 053d
00000360: 2fc8 8e3c 0277 8d3c a177 153c 70a1 f3bc
00000370: 2ab5 633d bff0 2c3d 0c4e 7e3d f1ad 01bd
00000380: 4a72 e2bc 0aae 773d 73ff 61bd c68f 0e3d
00000390: 2844 1abc 56f6 67bd eb88 5cbc d78c 90bc
000003a0: 5b54 8abc 9a8c 45bd 5507 1abd ec76 f73c
000003b0: 4f35 3b3d 5157 1cbc be5a 7dbc 0cd9 28b9
000003c0: b55b 423d 9641 62bd 65af 2d3d 0ed7 a43c
000003d0: 3631 4ebd fc88 393d b146 803d ec50 293c
000003e0: 652f 4cbc 4ff5 753d f335 33bd f5c3 86bc
000003f0: 1e6b eabb ccdf 19bd d5f2 b43c c7e9 a139
0.032613076 -0.019660447 0.031457685 0.051699147 -0.05512623 0.01864923 0.035661265 -0.020235049
-0.026316263 0.011117619 -0.040847473 -0.024245542 0.0007932273 -0.032647263 0.0017525012 0.06091311
0.06918657 -0.01356368 -0.04363718 -0.008641273 0.0017832944 0.056636665 -0.01527322 -0.03601117
0.06228138 0.029825473 0.058923203 0.023361856 -0.03694945 -0.06098958 0.05350427 -0.0435962
-0.014959773 -0.04291246 0.06333043 -0.05102851 -0.011218903 0.0014240167 -0.006095725 -0.024492498
-0.012913397 0.06447257 -0.029487992 -0.028200842 0.040860943 0.06860594 -0.053338174 0.034720957
0.013838796 0.025812436 -0.0056715473 -0.015060424 -0.05297424 0.060522974 0.062800586 -0.02783587
0.06917802 -0.034613993 0.05078161 0.07290996 0.011225533 -0.004356253 0.014352649 0.038142134
0.06577132 -0.009093503 0.06564212 -0.012067659 -0.01992491 0.032388795 -0.039425716 -0.003326555
-0.027662758 -0.043691758 -0.03990502 -0.046273854 0.045154702 -0.010159757 -0.0555914 0.019056316
-0.027277695 -0.030683478 -0.015614731 -0.035523884 0.019127706 -0.054258972 0.015456243 -0.008148982
-0.019595928 0.051935468 -0.012418661 -0.047511596 0.008099724 -0.053363632 -0.053010006 -0.022120351
0.03828736 0.00862305 0.01038567 0.06773139 0.047310475 0.06679872 -0.052796267 -0.0010083378
0.052951753 -0.039348662 -0.052910987 0.031302016 -0.046277907 -0.004093519 -0.048195466 -0.023663985
0.04136094 0.027716521 0.0110598225 -0.014816771 -0.053973634 0.041785665 0.033446465 -0.013491563
-0.049048815 0.053686023 -0.056131087 0.057009637 -0.02780747 -0.010193695 -0.032612137 -0.023699928
-0.039988764 -0.028403822 0.045784343 -0.04012177 0.0022651707 0.030300824 0.048914164 -0.038606364
-0.021958413 -0.011754641 0.05804103 -0.0031100505 0.058269337 0.011056293 -0.03648517 -0.048009966
0.047026683 0.048650794 -0.008908789 -0.056484357 0.000657354 -0.0307818 0.038513765 -0.056547474
0.020434653 0.0020010902 -0.00713163 -0.04808566 -0.043674007 0.054071445 -0.04208867 -0.022708721
-0.019930236 0.016872354 -0.038067177 0.024821773 0.02175522 -0.029883595 0.034375794 -0.004522929
0.040377773 -0.01048141 -0.032975093 0.066232726 -0.05151325 -0.02316654 -0.05245077 0.060771007
-0.039037973 0.034280043 -0.05414851 0.03514048 0.032429144 0.060682405 -0.03876732 0.02079459
0.073658325 0.06823453 0.07000097 0.0357931 -0.012400321 0.012426181 -0.046 -0.008567839
0.015251912 0.05891161 -0.006320597 0.0539143 0.061905567 0.027730186 0.061671063 0.064750604
0.02197097 0.051326513 -0.0061982977 -0.018271608 0.023208639 0.0143855 -0.010956069 -0.056444436
-0.053568322 -0.023804625 -0.05265346 0.011994995 -0.05226383 -0.017500792 -0.020072963 0.03268705
0.01742944 0.017268661 0.00912276 -0.029740065 0.055592693 0.04222178 0.06208615 -0.031660024
-0.027642388 0.06046871 -0.055175256 0.03480508 -0.009415664 -0.05663141 -0.013460378 -0.017645283
-0.016885927 -0.04822979 -0.03760465 0.030208074 0.045705136 -0.009542302 -0.015463529 -0.00016102585
0.04745074 -0.05523833 0.042403597 0.020122077 -0.0503399 0.045296654 0.06263483 0.010334235
-0.012462472 0.060048398 -0.04375262 -0.016450861 -0.0071538826 -0.037566945 0.022088448 0.0003088249

net.0.bias f4 [64]
00000000: ffd9 763d 63e2 b03c a57f 6b3d e7ba 8a3c
00000010: 2f38 653d 17cf 293d d715 023d d30c d93c
00000020: bc81 373d af7f 4dbd 3f4d a63c 51e1 aebc
00000030: fd90 f0bb db7c dd3a 7f9e 16bd fe2a 1abc
00000040: cad2 18bd cbd2 5a3a bf60 733a 7866 21bd
00000050: 9562 2ebd f6b4 063d 9003 333a 3baf 753c
00000060: b702 243d 8f59 193c d566 f5bc 672d 4a3c
00000070: e188 4f3d ec0c 573c 7dba 5f3d d1b2 823c
00000080: f9e6 a0bc 309a a63c 1f3d 5abd 4af9 d3bc
00000090: c641 103d 3a0a f83c 2faf 5e3d 3d07 283d
000000a0: 6f9f 143c d485 e9bb a6fd 06bd ad04 41bd
000000b0: 3ed7 ddbc bd15 803d 46fa 0bbd 0ae3 843d
000000c0: b7f7 a6bb ca26 1b3d bdc6 6cbd 2dc0 503d
000000d0: e556 6fbd c2fb 1dbc 8042 d3bb de7d 903c
000000e0: 8706 4e3d 4e17 48bd 756b 043c 56a1 293c
000000f0: 33d5 7d3d 3dca dc3c 9c95 143d 953d 74bc
0.06026649 0.021592325 0.05749478 0.016934825 0.055961784 0.041457262 0.03175911 0.026495373
0.04480146 -0.050170597 0.020300506 -0.021347674 -0.0073415027 0.0016898172 -0.036772247 -0.009409664
-0.0373104 0.00083474506 0.00092841306 -0.039404362 -0.042574484 0.03288742 0.0006828839 0.0149953915
0.04004165 0.009359731 -0.02995626 0.012339926 0.050667647 0.013125639 0.05462121 0.015954407
-0.019641386 0.020337194 -0.053280946 -0.025875706 0.035218976 0.030278314 0.054366287 0.041022528
0.009071215 -0.0071265493 -0.03295674 -0.0471236 -0.027080175 0.06254146 -0.034174226 0.06488617
-0.005095448 0.03787879 -0.05780672 0.050964523 -0.05843248 -0.009642543 -0.0064471364 0.017638143
0.050299194 -0.04885035 0.00808226 0.010353407 0.0619709 0.026951903 0.03627549 -0.01490726

net.2.weight f4 [32, 64, 5, 5]
00000000: 37d1 88bb 5510 833c 7072 d8ba 75ab bdbc
00000010: ae3e 9d3c 7c65 7e3b 2174 e83b ae54 eebb
00000020: 2b64 3c39 2d52 65bb 82e3 37bc ae4d ba3c
00000030: 484d 353c 87be c6bc 2c9b 26bc 1802 88bb
00000040: 4af7 163c 37e6 00bc 116b 303c 9aca b53c
00000050: 300d 37bc 22be 4d3c 2886 933c 8f1e e3ba
00000060: 5935 6e3c b86f 87bc c48f c23c c033 bd3a
00000070: 0759 433a 2997 a4bc eb65 b3bc d354 6c3c
00000080: a877 e9bb d716 9a3c db76 bcbb f35c ee3b
00000090: 71b8 593c 5403 cdbc 2253 1dbc be36 9c3c
000000a0: 03d5 b0bc 4b45 103b 2edf 73bc 5486 b8bc
000000b0: 1f38 013c 3045 2c3c 0699 e7bb 5c81 d53b
000000c0: 407b 9ebc ac36 893c 0589 203c b798 95bb
000000d0: 60e5 c73b 1c10 69bc cb78 4c3b 2553 2cbc
000000e0: 1628 be3c e717 64bb 62c5 223c e603 8c3a
000000f0: 76a1 9c3b 8415 2cbc 7987 703c 8f4e bc3c
00000100: b316 27bc 003a df3b 45e2 b9bb 08f1 c73b
00000110: 1dcd 08bc 3c9b 05bb 278f b33c 97de 05ba
00000120: 37fc 973b 8a4e 99bb e247 a73c 6f73 82bb
00000130: c17b 693c 9363 e6bc 451c 48bc 95cf 8abc
00000140: eb33 983b 8633 833c 50b4 f1bc be51 4dbc
00000150: c1b3 52bc e741 f0bb 31d2 ebbc c089 763c
00000160: 79b5 c53a 8d97 94bc d066 903c dc54 70bb
00000170: 5762 7ebc 57ed 59bc 9b02 10bc d848 cebc
00000180: b934 0ebb 7378 9dbc 443f 3b3c e4ff 3f3c
00000190: 4f80 1b3c 8de4 be3c 275f 943c 133d 83bc
000001a0: 3ce9 f63b d69e b0bc b6ab 19ba e5d1 98ba
000001b0: 62fc acbc 03c6 913b 6fb5 89bb ea8b b6bc
000001c0: f898 0fba bdf8 b03c 0d54 a73c 66b4 abbc
000001d0: ad3b 323c 9e60 9ebc b734 c03c 6e69 c33c
000001e0: 2464 b33c df74 44bc 6316 d3bb 98a1 a8bb
000001f0: b632 923c c3c8 c9bc a9d5 bfbc bd8e 9d3c
00000200: 249f d2bc 365c 32bc 191a b73b c9e2 613a
00000210: 2308 c5bc b936 163c 8aa8 90bc 2f65 4e3c
00000220: 0e16 be3c a5f7 933c 4133 953b 7ed6 bb3b
00000230: b5e5 a1bc ca1c 95bc 24a8 f13b 536a d3bc
00000240: 8c2c 89bc 04c6 b83c 8120 bb3c 2107 c5bc
00000250: 2d0e 19bc 6a95 4e3b e121 9a3c 6068 d43b
00000260: 9b06 a9bc 41da c03c 6137 43bc bba8 2fbc
00000270: 5b9e 483c 011f 533c 6595 1fbc f82d ba3b
00000280: ad7b b8bc 6eea c3bc 1552 89bc ade7 b3bc
00000290: 6175 6fbc 6845 babb f9fa 85bc c33d bfbc
000002a0: 54eb 1e3c b9f7 b7bc 58b2 6c3c f9ca 033c
000002b0: 9972 d6bc c72b abbc 97da b03c 24cb 84bc
000002c0: 5370 a13c 1c88 9e3c c844 ba3c 547c 9d3b
000002d0: bf94 963c 2bcc 6cbb c4b7 9cbc 673a b0bc
000002e0: 14db 0ebc 3671 68bc 2869 4f3c 14c6 703c
000002f0: bacf abbb 3535 7d3c 90b0 7b3c 94d0 ebba
00000300: 4875 80bc 0c3b 1b3a e308 af3b 817a f6bb
00000310: 26e2 823c 0511 0ebc d71c c73b bb95 b83c
00000320: 5852 c0bc ae34 2ebc a890 27bc 4f03 923c
00000330: d105 363b 1b86 81bc 86ed 873c 5c8d ec3a
00000340: a6ef 18bc 79a3 093b eb73 0b3b 0a83 aabb
00000350: a439 06ba e9dc 5e3c f67b debb c097 ec3b
00000360: 7bad 48bb 4bf0 e3bb 7922 f53b 235c a43b
00000370: a577 e4bb 55ed 773c e7a3 85bc 39e8 8a3c
00000380: 36d7 e23b 159f 993c 59ce 713b 0f3d 813c
00000390: ec94 51bb 7a4e 2bbc b828 bf3c 2c66 d2bc
000003a0: b434 0ebc 2e99 d2bb 7104 b93c 3c33 7abc
000003b0: 2490 98bc 3c9d c1bb b7e8 18ba 050a 9fbc
000003c0: b9b1 a9bb 2712 c73b 3452 2a3c d970 0dbc
000003d0: 00ee 29bc 9ff6 22bc c8f8 8bbb b42f 873c
000003e0: 3821 b33c 3422 7c3c b8ca e43b b87b 993c
000003f0: f1ba 2cbb 8a72 1e3c 32b8 883c ad3d ceba
-0.004175331 0.015998999 -0.0016513597 -0.023153046 0.019194927 0.0038817814 0.007093922 -0.007273278
0.00017966393 -0.0034991608 -0.011223676 0.022742119 0.011065789 -0.024260772 -0.010168832 -0.00415064
0.009214232 -0.0078673875 0.010767714 0.022191335 -0.011172578 0.012557538 0.018008307 -0.0017327833
0.014539086 -0.016532764 0.023750193 0.0014434978 0.0007451926 -0.02009161 -0.021899184 0.014424521
-0.00712486 0.018809719 -0.0057514734 0.007274264 0.013288603 -0.025026001 -0.00960234 0.019069072
-0.021585947 0.0022013958 -0.014884753 -0.02252499 0.0078869155 0.010514542 -0.0070678024 0.006515665
-0.01934588 0.016749702 0.009798293 -0.004565324 0.0061003417 -0.014225032 0.0031199928 -0.01051787
0.023212474 -0.0034804286 0.009934755 0.0010682314 0.00477999 -0.010503177 0.014680737 0.022986678
-0.010198283 0.006812334 -0.0056727254 0.006101731 -0.008349684 -0.0020386716 0.021918846 -0.0005106716
0.0046382206 -0.004678552 0.020420019 -0.003981046 0.014250697 -0.028123653 -0.012213771 -0.016944686
0.004644861 0.01601578 -0.029504925 -0.012531696 -0.0128602395 -0.007332075 -0.02878675 0.015047491
0.001508399 -0.018138671 0.01762715 -0.0036671674 -0.015526376 -0.013301215 -0.008789684 -0.025181219
-0.0021698906 -0.019222474 0.011428658 0.011718724 0.00949104 0.02330234 0.018111778 -0.016020333
0.007535128 -0.021560114 -0.0005862074 -0.0011659233 -0.02111644 0.0044486537 -0.004202537 -0.022283513
-0.0005477811 0.021602983 0.02042582 -0.020960044 0.010878486 -0.01933318 0.023462636 0.023853984
0.021898337 -0.011990755 -0.0064418777 -0.0051462166 0.017846446 -0.024631863 -0.02341731 0.019233102
-0.02571065 -0.010886243 0.005587828 0.00086168625 -0.024051731 0.00916832 -0.01765849 0.012597366
0.023203876 0.018062422 0.004553229 0.0057323566 -0.019762853 -0.018202204 0.0073747803 -0.025807535
-0.016744874 0.022555359 0.022842648 -0.02405125 -0.009341759 0.0031522163 0.018814983 0.006482169
-0.020633033 0.023541572 -0.011915059 -0.010721381 0.012244786 0.01288581 -0.009740208 0.0056817494
-0.02251991 -0.023915496 -0.016762773 -0.021961058 -0.014615388 -0.0056845434 -0.016355025 -0.02334488
0.009699661 -0.02245699 0.014446817 0.008043998 -0.026177691 -0.020894898 0.021588607 -0.016210146
0.01970688 0.019352011 0.022737876 0.004806081 0.018381475 -0.0036132436 -0.019130595 -0.021512223
-0.0087192245 -0.014187148 0.012659349 0.014695663 -0.005243269 0.01545458 0.01536192 -0.0017991238
-0.015680924 0.00059215794 0.0053416356 -0.007521928 0.015976977 -0.00867105 0.006076436 0.022532335
-0.023476765 -0.010632677 -0.01022736 0.017823843 0.0027774463 -0.015811017 0.016592752 0.00180475
-0.00933448 0.0021001978 0.002127881 -0.0052036094 -0.00051202835 0.013602474 -0.0067896796 0.0072202384
-0.003062098 -0.0069561354 0.007480916 0.0050158664 -0.0069722706 0.015132268 -0.016313506 0.016956436
0.006922628 0.018752614 0.0036896674 0.015776185 -0.0031979633 -0.010455722 0.023334846 -0.025683485
-0.008679558 -0.006426952 0.022585126 -0.015271004 -0.01862342 -0.0059086364 -0.0005833017 -0.019413957
-0.005178657 0.006075162 0.010395575 -0.008632862 -0.010371685 -0.009946494 -0.0042716004 0.016502239
0.021866426 0.015389014 0.006982174 0.018735752 -0.0026356543 0.009670863 0.016689394 -0.0015734934

net.2.bias f4 [32]
00000000: 75ce 7f3b 3234 ac3c cb80 883b 0a1e 373c
00000010: f1d0 1e3c ac2d 6fbc ce58 3dbc 4216 ce3b
00000020: 3879 443b 8078 83bc cb13 56bb ab8a ac3b
00000030: 124c 273c 6ee1 e2bb d80f 8bbc aea1 9e3c
00000040: f47f e0bb 9e78 233b b5ec b93c c6d1 983c
00000050: ca48 883c 7cee 8cbc 01e3 93bc a67a b23c
00000060: 91f5 6f3c 9e43 a9ba 2278 97bc 8f8e bf3c
00000070: d604 d53a 956a a4bc a0d1 293c 2b70 aebc
0.003903297 0.021020982 0.004165744 0.011176595 0.00969337 -0.014598291 -0.011556817 0.0062892744
0.0029979479 -0.01604867 -0.0032665606 0.005265554 0.010211008 -0.006923846 -0.016975328 0.019364204
-0.0068511907 0.002494372 0.022695879 0.018654715 0.016636271 -0.017203562 -0.01805258 0.021786999
0.01464595 -0.0012913828 -0.018489901 0.023383407 0.0016252052 -0.020070354 0.01036492 -0.02129372

net.4.weight f4 [3, 32, 5, 5]
00000000: 078f d03c c084 0bbd 7552 e2bc b662 5bbc
00000010: f349 f2bc db7c 8a3c 56c4 4abc 2446 e73b
00000020: 3683 f6bc 238d b93c 1943 5d3c b77a 9cbb
00000030: 3f84 09bd ad80 333b a6d4 97bc ffee 6cbc
00000040: fb91 e4bc f309 e83b 193d 893c 1379 25bc
00000050: 89f3 0a3d acd3 123d dc4e eb3c a7a7 89bc
00000060: b945 b13c 882e f23c 231d c83c e640 5ebc
00000070: 1960 083d 844a 933c a663 b5ba f98c abbc
00000080: 6300 0abd 407a 07bd 453f ff3c ace9 d43c
00000090: 7348 f0bc d032 e6bc 4173 8abc d4a3 04bd
000000a0: 1110 773c 3dad c4bc 34f2 91bc 6bb1 edbc
000000b0: 6d26 0d3b 612d ea3c 1016 32bc 8b87 0a3d
000000c0: 6d3c 443c ebb9 89bc 841d 6d3b 699b 55bb
000000d0: 9dbb bdbc 1e35 c53c 13ca b43c 1b67 623c
000000e0: 8aac 213c 28ae 89bc 66bd 6a3c 5c6a 00bd
000000f0: 80d7 c63c 1225 a63c ffb3 99bc d3a0 b4bc
00000100: 8c67 acbc a04e ed3b 36b6 b5bb 1b95 1fbb
00000110: d52b 77bc 3047 25b9 5bb7 a43c 0699 34bc
00000120: 0585 d1bc b601 cf3c 8480 ef3c 0209 803c
00000130: de03 483c 62a1 cfbc b154 023d 11fa 66bc
00000140: 5af3 97bb 17bf 493c 908d cebc 6879 16bc
00000150: ae9c b93c 1fad ba3c d33e 67b9 fe8e e0ba
00000160: d69d 54bb 825f cbbc dd85 44ba c4bf 6b3c
00000170: 6ed3 6bbb 5c43 0fbd 95e2 3c3b cc46 08bb
00000180: 7103 ecbb 35b2 083d d217 9d3c bf63 ab3c
00000190: a72c 3abc 9e1c 01bb 5d44 ecba 1df3 983c
000001a0: 0ab2 02bd d97c d13a 3ebf 8cbc f81f ef3c
000001b0: 483a 83bc a4f8 27bd eb7f 93bc d0c0 8c3c
000001c0: 553a 0dbd 06d5 28bb c03c 2dbd 7c01 ab3c
000001d0: c2bb d5bc 3c4a 0bbc c741 e7ba 37a6 b8bc
000001e0: ec91 793c 1694 11bd 8308 a7bb ba88 e2bc
000001f0: 0f89 aa3b 7185 48bc 3895 a03c ed64 753c
00000200: c81d 253d 1ad0 d2bc 84bd a5bc e68c 7b3c
00000210: 4d1a 21bc 2107 ccbc 80ee ae3c 627d 8bbc
00000220: 7d35 963b df1d a1bc d42b 39bc 510d 853b
00000230: fa01 ebbc db80 693c 3b57 f8bc 6715 54bb
00000240: f979 97bc 01ba 04bd cd4c 8dbc 02c9 06bd
00000250: b765 b13b c8e7 cabc f5e9 2a3c 1371 59bc
00000260: 1247 fdbb 2b23 b33c 7aac 8a3c 5bfd d43c
00000270: 143d 903c 133e e23c d4de 043d 07b3 7bbc
00000280: 4da6 903c c2d1 0e3d 1ffc 533b e417 75bc
00000290: 8771 6abc 8313 4d3c 969d d33b 154b cd3a
000002a0: 9033 e6bc aefe 04bc b5e5 c3bc f1e9 663c
000002b0: e875 093d deac a2bb a9d3 88bb c3f0 3c3c
000002c0: b3ec 0f3d 007d 153d a615 283a d8d0 a53c
000002d0: a69f 053d e937 b73b b13a 143c 207b 20bc
000002e0: 1d58 0c3d a888 b13c c859 3cbc d566 fa3c
000002f0: 2ccb bdbc f6d1 cebc f423 01bd 10bc 7bbc
00000300: b96a 6c3c fe18 ff3a 4d7e db3c d900 083d
00000310: 96f1 fb3c 708f 96bc de86 68bc 3d7d d03a
00000320: f1eb b03c 3191 5cbc c170 d4bc bc00 533b
00000330: 9eea b6bc 22a0 e4bc 0a31 92bb bd4f f9bc
00000340: 55b0 033c 0c0d 52bc 3f57 923c f70c acbc
00000350: cd94 69bc ec50 743c 3470 503a ce31 5cbc
00000360: 8f00 603b 229e 0dbc 0af4 f0bc 483a 003d
00000370: a71a cabc a323 f1bc 2ca8 efbc 527f 113b
00000380: 208e 2abc 7647 83bc 4216 4fbc 6303 a83b
00000390: 824e b23c ef7f 42bb e91e b7ba 5611 1c3d
000003a0: 4734 cc3b 07ab eabc 8349 49bc 9ca2 0f3d
000003b0: 4fdd 5a3c 9044 f7bc 49b4 1d3a f79a eb3c
000003c0: b77d b6bc 83d9 15bd cfa1 e6bc cd7f 2cbc
000003d0: 9f37 e03c 8f59 f23c 4589 103d e021 693c
000003e0: d286 543c 52ec 03bd 7882 debc f120 e8bb
000003f0: d0a1 a3bc f0ee 0b3d 41d9 f6b9 82d6 8cbb
0.025458826 -0.034062147 -0.02762721 -0.013390234 -0.029576277 0.016905239 -0.012375912 0.007057922
-0.030091863 0.022650307 0.013504767 -0.004775371 -0.033573385 0.002738993 -0.018534016 -0.014461278
-0.02790164 0.007081264 0.016752766 -0.010099667 0.03392366 0.035846397 0.028724127 -0.016803576
0.021639692 0.029563203 0.024427956 -0.013565278 0.03329477 0.017979868 -0.0013838902 -0.020941244
-0.033691775 -0.03307557 0.031158099 0.02599033 -0.029331421 -0.028100401 -0.01690066 -0.0323828
0.015079514 -0.024008388 -0.017815687 -0.029015264 0.0021537796 0.028586091 -0.010869518 0.03382067
0.011977297 -0.016812285 0.0036180923 -0.0032593852 -0.02316075 0.02407318 0.022069013 0.013818528
0.009867797 -0.016806677 0.014327383 -0.031351432 0.02427268 0.020281348 -0.018762587 -0.022049343
-0.021045469 0.007242039 -0.005545403 -0.0024350348 -0.015086134 -0.00015762146 0.020106962 -0.011022812
-0.025576124 0.02526937 0.029236086 0.015629295 0.012207953 -0.025345508 0.03181905 -0.014097706
-0.004637164 0.012313626 -0.025213987 -0.009184219 0.022657719 0.022787629 -0.0002205328 -0.0017132459
-0.003244271 -0.024825815 -0.0007496754 0.014388982 -0.0035984176 -0.03497635 0.0028821577 -0.0020794151
-0.0072025587 0.033373076 0.019176397 0.020921586 -0.011363185 -0.0019700895 -0.0018025745 0.018670613
-0.031908073 0.0015982642 -0.017181035 0.029190049 -0.016019002 -0.041008607 -0.018005332 0.017181784
-0.034479458 -0.0025761737 -0.042294264 0.020874731 -0.026090506 -0.008501586 -0.0017643505 -0.022540195
0.015232544 -0.035541616 -0.00509745 -0.027653087 0.005204327 -0.012238846 0.019602403 0.014977676
0.040311605 -0.025733996 -0.02023197 0.015353417 -0.009832931 -0.024905743 0.02135396 -0.01702756
0.004584013 -0.019667564 -0.011301953 0.0040604253 -0.028687466 0.014251913 -0.030315032 -0.003236139
-0.018490778 -0.03240395 -0.017248536 -0.03290654 0.0054137367 -0.024768725 0.010431756 -0.013271588
-0.0077294195 0.021867355 0.016927946 0.025999716 0.01760725 0.02761749 0.032439068 -0.015362508
0.017657423 0.03486801 0.003234632 -0.014959309 -0.014309294 0.012516859 0.0064579947 0.0015662635
-0.028100759 -0.008117361 -0.023913244 0.014093862 0.03355971 -0.004964455 -0.0041756225 0.011532011
0.035137843 0.036496162 0.0006411917 0.020241186 0.032622956 0.005591382 0.009047196 -0.00979498
0.03426372 0.021671608 -0.011496015 0.030566612 -0.023168169 -0.025246602 -0.03152843 -0.015364662
0.014429742 0.0019462404 0.026793623 0.033203933 0.030754846 -0.018378943 -0.014192311 0.0015906465
0.02159688 -0.013462351 -0.025932672 0.0032196483 -0.022328671 -0.027908389 -0.0044614123 -0.03043353
0.008037646 -0.012820493 0.017863868 -0.021002276 -0.014256668 0.014911871 0.000795129 -0.013439609
0.003418002 -0.008643659 -0.029413242 0.03130558 -0.024670912 -0.029435938 -0.029254995 0.0022201133
-0.010409862 -0.016025286 -0.012639584 0.005127357 0.021765951 -0.0029678305 -0.0013971004 0.03810247
0.006231818 -0.028646005 -0.012285593 0.035067186 0.013358428 -0.03018406 0.0006015939 0.028760416
-0.022276742 -0.03658439 -0.028153328 -0.010528517 0.027370272 0.02958372 0.03528716 0.014229268
0.012971597 -0.032207794 -0.027161822 -0.007084005 -0.01997462 0.034163415 -0.00047082643 -0.0042980323

net.4.bias f4 [3]
00000000: d532 b73b 4f32 bf3c 1e7c 803b
0.0055907764 0.023339419 0.003921046
