checkpoints/srcnn_epoch33_2025-03-20_23-02-04.pth (torch, 280012 bytes, 6 tensors)

net.0.weight f4 [64, 3, 9, 9]
0.03272903 -0.019465307 0.03134213 0.052247036 -0.054623388 0.01943633 0.03665952 -0.019152753
-0.025485447 0.011085128 -0.04060433 -0.023334825 0.0018658832 -0.032632783 0.0023682346 0.061885104
0.06944589 -0.013064039 -0.043698136 -0.008467844 0.0021646023 0.056839928 -0.015037328 -0.035715178
0.062677324 0.028924586 0.05898432 0.023396155 -0.036572352 -0.061160795 0.05298445 -0.042956773
-0.015534413 -0.042946972 0.062368132 -0.05111009 -0.011214021 0.0017187573 -0.0055509545 -0.024318507
-0.0114452 0.06398318 -0.029259209 -0.028226607 0.041114528 0.06819028 -0.05390333 0.035286594
0.013984311 0.027581466 -0.005088754 -0.014801945 -0.052970685 0.060815595 0.06250531 -0.028278196
0.06975165 -0.034202076 0.05260397 0.07418566 0.01131938 -0.0048200497 0.014475113 0.037740078
0.065376 -0.009113503 0.06591066 -0.01168306 -0.020177541 0.031752802 -0.040108044 -0.00340828
-0.028364602 -0.04441471 -0.040487975 -0.04630734 0.044715457 -0.011160951 -0.056325704 0.018723644
-0.027275506 -0.029504439 -0.014605018 -0.03533493 0.019640883 -0.05415372 0.015553222 -0.007592847
-0.018708259 0.052863155 -0.01155624 -0.046735346 0.008910278 -0.05277474 -0.053757776 -0.022454752
0.038630847 0.008566592 0.010950822 0.06836857 0.047790572 0.066867545 -0.053230386 -0.001484683
0.052582327 -0.038960364 -0.053404596 0.03189937 -0.045571987 -0.0034053854 -0.048567507 -0.024756435
0.041240297 0.026441343 0.011439107 -0.014825865 -0.053370263 0.04265211 0.034196258 -0.013070685
-0.049709767 0.05369996 -0.0580362 0.057281505 -0.027117817 -0.009586876 -0.031995475 -0.023875084
-0.039908953 -0.029742252 0.0452611 -0.04151999 0.002222071 0.030736357 0.049427286 -0.03781357
-0.02201384 -0.011665574 0.057157014 -0.0031290671 0.058240246 0.011348779 -0.03624221 -0.04730528
0.047830578 0.048990157 -0.00877018 -0.056414537 0.0007600096 -0.030897394 0.038821265 -0.056151446
0.021345388 0.0025769519 -0.0068649864 -0.04802398 -0.0430649 0.054543756 -0.041964825 -0.022202075
-0.019168857 0.01790264 -0.038165454 0.024615668 0.021107702 -0.029695362 0.034109194 -0.00530182
0.039659694 -0.011475385 -0.034120493 0.06575638 -0.051911317 -0.022873322 -0.051630087 0.060516898
-0.03935932 0.03403966 -0.055675097 0.03398736 0.03167587 0.060295325 -0.038463768 0.021375729
0.07464272 0.06907192 0.07097273 0.03470125 -0.012894952 0.011732877 -0.045832384 -0.007961363
0.015904946 0.060800027 -0.005695492 0.055573866 0.061820664 0.027574439 0.061396297 0.06533271
0.02355808 0.052323397 -0.0047012516 -0.018734407 0.02441128 0.014782983 -0.011173479 -0.056467254
-0.05361832 -0.02298256 -0.05332448 0.011700082 -0.053200625 -0.017177854 -0.020188028 0.032351073
0.017926663 0.017388022 0.009548045 -0.030563043 0.055346947 0.042383473 0.062687986 -0.03191952
-0.027627666 0.061221357 -0.054548733 0.035406247 -0.008902963 -0.056022976 -0.012877187 -0.016967313
-0.017040905 -0.047907934 -0.03705455 0.030694658 0.04615162 -0.008378517 -0.014178501 0.0006425489
0.047874633 -0.05543927 0.04262784 0.019967522 -0.050266873 0.044730045 0.06288709 0.010914678
-0.01242153 0.06075756 -0.042944364 -0.015862398 -0.0073098224 -0.03762915 0.02268637 0.00027993377
00000000: e00e 063d b575 9fbc 9b60 003d fd00 563d
00000010: c6bc 5fbd f038 9f3c 4b28 163d 3ce6 9cbc
00000020: dbc6 d0bc 669e 353c ba50 26bd ad28 bfbc
00000030: a790 f43a f4a9 05bd 6234 1b3b 3c7b 7d3d
00000040: a639 8e3d 8d0a 56bc d1fc 32bd b6bc 0abc
00000050: 00dc 0d3b fcd0 683d 205f 76bc 144a 12bd
00000060: f85c 803d 41f3 ec3c 8b99 713d 4ba9 bf3c
00000070: e4cc 15bd be83 7abd 3906 593d 71f3 2fbd
00000080: 0d84 7ebc 2ae9 2fbd ba75 7f3d d058 51bd
00000090: 03bb 37bc ed47 e13a c8e4 b5bb 9b37 c7bc
000000a0: a684 3bbc 9d09 833d 02b1 efbc 7c3b e7bc
000000b0: b567 283d 58a7 8b3d bdc9 5cbd ad88 103d
000000c0: 741e 653c 87f2 e13c 90bf a6bb db83 72bc
000000d0: caf7 58bd c619 793d c902 803d ada7 e7bc
000000e0: f4d9 8e3d 7a17 0cbd 4377 573d a7ee 973d
000000f0: ec74 393c 82f1 9dbb 0629 6d3c 5795 1a3d
00000100: dae3 853d cd50 15bc 2bfc 863d 4e6a 3fbc
00000110: 5f4b a5bc 3a0f 023d 5548 24bd 735d 5fbb
00000120: e25c e8bc 33ec 35bd b8d6 25bd c4ac 3dbd
00000130: 8e27 373d 6cdc 36bc c8b5 66bd 5462 993c
00000140: e270 dfbc 4bb3 f1bc e349 6fbc 5cbb 10bd
00000150: ebe5 a03c 4bd0 5dbd f1d2 7e3c 6bcd f8bb
00000160: 1042 99bc 0987 583d 6256 3dbc 906d 3fbd
00000170: 6afc 113c 532a 58bd 1d31 5cbd 07f3 b7bc
00000180: 613b 1e3d e45a 0c3c 146b 333c d204 8c3d
00000190: 0cc0 433d daf1 883d 1b08 5abd b299 c2ba
000001a0: 9160 573d e794 1fbd c7be 5abd eaa8 023d
000001b0: b1a9 3abd e32c 5fbb b9ee 46bd 02ce cabc
000001c0: 96eb 283d 849b d83c 186b 3b3c 2fe8 72bc
000001d0: c79a 5abd fbb3 2e3d 6011 0c3d 6d26 56bc
000001e0: 789c 4bbd 7df4 5b3d 5eb7 6dbd 03a0 6a3d
000001f0: 2f26 debc 4612 1dbc b00d 03bd ae95 c3bc
00000200: 9277 23bd 06a6 f3bc b463 393d dd10 2abd
00000210: 2aa0 113b d0ca fb3c 4474 4a3d 67e2 1abd
00000220: 5e56 b4bc f720 3fbc 791d 6a3d 0911 4dbb
00000230: 538d 6e3d 3bf0 393c b672 14bd 2ec3 41bd
00000240: ffe9 433d e7a9 483d cdb0 0fbc ee12 67bd
00000250: 623b 473a 881c fdbc 0c03 1f3d 0fff 65bd
00000260: 86dc ae3c 14e2 283b aef3 e0bb cbb4 44bd
00000270: d264 30bd 4669 5f3d 4fe3 2bbd 20e1 b5bc
00000280: 0208 9dbc 8fa8 923c 6153 1cbd cca6 c93c
00000290: 0fea ac3c b043 f3bc 15b6 0b3d e4ba adbb
000002a0: 3472 223d 4103 3cbc eec1 0bbd 48ab 863d
000002b0: f6a0 54bd d560 bbbc 127a 53bd 91e0 773d
000002c0: 3d37 21bd 2c6d 0b3d 920b 64bd 5436 0b3d
000002d0: 8fbe 013d 3bf8 763d 2f8c 1dbd 271c af3c
000002e0: 48de 983d 9475 8d3d 275a 913d e622 0e3d
000002f0: 5945 53bc 413b 403c bdba 3bbd 6070 02bc
00000300: 174b 823c 7309 793d 40a1 babb 6ca1 633d
00000310: aa37 7d3d cae3 e13c af7a 7b3d 28cd 853d
00000320: e0fc c03c 0f51 563d f50c 9abb e678 99bc
00000330: 2afa c73c 5334 723c f810 37bc 354a 67bd
00000340: e29e 5bbd ec45 bcbc c56a 5abd b3b1 3f3c
00000350: e6e8 59bd 92b8 8cbc 5d61 a5bc 8f82 043d
00000360: f0da 923c 5371 8e3c 676f 1c3c 595f fabc
00000370: 7bb3 623d 4b9a 2d3d 8f62 803d 0bbe 02bd
00000380: 6a53 e2bc 3fc3 7a3d 7e6e 5fbd 2406 113d
00000390: bcdd 11bc 5978 65bd d6fa 52bc 09ff 8abc
000003a0: 5e99 8bbc 1c3b 44bd 83c6 17bd 5d73 fb3c
000003b0: 7b09 3d3d 0c46 09bc f24c 68bc ba70 283a
000003c0: 3118 443d 4a14 63bd 889a 2e3d ee92 a33c
000003d0: a3e4 4dbd da36 373d f2ca 803d 7ad3 323c
000003e0: ac83 4bbc ebdc 783d 6ee6 2fbd dcf1 81bc
000003f0: 3c87 efbb 0621 1abd c4d8 b93c 13c4 9239

net.0.bias f4 [64]
0.061214842 0.022235531 0.05767771 0.0173703 0.056218408 0.04135876 0.032036193 0.027096348
0.04513162 -0.04988529 0.020739343 -0.019537384 -0.0048815995 0.0023106409 -0.036700234 -0.008952624
-0.03512682 0.00063718366 0.0009234428 -0.039473638 -0.041692447 0.033220615 0.0021868506 0.015576545
0.040943306 0.010059676 -0.029349724 0.012388659 0.050659727 0.013181883 0.054519773 0.0153327705
-0.018591968 0.020632738 -0.051254638 -0.025543468 0.035266206 0.03106536 0.05438698 0.040747974
0.009306026 -0.006967018 -0.032824192 -0.046497725 -0.025975706 0.062431976 -0.032118652 0.067042395
-0.0041263383 0.03796391 -0.057362653 0.052343104 -0.058608655 -0.009472155 -0.006180998 0.017583221
0.050982255 -0.048767038 0.008071384 0.010360355 0.058190636 0.027406393 0.03614981 -0.014430231
00000000: 6abc 7a3d 4a27 b63c 763f 6c3d 294c 8e3c
00000010: 4645 663d ce67 293d 6238 033d 29f9 dd3c
00000020: efdb 383d 8554 4cbd 8ee5 a93c dd0c a0bc
00000030: d3f5 9fbb 1f6e 173b fc52 16bd 07ae 12bc
00000040: 24e1 0fbd ac08 273a 3313 723a 1caf 21bd
00000050: b3c5 2abd 5712 083d 4451 0f3b c434 7f3c
00000060: 2bb4 273d 57d1 243c d56e f0bc cdf9 4a3c
00000070: 9380 4f3d d3f8 573c 2050 5f3d 4d36 7b3c
00000080: 2f4e 98bc fd05 a93c 62f0 51bd 8940 d1bc
00000090: 4c73 103d c87c fe3c e2c4 5e3d 59e7 263d
000000a0: 4d78 183c 954b e4bb a972 06bd 6674 3ebd
000000b0: 01cb d4bc acb8 7f3d d98e 03bd 864d 893d
000000c0: 3c36 87bb 0b80 1b3d 1af5 6abd b965 563d
000000d0: a10f 70bd 1931 1bbc f889 cabb b00a 903c
000000e0: c5d2 503d f2bf 47bd d73d 043c 7abe 293c
000000f0: 4e59 6e3d 5f83 e03c d311 143d c76c 6cbc

net.2.weight f4 [32, 64, 5, 5]
-0.004175379 0.015998812 -0.0016515104 -0.023153154 0.019194873 0.003881753 0.0070938296 -0.007273346
0.00017962066 -0.00349924 -0.011203499 0.022757305 0.011074314 -0.024249604 -0.010152284 -0.0041381973
0.009226914 -0.0078550875 0.010780693 0.022208855 -0.011155247 0.012578729 0.018036142 -0.0016978896
0.014582079 -0.016532764 0.023750193 0.0014434977 0.00074519165 -0.02009161 -0.021899184 0.014424521
-0.00712486 0.018809719 -0.0057514734 0.0072742687 0.013288603 -0.025026001 -0.009602196 0.019069111
-0.021585947 0.0022014265 -0.014884743 -0.022524955 0.007887197 0.010514542 -0.0070678024 0.006515665
-0.01934588 0.016749702 0.0097982595 -0.0045653502 0.006100312 -0.014225075 0.0031199513 -0.010517892
0.023212474 -0.003480446 0.009934733 0.0010682152 0.0047809873 -0.010502688 0.01468094 0.02298685
-0.010198229 0.0068137897 -0.0056721624 0.0061020534 -0.0083495695 -0.0020385878 0.02192362 -0.00050605537
0.004642651 -0.004673633 0.020424947 -0.0039813686 0.01425052 -0.028123803 -0.012213986 -0.016944984
0.004644635 0.016015701 -0.029505046 -0.012532011 -0.012860576 -0.0073239743 -0.028771784 0.015077999
0.001550822 -0.018086154 0.017645396 -0.0036538213 -0.015500053 -0.013250193 -0.008722888 -0.025147166
-0.0021388568 -0.019199995 0.011443604 0.01172798 0.00949104 0.02330234 0.018111778 -0.016020333
0.007535128 -0.021560114 -0.00058621017 -0.0011659276 -0.02111644 0.0044486537 -0.0042023733 -0.022283498
-0.00054767285 0.021602983 0.02042582 -0.020960042 0.010878688 -0.019333092 0.023462644 0.023853984
0.021898339 -0.01199065 -0.006441639 -0.0051459633 0.017846454 -0.024631863 -0.02341731 0.019233102
-0.02571065 -0.010886243 0.005587828 0.00086168596 -0.024051731 0.00916832 -0.01765849 0.012597369
0.023203876 0.018062424 0.0045534438 0.0057325745 -0.019762853 -0.018202204 0.0073747854 -0.025807535
-0.016744874 0.022555359 0.022842648 -0.02405125 -0.009341658 0.0031524287 0.018814983 0.0064821667
-0.020633033 0.023541572 -0.011915059 -0.010721387 0.012244786 0.01288581 -0.009740209 0.0056817485
-0.022519162 -0.02391489 -0.016762067 -0.021960307 -0.014613813 -0.0056837997 -0.016354594 -0.023344496
0.009699755 -0.022456886 0.014448279 0.008045365 -0.026177043 -0.020894755 0.02158871 -0.016210742
0.019706167 0.019351425 0.022737114 0.0048052296 0.018381149 -0.0036136187 -0.01913078 -0.021512475
-0.008719782 -0.014174457 0.012683587 0.014748469 -0.005160057 0.01555277 0.015375971 -0.0017762547
-0.015636135 0.00065811665 0.00542059 -0.0075090295 0.015988111 -0.008651309 0.006099551 0.02255869
-0.023476765 -0.01063269 -0.01022736 0.017823843 0.0027774351 -0.015811017 0.016592743 0.0018047341
-0.00933448 0.002100196 0.0021303871 -0.0052018976 -0.0005110919 0.013605317 -0.0067852074 0.0072235228
-0.0030585506 -0.0069521996 0.007486427 0.0050233076 -0.00696982 0.015134185 -0.016311621 0.016958991
0.0069259023 0.018752614 0.0036896674 0.015776185 -0.0031979696 -0.010455722 0.023334846 -0.025683485
-0.008679558 -0.006426952 0.022585126 -0.015271004 -0.01862342 -0.0059085223 -0.0005828732 -0.019413438
-0.005178657 0.0060751718 0.010395798 -0.008632366 -0.0103710815 -0.009946494 -0.0042716004 0.016502239
0.021866426 0.0153891705 0.006982161 0.01873573 -0.0026356971 0.009670817 0.016689336 -0.0015735056
00000000: 9ed1 88bb f10f 833c 7e77 d8ba afab bdbc
00000010: 913e 9d3c 0265 7e3b 5b73 e83b 4055 eebb
00000020: 8e58 3c39 8153 65bb e18e 37bc 876d ba3c
00000030: 0a71 353c 1ba7 c6bc c455 26bc b799 87bb
00000040: 7b2c 173c a0b2 00bc 81a1 303c 58ef b53c
00000050: 7fc4 36bc 0317 4e3c 88c0 933c b98b deba
00000060: ace9 6e3c b86f 87bc c48f c23c bf33 bd3a
00000070: f758 433a 2997 a4bc eb65 b3bc d354 6c3c
00000080: a877 e9bb d716 9a3c db76 bcbb fd5c ee3b
00000090: 71b8 593c 5403 cdbc 8752 1dbc d336 9c3c
000000a0: 03d5 b0bc cf45 103b 23df 73bc 4186 b8bc
000000b0: 4d39 013c 3045 2c3c 0699 e7bb 5c81 d53b
000000c0: 407b 9ebc ac36 893c e188 203c ef98 95bb
000000d0: 20e5 c73b 4a10 69bc 1978 4c3b 3d53 2cbc
000000e0: 1628 be3c 3218 64bb 4ac5 223c 5b03 8c3a
000000f0: d4a9 9c3b 7713 2cbc 5388 703c eb4e bc3c
00000100: 7916 27bc 3646 df3b 8cdd b9bb bcf3 c73b
00000110: a2cc 08bc d499 05bb 2a99 b33c cda8 04ba
00000120: 6121 983b 4625 99bb 3852 a73c 2476 82bb
00000130: 037b 693c e463 e6bc 2c1d 48bc 35d0 8abc
00000140: 0632 983b 5c33 833c 91b4 f1bc 1053 4dbc
00000150: 2ab5 52bc f3fd efbb ceb2 ebbc b609 773c
00000160: f444 cb3a 6a29 94bc 148d 903c f374 6fbb
00000170: eff3 7dbc 5617 59bc 72ea 0ebc 6e01 cebc
00000180: 102c 0cbb 4f49 9dbc f47d 3b3c b726 403c
00000190: 4f80 1b3c 8de4 be3c 275f 943c 133d 83bc
000001a0: 3ce9 f63b d69e b0bc e6ab 19ba 0ad2 98ba
000001b0: 62fc acbc 03c6 913b 10b4 89bb e28b b6bc
000001c0: b491 0fba bdf8 b03c 0d54 a73c 65b4 abbc
000001d0: 863c 323c 6f60 9ebc bb34 c03c 6e69 c33c
000001e0: 2564 b33c 6e74 44bc 6214 d3bb 789f a8bb
000001f0: ba32 923c c3c8 c9bc a9d5 bfbc bd8e 9d3c
00000200: 249f d2bc 365c 32bc 191a b73b c4e2 613a
00000210: 2308 c5bc b936 163c 8aa8 90bc 3265 4e3c
00000220: 0e16 be3c a6f7 933c 0e35 953b 52d8 bb3b
00000230: b5e5 a1bc ca1c 95bc 2fa8 f13b 536a d3bc
00000240: 8c2c 89bc 04c6 b83c 8120 bb3c 2107 c5bc
00000250: c10d 19bc fa98 4e3b e121 9a3c 5b68 d43b
00000260: 9b06 a9bc 41da c03c 6137 43bc c2a8 2fbc
00000270: 5b9e 483c 011f 533c 6695 1fbc f62d ba3b
00000280: 1b7a b8bc 29e9 c3bc 9a50 89bc 1ae6 b3bc
00000290: c66e 6fbc 2b3f babb 12fa 85bc f53c bfbc
000002a0: b9eb 1e3c 81f7 b7bc 79b8 6c3c b5d0 033c
000002b0: 3d71 d6bc 7a2b abbc ceda b03c 64cc 84bc
000002c0: d46e a13c e186 9e3c 2f43 ba3c 3075 9d3b
000002d0: 1094 963c 76d2 6cbb 27b8 9cbc ee3a b0bc
000002e0: 6bdd 0ebc fb3b 68bc d2ce 4f3c 90a3 713c
000002f0: b215 a9bb 0cd1 7e3c 7feb 7b3c 38d1 e8ba
00000300: 5a17 80bc 7685 2c3a 349f b13b 4e0e f6bb
00000310: 80f9 823c 38be 0dbc bede c73b 00cd b83c
00000320: 5852 c0bc bc34 2ebc a890 27bc 4f03 923c
00000330: a105 363b 1b86 81bc 81ed 873c d48c ec3a
00000340: a6ef 18bc 71a3 093b f79d 0b3b ae74 aabb
00000350: ccfa 05ba d6e8 5e3c 7256 debb 4db3 ec3b
00000360: f771 48bb 47cf e3bb b450 f53b 8f9a a43b
00000370: 1663 e4bb 5ff5 773c f39f 85bc 95ed 8a3c
00000380: aef2 e23b 159f 993c 59ce 713b 0f3d 813c
00000390: 0795 51bb 7a4e 2bbc b828 bf3c 2c66 d2bc
000003a0: b434 0ebc 2e99 d2bb 7104 b93c 3c33 7abc
000003b0: 2490 98bc 479c c1bb f5cb 18ba ee08 9fbc
000003c0: b9b1 a9bb 3c12 c73b 2353 2a3c c46e 0dbc
000003d0: 78eb 29bc 9ff6 22bc c8f8 8bbb b42f 873c
000003e0: 3821 b33c dc22 7c3c 9dca e43b ac7b 993c
000003f0: a9bb 2cbb 5972 1e3c 13b8 883c 163e ceba

net.2.bias f4 [32]
0.0039035042 0.021672465 0.004133649 0.011109144 0.009764814 -0.014664285 -0.011473312 0.006277794
0.0030959218 -0.016157912 -0.0032665608 0.0051253773 0.010930168 -0.006629841 -0.016949194 0.019425899
-0.0069105667 0.0024943992 0.02300312 0.019077018 0.016840462 -0.01715548 -0.01792282 0.022078032
0.014666778 -0.0013717199 -0.018407522 0.024003003 0.0019368461 -0.017399456 0.010369393 -0.021333884
00000000: efd1 7f3b 748a b13c 9073 873b 2103 363c
00000010: 99fc 1f3c 7842 70bc 8ffa 3bbc f4b5 cd3b
00000020: f3e4 4a3b 995d 84bc cc13 56bb c8f2 a73b
00000030: 7314 333c 233f d9bb 09d9 8abc 1023 9f3c
00000040: 0972 e2bb 1379 233b 0a71 bc3c 6847 9c3c
00000050: 02f5 893c a689 8cbc e1d2 92bc fddc b43c
00000060: ed4c 703c 48cb b3ba 5fcb 96bc f2a1 c43c
00000070: c5dd fd3a 4e89 8ebc 63e4 293c 66c4 aebc

net.4.weight f4 [3, 32, 5, 5]
0.025458826 -0.034062147 -0.02762721 -0.013390234 -0.029576277 0.016905239 -0.012375912 0.007057922
-0.030091863 0.022650307 0.013504767 -0.004775371 -0.033573385 0.002738993 -0.018534016 -0.014461278
-0.02790164 0.007081264 0.016752766 -0.010099667 0.03392366 0.035846397 0.028724127 -0.016803576
0.021639692 0.027643003 0.023159377 -0.015424332 0.032979853 0.017885435 -0.015527764 -0.03358268
-0.045228552 -0.043534096 0.02106439 0.024893364 -0.0298256 -0.028848095 -0.017368069 -0.032540545
0.021774668 -0.017025525 -0.011597219 -0.022382738 0.008645495 0.03733652 -0.002210089 0.041489977
0.020219013 -0.008673437 0.0032558234 -0.0033899546 -0.023351489 0.02430461 0.021908533 0.013714228
0.009864579 -0.017031027 0.0144993495 -0.03165674 0.024402035 0.020255478 -0.018937763 -0.021890352
-0.021145865 0.0071134767 -0.0059037134 -0.0027778368 -0.014999386 -7.9476195e-05 0.020245573 -0.011108578
-0.025975294 0.025321037 0.02939087 0.014991736 0.011389573 -0.025615638 0.031634413 -0.013830007
-0.004946666 0.011746518 -0.025495548 -0.008952306 0.023113357 0.022632232 -0.00020406688 -0.0015260772
-0.0034779008 -0.024660395 -0.0012498191 0.013950316 -0.003986029 -0.036180153 0.00291649 -0.002429231
-0.0075431247 0.03350016 0.018858772 0.021489369 -0.011585263 -0.0021165875 -0.0016923021 0.018173283
-0.03239727 0.0016565012 -0.01719986 0.028841339 -0.016466282 -0.04138766 -0.01788099 0.017019348
-0.03477291 -0.0029207112 -0.042676523 0.02050041 -0.027030652 -0.008498457 -0.002168677 -0.023119383
0.014714142 -0.036418445 -0.004991765 -0.027885593 0.0047973082 -0.017713675 0.015537558 0.012445228
0.042977393 -0.029016621 -0.023081286 0.014075095 -0.009470539 -0.019735 0.020562526 -0.019543337
0.0038995666 -0.018755319 -0.005823351 0.0033725488 -0.033285826 0.011514493 -0.031552967 1.0128058e-05
-0.021570096 -0.037051678 -0.020143919 -0.034253825 0.008487662 -0.027908264 0.010226058 -0.013488846
-0.007803213 0.021834858 0.016711907 0.02619022 0.017486297 0.027763141 0.03255658 -0.015624809
0.017836964 0.034743384 0.0032937906 -0.015159819 -0.014387207 0.012243869 0.0061151963 0.0016339567
-0.028263856 -0.008112861 -0.023975117 0.013997841 0.03377099 -0.0048819208 -0.0042078705 0.01157406
0.035020147 0.0364502 0.0005163371 0.02016345 0.032634184 0.0054758545 0.009067948 -0.009964597
0.034222715 0.021576388 -0.011426321 0.030852076 -0.023247616 -0.025302438 -0.03157212 -0.015351258
0.014568139 0.0019337652 0.026706154 0.033180073 0.030621916 -0.018412821 -0.014103051 0.0016670952
0.021568602 -0.01351886 -0.02595172 0.003190457 -0.022246046 -0.028091487 -0.0051950356 -0.030557334
0.00784934 -0.013107926 0.017777668 -0.021618173 -0.014436972 0.014625156 0.0006443852 -0.013624017
0.003400054 -0.008735634 -0.030031959 0.031491414 -0.024828825 -0.02933754 -0.029126642 0.0017288208
-0.010216468 -0.0167028 -0.013637372 0.005340765 0.021921387 -0.0030381873 -0.001538328 0.038224086
0.0062670307 -0.028905252 -0.012189963 0.03550139 0.013659933 -0.029965693 0.0006679626 0.029823497
-0.022441873 -0.03729554 -0.028023439 -0.011082526 0.027665956 0.02977985 0.03528884 0.014782498
0.0121292155 -0.03275797 -0.027161822 -0.007084005 -0.01997462 0.034163415 -0.0004708254 -0.0042980323
00000000: 078f d03c c084 0bbd 7552 e2bc b662 5bbc
00000010: f349 f2bc db7c 8a3c 56c4 4abc 2446 e73b
00000020: 3683 f6bc 238d b93c 1943 5d3c b77a 9cbb
00000030: 3f84 09bd ad80 333b a6d4 97bc ffee 6cbc
00000040: fb91 e4bc f309 e83b 193d 893c 1379 25bc
00000050: 89f3 0a3d acd3 123d dc4e eb3c a7a7 89bc
00000060: b945 b13c 9473 e23c bcb8 bd3c 56b6 7cbc
00000070: e215 073d 7a84 923c 2a68 7ebc fe8d 09bd
00000080: 9341 39bd cf50 32bd 3a8f ac3c 2bed cb3c
00000090: d154 f4bc d752 ecbc 7b47 8ebc 3c49 05bd
000000a0: ca60 b23c 1d79 8bbc 4302 3ebc 015c b7bc
000000b0: d6a5 0d3c 2eee 183d 24d7 10bb 65f1 293d
000000c0: 58a2 a53c 081b 0ebc a75f 553b 002a 5ebb
000000d0: 9f4b bfbc 761a c73c 8679 b33c a4b1 603c
000000e0: 0b9f 213c a784 8bbc ae8e 6d3c 7faa 01bd
000000f0: c7e6 c73c d1ee a53c 5e23 9bbc 6553 b3bc
00000100: 183a adbc 2b18 e93b f073 c1bb 5e0c 36bb
00000110: fcbf 75bc 75ac a6b8 0bda a53c c100 36bc
00000120: 24ca d4bc 106e cf3c 1fc5 f03c e69f 753c
00000130: 559b 3a3c e3d7 d1bc 1693 013d 4197 62bc
00000140: a417 a2bb 7874 403c 0adc d0bc b1ac 12bc
00000150: 3958 bd3c 3b67 b93c c9fa 55b9 a706 c8ba
00000160: 7eed 63bb 9904 cabc f8d0 a3ba de8f 643c
00000170: 3c9d 82bb a431 14bd 9522 3f3b bc33 1fbb
00000180: 512c f7bb 7737 093d b67d 9a3c 790a b03c
00000190: 1dd0 3dbc 72b6 0abb 3cd0 ddba 23e0 943c
000001a0: 00b3 04bd f51e d93a b9e6 8cbc ac44 ec3c
000001b0: 4ce4 86bc 1b86 29bd 277b 92bc 296c 8b3c
000001c0: 0a6e 0ebd 6769 3fbb 94cd 2ebd 7af0 a73c
000001d0: 636f ddbc 1d3d 0bbc 5d20 0ebb dc64 bdbc
000001e0: 9613 713c 822b 15bd f691 a3bb 5470 e4bc
000001f0: bd32 9d3b 451c 91bc 3e91 7e3c 12e7 4b3c
00000200: 1009 303d 44b4 edbc f714 bdbc 3a9b 663c
00000210: 522a 1bbc 4bab a1bc be72 a83c 5919 a0bc
00000220: df8f 7f3b c1a4 99bc cfd1 bebb fb05 5d3b
00000230: b856 08bd 49a7 3c3c af3d 01bd aeeb 2937
00000240: c5b3 b0bc 80c3 17bd dc04 a5bc bd4d 0cbd
00000250: d60f 0b3c df9f e4bc 328b 273c 5200 5dbc
00000260: 18b2 ffbb 04df b23c 69e7 883c df8c d63c
00000270: 6c3f 8f3c 876f e33c 0c5a 053d 33ff 7fbc
00000280: d31e 923c 144f 0e3d a3dc 573b e460 78bc
00000290: 52b8 6bbc 829a 483c fc61 c83b 7d2a d63a
000002a0: 9a89 e7bc ceeb 04bc 7767 c4bc 3357 653c
000002b0: 7353 0a3d 85f8 9fbb 2de2 89bb 20a1 3d3c
000002c0: 4971 0f3d ce4c 153d cc5a 073a d22d a53c
000002d0: 6cab 053d cc6e b33b bb91 143c 8d42 23bc
000002e0: 1e2d 0c3d f7c0 b03c 7735 3bbc 7ebd fc3c
000002f0: c971 bebc 0f47 cfbc c451 01bd d883 7bbc
00000300: 34af 6e3c 6576 fd3a ddc6 da3c d4e7 073d
00000310: d0da fa3c 7cd6 96bc 7c10 67bc 6f82 da3a
00000320: a3b0 b03c 357e 5dbc b498 d4bc fc16 513b
00000330: 573d b6bc 1e20 e6bc 1e3b aabb 6053 fabc
00000340: 859a 003c a0c2 56bc 79a2 913c 9818 b1bc
00000350: 0d89 6cbc 5a9e 6f3c f5eb 283a 4537 5fbc
00000360: 71d3 5e3b e81f 0fbc 9505 f6bc 24fd 003d
00000370: d265 cbbc 4855 f0bc ff9a eebc 9a99 e23a
00000380: f962 27bc 4fd4 88bc 496f 5fbc 9601 af3b
00000390: 7b94 b33c 531c 47bb b9a1 c9ba dc90 1c3d
000003a0: aa5b cd3b b5ca ecbc 69b8 47bc e869 113d
000003b0: e9cd 5f3c 9d7a f5bc 361a 2f3a 6850 f43c
000003c0: 05d8 b7bc 35c3 18bd 6991 e5bc 7c93 35bc
000003d0: b7a3 e23c dff4 f33c 088b 103d 4a32 723c
000003e0: 9eb9 463c 392d 06bd 7882 debc f120 e8bb
000003f0: d0a1 a3bc f0ee 0b3d 1ed9 f6b9 82d6 8cbb

net.4.bias f4 [3]
0.005651438 0.023326868 0.0039201933
00000000: b32f b93b fd17 bf3c f774 803b
