checkpoints/srcnn_epoch8_2025-03-20_23-02-04.pth (torch, 280002 bytes, 6 tensors)

net.0.weight f4 [64, 3, 9, 9]
00000000: 6c70 003d fce9 a6bc c783 f93c 8ece 4a3d
00000010: 5429 66bd f998 893c 3002 073d 44d9 b1bc
00000020: afda e2bc adeb 2f3c 69b8 28bd 4048 d2bc
00000030: c92d 86ba 5cb2 05bd dfda cc39 38a0 703d
00000040: 83bc 8e3d ed79 59bc c4a2 32bd 7a52 0ebc
00000050: 3c1a 013b e8b8 673d 7499 81bc 9a3c 16bd
00000060: fff9 7b3d e622 033d af28 773d e383 ba3c
00000070: a273 1abd 8c2f 76bd 2ef5 5c3d 599a 39bd
00000080: a820 66bc 32b5 2ebd a209 843d 59a8 4ebd
00000090: c578 41bc cb24 533a e705 c5bb 7949 cdbc
000000a0: 7363 7fbc 3d9b 863d 4feb f0bc c4c3 edbc
000000b0: 41bc 243d 0060 8c3d 946b 59bd 1891 0b3d
000000c0: c441 533c d9c7 b93c 3943 e1bb e2a3 83bc
000000d0: 994b 5cbd 005b 753d 3d3d 803d 45d7 e2bc
000000e0: c293 8a3d 83ff 14bd a0d7 413d 5f1d 8e3d
000000f0: c4f4 1c3c c184 77bb cf3a 6b3c 47b7 1c3d
00000100: bbb4 873d 091a 23bc d730 833d 2f8e 5ebc
00000110: 2046 b1bc 16b3 023d 95ff 1abd 4297 3bbb
00000120: bb04 dfbc c2b1 2fbd 2092 23bd 7942 42bd
00000130: b6d2 373d 9cfc 24bc 5c16 63bd a13a a43c
00000140: 5a4c debc 4d67 08bd 37df 8dbc 983b 17bd
00000150: 32c1 8b3c ca0d 60bd 6341 693c cf86 33bc
00000160: d134 b2bc 2ef0 493d ffa3 69bc 4448 48bd
00000170: 81d6 cd3b 3c1d 61bd 2dda 55bd 587d babc
00000180: 9205 133d aab4 063c 0d8b 163c bcd2 873d
00000190: d98c 3d3d fb71 883d ad8f 57bd 1b3d 69ba
000001a0: 98bf 573d 1d57 28bd 6150 57bd 41f2 fa3c
000001b0: 42bd 45bd 3bd5 bcbb 00e8 42bd 2f7f babc
000001c0: 237b 263d 18bd f03c b658 273c a1fe 81bc
000001d0: 4c10 63bd bd05 233d 6b70 033d eded 58bc
000001e0: 6877 45bd 6ad4 5a3d f7d7 57bd 2cb4 693d
000001f0: 71b5 f5bc 5fb7 45bc b61b 0bbd 0d24 c2bc
00000200: ccaf 21bd f717 d9bc aa53 3f3d eb1d 1bbd
00000210: 2978 113b 5165 ed3c e7fa 423d 5e67 23bd
00000220: 1de9 b1bc 96d3 3ebc de7f 733d 794c 25bb
00000230: 47f6 6c3d 1af7 263c 8f0d 15bd 4a19 48bd
00000240: b4fb 3b3d 532d 483d 9a37 11bc 0a2a 66bd
00000250: fcb7 ac3a 97fa febc e245 1b3d a7ed 64bd
00000260: 3081 a03c 01a0 573a 741a edbb e778 45bd
00000270: 523d 36bd 7235 5d3d dc2e 2dbd a640 c0bc
00000280: f27f a5bc d5a4 7d3c b694 1abd bde2 d03c
00000290: 1c38 b23c 899f 00bd 7139 0d3d cbea 95bb
000002a0: 5f56 213d d24b 22bc d51e 05bd 902d 893d
000002b0: c47b 51bd de2d cabc 7de0 60bd eed6 773d
000002c0: 6f0c 24bd e38d 043d c971 58bd 2877 143d
000002d0: da79 083d 527f 783d 379d 23bd a313 993c
000002e0: aeb7 913d 0ed4 863d aa42 893d 2a7f 153d
000002f0: caf8 3fbc d138 4d3c 4365 41bd 9b05 22bc
00000300: 9139 543c a548 603d 1ee2 febb fbcb 503d
00000310: 257d 783d 07b6 df3c 0998 7b3d 94e7 813d
00000320: 2d9f a53c af09 4a3d 1c2f 16bc 9117 8ebc
00000330: 5979 b23c 6d12 4e3c b7b7 3bbc 5a86 67bd
00000340: cecf 5bbd d165 c8bc 6eec 54bd 2c55 463c
00000350: b8da 50bd a5a8 93bc f389 a7bc ce09 073d
00000360: e43d 8d3c 4711 913c 1136 143c 2772 e7bc
00000370: e36a 673d 9a97 2a3d 493b 7a3d ae8a fabc
00000380: c544 ddbc 5cfa 763d bbe9 5fbd e1ae 0e3d
00000390: d79d 15bc 1415 66bd 35b0 6abc 07dc 96bc
000003a0: ae6e 7abc 16b6 43bd 6c10 1bbd 59ca f93c
000003b0: 10f6 3a3d b5b0 2cbc ac14 84bc 46eb 72ba
000003c0: 2c45 403d d3f7 5dbd 16f2 2d3d ef10 a33c
000003d0: fa81 50bd 17e0 393d e433 7f3d 9639 1e3c
000003e0: 771b 52bc 8242 713d 7497 37bd 0c5a 8ebc
000003f0: 0e89 f5bb f507 1dbd b536 ab3c 51d7 ffb7
0.031357214 -0.020375244 0.030458344 0.049513392 -0.056191757 0.016796576 0.03296107 -0.021710046
-0.027692167 0.010737342 -0.041191492 -0.025669217 -0.0010237034 -0.0326408 0.00039072984 0.058746547
0.069695495 -0.013273698 -0.043612257 -0.008686656 0.0019699475 0.056572825 -0.015820242 -0.036678888
0.06151771 0.032015704 0.060341533 0.022767967 -0.037707932 -0.060103938 0.05394476 -0.045313213
-0.014045872 -0.04265327 0.0644715 -0.050453518 -0.011808579 0.0008054494 -0.0060126665 -0.025059449
-0.015587675 0.06572578 -0.029409079 -0.029024012 0.040218595 0.06854248 -0.05308111 0.03407392
0.012894098 0.022678303 -0.0068744686 -0.016069356 -0.053783033 0.059901237 0.0626168 -0.02769054
0.06766464 -0.036376487 0.047324777 0.06939196 0.009579841 -0.0037768336 0.014357283 0.038260724
0.066262685 -0.009954938 0.064058 -0.013583704 -0.021639884 0.03190907 -0.0378414 -0.0028624092
-0.027223935 -0.042894132 -0.039934278 -0.047426675 0.044878684 -0.010069992 -0.055441245 0.020047488
-0.027136017 -0.03330164 -0.017318351 -0.036922067 0.017059896 -0.05470065 0.014236781 -0.010957434
-0.0217537 0.04930132 -0.014260291 -0.048897043 0.0062816744 -0.05495952 -0.05221002 -0.022764847
0.035893984 0.008221785 0.009188426 0.06631991 0.0462769 0.06662365 -0.052627254 -0.000889735
0.052672952 -0.041098703 -0.05256689 0.030633094 -0.048276193 -0.0057627237 -0.047584534 -0.022765724
0.040644776 0.029387042 0.010214021 -0.015868487 -0.055435464 0.039800394 0.032089632 -0.01324032
-0.048209578 0.05342523 -0.052696194 0.05705659 -0.029993745 -0.012067645 -0.033961974 -0.023698831
-0.039474294 -0.026500685 0.046710648 -0.03787033 0.0022196865 0.028978975 0.04760256 -0.0398935
-0.021717602 -0.011647126 0.059448116 -0.0025222583 0.057852056 0.01019075 -0.036389884 -0.048852243
0.04589434 0.04887135 -0.008863354 -0.056192435 0.001317739 -0.03112535 0.037908442 -0.055890705
0.019592851 0.00082254416 -0.0072358195 -0.048211005 -0.044492073 0.054006048 -0.042281017 -0.023468327
-0.02020261 0.015481194 -0.037739478 0.025498742 0.02175527 -0.031402145 0.03447861 -0.0045751086
0.03938901 -0.009905772 -0.032500107 0.066981435 -0.051143423 -0.024680074 -0.05490159 0.060507707
-0.04005092 0.032361876 -0.05284289 0.03624645 0.03331933 0.060668297 -0.039944854 0.018686121
0.07115112 0.06583415 0.06702168 0.036498226 -0.011717031 0.012525753 -0.04721571 -0.009889032
0.012953178 0.05475678 -0.00777842 0.05097578 0.060666222 0.027308477 0.06142429 0.06342998
0.020217502 0.04932564 -0.009166505 -0.017345222 0.021786379 0.012577635 -0.011457375 -0.056524612
-0.053664975 -0.024462612 -0.05198329 0.0121052675 -0.050989836 -0.018024752 -0.020451522 0.032968335
0.017241426 0.017708434 0.009046094 -0.028252674 0.05649842 0.041648485 0.061091695 -0.030583706
-0.02701033 0.060297355 -0.054666262 0.034834746 -0.00913187 -0.056172445 -0.014324238 -0.018415464
-0.015285177 -0.047781073 -0.037857458 0.030491995 0.04564482 -0.010540177 -0.016123138 -0.0009266626
0.046940967 -0.05419142 0.0424672 0.019905536 -0.050905205 0.045379724 0.062305346 0.009657284
-0.012823931 0.058901317 -0.04482217 -0.017376922 -0.007493145 -0.038337667 0.02090011 -3.0498633e-05

net.0.bias f4 [64]
00000000: 3479 6e3d 1d9e a63c 8ce2 683d f718 833c
00000010: e81f 633d a233 2a3d 9899 f63c 0dba cf3c
00000020: be7a 313d 66dc 4ebd 4d85 9d3c a3f0 cfbc
00000030: c6e1 06bc 3382 5839 0a22 17bd 448c 21bc
00000040: 94b4 2dbd 4a3f 853a 752d 673a 9586 21bd
00000050: baf1 36bd b50c 063d 41dc 9eba cd08 633c
00000060: 88f1 1f3d 7d46 f63b 0fc1 05bd 3562 4b3c
00000070: 6b67 4b3d 1938 543c 5cb0 5f3d 3b85 863c
00000080: 99cb aabc d5da a03c 4e2e 63bd 3066 e1bc
00000090: 37e1 103d da1f ec3c 138e 5c3d afb7 283d
000000a0: 4517 033c 3509 f1bb f4bc 0ebd e346 48bd
000000b0: 42e3 eabc 009e 803d 59f8 12bd e0a3 813d
000000c0: 25db e5bb f225 183d c50e 6fbd 5d45 403d
000000d0: 0f2b 6ebd 9a29 20bc 39fa e4bb d7c9 913c
000000e0: 59bd 473d 82d0 48bd 6739 033c 9018 2b3c
000000f0: 0dd7 823d 25d2 d73c 3abd 143d 87fd 7ebc
0.058221057 0.020339066 0.056856677 0.016003115 0.05545035 0.041553147 0.030102536 0.02535727
0.043329947 -0.050503157 0.019228602 -0.0253833 -0.0082325395 0.00020647868 -0.036897697 -0.009860102
-0.04240854 0.0010165956 0.00088187243 -0.039434988 -0.044664122 0.032726962 -0.0012120084 0.013857079
0.0390487 0.007515727 -0.03265482 0.012413551 0.049659174 0.012952828 0.05461155 0.016420951
-0.020849036 0.019635597 -0.05546408 -0.027514547 0.03537103 0.028823782 0.05384643 0.0411908
0.008001153 -0.007355834 -0.03484817 -0.048895728 -0.028672818 0.06280136 -0.035881374 0.06330085
-0.0070146495 0.037145562 -0.058363695 0.04694115 -0.058146533 -0.009775544 -0.0069878367 0.01779644
0.04876456 -0.049026974 0.008009291 0.010442868 0.06388674 0.026345322 0.036313273 -0.015563375

net.2.weight f4 [32, 64, 5, 5]
00000000: 50b4 88bb d119 833c e1ee d7ba 7aa4 bdbc
00000010: df43 9d3c f583 7e3b dd84 e83b 2649 eebb
00000020: ae5c 3d39 2b39 65bb 3015 38bc 883c ba3c
00000030: bd3d 353c fbc8 c6bc a8bb 26bc 444a 88bb
00000040: d7d5 163c 3408 01bc 9447 303c 2bb4 b53c
00000050: 8741 37bc c77e 4d3c 7d58 933c 8db2 e6ba
00000060: 3da9 6d3c b86f 87bc c48f c23c 6534 bd3a
00000070: 9a5a 433a 2997 a4bc eb65 b3bc d354 6c3c
00000080: a877 e9bb d716 9a3c d676 bcbb f45c ee3b
00000090: 71b8 593c 5403 cdbc 4553 1dbc be36 9c3c
000000a0: 03d5 b0bc 4145 103b 2edf 73bc 5486 b8bc
000000b0: 6237 013c 3045 2c3c 0699 e7bb 5c81 d53b
000000c0: 407b 9ebc ac36 893c b88c 203c c092 95bb
000000d0: 6aec c73b 2d0b 69bc d28e 4c3b 8050 2cbc
000000e0: 1029 be3c 490e 64bb eac7 223c 5b18 8c3a
000000f0: 909f 9c3b 5615 2cbc 9d88 703c 444f bc3c
00000100: 9d14 27bc fd35 df3b 81e1 b9bb 3df2 c73b
00000110: 96cc 08bc d997 05bb 8089 b33c bc9f 06ba
00000120: cbe2 973b d46a 99bb 1541 a73c e758 82bb
00000130: d781 693c 2c60 e6bc 2814 48bc 47c9 8abc
00000140: 7b52 983b 2c36 833c 17b1 f1bc 6f43 4dbc
00000150: 69a3 52bc 484e f0bb a0df ebbc 9332 763c
00000160: bc8e c13a ddf0 94bc 7250 903c 81bb 70bb
00000170: b0b8 7ebc 3aa3 5abc 6f13 11bc 5780 cebc
00000180: 5fc6 0fbb 4caa 9dbc 19f7 3a3c 3dad 3f3c
00000190: 5c80 1b3c 8de4 be3c 275f 943c 133d 83bc
000001a0: 73e9 f63b d69e b0bc 6ea6 19ba 35cf 98ba
000001b0: 62fc acbc 39c6 913b 19b6 89bb ea8b b6bc
000001c0: c99a 0fba bdf8 b03c 0d54 a73c 66b4 abbc
000001d0: 543b 323c a460 9ebc b634 c03c 6e69 c33c
000001e0: 2464 b33c 0075 44bc ad17 d3bb 18a3 a8bb
000001f0: b632 923c c3c8 c9bc a9d5 bfbc bd8e 9d3c
00000200: 249f d2bc 355c 32bc 2e1a b73b 7ae4 613a
00000210: 2308 c5bc bd36 163c 8aa8 90bc 2f65 4e3c
00000220: 0e16 be3c a5f7 933c fe31 953b 1bd5 bb3b
00000230: b5e5 a1bc ca1c 95bc 24a8 f13b 536a d3bc
00000240: 8c2c 89bc 04c6 b83c 8120 bb3c 2107 c5bc
00000250: 520e 19bc 7692 4e3b 1522 9a3c 8b69 d43b
00000260: 7106 a9bc 6cda c03c 9e36 43bc 89a7 2fbc
00000270: 179f 483c a01f 533c ab94 1fbc e52f ba3b
00000280: d47b b8bc 31ea c3bc 1c52 89bc c4e7 b3bc
00000290: 6c77 6fbc 2c48 babb 24fb 85bc 0e3e bfbc
000002a0: 0eeb 1e3c c0f7 b7bc 85af 6c3c 2bc8 033c
000002b0: f472 d6bc c22b abbc 8cda b03c 25b3 84bc
000002c0: 318f a13c 9ca6 9e3c 2263 ba3c d1dc 9d3b
000002d0: 1ca4 963c 3e3c 6cbb 48a7 9cbc b227 b0bc
000002e0: 9caa 0ebc 8b82 68bc 6f35 4f3c 9127 703c
000002f0: a7f7 adbb 6eda 7b3c 6693 7b3c 5485 edba
00000300: 96b7 80bc a9ea 0d3a 52fa ac3b 1fa5 f6bb
00000310: 0fde 823c e131 0ebc 0fbe c63b 9079 b83c
00000320: ca51 c0bc 3633 2ebc b58f 27bc 9c03 923c
00000330: c20c 363b 5785 81bc b1ee 873c 5a9c ec3a
00000340: 9cee 18bc 99a8 093b c269 0b3b 8385 aabb
00000350: 0241 06ba 62d6 5e3c 3792 debb bf89 ec3b
00000360: 2dd1 48bb 1607 e4bb 5201 f53b f12e a43b
00000370: 8e80 e4bb 05ea 773c eda5 85bc 0de5 8a3c
00000380: fac4 e23b 159f 993c 59ce 713b 0f3d 813c
00000390: 6c93 51bb 424e 2bbc b828 bf3c 2c66 d2bc
000003a0: b234 0ebc 0499 d2bb 7404 b93c 3433 7abc
000003b0: 2490 98bc 859d c1bb f7f9 18ba 9f0a 9fbc
000003c0: 9cb1 a9bb 3b12 c73b e151 2a3c 0b72 0dbc
000003d0: 97ef 29bc 9ff6 22bc bcf8 8bbb b42f 873c
000003e0: 3821 b33c 0c22 7c3c b5cc e43b a27c 993c
000003f0: c0b1 2cbb 9874 1e3c 43b9 883c 4638 ceba
-0.0041718856 0.016003521 -0.001647439 -0.023149718 0.019197403 0.0038835977 0.0070959167 -0.0072719036
0.0001805897 -0.0034976702 -0.01123552 0.022733942 0.011062083 -0.024265757 -0.010176577 -0.004159244
0.009206257 -0.007875491 0.010759253 0.022180637 -0.0111850565 0.012542433 0.01798653 -0.001760082
0.014505682 -0.016532764 0.023750193 0.001443517 0.00074521604 -0.02009161 -0.021899184 0.014424521
-0.00712486 0.018809719 -0.005751471 0.0072742645 0.013288603 -0.025026001 -0.009602373 0.019069072
-0.021585947 0.0022013935 -0.014884753 -0.02252499 0.007886739 0.010514542 -0.0070678024 0.006515665
-0.01934588 0.016749702 0.009799175 -0.004564613 0.006101181 -0.014223856 0.0031213057 -0.01051724
0.02321294 -0.0034798554 0.009935359 0.0010688411 0.0047797635 -0.010503134 0.014681009 0.022987016
-0.010197786 0.006811856 -0.005672634 0.006101875 -0.008349558 -0.0020384698 0.021916151 -0.00051354966
0.00463519 -0.0046819244 0.020416776 -0.003977883 0.014252148 -0.02812203 -0.012211837 -0.01694168
0.0046485043 0.016017042 -0.029503388 -0.012528284 -0.012856343 -0.0073335506 -0.028793156 0.015026706
0.001476727 -0.018181259 0.017616484 -0.0036732855 -0.015546963 -0.01334458 -0.008854731 -0.025207682
-0.0021938307 -0.019246243 0.011411452 0.011699018 0.0094910525 0.02330234 0.018111778 -0.016020333
0.0075351535 -0.021560114 -0.0005861287 -0.0011658432 -0.02111644 0.004448679 -0.004202616 -0.022283513
-0.0005478082 0.021602983 0.02042582 -0.020960044 0.010878403 -0.019333191 0.023462635 0.023853984
0.021898337 -0.011990786 -0.0064420314 -0.0051463954 0.017846446 -0.024631863 -0.02341731 0.019233102
-0.02571065 -0.010886242 0.0055878377 0.00086171145 -0.024051731 0.009168324 -0.01765849 0.012597366
0.023203876 0.018062422 0.0045530787 0.0057321913 -0.019762853 -0.018202204 0.0073747803 -0.025807535
-0.016744874 0.022555359 0.022842648 -0.02405125 -0.009341793 0.0031520403 0.01881508 0.0064823083
-0.020632954 0.023541652 -0.011914877 -0.010721096 0.012244961 0.012885958 -0.009740035 0.005681979
-0.022519983 -0.023915382 -0.016762786 -0.0219611 -0.014615875 -0.005684873 -0.016355105 -0.02334502
0.009699596 -0.022457004 0.014446144 0.008043329 -0.02617786 -0.020894889 0.021588586 -0.016198704
0.0197216 0.019366555 0.022752348 0.004817583 0.0183888 -0.003604665 -0.019122735 -0.021503303
-0.008707669 -0.01419128 0.012647017 0.014657871 -0.0053090635 0.015371902 0.015354967 -0.00181214
-0.01571254 0.000541369 0.005278864 -0.007527008 0.015975026 -0.008678884 0.006065137 0.022518903
-0.0234765 -0.010632327 -0.0102271335 0.017823987 0.00277786 -0.015810652 0.01659331 0.0018051967
-0.009334233 0.0021005033 0.0021272753 -0.005203904 -0.0005121381 0.0136009175 -0.0067923325 0.007218569
-0.0030642257 -0.0069588525 0.007476964 0.0050104787 -0.0069733327 0.015131478 -0.016314471 0.016954923
0.006920454 0.018752614 0.0036896674 0.015776185 -0.003197874 -0.01045567 0.023334846 -0.025683485
-0.008679556 -0.0064269323 0.022585131 -0.015270997 -0.01862342 -0.0059086704 -0.00058355875 -0.019414244
-0.0051786434 0.0060751713 0.010395498 -0.008633147 -0.010372064 -0.009946494 -0.004271595 0.016502239
0.021866426 0.015388977 0.006982411 0.018736187 -0.0026351064 0.009671353 0.016689902 -0.0015733324

net.2.bias f4 [32]
00000000: 18cc 7f3b d01f ac3c b898 8a3b 97e4 373c
00000010: 8088 183c 2e37 69bc df6e 40bc 3b13 cc3b
00000020: ed91 3d3b b7b9 82bc cb13 56bb e6e5 ac3b
00000030: ec07 173c 67f3 f9bb c475 8abc d79f 9e3c
00000040: db03 e1bb b278 233b 8739 b63c 57c0 923c
00000050: edb1 803c 279f 8dbc 5b7f 94bc 4ddc b03c
00000060: 5f80 713c fb7a afba f172 99bc 4229 b13c
00000070: d46e 973a d741 b9bc 8621 283c 950f afbc
0.0039031561 0.021011263 0.0042296313 0.011223934 0.009309888 -0.014234347 -0.011745184 0.0062278784
0.002892609 -0.015957696 -0.0032665606 0.0052764295 0.009218197 -0.007627893 -0.016901858 0.019363327
-0.0068669147 0.0024943766 0.022244228 0.01791398 0.015709842 -0.017287804 -0.018127134 0.021589423
0.014740079 -0.0013388091 -0.018731566 0.021626119 0.0011553415 -0.022614403 0.010261899 -0.021369735

net.4.weight f4 [3, 32, 5, 5]
00000000: 078f d03c c084 0bbd 7552 e2bc b662 5bbc
00000010: f349 f2bc db7c 8a3c 56c4 4abc 2446 e73b
00000020: 3683 f6bc 238d b93c 1943 5d3c b77a 9cbb
00000030: 3f84 09bd ad80 333b a6d4 97bc ffee 6cbc
00000040: fb91 e4bc f309 e83b 193d 893c 1379 25bc
00000050: 89f3 0a3d acd3 123d dc4e eb3c a7a7 89bc
00000060: b945 b13c ae2e f23c 231d c83c e340 5ebc
00000070: 1960 083d 844a 933c cf5f b5ba f98c abbc
00000080: 6300 0abd 407a 07bd 453f ff3c 83ee d43c
00000090: 2342 f0bc 3d2b e6bc 2269 8abc b59e 04bd
000000a0: bc18 773c a7a8 c4bc 11ed 91bc c5ab edbc
000000b0: 9258 0d3b 6f2f ea3c cd12 32bc 0689 0a3d
000000c0: c942 443c bbb7 89bc 6f6d 853b ff8f 40bb
000000d0: 11ca babc 59f9 c23c 0a83 b33c 9bd7 653c
000000e0: e025 243c 56b8 86bc ed92 683c f486 ffbc
000000f0: 9f0a c63c 4b64 a63c 29aa 98bc 3b75 b6bc
00000100: 0d14 acbc 05d4 f43b 5106 a8bb 0832 09bb
00000110: 5b8d 78bc 093e 6db9 67a1 a43c bd3d 32bc
00000120: 93c7 cebc 0b33 ce3c 447f ed3c d3cf 853c
00000130: c27d 593c 760f cfbc fe72 023d 51d6 6dbc
00000140: 9922 8ebb 80d3 563c 27dc cabc 78af 19bc
00000150: dbde b33c 33a7 bd3c 291e 7038 b653 e8ba
00000160: f4f3 4abb f16d d1bc c0b7 e239 7775 7c3c
00000170: 711f 4bbb 5bf4 09bd b96a 1b3b 4d28 a2ba
00000180: d4a6 d4bb 5991 073d 0cd5 a03c a136 a33c
00000190: 30d9 21bc 9d3c 1fba 00cc afba 64e3 ae3c
000001a0: 3147 ecbc dd04 263b 53ca 84bc f38c f23c
000001b0: 4af3 66bc ba18 1cbd 9a33 94bc 8933 943c
000001c0: 653a 0bbd 403e 1aba 8713 21bd 6256 b53c
000001d0: eb20 bebc e490 f1bb 0d7b 953a f154 99bc
000001e0: 9847 8b3c 34bd 06bd f398 92bb e6a3 d5bc
000001f0: ec4a ff3b edd2 0cbc b9b7 a33c 0120 843c
00000200: ef01 113d 5050 c5bc c5a1 93bc ad8f 6a3c
00000210: c5ac 29bc 3836 ffbc 4be1 b13c b7ab 6fbc
00000220: 4bbb 763b ef66 a4bc fb86 8dbc 7e8d 9d3b
00000230: 6d9d d0bc ea12 6c3c 606d f3bc b3f4 05bc
00000240: 448a 89bc 7c24 efbc ee20 8bbc 99f2 03bd
00000250: aad2 4b3a 5060 bbbc f7b5 2d3c cff9 54bc
00000260: 1efd fbbb 9e77 b33c ba86 8d3c cc2b d23c
00000270: 9dff 903c e604 e13c f592 043d 8629 77bc
00000280: 8500 8e3c 6912 0f3d a325 503b 2109 71bc
00000290: dc5c 68bc d638 503c 3483 dc3b c538 c73a
000002a0: 565a e4bc 41fd 03bc f317 c4bc 9fca 653c
000002b0: 6ff6 073d cd4e a8bb 10ac 8bbb deda 3c3c
000002c0: 71b6 103d 754f 153d e910 1c3a 9dda a53c
000002d0: 45d6 053d 29d4 bd3b 6bf9 113c e530 21bc
000002e0: bf45 0c3d 5649 b23c 1ad5 3dbc 26fd f63c
000002f0: aeaa bebc 5771 cfbc 80f9 00bd 41bd 7cbc
00000300: eb88 693c ae11 003b 7a44 db3c cea3 073d
00000310: b608 fc3c d262 96bc 8a8b 69bc d487 b13a
00000320: 51f7 b03c 4c55 58bc cc12 d2bc 2640 6e3b
00000330: 8305 b4bc 8b10 e2bc 82b4 53bb 3f46 f4bc
00000340: 0844 0d3c ba3e 48bc 67d5 913c d63c a4bc
00000350: 63c2 5fbc 8b9c 7e3c cc6b 8c3a f908 5fbc
00000360: 9c8e 5e3b 663b 0bbc 5635 ebbc 956b fd3c
00000370: b947 cbbc 9728 f4bc 6e49 f2bc 5a44 2c3b
00000380: b95f 35bc 3efe 71bc e4c7 2bbc a7bf 953b
00000390: 680c b53c be05 37bb 8bce 09bb 88c9 183d
000003a0: b50a b23b bdb9 ddbc 9fc8 44bc a1a9 0a3d
000003b0: d1bd 463c 8706 02bd f14f a93a 3a48 dc3c
000003c0: 1891 a9bc 09b5 0dbd b162 e9bc 7442 06bc
000003d0: 80c7 e23c 63b9 f43c 796f 123d 822f 493c
000003e0: e9d0 6e3c 6f14 fdbc 7882 debc f120 e8bb
000003f0: d0a1 a3bc f0ee 0b3d 41d9 f6b9 82d6 8cbb
0.025458826 -0.034062147 -0.02762721 -0.013390234 -0.029576277 0.016905239 -0.012375912 0.007057922
-0.030091863 0.022650307 0.013504767 -0.004775371 -0.033573385 0.002738993 -0.018534016 -0.014461278
-0.02790164 0.007081264 0.016752766 -0.010099667 0.03392366 0.035846397 0.028724127 -0.016803576
0.021639692 0.029563274 0.024427956 -0.013565275 0.03329477 0.017979868 -0.0013837757 -0.020941244
-0.033691775 -0.03307557 0.031158099 0.025992638 -0.029328411 -0.02809679 -0.016895834 -0.032377917
0.015081581 -0.024006201 -0.017813237 -0.02901257 0.0021567685 0.028587071 -0.01086874 0.033822082
0.011978813 -0.016811242 0.0040718834 -0.0029382703 -0.02280143 0.023800539 0.02191307 0.014028455
0.010018796 -0.01644532 0.014195186 -0.03119228 0.024174986 0.020311495 -0.018635826 -0.022272697
-0.021005655 0.0074715638 -0.005127706 -0.0020934362 -0.0151704205 -0.00022625191 0.020096494 -0.010878977
-0.025241649 0.025170824 0.028991349 0.01633445 0.013274612 -0.025275927 0.031847946 -0.014516429
-0.0043376205 0.013111949 -0.02476318 -0.009380214 0.021956852 0.023151016 5.7248548e-05 -0.0017725143
-0.0030968161 -0.02556512 0.00043242984 0.015408865 -0.0030994082 -0.0336803 0.0023714735 -0.001237163
-0.006489614 0.0330976 0.019632839 0.01992351 -0.009878442 -0.0006074401 -0.0013412237 0.021348663
-0.02884254 0.0025332489 -0.016209757 0.029608225 -0.014096091 -0.03810952 -0.018091012 0.01809098
-0.033991236 -0.000588391 -0.039325263 0.022135917 -0.023209056 -0.0073720086 0.001140447 -0.018717261
0.017001912 -0.032895282 -0.0044737994 -0.02607913 0.007790914 -0.0085952105 0.019985067 0.016128542
0.035402235 -0.024086148 -0.018021474 0.014316482 -0.010356133 -0.031153783 0.021713873 -0.014628342
0.0037648256 -0.020068614 -0.017276278 0.004808127 -0.025465691 0.014408806 -0.02971524 -0.008176017
-0.016789563 -0.029192202 -0.016983476 -0.03221378 0.0007775227 -0.022873074 0.010602466 -0.012999012
-0.007690086 0.021907624 0.017276157 0.02565565 0.01770001 0.027468156 0.03236671 -0.015085584
0.017334232 0.034929667 0.0031760714 -0.014711649 -0.014182296 0.012708863 0.006729508 0.0015199414
-0.027875107 -0.008055986 -0.023937201 0.014025359 0.033194 -0.005136347 -0.004262455 0.011526791
0.03533024 0.03645273 0.00059534475 0.020245844 0.032675046 0.0057931137 0.0089095635 -0.0098383175
0.034246203 0.021763485 -0.011586452 0.030150007 -0.023274746 -0.0253226 -0.03148794 -0.015425981
0.014253835 0.0019541788 0.02676605 0.0331152 0.030765872 -0.018357668 -0.01425446 0.0013544508
0.021602305 -0.01320393 -0.025643729 0.0036354153 -0.021975284 -0.027595779 -0.0032303636 -0.029818652
0.008622177 -0.012221986 0.017801953 -0.02004854 -0.013657185 0.015540252 0.0010713278 -0.013612979
0.0033959514 -0.008498048 -0.028711956 0.030935088 -0.024814473 -0.029804511 -0.02957603 0.0026285858
-0.011070185 -0.014770089 -0.010484669 0.004569966 0.022100642 -0.0027927007 -0.002102765 0.03730157
0.0054334053 -0.027066106 -0.012010722 0.033853177 0.012130217 -0.031744506 0.0012917501 0.026889909
-0.020699069 -0.034596477 -0.028489443 -0.008194555 0.02768302 0.029873556 0.03575084 0.012279393
0.014576175 -0.030893533 -0.027161822 -0.007084005 -0.01997462 0.034163415 -0.00047082643 -0.0042980323

net.4.bias f4 [3]
00000000: c7e5 b43b 7092 be3c 3efe 7f3b
0.0055205557 0.023263186 0.0039061452
