checkpoints/srcnn_epoch41_2025-03-20_23-02-04.pth (torch, 280012 bytes, 6 tensors)

net.0.weight f4 [64, 3, 9, 9]
000000 20 7c 05 3d c7 52 9f bc 88 66 ff 3c ae b5 56 3d
       0.032589078 -0.019448651 0.03117682 0.052419357
000010 8c f4 5e bd 62 db a1 3c 31 a2 17 3d 5f 7c 98 bc
       -0.054432437 0.01975793 0.037019912 -0.018613992
000020 eb 41 ce bc 9b fe 32 3c 80 01 26 bd d0 07 bc bc
       -0.025177917 0.0109249605 -0.040528774 -0.022952944
000030 51 65 1a 3b 55 b9 05 bd 40 2e 2d 3b d4 0b 7f 3d
       0.0023558924 -0.03264745 0.0026425272 0.06226714
000040 3d c1 8e 3d 58 a1 51 bc 00 55 33 bd 01 26 09 bc
       0.06970451 -0.012794815 -0.043782234 -0.008370877
000050 4e 1c 1d 3b b1 2b 69 3d 20 40 77 bc 63 fe 11 bd
       0.002397317 0.056926433 -0.015090972 -0.035642993
000060 dc 99 80 3d 2b 5e ea 3c c7 21 72 3d 72 56 bf 3c
       0.06279346 0.028609356 0.059114244 0.02335665
000070 d5 41 15 bd 5c ce 7a bd 8a 9e 57 3d 51 e7 2f bd
       -0.036439735 -0.061231956 0.05264143 -0.04294521
000080 10 a4 81 bc cb fe 2f bd ba 74 7d 3d af 42 51 bd
       -0.015825301 -0.0429676 0.061878897 -0.051088985
000090 04 e5 39 bc 5b 9b d9 3a ba fc b1 bb 9f ad c8 bc
       -0.0113461055 0.0016602086 -0.0054317387 -0.024496851
0000a0 67 34 36 bc e0 78 82 3d 02 96 ef bc 02 44 e9 bc
       -0.011120892 0.06370711 -0.029246334 -0.028474811
0000b0 31 91 28 3d 8e f2 8a 3d 4b cc 5e bd 56 ce 10 3d
       0.04115409 0.06784545 -0.054394048 0.035353027
0000c0 92 cf 60 3c 36 b9 e5 3c 5a 8c a4 bb a2 b8 74 bc
       0.013721364 0.028042417 -0.005021614 -0.014936598
0000d0 78 c0 59 bd dd 73 79 3d c0 9b 7e 3d 1e ad ea bc
       -0.053162068 0.06090151 0.062160254 -0.028647002
0000e0 08 fa 8e 3d b2 b7 0c bd ff 35 59 3d 43 48 98 3d
       0.069812834 -0.034354873 0.05303001 0.07435658
0000f0 e3 a1 34 3c 6a 55 a7 bb 7e 8e 6d 3c f2 e8 18 3d
       0.011024925 -0.0051066177 0.014499305 0.03733153
000100 00 63 85 3d b3 3d 18 bc 69 95 86 3d a4 00 44 bc
       0.065130234 -0.009292054 0.065714665 -0.011963043
000110 67 f3 a9 bc 47 82 ff 3c c2 9b 25 bd a7 36 64 bb
       -0.020745946 0.03119005 -0.040431745 -0.0034822614
000120 38 19 ec bc 40 31 37 bd 23 1f 27 bd ad 7b 3e bd
       -0.028820619 -0.044724703 -0.04080118 -0.046504665
000130 c9 21 35 3d 0f b9 41 bc 12 a2 68 bd 57 20 98 3c
       0.044221673 -0.011823907 -0.056795187 0.018570108
000140 36 80 df bc 4a 5a ee bc 64 dd 66 bc 4d 4b 10 bd
       -0.027282815 -0.029095788 -0.01409087 -0.035228062
000150 a2 81 a3 3c 70 24 5d bd f6 f8 7f 3c f0 bd f3 bb
       0.019959275 -0.053989828 0.015623322 -0.007438414
000160 11 e3 95 bc cc a2 59 3d 7d 01 39 bc 44 e5 3d bd
       -0.01829675 0.05313377 -0.011291859 -0.046361223
000170 e2 17 18 3c f8 c3 56 bd 4e 43 5d bd 0b 38 b9 bc
       0.009283038 -0.052432984 -0.054019265 -0.022609731
000180 ae 31 1e 3d 11 09 0c 3c d9 30 36 3c 3b 64 8c 3d
       0.038621597 0.0085470835 0.011120045 0.06855055
000190 3f 9e 44 3d 01 0b 89 3d f3 cc 5a bd 77 f2 e9 ba
       0.048002478 0.06691552 -0.05341811 -0.0017848749
0001a0 55 6b 56 3d 79 8b 1f bd 76 cd 5b bd cc ac 03 3d
       0.052348454 -0.03895137 -0.05366274 0.032147214
0001b0 75 d8 39 bd d3 3c 4f bb 55 a5 47 bd f6 30 cf bc
       -0.045372445 -0.0031621947 -0.048741657 -0.025291901
0001c0 58 fb 27 3d 8c bc d3 3c 40 8a 3d 3c f1 f8 74 bc
       0.041011184 0.025846742 0.011568606 -0.01495193
0001d0 6b be 59 bd 83 be 2f 3d 34 d8 0c 3d f0 a3 53 bc
       -0.053160112 0.042906296 0.034385875 -0.012917504
0001e0 d4 37 4d bd 88 2c 5b 3d e5 50 71 bd 21 da 6a 3d
       -0.05010207 0.053509265 -0.058915038 0.05733693
0001f0 5b c8 dd bc 3f 10 1c bc 3d 3b 02 bd 31 3c c5 bc
       -0.027073076 -0.009525358 -0.031794775 -0.024076553
000200 cb 76 23 bd e6 6e f9 bc b8 d4 37 3d b1 fe 2c bd
       -0.03990821 -0.030448388 0.0448806 -0.04223508
000210 88 49 07 3b 28 0d fc 3c c7 bc 4a 3d 8b e8 19 bd
       0.0020643193 0.030767992 0.04949644 -0.037575286
000220 ec d7 b4 bc 5e a5 3e bc cb 4a 68 3d 96 9b 54 bb
       -0.022075616 -0.011636106 0.056711953 -0.003244137
000230 87 cc 6d 3d c0 2d 3a 3c 3a f5 13 bd d3 e8 40 bd
       0.05805638 0.011363447 -0.03612254 -0.04709704
000240 95 a4 44 3d ad 77 49 3d 1a 7e 0e bc 2a 06 67 bd
       0.04800852 0.049186397 -0.008697057 -0.056402363
000250 a6 1a 33 3a 28 fc fe bc 2a 4f 1f 3d 6e 19 65 bd
       0.0006832279 -0.031126097 0.038893856 -0.055932455
000260 ed 37 b1 3c d7 e7 2e 3b 35 2e db bb 44 69 44 bd
       0.021633113 0.002668848 -0.006688858 -0.04795195
000270 06 37 2f bd 05 1a 60 3d a3 b2 2b bd 84 60 b4 bc
       -0.042777084 0.054712314 -0.041918408 -0.022018678
000280 a2 87 9a bc db 64 95 3c f4 37 1c bd 9c 75 ca 3c
       -0.018863503 0.018236568 -0.0381393 0.024714284
000290 e7 29 ab 3c dc 9e f1 bc 5a ac 0b 3d 01 d0 b8 bb
       0.020894004 -0.029494695 0.034099914 -0.0056400304
0002a0 e5 f7 20 3d 8d 80 41 bc dd fe 0d bd b4 35 86 3d
       0.03929891 -0.011810434 -0.034666885 0.06553212
0002b0 b4 26 55 bd 3e 9d ba bc 67 e3 51 bd 34 8e 77 3d
       -0.052038863 -0.022780057 -0.05124226 0.06043835
0002c0 aa 07 22 bd ca 3b 0a 3d bf d0 66 bd 05 0d 09 3d
       -0.03955809 0.033748426 -0.05635142 0.033459682
0002d0 56 05 00 3d 3d 10 76 3d d9 34 1d bd 35 8a b0 3c
       0.03125509 0.06007408 -0.038380478 0.021550277
0002e0 9c 7b 99 3d 14 f9 8d 3d b8 d1 91 3d d3 c9 0b 3d
       0.0749428 0.069322735 0.07120079 0.03412802
0002f0 c3 78 56 bc 41 40 38 3c c9 00 3c bd 01 cc fc bb
       -0.013090315 0.011245788 -0.045899186 -0.007714749
000300 1f 00 84 3c 55 83 7b 3d 6c 03 b5 bb e5 46 66 3d
       0.016113339 0.061404545 -0.0055240896 0.056219954
000310 d7 46 7c 3d 56 eb e0 3c 05 19 7a 3d 57 e3 85 3d
       0.061590996 0.027455967 0.061059017 0.06537502
000320 cf a4 c6 3c 99 c3 57 3d b5 17 8e bb bd 95 9c bc
       0.024248509 0.05267677 -0.004336322 -0.01911437
000330 66 fd ca 3c 9c 13 6f 3c 56 a3 3c bc 04 b6 67 bd
       0.024779033 0.014592078 -0.011513552 -0.056570068
000340 fa 4b 5c bd 56 85 b9 bc 8a 33 5c bd 8d cc 38 3c
       -0.053783394 -0.022646587 -0.05376009 0.011279237
000350 4b 99 5c bd 4e 6c 8d bc 00 fe a7 bc ed 0a 03 3d
       -0.05385713 -0.017263558 -0.020506859 0.03199284
000360 1b e1 93 3c b7 96 8e 3c 9e 27 1f 3c e2 19 fe bc
       0.018051675 0.01740585 0.009714035 -0.031018201
000370 d3 68 61 3d 14 e0 2c 3d 8b 9a 80 3d 44 9f 03 bd
       0.05503161 0.042205885 0.06279477 -0.03213431
000380 52 bd e3 bc 1e 73 7b 3d 10 20 5e bd 57 1f 12 3d
       -0.027800236 0.06138908 -0.054229796 0.03567442
000390 07 77 0e bc e1 f0 64 bd 80 21 52 bc 45 a7 89 bc
       -0.0086953705 -0.055893783 -0.01282537 -0.016803393
0003a0 6b 3d 8d bc 0b 9f 44 bd 87 7a 17 bd da 6e fd 3c
       -0.0172412 -0.048003238 -0.036982086 0.030936647
0003b0 83 d1 3d 3d c1 29 01 bc 45 31 60 bc 08 cf 6f 3a
       0.046342384 -0.00788349 -0.013683622 0.00091479765
0003c0 02 10 44 3d c0 84 64 bd a1 e7 2d 3d 50 30 a1 3c
       0.04786683 -0.055790663 0.042457227 0.019676358
0003d0 f7 fb 4e bd 4b 75 34 3d b5 42 81 3d 2b c5 37 3c
       -0.05053326 0.04405717 0.063115515 0.011216442
0003e0 43 01 4f bc 35 6f 79 3d e6 25 2f bd da 2d 81 bc
       -0.012634578 0.06089707 -0.042760752 -0.015768934
0003f0 b5 ba f9 bb 6b 42 1c bd ec 38 ba 3c 03 e1 ad 39
       -0.007621134 -0.03814928 0.02273222 0.00033164778

net.0.bias f4 [64]
000000 7d db 7c 3d dd b0 b7 3c 13 94 6c 3d 9b 50 90 3c
       0.061732758 0.022423202 0.057758402 0.01761656
000010 0f a9 66 3d 46 d8 28 3d 28 60 02 3d e9 31 e0 3c
       0.05631357 0.04122188 0.031829983 0.027367549
000020 9b 71 39 3d bb 6f 4b bd 10 ad ab 3c c8 26 99 bc
       0.04527436 -0.0496671 0.020956546 -0.01869525
000030 84 ca 41 bb b9 cc 25 3b 0a 06 16 bd 4c 5c 0e bc
       -0.0029570172 0.0025299026 -0.036626853 -0.0086889975
000040 ee c0 0c bd f3 42 ad 39 a9 5c 5b 3a 03 bc 21 bd
       -0.03436368 0.00033047012 0.00083679945 -0.039485943
000050 87 87 28 bd c4 dd 08 3d 00 15 5c 3b 8c 85 81 3c
       -0.041144874 0.033414617 0.0033581853 0.01581075
000060 ac cc 2a 3d bb 13 28 3c fb 60 ee bc 97 8a 4a 3c
       0.041699097 0.01025861 -0.029098978 0.012362144
000070 97 01 4f 3d b0 f6 56 3c 80 b3 5e 3d ad 93 87 3c
       0.050538626 0.013120338 0.054370403 0.01654991
000080 eb a2 94 bc 15 e6 a9 3c e8 d0 4c bd 2b 50 d0 bc
       -0.018144092 0.020739594 -0.050003916 -0.025428852
000090 a6 99 10 3d 2e d2 00 3d 69 69 5e 3d 3a df 25 3d
       0.03530278 0.031450443 0.054299746 0.04049609
0000a0 41 8e 18 3c d0 5b e1 bb f9 63 06 bd 82 3f 3d bd
       0.00931126 -0.0068774 -0.032810185 -0.046203144
0000b0 17 ad ce bc 53 6e 7f 3d d8 eb fe bc 6a 07 8b 3d
       -0.02522902 0.062361073 -0.031118318 0.067885235
0000c0 68 a9 77 bb e7 91 1b 3d 36 eb 69 bd 3b c4 57 3d
       -0.0037790183 0.03798094 -0.05710908 0.052677374
0000d0 21 ac 70 bd 99 93 1a bc b0 b9 c8 bb 7f 76 8f 3c
       -0.058757905 -0.009434604 -0.0061256513 0.017512558
0000e0 6d 08 52 3d 54 37 47 bd 5e 73 03 3c 83 66 29 3c
       0.051277567 -0.04863675 0.008023111 0.010339382
0000f0 27 99 66 3d 94 25 e3 3c ae 76 13 3d 37 88 69 bc
       0.0562984 0.02772788 0.036001854 -0.014253668

net.2.weight f4 [32, 64, 5, 5]
000000 34 d0 88 bb d5 10 83 3c d8 6a d8 ba 23 ab bd bc
       -0.0041752104 0.015999237 -0.0016511334 -0.023152893
000010 0e 3f 9d 3c af 68 7e 3b 17 76 e8 3b 84 53 ee bb
       0.019195106 0.003881972 0.0070941555 -0.0072731394
000020 13 6f 3c 39 51 50 65 bb 46 3d 37 bc 79 8e ba 3c
       0.00017970456 -0.00349905 -0.011184042 0.022773014
000030 36 96 35 3c 21 94 c6 bc 17 1d 26 bc ff 32 87 bb
       0.011083176 -0.024240555 -0.0101387715 -0.0041259523
000040 20 60 17 3c 16 80 00 bc 08 d2 30 3c c6 0e b6 3c
       0.009239227 -0.007843038 0.010792263 0.022223841
000050 03 7f 36 bc 21 6a 4e 3c b2 f7 93 3c e5 3c da ba
       -0.01113868 0.012598545 0.018062446 -0.0016650228
000060 fb 90 6f 3c b8 6f 87 bc c4 8f c2 3c c1 33 bd 3a
       0.014621968 -0.016532764 0.023750193 0.001443498
000070 2d 59 43 3a 29 97 a4 bc eb 65 b3 bc d3 54 6c 3c
       0.0007451948 -0.02009161 -0.021899184 0.014424521
000080 a8 77 e9 bb d7 16 9a 3c db 76 bc bb 28 5d ee 3b
       -0.00712486 0.018809719 -0.0057514734 0.0072742887
000090 71 b8 59 3c 54 03 cd bc b5 51 1d bc 25 37 9c 3c
       0.013288603 -0.025026001 -0.009602 0.019069264
0000a0 03 d5 b0 bc 6d 46 10 3b f7 de 73 bc 07 86 b8 bc
       -0.021585947 0.0022014633 -0.014884702 -0.022524847
0000b0 a9 3a 01 3c 30 45 2c 3c 06 99 e7 bb 5c 81 d5 3b
       0.007887521 0.010514542 -0.0070678024 0.006515665
0000c0 40 7b 9e bc b0 36 89 3c 73 89 20 3c ec 97 95 bb
       -0.01934588 0.01674971 0.009798395 -0.0045652296
0000d0 52 e6 c7 3b 7c 0f 69 bc 4a 7b 4c 3b 05 53 2c bc
       0.0061004544 -0.014224883 0.0031201416 -0.01051784
0000e0 16 28 be 3c ea 16 64 bb 9d c5 22 3c 7a 06 8c 3a
       0.023212474 -0.0034803697 0.00993481 0.0010683083
0000f0 02 b3 9c 3b b5 10 2c bc 6e 89 70 3c 4b 4f bc 3c
       0.0047820816 -0.01050203 0.014681203 0.022987029
000100 11 16 27 bc d9 53 df 3b 5b d7 b9 bb a3 f6 c7 3b
       -0.010198132 0.0068154153 -0.0056714243 0.0061023994
000110 f5 cb 08 bc ff 97 05 bb 4c a3 b3 3c 9a 6a 03 ba
       -0.008349408 -0.0020384786 0.021928452 -0.0005013138
000120 7f 46 98 3b cc fe 98 bb 1a 5c a7 3c 6c 70 82 bb
       0.0046470757 -0.004669046 0.02042966 -0.003980687
000130 8d 7c 69 3c 34 63 e6 bc 59 1b 48 bc ec ce 8a bc
       0.014250887 -0.028123476 -0.012213551 -0.016944371
000140 00 37 98 3b fc 33 83 3c cf b3 f1 bc f0 4f 4d bc
       0.0046452284 0.016015999 -0.029504685 -0.012531266
000150 c2 b1 52 bc 74 b5 ef bb 29 97 eb bc fa 7a 77 3c
       -0.012859764 -0.007315332 -0.028758602 0.0151050035
000160 af ab d0 3a 25 bc 93 bc 5d b4 90 3c 39 91 6e bb
       0.0015920306 -0.01803405 0.017664129 -0.0036402477
000170 7d 95 7d bc 73 4d 58 bc af d3 0d bc d8 be cd bc
       -0.015477535 -0.013202059 -0.008656426 -0.025115415
000180 6e 3c 0a bb 70 1d 9d bc ba c7 3b 3c 50 69 40 3c
       -0.0021093148 -0.019179076 0.011461193 0.011743858
000190 4f 80 1b 3c 8d e4 be 3c 27 5f 94 3c 13 3d 83 bc
       0.00949104 0.02330234 0.018111778 -0.016020333
0001a0 3c e9 f6 3b d6 9e b0 bc 24 ab 19 ba 9a d1 98 ba
       0.007535128 -0.021560114 -0.0005861989 -0.0011659146
0001b0 62 fc ac bc 03 c6 91 3b 8a b2 89 bb b6 8b b6 bc
       -0.02111644 0.0044486537 -0.0042021917 -0.022283416
0001c0 cf 87 0f ba bd f8 b0 3c 0d 54 a7 3c 44 b4 ab bc
       -0.0005475254 0.021602983 0.02042582 -0.02095998
0001d0 79 3d 32 3c fe 5f 9e bc ef 34 c0 3c 71 69 c3 3c
       0.010878914 -0.019332882 0.02346274 0.02385399
0001e0 44 64 b3 3c d1 73 44 bc 50 12 d3 bb 1e 9d a8 bb
       0.021898396 -0.011990503 -0.006441392 -0.005145683
0001f0 ea 32 92 3c c3 c8 c9 bc a9 d5 bf bc bd 8e 9d 3c
       0.017846543 -0.024631863 -0.02341731 0.019233102
000200 24 9f d2 bc 36 5c 32 bc 19 1a b7 3b ce e2 61 3a
       -0.02571065 -0.010886243 0.005587828 0.00086168654
000210 23 08 c5 bc b9 36 16 3c 8a a8 90 bc 4f 65 4e 3c
       -0.024051731 0.00916832 -0.01765849 0.012597396
000220 0e 16 be 3c b7 f7 93 3c f3 36 95 3b 66 da bb 3b
       0.023203876 0.018062456 0.0045536696 0.005732822
000230 b5 e5 a1 bc ca 1c 95 bc 4e a8 f1 3b 53 6a d3 bc
       -0.019762853 -0.018202204 0.0073748 -0.025807535
000240 89 2c 89 bc 04 c6 b8 3c 81 20 bb 3c 20 07 c5 bc
       -0.016744869 0.022555359 0.022842648 -0.024051249
000250 21 0d 19 bc b9 9c 4e 3b e1 21 9a 3c 78 68 d4 3b
       -0.009341509 0.003152652 0.018814983 0.00648218
000260 9b 06 a9 bc 41 da c0 3c 61 37 43 bc b4 a8 2f bc
       -0.020633033 0.023541572 -0.011915059 -0.010721374
000270 5b 9e 48 3c 04 1f 53 3c 5d 95 1f bc 1f 2e ba 3b
       0.012244786 0.012885813 -0.009740201 0.0056817676
000280 27 78 b8 bc ea e7 c3 bc 69 4f 89 bc c0 e4 b3 bc
       -0.02251823 -0.023914296 -0.016761499 -0.021959662
000290 44 69 6f bc de 37 ba bb 4d f9 85 bc 5a 3c bf bc
       -0.0146125 -0.0056829294 -0.016354227 -0.023344208
0002a0 24 ec 1e 3c 4e f7 b7 bc a0 be 6c 3c 3c d6 03 3c
       0.009699855 -0.022456791 0.014449745 0.008046683
0002b0 25 70 d6 bc 37 2b ab bc 02 db b0 3c 2b ca 84 bc
       -0.026176522 -0.02089463 0.021588806 -0.016209682
0002c0 69 71 a1 3c d9 88 9e 3c c4 45 ba 3c 92 81 9d 3b
       0.019707398 0.019352363 0.022738345 0.0048067058
0002d0 d7 95 96 3c 2c c2 6c bb f3 b6 9c bc 02 3a b0 bc
       0.018381996 -0.0036126478 -0.019130206 -0.021512035
0002e0 68 d9 0e bc 5e 08 68 bc b1 29 50 3c ee 64 72 3c
       -0.008718826 -0.014162151 0.0127052525 0.014794571
0002f0 8a aa a6 bb f7 22 80 3c e6 22 7c 3c 10 2e e6 ba
       -0.005086248 0.015641673 0.01538918 -0.0017561335
000300 88 89 7f bc 5f 55 3c 3a 25 08 b4 3b 19 a2 f5 bb
       -0.015596755 0.0007184352 0.005494135 -0.00749613
000310 ff 0e 83 3c df 76 0d bc ff a7 c8 3b 3d 0a b9 3c
       0.015998362 -0.008634298 0.0061235423 0.02258789
000320 58 52 c0 bc 98 34 2e bc a8 90 27 bc 4f 03 92 3c
       -0.023476765 -0.0106326565 -0.01022736 0.017823843
000330 99 06 36 3b 1b 86 81 bc 8c ed 87 3c 72 8e ec 3a
       0.0027774929 -0.015811017 0.016592763 0.0018047823
000340 a6 ef 18 bc aa a3 09 3b 6e c9 0b 3b 1d 63 aa bb
       -0.00933448 0.0021002092 0.0021329778 -0.0051998035
000350 7d a5 05 ba ad f3 5e 3c 04 34 de bb 79 ce ec 3b
       -0.0005098207 0.0136079015 -0.006781103 0.007226762
000360 22 36 48 bb c3 ad e3 bb 89 7d f5 3b 1a d6 a4 3b
       -0.0030549844 -0.0069482042 0.0074917716 0.0050304057
000370 bf 4d e4 bb 76 fd 77 3c 29 9c 85 bc 7d f2 8a 3c
       -0.006967276 0.015136113 -0.016309815 0.01696133
000380 6f 0c e3 3b 15 9f 99 3c 5b ce 71 3b 0f 3d 81 3c
       0.0069289724 0.018752614 0.003689668 0.015776185
000390 94 94 51 bb 7a 4e 2b bc b8 28 bf 3c 2c 66 d2 bc
       -0.0031979429 -0.010455722 0.023334846 -0.025683485
0003a0 b4 34 0e bc 2e 99 d2 bb 71 04 b9 3c 3c 33 7a bc
       -0.008679558 -0.006426952 0.022585126 -0.015271004
0003b0 24 90 98 bc 6f 9b c1 bb 64 b2 18 ba d1 07 9f bc
       -0.01862342 -0.0059084217 -0.0005824922 -0.019412907
0003c0 b9 b1 a9 bb 71 12 c7 3b fb 53 2a 3c c4 6c 0d bc
       -0.005178657 0.0060751964 0.010395999 -0.008631889
0003d0 f7 e8 29 bc 9f f6 22 bc c8 f8 8b bb b4 2f 87 3c
       -0.010370485 -0.009946494 -0.0042716004 0.016502239
0003e0 38 21 b3 3c 8f 23 7c 3c dd ca e4 3b c1 7b 99 3c
       0.021866426 0.015389337 0.006982191 0.018735768
0003f0 6f b9 2c bb de 72 1e 3c 5d b8 88 3c 06 3d ce ba
       -0.0026355644 0.009670941 0.016689474 -0.0015734739

net.2.bias f4 [32]
000000 86 d5 7f 3b 28 37 a9 3c 13 ea 85 3b 87 38 35 3c
       0.0039037182 0.020656183 0.0040867417 0.01106084
000010 e6 e1 20 3c 4d e4 71 bc 45 aa 3b bc c3 0d cc 3b
       0.009819483 -0.014763904 -0.01145417 0.0062272265
000020 4b 91 49 3b d8 50 84 bc e1 13 56 bb fd cc a7 3b
       0.0030756767 -0.01615183 -0.0032665657 0.005120872
000030 f2 15 3c 3c ff 04 d7 bb 70 6d 8a bc c0 19 9f 3c
       0.011479842 -0.006561875 -0.016897887 0.019421458
000040 0e 9f e3 bb 95 79 23 3b 92 df bc 3c e2 15 9d 3c
       -0.006946451 0.0024944295 0.023055825 0.019175474
000050 77 b0 89 3c 99 76 8c bc bb 9c 90 bc 3d 5a b7 3c
       0.016807778 -0.017146396 -0.01765286 0.022381896
000060 48 4d 72 3c 20 53 bf ba 94 fe 96 bc 75 94 c9 3c
       0.014788933 -0.0014596917 -0.01843194 0.024606923
000070 4e cc 0b 3b 88 b4 85 bc cc d5 29 3c 2d c7 ae bc
       0.0021331492 -0.016321436 0.010365915 -0.021335209

net.4.weight f4 [3, 32, 5, 5]
000000 07 8f d0 3c c0 84 0b bd 75 52 e2 bc b6 62 5b bc
       0.025458826 -0.034062147 -0.02762721 -0.013390234
000010 f3 49 f2 bc db 7c 8a 3c 56 c4 4a bc 24 46 e7 3b
       -0.029576277 0.016905239 -0.012375912 0.007057922
000020 36 83 f6 bc 23 8d b9 3c 19 43 5d 3c b8 7a 9c bb
       -0.030091863 0.022650307 0.013504767 -0.0047753714
000030 3f 84 09 bd a9 80 33 3b a6 d4 97 bc ff ee 6c bc
       -0.033573385 0.002738992 -0.018534016 -0.014461278
000040 fb 91 e4 bc f3 09 e8 3b 19 3d 89 3c 13 79 25 bc
       -0.02790164 0.007081264 0.016752766 -0.010099667
000050 89 f3 0a 3d ac d3 12 3d dc 4e eb 3c a7 a7 89 bc
       0.03392366 0.035846397 0.028724127 -0.016803576
000060 b9 45 b1 3c 34 ce a7 bb b3 6b ed 3c 5f 2b 08 bc
       0.021639692 -0.005121017 0.028982019 -0.008311122
000070 62 3b cc 3c e1 bb a2 3c 53 21 48 bd b1 80 06 bd
       0.02493066 0.019864978 -0.048859905 -0.032837573
000080 31 6e 29 bd d2 a1 68 bd 4f 69 4a 3c 13 02 1f 3c
       -0.041364852 -0.05679495 0.012354209 0.009705084
000090 ca 11 92 bc c6 6d 86 bc 89 1d 98 bc 28 ca 01 bd
       -0.017830748 -0.016409766 -0.018568771 -0.03168693
0000a0 1a a3 27 3b f7 1e 0c bc 9b fe 73 bb d8 2a de bc
       0.0025579394 -0.0085523045 -0.0037230614 -0.027120039
0000b0 76 bc fb 3b 34 68 aa 3c 71 b3 aa 3b fc 7f 3f 3d
       0.0076823784 0.020801641 0.0052093794 0.046752915
0000c0 6c 96 86 3c d8 a9 ee bb f5 d9 41 3b 2a fb 68 bb
       0.016429149 -0.0072834305 0.0029579375 -0.0035550096
0000d0 bf a2 c0 bc 25 87 c7 3c 76 50 b1 3c 64 df 5e 3c
       -0.023515103 0.024356434 0.021644812 0.013603065
0000e0 f2 90 20 3c 06 f6 8c bc 36 31 6e 3c 33 ea 02 bd
       0.009800183 -0.017207157 0.0145381 -0.03196163
0000f0 99 cf c7 3c 2a 07 a5 3c 81 96 9c bc 93 b2 b3 bc
       0.024390982 0.020145018 -0.019114735 -0.021935737
000100 f3 f7 ae bc 35 4d e4 3b da a9 ca bb 1f ac 46 bb
       -0.021358466 0.0069672116 -0.0061847987 -0.0030314995
000110 1b 10 77 bc d3 83 30 b9 60 fb a5 3c cc 3b 38 bc
       -0.015079523 -0.00016833776 0.020261467 -0.011244725
000120 f2 70 d7 bc 5b bb ce 3c ba 88 f0 3c 4e 5b 6e 3c
       -0.026298974 0.025235822 0.029362071 0.014548136
000130 32 1c 33 3c 29 87 d4 bc 3a 8c 00 3d 19 e8 63 bc
       0.010932015 -0.025943356 0.03138373 -0.013910317
000140 fd 59 aa bb 7d 0d 3b 3c cd 11 d3 bc 04 d0 11 bc
       -0.0051987157 0.01141679 -0.025765324 -0.008899692
000150 93 c6 bd 3c e2 11 b8 3c 59 27 88 b9 6f 21 cf ba
       0.023165977 0.022469465 -0.00025969258 -0.0015802811
000160 fc 82 73 bb 4f 59 cb bc 00 25 c9 ba 34 34 60 3c
       -0.003715693 -0.02482286 -0.001534611 0.013684321
000170 b2 bd 8e bb bc 1a 17 bd 2c ee 34 3b 49 3b 32 bb
       -0.0043561095 -0.03689073 0.0027607782 -0.0027195981
000180 3e 62 ff bb 21 c4 08 3d 74 b9 98 3c 1b 1c b1 3c
       -0.007793694 0.033390168 0.018643118 0.021619847
000190 89 c1 3e bc 0c 93 09 bb 47 74 c9 ba c5 a8 94 3c
       -0.011642822 -0.0020992188 -0.0015369736 0.018146882
0001a0 59 b5 04 bd b3 a8 e0 3a 96 3c 8c bc 30 62 eb 3c
       -0.03239951 0.001714012 -0.017118733 0.028733343
0001b0 90 65 87 bc e1 7b 29 bd 36 17 92 bc ca 98 8b 3c
       -0.016527921 -0.041377906 -0.017833333 0.017040629
0001c0 35 cb 0e bd dc 78 43 bb 1d f4 2e bd 55 fc a6 3c
       -0.034861762 -0.0029826676 -0.042713273 0.020383993
0001d0 67 d8 df bc 50 c5 09 bc da fc 13 bb a6 2a be bc
       -0.027324868 -0.008408859 -0.0022581131 -0.023213696
0001e0 5e fa 6e 3c ad 2c 16 bd 1a 72 9f bb 7a b2 e4 bc
       0.014586059 -0.0366637 -0.004865897 -0.027917136
0001f0 97 87 9d 3b e3 3f ad bc 60 f3 50 3c 34 89 32 3c
       0.0048074233 -0.021148628 0.012753338 0.01089697
000200 84 3b 31 3d fb e4 f9 bc 78 a0 c9 bc e7 6b 5a 3c
       0.04326965 -0.030504694 -0.02461265 0.01333139
000210 c0 97 12 bc ad a1 90 bc 62 fb a9 3c 75 9b a6 bc
       -0.008947313 -0.017655218 0.020749751 -0.0203378
000220 ab c6 87 3b bc 1a 8e bc dc c5 49 bb ff 55 83 3b
       0.004143556 -0.017346732 -0.00307881 0.0040080543
000230 9a f8 10 bd aa 83 2c 3c c9 fb 00 bd f5 8d aa 3a
       -0.035393335 0.010529438 -0.03149012 0.0013012277
000240 13 1b b9 bc d1 89 21 bd 8c 98 af bc 1e ff 0c bd
       -0.022595918 -0.039438073 -0.021435045 -0.034422986
000250 4b 14 1d 3c d3 bd ed bc 90 17 25 3c 2f ce 5f bc
       0.009587358 -0.02902118 0.0100764185 -0.013659998
000260 de 64 00 bc 79 06 b3 3c 87 92 88 3c cd dd d6 3c
       -0.007836549 0.021853672 0.016671432 0.02622881
000270 12 49 8e 3c f5 6a e4 3c 8d c5 05 3d 76 2d 81 bc
       0.017368827 0.027883032 0.032659102 -0.015768748
000280 35 6d 92 3c 7d e3 0d 3d c9 4d 5b 3b 82 b3 7a bc
       0.01787434 0.034640778 0.0033463112 -0.015301587
000290 00 62 6c bc 0d 04 45 3c f2 80 bf 3b 01 bc d7 3a
       -0.014427662 0.012024892 0.005844229 0.0016459228
0002a0 c0 ba e8 bc 21 d2 04 bc a5 46 c5 bc 76 4f 62 3c
       -0.028409362 -0.008106739 -0.024081538 0.01381289
0002b0 f6 6f 0a 3d 4c c7 a0 bb b6 44 8d bb dd fa 3c 3c
       0.03379818 -0.0049065705 -0.0043111695 0.01153442
0002c0 da 15 0f 3d 93 fe 14 3d 2c 45 c3 39 b8 4c a4 3c
       0.03493295 0.036375593 0.00037244835 0.020056114
0002d0 fa 88 05 3d cd e4 b0 3b 86 81 14 3c a1 76 25 bc
       0.032601334 0.005398369 0.009064084 -0.010099084
0002e0 64 fc 0b 3d eb ed af 3c 5d 21 3b bc 4a f8 fd 3c
       0.034176245 0.021475753 -0.011421529 0.031002183
0002f0 a8 0f bf bc 11 0b d0 bc 06 8b 01 bd 3f d1 7b bc
       -0.023322895 -0.025395902 -0.031626724 -0.015369712
000300 c5 a3 6f 3c 81 18 f9 3a 2e 77 d9 3c 3e a6 07 3d
       0.014626448 0.0019004495 0.026546087 0.033117525
000310 aa 0d fa 3c 04 07 97 bc 9c a2 66 bc b2 ca d2 3a
       0.030524094 -0.018435962 -0.014076855 0.0016082136
000320 29 91 af 3c 6f c9 5e bc 9a 49 d5 bc 2c 34 4a 3b
       0.021431522 -0.01359783 -0.026036073 0.003085385
000330 db 50 b6 bc 62 ad e7 bc 99 f9 b7 bb 2a 2b fb bc
       -0.022255352 -0.028280918 -0.005614471 -0.03066023
000340 78 25 fc 3b 73 ec 59 bc 4a e6 8f 3c 67 77 b4 bc
       0.0076948963 -0.013301003 0.017565865 -0.022029592
000350 ea dc 6e bc 44 d9 6c 3c 4a 80 06 3a 42 2d 64 bc
       -0.014579037 0.014456097 0.0005130811 -0.013926806
000360 2f d7 54 3b a8 b8 11 bc 2c 48 f9 bc 49 e1 00 3d
       0.0032476892 -0.008894123 -0.030429922 0.03146485
000370 e3 5d cd bc 45 34 f1 bc 89 17 ef bc 00 35 b6 3a
       -0.025069183 -0.02944387 -0.029186027 0.0013901293
000380 e8 a1 28 bc 77 bb 8a bc 1e 26 65 bc e3 2b b4 3b
       -0.010292508 -0.016935093 -0.013986139 0.0054983958
000390 ee 95 b5 3c cc 51 42 bb 70 9f cf ba d7 1e 1d 3d
       0.022166219 -0.0029650806 -0.0015840363 0.03835949
0003a0 7f 7d cd 3b 5e e9 eb bc 49 44 44 bc c9 99 12 3d
       0.006271064 -0.028797802 -0.011979171 0.035791192
0003b0 91 6f 63 3c 47 40 f5 bc 0d 2b 5c 3a fe 19 f9 3c
       0.01388158 -0.029937876 0.0008398749 0.030407902
0003c0 8d a1 b6 bc 81 59 19 bd cd 5d e4 bc 84 07 36 bc
       -0.02229383 -0.037438873 -0.027876759 -0.01111019
0003d0 55 6d e5 3c 04 dd f5 3c 18 2d 11 3d 62 79 77 3c
       0.028006235 0.030012615 0.035443395 0.0151046235
0003e0 d1 14 44 3c 50 51 06 bd 78 82 de bc f1 20 e8 bb
       0.011967854 -0.03279239 -0.027161822 -0.007084005
0003f0 d0 a1 a3 bc f0 ee 0b 3d d1 d8 f6 b9 82 d6 8c bb
       -0.01997462 0.034163415 -0.00047082317 -0.0042980323

net.4.bias f4 [3]
000000 6a 96 ba 3b d8 bc be 3c 6c 5c 7e 3b
       0.0056942003 0.023283407 0.0038812412
