checkpoints/srcnn_epoch18_2025-03-20_23-02-04.pth (torch, 280012 bytes, 6 tensors)

net.0.weight f4 [64, 3, 9, 9]
000000 c0 52 05 3d 72 0c a1 bc 12 06 01 3d db 0a 53 3d
       0.03254962 -0.019659255 0.03149993 0.051524024
000010 63 08 62 bd 83 3e 97 3c 10 c2 10 3d a9 a6 a7 bc
       -0.05518378 0.018462425 0.035341322 -0.020465212
000020 52 7a d9 bc bf f4 36 3c 44 35 27 bd 69 34 c8 bc
       -0.026547585 0.01116675 -0.040822282 -0.024439054
000030 a6 b1 10 3a f9 31 05 bd cb f9 d7 3a 3a 6c 78 3d
       0.0005519636 -0.03251836 0.0016477642 0.060650088
000040 c0 ea 8d 3d 41 74 5e bc 81 4c 32 bd 77 92 0c bc
       0.06929541 -0.013577522 -0.04352999 -0.008579842
000050 e4 f6 ef 3a cf 46 68 3d df 02 7a bc b5 80 13 bd
       0.0018307832 0.056708153 -0.015259474 -0.036011416
000060 6e eb 7e 3d ae 16 f8 3c 0f 16 72 3d 46 d5 bf 3c
       0.062236242 0.030284252 0.059103068 0.023417126
000070 e7 85 17 bd 0a f5 78 bd 19 26 5c 3d 73 4d 33 bd
       -0.036992934 -0.060780562 0.05374727 -0.043775033
000080 73 04 70 bc 2e 36 2f bd 1d 75 82 3d 35 5e 50 bd
       -0.014649498 -0.04277628 0.06369994 -0.050871093
000090 c1 68 37 bc 5d 6e b1 3a a2 88 c9 bb 9b fc c8 bc
       -0.011194409 0.0013536919 -0.006150321 -0.024534514
0000a0 c0 44 5b bc d8 9d 84 3d 55 5c f1 bc f5 3c e7 bc
       -0.0133830905 0.06475419 -0.029462973 -0.028227309
0000b0 5c 2f 27 3d 9a cd 8c 3d 62 c4 59 bd 51 b2 0d 3d
       0.04081665 0.06875153 -0.0531658 0.034593884
0000c0 58 56 61 3c 46 c8 ce 3c e2 15 bf bb 0e 56 78 bc
       0.013753496 0.025241982 -0.005831466 -0.015157236
0000d0 ab 0e 59 bd 67 b6 77 3d 6f c7 80 3d c5 d8 e2 bc
       -0.052992504 0.060476687 0.06288039 -0.027691254
0000e0 74 42 8d 3d 82 a8 0e bd 74 6f 4d 3d 58 3c 94 3d
       0.068974406 -0.03482867 0.050155118 0.07238072
0000f0 6c b3 35 3c 36 64 88 bb 68 63 6b 3c 67 a8 1c 3d
       0.011090141 -0.0041623367 0.014366962 0.03824654
000100 e3 0c 87 3d 44 80 15 bc 60 11 86 3d cd 37 49 bc
       0.06594255 -0.009124819 0.06546283 -0.01228137
000110 ec 09 a4 bc 09 1f 05 3d 6e 34 20 bd ca d9 55 bb
       -0.020024262 0.0325003 -0.0391125 -0.0032631033
000120 53 d6 e0 bc e9 c8 31 bd 72 b2 22 bd e0 c1 3d bd
       -0.027445948 -0.043404493 -0.03972096 -0.04632747
000130 c6 3e 39 3d 2c 98 22 bc 2a da 62 bd 21 b1 9d 3c
       0.04522588 -0.009923976 -0.05538384 0.0192495
000140 2b 4b df bc e6 67 fe bc ee a4 81 bc 04 91 11 bd
       -0.027257523 -0.031055402 -0.015825715 -0.03553869
000150 05 bc 9b 3c 33 cc 5d bd 14 8c 7d 3c 9a 44 09 bc
       0.019010553 -0.054149818 0.015475292 -0.008378172
000160 38 6e a2 bc 49 57 53 3d ac 70 4f bc ed 36 43 bd
       -0.019827947 0.051596913 -0.01266114 -0.047659803
000170 4e a4 01 3c 9c fe 5a bd 05 9c 57 bd 5b 01 b4 bc
       0.007912708 -0.05346547 -0.052639026 -0.021973303
000180 65 27 1c 3d d5 d6 0e 3c 35 d5 27 3c 5e 64 8a 3d
       0.038123507 0.008718212 0.010243704 0.06757425
000190 cd 75 41 3d db f8 88 3d 3d 50 57 bd b1 5c 4c ba
       0.047231484 0.066880904 -0.052566756 -0.00077957945
0001a0 aa 8f 59 3d c8 b7 21 bd 01 cd 57 bd 64 ad ff 3c
       0.053115524 -0.039481908 -0.05268574 0.031210609
0001b0 4e 5e 3e bd f5 d6 8b bb 1a 6e 44 bd 2e 6c be bc
       -0.046476655 -0.0042675682 -0.047956564 -0.023244943
0001c0 4a bf 29 3d f0 48 e7 3c 97 ac 34 3c 23 90 72 bc
       0.041442193 0.028233021 0.011027477 -0.014804873
0001d0 b6 a2 5d bd 2e 24 2a 3d 65 34 08 3d f9 af 5c bc
       -0.05411025 0.04153841 0.033253092 -0.0134696895
0001e0 56 bc 47 bd 89 1e 5c 3d 49 d3 62 bd ce a2 69 3d
       -0.048763596 0.053740058 -0.05537728 0.05704003
0001f0 4a ef e5 bc 99 6c 2a bc 10 1d 06 bd 7f 2a c1 bc
       -0.028068203 -0.010401868 -0.03274256 -0.023579834
000200 71 50 23 bd b2 95 e4 bc eb 9c 3c 3d cc 1a 22 bd
       -0.039871637 -0.027903412 0.046048086 -0.039576337
000210 10 8d 19 3b 16 48 f7 3c 3e cc 47 3d 2c e7 1e bd
       0.0023430027 0.03018574 0.048778765 -0.03879468
000220 fe d8 b2 bc 79 36 3f bc 67 42 6f 3d f1 ec 42 bb
       -0.021831986 -0.011670702 0.058412936 -0.002974328
000230 2a d5 6e 3d b7 50 34 3c 7f 34 15 bd 88 45 45 bd
       0.058308758 0.011005572 -0.036427017 -0.048162013
000240 c3 c3 3f 3d 9e 78 47 3d 84 db 10 bc 5e 02 67 bd
       0.046817552 0.048699014 -0.008841399 -0.056398742
000250 73 ba 45 3a 98 b9 fb bc 03 a7 1d 3d ea 5c 67 bd
       0.0007542737 -0.030728146 0.038489353 -0.056485094
000260 98 8f a5 3c c2 b9 f1 3a 9e 37 e8 bb 81 9c 44 bd
       0.020210072 0.0018442201 -0.007086708 -0.048000816
000270 ca 4d 33 bd 69 5b 5d 3d 06 37 2c bd 64 a3 ba bc
       -0.043775357 0.054042254 -0.042044662 -0.022782989
000280 aa 28 a4 bc 4d b7 87 3c 30 6b 1b bd f7 24 cd 3c
       -0.020038921 0.016566897 -0.03794402 0.02504204
000290 4b 4e b4 3c a6 f3 f4 bc fa af 0d 3d 9f 29 8b bb
       0.02200999 -0.029901337 0.034591652 -0.004246905
0002a0 59 1c 26 3d 8f 71 25 bc 69 9b 05 bd 4d 18 88 3d
       0.04055438 -0.010097875 -0.032618914 0.0664526
0002b0 54 2a 52 bd f2 82 be bc c8 d5 57 bd 13 9a 79 3d
       -0.0513099 -0.023255799 -0.052694112 0.060937952
0002c0 b8 84 1f bd aa 53 0c 3d 8b a1 5b bd 14 9d 11 3d
       -0.03894493 0.034259476 -0.053620856 0.035550192
0002d0 a9 f1 05 3d 08 1d 79 3d e2 1f 1f bd 5c c8 a8 3c
       0.03270117 0.060818702 -0.038848765 0.020603351
0002e0 a4 3c 96 3d 43 2e 8b 3d d0 9b 8e 3d b7 19 14 3d
       0.07335785 0.06795933 0.069633126 0.036157336
0002f0 79 0b 47 bc a4 f3 4e 3c e3 b7 3c bd ae 85 0e bc
       -0.012148731 0.012631331 -0.046073806 -0.008698864
000300 a4 8f 76 3c 31 c6 6e 3d 34 c0 d3 bb ea e2 5a 3d
       0.015048895 0.05829448 -0.0064621214 0.05343906
000310 59 91 7d 3d 91 11 e4 3c d7 f0 7c 3d ec 3a 84 3d
       0.061906192 0.027840408 0.06175312 0.06456551
000320 9b ec b0 3c 70 1f 51 3d 54 b7 da bb e2 bf 93 bc
       0.021597197 0.05105537 -0.0066746864 -0.018035833
000330 90 b4 bb 3c 19 a0 68 3c b7 55 32 bc e4 df 66 bd
       0.022913247 0.0141983265 -0.010884694 -0.056365862
000340 7c 1c 5b bd fd 08 c4 bc 1d 93 56 bd 1d ab 46 3c
       -0.05349396 -0.023930067 -0.052386392 0.0121257575
000350 fd a5 54 bd 83 c9 8f bc 7f fc a3 bc 2c 8c 06 3d
       -0.05191611 -0.017552143 -0.02001786 0.032848522
000360 fd 59 8e 3c 75 47 8e 3c 88 6c 15 3c 84 ad f0 bc
       0.017376894 0.017368058 0.009120114 -0.029379614
000370 15 7c 64 3d e1 d4 2c 3d d0 c5 7d 3d 0a c4 00 bd
       0.055782396 0.042195205 0.061956227 -0.031436957
000380 f0 a0 e1 bc d3 1f 77 3d 48 fd 61 bd e5 6b 0e 3d
       -0.027542561 0.060333084 -0.05517319 0.034770865
000390 ce 5e 1a bc 05 10 68 bd 09 be 5e bc c9 8d 91 bc
       -0.009422017 -0.056655902 -0.013595113 -0.017767804
0003a0 6d 7d 88 bc 0f 9c 45 bd 1c 72 1a bd ba 85 f7 3c
       -0.01666137 -0.048244532 -0.03770648 0.030215133
0003b0 f0 29 3b 3d ba 56 20 bc 34 bd 80 bc 3b e3 a6 b9
       0.04569429 -0.009786302 -0.01571522 -0.00031831287
0003c0 02 15 42 3d 54 a2 61 bd da 7d 2d 3d f7 ef a4 3c
       0.047383316 -0.05508645 0.04235635 0.020133955
0003d0 83 7f 4e bd 2c de 39 3d af 36 80 3d ea 74 27 3c
       -0.050414573 0.045377895 0.0626043 0.010220746
0003e0 e7 8f 4c bc 3d 1b 75 3d 7f 14 34 bd 7a 11 88 bc
       -0.012485481 0.05984043 -0.04396486 -0.016609896
0003f0 f1 52 ea bb c7 39 1a bd 28 24 b3 3c 12 ad a3 39
       -0.0071510007 -0.037652757 0.021867827 0.0003121873

net.0.bias f4 [64]
000000 ca cd 75 3d 06 48 af 3c 0d 4d 6b 3d c8 e0 89 3c
       0.06001071 0.021396648 0.05744653 0.016830817
000010 25 ee 64 3d 20 e7 29 3d aa a0 01 3d e1 59 d8 3c
       0.055891175 0.041480184 0.03164736 0.026410045
000020 80 1e 37 3d 16 9e 4d bd cf 5b a5 3c ca 04 b2 bc
       0.04470682 -0.05019959 0.02018538 -0.0217308
000030 3c 25 f9 bb f1 c8 c3 3a 49 9a 16 bd 09 47 1b bc
       -0.0076033156 0.0014937205 -0.03676823 -0.009477385
000040 78 ae 1a bd 18 69 61 3a 36 86 71 3a 8a 24 21 bd
       -0.037764043 0.0008598729 0.00092134194 -0.039341487
000050 99 6b 2f bd 4c 7b 06 3d 80 ac bb 39 e9 87 74 3c
       -0.042827222 0.03283243 0.00035795942 0.014924982
000060 d5 3e 23 3d c3 bc 15 3c 2f 86 f6 bc 6d 95 4a 3c
       0.039854843 0.009139243 -0.03009328 0.012364727
000070 cb 3c 4f 3d a4 8d 56 3c 23 c4 5f 3d 96 51 86 3c
       0.050595086 0.013095293 0.05463041 0.016396325
000080 0a ad a3 bc 55 cf a5 3c 57 66 5c bd 64 60 d4 bc
       -0.019979972 0.020240465 -0.053808536 -0.025924869
000090 27 68 10 3d 87 57 f6 3c 2e 94 5e 3d 56 52 28 3d
       0.035255577 0.030071033 0.054340534 0.041094147
0000a0 20 d3 12 3c d3 36 ea bb 4d 03 07 bd de b2 41 bd
       0.008961469 -0.007147649 -0.032962132 -0.04728972
0000b0 0c 2b df bc 07 2a 80 3d 5d 2f 0e bd e1 79 83 3d
       -0.027242206 0.06258016 -0.034713138 0.06419731
0000c0 3e d9 b1 bb bc 12 1b 3d a4 47 6d bd f0 d0 4e 3d
       -0.0054275086 0.037859663 -0.05792965 0.050492227
0000d0 85 1e 6f bd 52 27 1f bc 25 81 d4 bb 60 44 90 3c
       -0.058378715 -0.009713965 -0.006485122 0.017610729
0000e0 da 11 4d 3d be 18 48 bd 2c 52 04 3c dc ba 29 3c
       0.050065853 -0.04885172 0.008076232 0.010359492
0000f0 00 8f 81 3d c9 eb db 3c 8b a7 14 3d d7 90 76 bc
       0.06326103 0.02684583 0.036292594 -0.015049181

net.2.weight f4 [32, 64, 5, 5]
000000 5b cf 88 bb 58 11 83 3c 63 63 d8 ba ae aa bd bc
       -0.0041751093 0.015999481 -0.0016509112 -0.023152675
000010 4c 3f 9d 3c 99 68 7e 3b 7f 76 e8 3b 00 53 ee bb
       0.019195221 0.003881967 0.007094204 -0.007273078
000020 06 84 3c 39 63 4e 65 bb 60 f3 37 bc e9 47 ba 3c
       0.0001797826 -0.003498935 -0.011227459 0.022739368
000030 b3 46 35 3c c4 c2 c6 bc cd a6 26 bc 4a 15 88 bb
       0.011064219 -0.024262793 -0.010171604 -0.0041529285
000040 ac ed 16 3c a1 ef 00 bc 05 61 30 3c 2c c4 b5 3c
       0.009211939 -0.007869632 0.010765319 0.022188269
000050 fd 1a 37 bc 08 ad 4d 3c 9a 7a 93 3c 6c 05 e4 ba
       -0.011175868 0.012553461 0.018002797 -0.0017396635
000060 31 12 6e 3c b8 6f 87 bc c4 8f c2 3c d0 33 bd 3a
       0.014530704 -0.016532764 0.023750193 0.0014434997
000070 3a 59 43 3a 29 97 a4 bc eb 65 b3 bc d3 54 6c 3c
       0.00074519555 -0.02009161 -0.021899184 0.014424521
000080 a8 77 e9 bb d7 16 9a 3c db 76 bc bb f3 5c ee 3b
       -0.00712486 0.018809719 -0.0057514734 0.007274264
000090 71 b8 59 3c 54 03 cd bc 34 53 1d bc be 36 9c 3c
       0.013288603 -0.025026001 -0.009602357 0.019069072
0000a0 03 d5 b0 bc 43 45 10 3b 2e df 73 bc 54 86 b8 bc
       -0.021585947 0.002201394 -0.014884753 -0.02252499
0000b0 e5 37 01 3c 30 45 2c 3c 06 99 e7 bb 5c 81 d5 3b
       0.007886861 0.010514542 -0.0070678024 0.006515665
0000c0 40 7b 9e bc ac 36 89 3c 81 89 20 3c e9 97 95 bb
       -0.01934588 0.016749702 0.0097984085 -0.0045652282
0000d0 47 e6 c7 3b 78 0f 69 bc 60 7b 4c 3b e1 52 2c bc
       0.0061004492 -0.014224879 0.0031201467 -0.010517807
0000e0 2d 28 be 3c ca 16 64 bb a7 c5 22 3c 6a 06 8c 3a
       0.023212517 -0.0034803622 0.009934819 0.0010683064
0000f0 36 a0 9c 3b c8 15 2c bc 70 87 70 3c 96 4e bc 3c
       0.004779841 -0.01050324 0.014680728 0.022986691
000100 95 16 27 bc f2 37 df 3b ea e2 b9 bb a1 f0 c7 3b
       -0.010198255 0.006812089 -0.005672802 0.0061016832
000110 36 cd 08 bc 64 9b 05 bb 53 8d b3 3c d4 19 06 ba
       -0.008349707 -0.002038681 0.021917975 -0.0005115543
000120 cc f4 97 3b c1 56 99 bb f2 45 a7 3c eb 6d 82 bb
       0.0046373364 -0.0046795313 0.020419095 -0.0039803884
000130 4c 7d 69 3c dd 62 e6 bc 60 1a 48 bc 3a ce 8a bc
       0.0142510645 -0.028123314 -0.01221332 -0.01694404
000140 c1 38 98 3b 1b 34 83 3c ab b3 f1 bc d3 4e 4d bc
       0.0046454375 0.016016057 -0.029504618 -0.012531
000150 a1 b0 52 bc f0 4a f0 bb 4e d7 eb bc e9 71 76 3c
       -0.012859494 -0.007333152 -0.028789189 0.015041807
000160 f5 a9 c4 3a ff ac 94 bc ba 5f 90 3c 68 7a 70 bb
       0.0015004264 -0.018148897 0.017623771 -0.0036694054
000170 03 78 7e bc c0 17 5a bc 15 3e 10 bc e8 57 ce bc
       -0.015531543 -0.0133113265 -0.008803864 -0.025188401
000180 d6 a4 0e bb 0a 84 9d bc 26 31 3b 3c 40 f4 3f 3c
       -0.002176573 -0.019228 0.011425292 0.011715949
000190 4f 80 1b 3c 8d e4 be 3c 27 5f 94 3c 13 3d 83 bc
       0.00949104 0.02330234 0.018111778 -0.016020333
0001a0 3f e9 f6 3b d6 9e b0 bc 10 ab 19 ba 88 d1 98 ba
       0.0075351293 -0.021560114 -0.0005861977 -0.0011659125
0001b0 62 fc ac bc 06 c6 91 3b aa b5 89 bb ea 8b b6 bc
       -0.02111644 0.004448655 -0.0042025642 -0.022283513
0001c0 c6 99 0f ba bd f8 b0 3c 0d 54 a7 3c 66 b4 ab bc
       -0.0005477931 0.021602983 0.02042582 -0.020960044
0001d0 89 3b 32 3c 9f 60 9e bc b7 34 c0 3c 6e 69 c3 3c
       0.010878452 -0.019333182 0.023462636 0.023853984
0001e0 24 64 b3 3c ef 74 44 bc be 16 d3 bb f9 a1 a8 bb
       0.021898337 -0.01199077 -0.00644192 -0.005146262
0001f0 b6 32 92 3c c3 c8 c9 bc a9 d5 bf bc bd 8e 9d 3c
       0.017846446 -0.024631863 -0.02341731 0.019233102
000200 24 9f d2 bc 36 5c 32 bc 19 1a b7 3b e4 e2 61 3a
       -0.02571065 -0.010886243 0.005587828 0.0008616878
000210 23 08 c5 bc b9 36 16 3c 8a a8 90 bc 2f 65 4e 3c
       -0.024051731 0.00916832 -0.01765849 0.012597366
000220 0e 16 be 3c a5 f7 93 3c e9 32 95 3b 24 d6 bb 3b
       0.023203876 0.018062422 0.004553188 0.0057323147
000230 b5 e5 a1 bc ca 1c 95 bc 24 a8 f1 3b 53 6a d3 bc
       -0.019762853 -0.018202204 0.0073747803 -0.025807535
000240 8c 2c 89 bc 04 c6 b8 3c 81 20 bb 3c 21 07 c5 bc
       -0.016744874 0.022555359 0.022842648 -0.02405125
000250 3e 0e 19 bc b7 94 4e 3b e2 21 9a 3c 84 68 d4 3b
       -0.0093417745 0.0031521746 0.018814985 0.006482186
000260 9b 06 a9 bc 41 da c0 3c 53 37 43 bc 92 a8 2f bc
       -0.020633033 0.023541572 -0.011915046 -0.010721343
000270 6a 9e 48 3c 0c 1f 53 3c 58 95 1f bc 1a 2e ba 3b
       0.0122448 0.01288582 -0.009740196 0.0056817653
000280 e7 7b b8 bc 9a ea c3 bc 4f 52 89 bc ed e7 b3 bc
       -0.022520019 -0.023915578 -0.01676288 -0.021961177
000290 71 76 6f bc 7f 46 ba bb 2a fb 85 bc ea 3d bf bc
       -0.014615641 -0.0056846733 -0.016355116 -0.023344953
0002a0 42 eb 1e 3c bd f7 b7 bc 40 b1 6c 3c f2 c9 03 3c
       0.0096996445 -0.022456998 0.014446557 0.008043753
0002b0 ce 72 d6 bc cd 2b ab bc 91 da b0 3c 54 c8 84 bc
       -0.02617779 -0.02089491 0.021588596 -0.016208805
0002c0 b8 73 a1 3c 09 8b 9e 3c 66 48 ba 3c d5 8b 9d 3b
       0.0197085 0.019353407 0.0227396 0.004807929
0002d0 a8 96 96 3c a8 bb 6c bb 79 b6 9c bc fe 38 b0 bc
       0.018382385 -0.0036122594 -0.019129978 -0.021511551
0002e0 b9 d5 0e bc be 79 68 bc ed 56 4f 3c 81 9a 70 3c
       -0.008717948 -0.014189182 0.012655002 0.014685274
0002f0 f3 5c ac bb f1 df 7c 3c d6 a5 7b 3c 36 62 ec ba
       -0.005260104 0.015434251 0.015359363 -0.001803464
000300 9c 87 80 bc 88 cd 17 3a 30 83 ae 3b 0d 8e f6 bb
       -0.015689664 0.00057908194 0.0053256974 -0.007524258
000310 1b de 82 3c 65 1f 0e bc 8a fc c6 3b a2 8c b8 3c
       0.015975049 -0.008674477 0.0060725855 0.022527996
000320 4d 52 c0 bc 7c 34 2e bc 97 90 27 bc 4f 03 92 3c
       -0.023476744 -0.01063263 -0.010227344 0.017823843
000330 99 06 36 3b 10 86 81 bc a5 ed 87 3c f0 8e ec 3a
       0.0027774929 -0.015810996 0.01659281 0.001804797
000340 9c ef 18 bc c5 a3 09 3b 38 6d 0b 3b 3d 85 aa bb
       -0.009334471 0.0021002155 0.0021274816 -0.0052038715
000350 3a 45 06 ba 8d da 5e 3c 02 83 de bb b3 92 ec 3b
       -0.000512201 0.013601911 -0.0067905197 0.0072196363
000360 bd b8 48 bb e1 f6 e3 bb 4b 19 f5 3b f2 4f a4 3b
       -0.003062769 -0.0069569205 0.007479822 0.005014413
000370 59 7b e4 bb de eb 77 3c a4 a4 85 bc 39 e7 8a 3c
       -0.006972712 0.015131919 -0.016313858 0.016955959
000380 e8 d1 e2 3b 15 9f 99 3c 59 ce 71 3b 0f 3d 81 3c
       0.0069219954 0.018752614 0.0036896674 0.015776185
000390 a2 94 51 bb 77 4e 2b bc b8 28 bf 3c 2c 66 d2 bc
       -0.0031979461 -0.010455719 0.023334846 -0.025683485
0003a0 b4 34 0e bc 2c 99 d2 bb 71 04 b9 3c 3c 33 7a bc
       -0.008679558 -0.006426951 0.022585126 -0.015271004
0003b0 24 90 98 bc 66 9d c1 bb d5 ed 18 ba 38 0a 9f bc
       -0.01862342 -0.005908656 -0.00058337796 -0.019414052
0003c0 b9 b1 a9 bb 27 12 c7 3b 08 52 2a 3c 37 71 0d bc
       -0.005178657 0.006075162 0.010395534 -0.00863295
0003d0 71 ee 29 bc 9f f6 22 bc c8 f8 8b bb b4 2f 87 3c
       -0.01037179 -0.009946494 -0.0042716004 0.016502239
0003e0 38 21 b3 3c 20 22 7c 3c fe ca e4 3b db 7b 99 3c
       0.021866426 0.015388995 0.0069822064 0.018735817
0003f0 34 b9 2c bb fb 72 1e 3c 7a b8 88 3c c2 3c ce ba
       -0.0026355507 0.009670968 0.016689528 -0.001573466

net.2.bias f4 [32]
000000 d4 cd 7f 3b bd 29 ac 3c c4 97 88 3b a4 51 37 3c
       0.0039032595 0.021015996 0.0041684825 0.011188898
000010 ad db 1e 3c d3 52 6e bc db e5 3d bc 42 97 cd 3b
       0.0096959295 -0.014546114 -0.011590446 0.006274135
000020 ea 30 43 3b c1 08 83 bc cb 13 56 bb 1b 07 ae 3b
       0.0029783794 -0.015995385 -0.0032665606 0.0053109056
000030 aa ec 24 3c ca 25 e6 bb 57 07 8b bc d2 76 9e 3c
       0.010066191 -0.007023548 -0.016971273 0.019343767
000040 60 d8 df bb 90 78 23 3b 16 5f b9 3c 74 eb 97 3c
       -0.006831214 0.0024943687 0.022628348 0.01854489
000050 dc 6f 87 3c 99 20 8d bc e7 fa 93 bc 5e 28 b2 3c
       0.01653283 -0.017227458 -0.018063975 0.021747764
000060 f5 24 70 3c 69 e9 aa ba 2e c6 97 bc 4f 41 be 3c
       0.014657249 -0.0013039532 -0.018527117 0.023224501
000070 02 69 ca 3a 0b 74 a6 bc 81 9f 29 3c ec 7e ae bc
       0.0015442672 -0.020319005 0.01035297 -0.021300755

net.4.weight f4 [3, 32, 5, 5]
000000 07 8f d0 3c c0 84 0b bd 75 52 e2 bc b6 62 5b bc
       0.025458826 -0.034062147 -0.02762721 -0.013390234
000010 f3 49 f2 bc db 7c 8a 3c 56 c4 4a bc 24 46 e7 3b
       -0.029576277 0.016905239 -0.012375912 0.007057922
000020 36 83 f6 bc 23 8d b9 3c 19 43 5d 3c b7 7a 9c bb
       -0.030091863 0.022650307 0.013504767 -0.004775371
000030 3f 84 09 bd ad 80 33 3b a6 d4 97 bc ff ee 6c bc
       -0.033573385 0.002738993 -0.018534016 -0.014461278
000040 fb 91 e4 bc f3 09 e8 3b 19 3d 89 3c 13 79 25 bc
       -0.02790164 0.007081264 0.016752766 -0.010099667
000050 89 f3 0a 3d ac d3 12 3d dc 4e eb 3c a7 a7 89 bc
       0.03392366 0.035846397 0.028724127 -0.016803576
000060 b9 45 b1 3c ae 2e f2 3c 23 1d c8 3c e2 40 5e bc
       0.021639692 0.029563274 0.024427956 -0.013565274
000070 19 60 08 3d 84 4a 93 3c 60 62 b5 ba f9 8c ab bc
       0.03329477 0.017979868 -0.0013838522 -0.020941244
000080 63 00 0a bd 40 7a 07 bd 45 3f ff 3c f8 eb d4 3c
       -0.033691775 -0.03307557 0.031158099 0.025991425
000090 7b 45 f0 bc 4e 2f e6 bc a8 6e 8a bc 6c a1 04 bd
       -0.029330006 -0.028098729 -0.016898468 -0.032380506
0000a0 ed 13 77 3c 26 ab c4 bc e8 ef 91 bc 01 af ed bc
       0.015080434 -0.024007391 -0.017814592 -0.029014112
0000b0 1d 3c 0d 3b 71 2e ea 3c 16 14 32 bc 5e 88 0a 3d
       0.0021550723 0.028586598 -0.010869047 0.033821456
0000c0 88 3f 44 3c d6 b8 89 bc 45 84 73 3b 88 ba 52 bb
       0.011978038 -0.01681177 0.0037157696 -0.0032154638
0000d0 31 3d bd bc 97 a8 c4 3c 93 ce b4 3c f8 05 63 3c
       -0.023100467 0.024006171 0.022071159 0.0138564035
0000e0 d2 e3 21 3c 0c 23 89 bc e3 f7 69 3c 21 33 00 bd
       0.009880977 -0.016740344 0.014280292 -0.03129876
0000f0 c0 99 c6 3c 2c 32 a6 3c 71 6a 99 bc a9 23 b5 bc
       0.024243236 0.020287596 -0.018727513 -0.02211173
000100 39 60 ac bc 9e 91 ee 3b 8f a3 b2 bb 95 25 1a bb
       -0.021041976 0.0072805425 -0.0054516266 -0.0023520936
000110 4e cd 77 bc 2f f6 4c b9 5b 85 a4 3c eb 30 34 bc
       -0.015124632 -0.00019546667 0.02008312 -0.010997991
000120 16 cb d0 bc 11 c2 ce 3c 26 fd ee 3c 78 46 81 3c
       -0.025487464 0.025239022 0.029173445 0.015780672
000130 29 bc 4b 3c ca 5f cf bc 53 67 02 3d 20 ac 68 bc
       0.012434998 -0.02531423 0.03183682 -0.014201194
000140 1b 7c 95 bb 67 79 4c 3c 22 f0 cd bc d0 6f 17 bc
       -0.0045619137 0.012480116 -0.025138918 -0.009242967
000150 29 5c b8 3c cc 2a bb 3c ab 7c 4d b9 d8 e4 e6 ba
       0.022504883 0.022847556 -0.00019596766 -0.0017615808
000160 ee a6 51 bb ce 48 cc bc 3a 13 13 ba 41 6c 6e 3c
       -0.0031990367 -0.02493706 -0.000561047 0.014552177
000170 5a ce 65 bb fd fa 0d bd 9a 3d 39 3b fd c0 00 bb
       -0.0035065622 -0.03466319 0.0028265477 -0.001964628
000180 ee 5b e8 bb 57 71 08 3d 22 e8 9d 3c d5 d7 a9 3c
       -0.007091037 0.033311214 0.019275729 0.0207328
000190 70 d4 39 bc ca e3 00 bb 55 2c f7 ba 23 58 9a 3c
       -0.011342153 -0.0019667023 -0.0018857816 0.018840855
0001a0 55 fa 01 bd 8c dd c7 3a 34 1c 8d bc 98 16 ef 3c
       -0.031732876 0.0015248521 -0.017225362 0.029185578
0001b0 ed 4e 82 bc bb 67 27 bd 93 b1 94 bc c4 90 8c 3c
       -0.015906775 -0.04087041 -0.01815108 0.017158873
0001c0 83 58 0d bd c2 76 24 bb 02 bb 2c bd 32 3c ab 3c
       -0.03450824 -0.00250952 -0.042170532 0.020902727
0001d0 58 d7 d3 bc da 57 0c bc e3 75 d9 ba 80 02 b7 bc
       -0.02585952 -0.008565867 -0.0016590919 -0.02234006
0001e0 de e5 7a 3c 7f c0 10 bd c6 f4 aa bb ef 89 e2 bc
       0.015313594 -0.03533983 -0.0052171675 -0.027653662
0001f0 51 21 ae 3b 29 38 35 bc b2 88 a5 3c 08 a4 7d 3c
       0.00531403 -0.011060753 0.020206783 0.015481003
000200 d4 6e 20 3d 8b 2c cd bc 50 2d a0 bc 9f ff 7c 3c
       0.039168194 -0.025045654 -0.019552857 0.015441804
000210 c1 01 22 bc 23 36 d9 bc 12 a2 b0 3c 06 26 85 bc
       -0.0098881135 -0.026515072 0.021561656 -0.016253483
000220 f0 4f 9b 3b 68 1f a1 bc 9f db 51 bc 3d 3f 90 3b
       0.004739754 -0.019668296 -0.012808709 0.00440207
000230 d6 b0 e1 bc ff 4d 72 3c 9f 22 f5 bc fb 37 8e bb
       -0.027550142 0.0147891035 -0.029923735 -0.0043401695
000240 a2 48 91 bc c0 32 00 bd 6b d7 88 bc 12 2a 05 bd
       -0.01773483 -0.0312984 -0.016704282 -0.032510825
000250 dd 5b 8e 3b ad 98 c4 bc a3 01 2c 3c 7c 3f 58 bc
       0.004344447 -0.023998583 0.010498437 -0.01319873
000260 85 28 fc bb 7a 6c b3 3c d1 7e 8b 3c 0e 92 d4 3c
       -0.00769526 0.021902312 0.017028244 0.02594855
000270 0c 8f 90 3c 5c 1a e2 3c de dc 04 3d 21 30 7a bc
       0.017646335 0.02760046 0.032437198 -0.015270264
000280 48 40 90 3c 26 fa 0e 3d 0e 41 54 3b 10 f1 73 bc
       0.017608777 0.03490653 0.0032387408 -0.014889017
000290 a5 b0 69 bc d9 33 4e 3c 45 72 d6 3b 22 40 cd 3a
       -0.014263307 0.012585604 0.0065443837 0.0015659372
0002a0 60 b9 e5 bc 3e a6 04 bc ed c4 c3 bc d6 12 67 3c
       -0.028042495 -0.008096276 -0.023897612 0.014103612
0002b0 80 37 09 3d 21 4e a3 bb 6e be 88 bb 4f ec 3c 3c
       0.033500195 -0.004983679 -0.0041730916 0.01153095
0002c0 c8 1e 10 3d 8b 89 15 3d bd ff 2d 3a 4a fd a5 3c
       0.035185605 0.036508124 0.0006637534 0.02026238
0002d0 d5 ab 05 3d ab c9 b8 3b 3b 26 14 3c bb e8 1f bc
       0.032634575 0.005639275 0.009042318 -0.009760077
0002e0 00 6c 0c 3d 4a ce b1 3c de 85 3c bc 54 ce f9 3c
       0.034282684 0.021704812 -0.011506526 0.030493893
0002f0 d0 ab bd bc 26 bb ce bc ed 0a 01 bd a5 b4 7b bc
       -0.023153216 -0.025235724 -0.03150456 -0.015362893
000300 22 ea 6b 3c 27 45 00 3b a5 95 db 3c 72 0a 08 3d
       0.014399083 0.0019572468 0.026804755 0.033213086
000310 72 38 fc 3c b1 6d 96 bc 0d c1 68 bc 54 d9 cb 3a
       0.030788634 -0.018362852 -0.014206183 0.001555244
000320 09 c7 b0 3c ab 33 5c bc bc 69 d4 bc 7a 2f 53 3b
       0.021579282 -0.013440053 -0.025929324 0.0032224343
000330 27 15 b7 bc a9 5d e4 bc 8a 54 8b bb 92 f2 f8 bc
       -0.022348953 -0.027876692 -0.004252021 -0.030389104
000340 88 5f 04 3c 3c 15 51 bc b6 19 92 3c d6 cb aa bc
       0.008079417 -0.01276141 0.017834526 -0.02084915
000350 a0 cd 68 bc 21 6e 75 3c 30 70 53 3a 27 93 5c bc
       -0.014209181 0.01497987 0.00080657285 -0.013462818
000360 74 f2 5d 3b a1 c0 0d bc b9 e2 ef bc 31 a5 ff 3c
       0.0033866437 -0.008651883 -0.029282914 0.0312067
000370 d4 41 ca bc de ce f1 bc ac 59 f0 bc 83 09 17 3b
       -0.024689592 -0.029517587 -0.029339634 0.002304644
000380 8a bc 2c bc 5f ea 81 bc 4c 57 4a bc ae 97 a4 3b
       -0.010542998 -0.015858827 -0.012349915 0.0050229644
000390 dd 25 b2 3c 5f 8b 42 bb a2 7b bc ba b8 b7 1b 3d
       0.02174657 -0.0029685122 -0.0014380107 0.038017005
0003a0 74 75 c9 3b 32 84 e9 bc a7 ab 49 bc 22 f1 0e 3d
       0.0061480347 -0.028505418 -0.0123089915 0.03489793
0003b0 0f 83 58 3c 84 a6 f8 bc cc 55 22 3a c1 bd e8 3c
       0.013214841 -0.030352838 0.00061925943 0.028410794
0003c0 64 af b5 bc 12 e9 14 bd 81 3c e7 bc 6f a9 28 bc
       -0.02217836 -0.036355086 -0.028227093 -0.010294302
0003d0 53 98 df 3c ab e4 f1 3c 3e 90 10 3d f9 2d 65 3c
       0.027294314 0.029527983 0.03529381 0.0139880115
0003e0 5b d5 58 3c be 3c 03 bd 78 82 de bc f1 20 e8 bb
       0.013234462 -0.03204035 -0.027161822 -0.007084005
0003f0 d0 a1 a3 bc f0 ee 0b 3d 41 d9 f6 b9 82 d6 8c bb
       -0.01997462 0.034163415 -0.00047082643 -0.0042980323

net.4.bias f4 [3]
000000 26 63 b6 3b f3 20 bf 3c d6 6d 80 3b
       0.0055660186 0.023331141 0.0039193435
