checkpoints/srcnn_epoch38_2025-03-20_23-02-04.pth (torch, 280012 bytes, 6 tensors)

net.0.weight f4 [64, 3, 9, 9]
00000000: dd86 053d 09c9 9fbc 7179 ff3c 8c33 563d
00000010: 417e 5fbd ba66 a03c 3de3 163d 7682 9abc
00000020: 2866 cfbc 6c42 333c 3a58 26bd 61b1 bdbc
00000030: f8e1 093b 60fb 05bd 2720 223b 653e 7e3d
00000040: 506f 8e3d 35ea 53bc 8a6d 33bd 59cd 0abc
00000050: 76ae 123b dabb 683d 45ee 77bc 3960 12bd
00000060: e764 803d 2ecc ea3c 8eb7 713d ab00 bf3c
00000070: ddb3 15bd aff6 7abd c5dd 573d 1122 30bd
00000080: 2656 81bc 0c3c 30bd 8cf5 7d3d 3387 51bd
00000090: 6d14 3abc 8144 d53a 5169 b5bb afaa c8bc
000000a0: 0d26 39bc 3182 823d 413f f0bc 2c03 e9bc
000000b0: 763d 283d ef18 8b3d 843f 5ebd 077f 103d
000000c0: 8a8d 613c b5e0 e33c 22b7 a7bb f3f9 74bc
000000d0: 7cbd 59bd 8209 793d 92f8 7e3d aeeb e9bc
000000e0: e6d7 8e3d 34a5 0cbd 756a 583d 470f 983d
000000f0: f185 353c 1b3c a6bb 8c54 6c3c 266a 193d
00000100: 257c 853d 1bc0 17bc adab 863d 14ac 42bc
00000110: e985 a8bc 4460 003d 1d6a 25bd 8794 66bb
00000120: b1e9 eabc 0ee1 36bd 07ca 26bd 6e4e 3ebd
00000130: 9bc4 353d 1a7b 3ebc 0127 68bd 0b15 983c
00000140: c0f1 dfbc e400 f0bc 2615 6bbc f4c0 10bd
00000150: 6ad8 a13c bbbd 5dbd cf45 7e3c 78be f7bb
00000160: 3ea6 97bc 8911 593d 0c71 3bbc b4be 3ebd
00000170: a393 143c dda6 57bd 393d 5dbd 2a6d b9bc
00000180: 7af3 1d3d 7207 0b3c dd54 343c 2222 8c3d
00000190: befd 433d c6d5 883d 4de4 5abd 1674 e6ba
000001a0: 876e 563d 61d6 1fbd 4eb8 5bbd df05 033d
000001b0: a465 3abd 28c8 59bb a5b6 47bd 3f51 cebc
000001c0: c600 283d 36cc d43c 7062 3b3c 1975 75bc
000001d0: 945c 5abd dc0e 2f3d e53f 0c3d 4304 56bc
000001e0: 9a09 4dbd db14 5b3d 046d 70bd a75b 6a3d
000001f0: 6798 debc c3b9 1dbc dad7 02bd 803a c5bc
00000200: 5bcf 23bd 2e10 f8bc 3507 383d 1d54 2cbd
00000210: d0ba 043b 6f30 fb3c d74a 4a3d e882 1abd
00000220: a73a b5bc 0513 40bc 469e 683d 902f 57bb
00000230: 9db9 6d3d a485 383c a48e 14bd ba8e 41bd
00000240: 7f34 443d 0ee8 483d 6f07 10bc ea57 67bd
00000250: 198d 283a 48ef febc c3cf 1e3d 7fd4 65bd
00000260: a6b7 af3c a4c8 2a3b 7eff debb ebbe 44bd
00000270: c7e5 2fbd f496 5f3d 1b18 2cbd b598 b5bc
00000280: 9e16 9cbc a2d7 933c 3d84 1cbd b08d c93c
00000290: cf36 ab3c 59e7 f2bc 125d 0b3d 131c b7bb
000002a0: 1838 213d 9dbd 40bc ae64 0dbd b841 863d
000002b0: 303e 55bd e879 bbbc 11d0 52bd f753 773d
000002c0: 2b0c 22bd 8367 0a3d 5b1c 66bd 8d91 093d
000002d0: ca66 003d 8f1a 763d 31a8 1dbd bf53 af3c
000002e0: aa17 993d c09d 8d3d 967f 913d de50 0c3d
000002f0: 6ab6 56bc 623b 3a3c d02d 3cbd f348 01bc
00000300: 119d 823c 3748 7a3d d2ff b9bb 2eef 643d
00000310: ef47 7c3d 9987 e03c 2d50 7a3d cdb3 853d
00000320: 40bd c33c 85c6 563d 4d7e 95bb 1048 9cbc
00000330: 9508 c93c 5aca 6e3c d11c 3cbc fde2 67bd
00000340: 1e60 5cbd af51 bbbc 85f6 5bbd 16df 393c
00000350: 9103 5cbd 8501 8ebc d1d6 a7bc e930 033d
00000360: 2df1 923c ebe3 8d3c 00be 1c3c 827d fdbc
00000370: be89 613d fdc3 2c3d be4d 803d e1bc 03bd
00000380: 8af7 e3bc 76fe 7a3d 8fe7 5ebd fb66 113d
00000390: b620 11bc 6976 65bd e9e8 53bc 66ff 8abc
000003a0: 3d6e 8dbc b5d0 44bd cfba 17bd 8c3d fc3c
000003b0: 8a48 3d3d bc43 05bc 3456 64bc 063e 3f3a
000003c0: a5bd 433d 5748 64bd c4e0 2d3d 1142 a13c
000003d0: f3cb 4ebd cb3f 353d f9de 803d 9d88 343c
000003e0: 1222 4fbc 8dd5 783d 07c8 2fbd d738 82bc
000003f0: 1f00 f9bb e898 1bbd 20b9 b93c ede3 5b39
0.03259932 -0.01950504 0.031185837 0.052295253 -0.054563764 0.019580234 0.036837805 -0.018861037
-0.025317267 0.010941129 -0.040611483 -0.02315587 0.002103923 -0.032710433 0.0024738403 0.062071223
0.06954825 -0.012934257 -0.043805636 -0.00847181 0.002238182 0.056819774 -0.0151324915 -0.035736296
0.062692456 0.028661814 0.059012942 0.023315748 -0.036548484 -0.061270412 0.05270173 -0.04300124
-0.01578815 -0.043026015 0.06200175 -0.051154327 -0.011357409 0.0016271026 -0.0055362363 -0.02449545
-0.011300576 0.06372488 -0.029327037 -0.028443895 0.04107424 0.06791865 -0.054259792 0.035277393
0.013766656 0.02781711 -0.0051182667 -0.014952171 -0.053159222 0.060800083 0.062248774 -0.028554764
0.06974773 -0.034337237 0.0528359 0.07424789 0.011079297 -0.005073083 0.014424454 0.037454747
0.06517819 -0.00926211 0.06575713 -0.011881847 -0.020571666 0.031341806 -0.0403844 -0.0035183744
-0.028675886 -0.044648223 -0.040720012 -0.046461515 0.04437695 -0.011626029 -0.056677822 0.018564722
-0.027336955 -0.0292973 -0.014348304 -0.035340264 0.019756515 -0.05413602 0.015519573 -0.0075605474
-0.018511888 0.05299524 -0.011440527 -0.046568587 0.009068402 -0.052649368 -0.054013465 -0.022635061
0.038562275 0.008485662 0.011006561 0.06842448 0.04784941 0.06681399 -0.05344038 -0.0017582204
0.0523515 -0.039022807 -0.053642564 0.03198802 -0.04550709 -0.0033230875 -0.048758168 -0.025185226
0.041016363 0.025976282 0.011437044 -0.014981532 -0.053310946 0.04273878 0.034240622 -0.0130625395
-0.050057985 0.053486686 -0.058697715 0.057216313 -0.02717228 -0.009626809 -0.031944133 -0.024075747
-0.03999267 -0.030281153 0.04492875 -0.042072404 0.002025295 0.030662743 0.04938778 -0.0377225
-0.022122694 -0.011723285 0.056791566 -0.0032834746 0.058038343 0.011262331 -0.036268845 -0.047255255
0.047901627 0.04904943 -0.008790835 -0.056480326 0.00064297166 -0.031119958 0.038772356 -0.056110855
0.021449875 0.0026059533 -0.0068053594 -0.048033636 -0.042943742 0.05458732 -0.042015176 -0.022167543
-0.019053753 0.018047158 -0.03821205 0.024603695 0.020900158 -0.02965133 0.034024306 -0.0055880635
0.039360136 -0.011763957 -0.034519844 0.065555036 -0.05206126 -0.022885278 -0.05146796 0.06038281
-0.039562386 0.033790123 -0.056179386 0.033586074 0.031348027 0.060083922 -0.038490478 0.021402238
0.07475217 0.06914854 0.07104413 0.03425681 -0.013105014 0.011366697 -0.045942128 -0.007890928
0.015944036 0.061104026 -0.005676248 0.055892162 0.06159204 0.027408408 0.061111618 0.06528435
0.023893952 0.052435417 -0.0045621754 -0.01907733 0.024540225 0.014574612 -0.01148148 -0.056612957
-0.053802602 -0.022866098 -0.053701896 0.011344692 -0.05371434 -0.017334709 -0.020488175 0.032029066
0.017937267 0.017320594 0.009566784 -0.030943636 0.055063 0.042179096 0.06264828 -0.03216255
-0.027827997 0.06127783 -0.05442005 0.0354986 -0.008857897 -0.056021128 -0.012933948 -0.016967487
-0.01726448 -0.0480506 -0.03704339 0.030791067 0.046211757 -0.008133825 -0.013936568 0.0007295314
0.04778828 -0.05573305 0.04245068 0.019684823 -0.05048747 0.04425029 0.06292529 0.011018899
-0.0126424 0.060750533 -0.04291537 -0.015896244 -0.0075988914 -0.03798762 0.022671282 0.00020970376

net.0.bias f4 [64]
00000000: 9f1a 7c3d 9069 b63c 9762 6c3d 55aa 8f3c
00000010: 8e54 663d 40e3 283d 5229 023d 2c68 df3c
00000020: d402 393d c1fd 4bbd 8d1e ab3c 644f 9cbc
00000030: f69f 6abb 67f8 203b bf3b 16bd cf97 10bc
00000040: 73de 0ebd 49d4 c439 4b38 513a f5f2 21bd
00000050: 927d 29bd 955a 083d e019 3a3b 3e5c 803c
00000060: 68a7 293d 3962 253c bbe2 efbc 4feb 483c
00000070: 9ec8 4e3d 6e76 563c efbb 5e3d 2f15 843c
00000080: cb67 96bc 4340 a93c fcfa 4ebd e218 d1bc
00000090: 4a5c 103d f84b 003d 4137 5e3d c108 263d
000000a0: 9483 173c 25ff e3bb ab9d 06bd 46f1 3dbd
000000b0: bc7c d1bc f664 7f3d c786 01bd 094a 8a3d
000000c0: ff92 81bb 5f61 1b3d cd77 6abd e9d6 563d
000000d0: f7a5 70bd 31b2 1abc 51fd c9bb 8022 8f3c
000000e0: 687c 513d 5184 47bd e960 033c 25fa 283c
000000f0: 37fb 693d 65f4 e13c d991 133d 08d2 6abc
0.061548825 0.022267133 0.05771121 0.017537275 0.05623298 0.041232347 0.031777687 0.027271353
0.045168713 -0.049802545 0.020888591 -0.019080825 -0.003580091 0.0024562122 -0.036678072 -0.0088252565
-0.034880113 0.00037542198 0.00079811056 -0.039538343 -0.04137952 0.03328951 0.002839677 0.015668985
0.041419417 0.010094219 -0.029282918 0.012263133 0.050484292 0.013089759 0.054378446 0.016123382
-0.01836004 0.020660525 -0.050532326 -0.02552456 0.035244264 0.03132245 0.054251913 0.040535692
0.009247679 -0.006957906 -0.032865208 -0.046372674 -0.025572173 0.062352143 -0.031622674 0.06752402
-0.003954291 0.037934657 -0.057243157 0.052451048 -0.058752026 -0.009441898 -0.006164231 0.017472506
0.051144034 -0.04871017 0.008018711 0.010313545 0.057124343 0.027582357 0.036027763 -0.014332302

net.2.weight f4 [32, 64, 5, 5]
00000000: bfd0 88bb 7410 833c 3870 d8ba 5aab bdbc
00000010: e23e 9d3c 5967 7e3b f974 e83b 4454 eebb
00000020: 3664 3c39 bd51 65bb f760 37bc e27f ba3c
00000030: 1485 353c 3c9c c6bc c334 26bc ba60 87bb
00000040: 5649 173c 6496 00bc 8abc 303c 3b01 b63c
00000050: aa9d 36bc ad45 4e3c 6fdf 933c 6f21 dcba
00000060: c547 6f3c b86f 87bc c48f c23c bf33 bd3a
00000070: 1559 433a 2997 a4bc eb65 b3bc d354 6c3c
00000080: a877 e9bb d716 9a3c db76 bcbb 0a5d ee3b
00000090: 71b8 593c 5403 cdbc 1552 1dbc f736 9c3c
000000a0: 03d5 b0bc 2746 103b 0ddf 73bc 2486 b8bc
000000b0: 133a 013c 3045 2c3c 0699 e7bb 5c81 d53b
000000c0: 407b 9ebc ad36 893c 3b89 203c 4e98 95bb
000000d0: dce5 c73b ca0f 69bc 0d7a 4c3b 1d53 2cbc
000000e0: 1628 be3c 6417 64bb 80c5 223c 5105 8c3a
000000f0: edae 9c3b 0412 2cbc dc88 703c 184f bc3c
00000100: 4a16 27bc a04d df3b 61da b9bb 43f5 c73b
00000110: 52cc 08bc e998 05bb ca9e b33c 69f9 03ba
00000120: be35 983b c50f 99bb cc57 a73c f572 82bb
00000130: d77b 693c 8763 e6bc 2f1c 48bc 84cf 8abc
00000140: ec34 983b bf33 833c 20b4 f1bc 4e51 4dbc
00000150: 3cb3 52bc 76d4 efbb bba2 ebbc 2a4b 773c
00000160: 7458 ce3a 97eb 93bc 81a2 903c 1afc 6ebb
00000170: 25c0 7dbc 94a5 58bc b24e 0ebc 69dc cdbc
00000180: 221d 0bbb d032 9dbc 69a3 3b3c b546 403c
00000190: 4f80 1b3c 8de4 be3c 275f 943c 133d 83bc
000001a0: 3ce9 f63b d69e b0bc 6fab 19ba c9d1 98ba
000001b0: 62fc acbc 03c6 913b 35b3 89bb d58b b6bc
000001c0: 798c 0fba bdf8 b03c 0d54 a73c 5cb4 abbc
000001d0: 0b3d 323c 3c60 9ebc ca34 c03c 6e69 c33c
000001e0: 2c64 b33c 1e74 44bc 4013 d3bb 2f9e a8bb
000001f0: c632 923c c3c8 c9bc a9d5 bfbc bd8e 9d3c
00000200: 249f d2bc 365c 32bc 191a b73b cbe2 613a
00000210: 2308 c5bc b936 163c 8aa8 90bc 3c65 4e3c
00000220: 0e16 be3c a9f7 933c 1936 953b 75d9 bb3b
00000230: b5e5 a1bc ca1c 95bc 38a8 f13b 536a d3bc
00000240: 8c2c 89bc 04c6 b83c 8120 bb3c 2107 c5bc
00000250: 710d 19bc 0b9b 4e3b e121 9a3c 7168 d43b
00000260: 9b06 a9bc 41da c03c 6137 43bc bca8 2fbc
00000270: 5b9e 483c 031f 533c 5f95 1fbc 162e ba3b
00000280: 1379 b8bc 7ce8 c3bc ef4f 89bc 5de5 b3bc
00000290: a36b 6fbc 613b babb b1f9 85bc a23c bfbc
000002a0: e3eb 1e3c 69f7 b7bc e0bb 6c3c c7d3 033c
000002b0: a070 d6bc 5b2b abbc e9da b03c 2acb 84bc
000002c0: 4170 a13c f487 9e3c 9844 ba3c f47b 9d3b
000002d0: 1a95 963c fbc8 6cbb 6fb7 9cbc 703a b0bc
000002e0: 3ddb 0ebc d41e 68bc db02 503c 9a12 723c
000002f0: d4b3 a7bb 3fa4 7f3c cf0a 7c3c e14e e7ba
00000300: dccf 7fbc db83 353a f8fa b23b 6dd2 f5bb
00000310: 7205 833c f595 0dbc f44c c83b 29ee b83c
00000320: 5852 c0bc aa34 2ebc a890 27bc 4f03 923c
00000330: 3b06 363b 1b86 81bc 85ed 873c c28d ec3a
00000340: a6ef 18bc 9ca3 093b 4eb6 0b3b 4e6b aabb
00000350: 1ed0 05ba d9ee 5e3c fc42 debb 7cc2 ec3b
00000360: a650 48bb aebc e3bb cb69 f53b f6bb a43b
00000370: 7757 e4bb c8f9 773c d99d 85bc 57f0 8a3c
00000380: 0801 e33b 159f 993c 5bce 713b 0f3d 813c
00000390: c294 51bb 7a4e 2bbc b828 bf3c 2c66 d2bc
000003a0: b434 0ebc 2e99 d2bb 7104 b93c 3c33 7abc
000003b0: 2490 98bc cb9b c1bb 1bbd 18ba 5208 9fbc
000003c0: b9b1 a9bb 5b12 c73b 9b53 2a3c 966d 0dbc
000003d0: 0aea 29bc 9ff6 22bc c8f8 8bbb b42f 873c
000003e0: 3821 b33c 3a23 7c3c bfca e43b b67b 993c
000003f0: 66ba 2cbb 9f72 1e3c 39b8 883c 883d ceba
-0.004175275 0.015999056 -0.0016512936 -0.023152996 0.019195024 0.0038818924 0.0070940224 -0.007273229
0.00017966409 -0.0034991347 -0.011192552 0.022766057 0.011079092 -0.02424442 -0.010144415 -0.0041314038
0.009233793 -0.007848356 0.010787139 0.022217384 -0.0111459885 0.012589854 0.018050877 -0.0016794632
0.0146045135 -0.016532764 0.023750193 0.0014434977 0.0007451934 -0.02009161 -0.021899184 0.014424521
-0.00712486 0.018809719 -0.0057514734 0.0072742747 0.013288603 -0.025026001 -0.009602089 0.019069178
-0.021585947 0.002201447 -0.014884722 -0.0225249 0.007887381 0.010514542 -0.0070678024 0.006515665
-0.01934588 0.016749704 0.009798343 -0.0045652753 0.0061003994 -0.014224956 0.0031200678 -0.010517863
0.023212474 -0.003480398 0.009934783 0.0010682737 0.004781595 -0.010502342 0.014681067 0.022986934
-0.010198185 0.0068146735 -0.0056717847 0.0061022355 -0.008349495 -0.002038533 0.021926302 -0.00050344184
0.0046450784 -0.0046710693 0.020427607 -0.003980989 0.014250717 -0.02812363 -0.012213751 -0.016944654
0.0046449807 0.016015885 -0.029504836 -0.012531592 -0.012860116 -0.0073190285 -0.02876412 0.015093604
0.0015742914 -0.018056674 0.017655613 -0.0036466182 -0.015487705 -0.013223071 -0.008685755 -0.025129514
-0.0021227081 -0.019189268 0.011452534 0.011735608 0.00949104 0.02330234 0.018111778 -0.016020333
0.007535128 -0.021560114 -0.00058620324 -0.00116592 -0.02111644 0.0044486537 -0.0042022713 -0.022283474
-0.0005475949 0.021602983 0.02042582 -0.020960025 0.010878812 -0.019332998 0.023462672 0.023853984
0.021898352 -0.011990575 -0.0064415038 -0.00514581 0.017846476 -0.024631863 -0.02341731 0.019233102
-0.02571065 -0.010886243 0.005587828 0.00086168636 -0.024051731 0.00916832 -0.01765849 0.012597378
0.023203876 0.01806243 0.004553568 0.00573271 -0.019762853 -0.018202204 0.0073747896 -0.025807535
-0.016744874 0.022555359 0.022842648 -0.02405125 -0.009341584 0.0031525518 0.018814983 0.006482177
-0.020633033 0.023541572 -0.011915059 -0.010721382 0.012244786 0.012885812 -0.009740203 0.0056817634
-0.02251867 -0.023914568 -0.016761748 -0.021959955 -0.014613065 -0.005683348 -0.016354414 -0.023344342
0.009699794 -0.022456842 0.01444909 0.008046097 -0.02617675 -0.020894697 0.02158876 -0.016210157
0.019706847 0.019351937 0.022737786 0.004806036 0.018381644 -0.0036130536 -0.019130437 -0.02151224
-0.008719263 -0.014167506 0.012695993 0.014774943 -0.0051178727 0.015603124 0.015383436 -0.0017647409
-0.015613522 0.000692425 0.0054620467 -0.0075018913 0.015993807 -0.00864171 0.006112689 0.022574501
-0.023476765 -0.010632673 -0.01022736 0.017823843 0.002777471 -0.015811017 0.01659275 0.0018047618
-0.00933448 0.002100206 0.002131838 -0.00520078 -0.0005104559 0.01360675 -0.0067828875 0.007225333
-0.0030565648 -0.0069499826 0.007489418 0.0050272895 -0.0069684344 0.015135236 -0.01631062 0.016960306
0.006927613 0.018752614 0.003689668 0.015776185 -0.0031979536 -0.010455722 0.023334846 -0.025683485
-0.008679558 -0.006426952 0.022585126 -0.015271004 -0.01862342 -0.0059084645 -0.0005826519 -0.019413147
-0.005178657 0.006075186 0.01039591 -0.008632084 -0.010370741 -0.009946494 -0.0042716004 0.016502239
0.021866426 0.015389258 0.006982177 0.018735748 -0.002635622 0.0096708825 0.016689407 -0.001573489

net.2.bias f4 [32]
00000000: f1d3 7f3b d441 ac3c 376d 863b 442b 353c
00000010: afb4 203c d542 71bc 64e5 3bbc f95a cc3b
00000020: 29eb 483b 1b8c 84bc d713 56bb 5a6f a63b
00000030: 9d81 373c 2814 d8bb 1a91 8abc b70e 9f3c
00000040: 9a5d e3bb 4b79 233b 6f88 bc3c 9d2a 9c3c
00000050: d0a7 893c 608b 8cbc eb59 91bc 39ab b63c
00000060: d7de 713c c676 bdba e0e3 96bc 83f1 c73c
00000070: e6ca 063b 21e7 88bc 53da 293c 80e9 aebc
0.003903624 0.021027483 0.004102375 0.011057679 0.009808703 -0.014725407 -0.011468265 0.0062364307
0.0030657745 -0.016180089 -0.0032665634 0.005079192 0.011200336 -0.0065941997 -0.016914893 0.019416196
-0.0069386484 0.0024944122 0.023014275 0.019063288 0.016803652 -0.017156303 -0.017743072 0.022298442
0.014762602 -0.0014454953 -0.018419206 0.024407154 0.0020567714 -0.016711773 0.010366994 -0.021351576

net.4.weight f4 [3, 32, 5, 5]
00000000: 078f d03c c084 0bbd 7552 e2bc b662 5bbc
00000010: f349 f2bc db7c 8a3c 56c4 4abc 2446 e73b
00000020: 3683 f6bc 238d b93c 1943 5d3c b77a 9cbb
00000030: 3f84 09bd ac80 333b a6d4 97bc ffee 6cbc
00000040: fb91 e4bc f309 e83b 193d 893c 1379 25bc
00000050: 89f3 0a3d acd3 123d dc4e eb3c a7a7 89bc
00000060: b945 b13c f6e3 d53a 8f1a ee3c 234a 05bc
00000070: 63b2 e83c dfcc 993c ab61 27bd 4b8f 02bd
00000080: 8f86 28bd ee4e 53bd e72b 7f3c 99eb 573c
00000090: 7fad acbc a8c2 9fbc 9928 8ebc de67 00bd
000000a0: 1063 eb3b f439 2bbc 9c96 a0bb dd7f c9bc
000000b0: ad72 0a3c 9e5c c63c aded 683b fad5 3e3d
000000c0: e589 953c eb11 01bc 6faa 453b 2817 68bb
000000d0: 967a c0bc 4910 c73c 2bcd b13c c0ca 5e3c
000000e0: 9d49 203c bbb3 8cbc b16e 6d3c be97 02bd
000000f0: 0486 c73c d511 a53c 014b 9cbc b1bf b3bc
00000100: 9d8e aebc cbaf e43b ee95 c8bb 23af 42bb
00000110: 0afa 76bc c480 2db9 9b91 a53c 9e0e 38bc
00000120: 3eb2 d6bc 4dc9 ce3c 3d61 f03c 2c34 703c
00000130: 421e 353c b3e3 d3bc 4fc5 003d 1f06 64bc
00000140: fac5 a8bb 826a 3c3c 1a8e d2bc 07ab 12bc
00000150: 2f68 bd3c a831 b83c 4227 90b9 eeb3 d0ba
00000160: d837 6fbb dcf4 cabc 3616 c2ba fe24 613c
00000170: 5a68 8bbb 6b24 16bd 2e6e 373b 2d49 2ebb
00000180: 09c3 fdbb 36c2 083d c010 993c 9f81 b03c
00000190: e687 3dbc 8917 06bb 43be c8ba 0428 953c
000001a0: 3381 04bd c47d e53a 5bf9 8bbc 9d4c ec3c
000001b0: 6cbe 86bc 7146 29bd 8fb3 91bc 9e0e 8c3c
000001c0: 175c 0ebd fbdb 3dbb d5a4 2ebd 7fd8 a73c
000001d0: 8a6d debc 4337 09bc 11b1 0dbb 3161 bdbc
000001e0: 33c8 703c 6f87 15bd 4d94 9ebb cf08 e4bc
000001f0: 4b82 9f3b ee70 a2bc 924d 663c 522e 3f3c
00000200: 6f84 313d 18f3 f4bc 437b c4bc b476 633c
00000210: 4a59 12bc 6060 95bc 5cf8 a93c 5f81 a3bc
00000220: 9d5d 8e3b 767f 90bc bd30 7ebb 8f9d 7d3b
00000230: d0f9 0cbd f2ea 383c cd6b ffbc 95d7 963a
00000240: 222e b4bc 7d40 1dbd 4ebc a8bc 4281 0bbd
00000250: 8511 1b3c ecf3 e8bc 1f7c 253c 8132 5fbc
00000260: 7481 00bc 0bc5 b23c 1866 883c 3994 d63c
00000270: eb76 8e3c b3e6 e33c 5486 053d 4cf7 80bc
00000280: 4f1f 923c 57ee 0d3d 2189 583b d037 7abc
00000290: 8cac 6cbc 88f1 453c c00e c23b b80e d53a
000002a0: 8b71 e8bc 745e 05bc 7f24 c5bc 2234 633c
000002b0: f15f 0a3d a6e5 a0bb 229d 8cbb 18d0 3c3c
000002c0: 5a1d 0f3d 1805 153d 00e8 d439 0c72 a43c
000002d0: 4c7e 053d f031 b13b a63f 143c b8ea 24bc
000002e0: 4bf9 0b3d f80a b03c f36f 3bbc b162 fd3c
000002f0: 15f6 bebc 46e4 cfbc 4696 01bd a81a 7cbc
00000300: fdf3 6e3c a832 f83a 32d4 d93c c39e 073d
00000310: a120 fa3c ce25 97bc 9c14 67bc 4ddc d33a
00000320: c0a5 af3c 200a 5fbc b75f d5bc a2d5 4a3b
00000330: bc93 b6bc e570 e7bc d33c b4bb d02f fbbc
00000340: 4623 fd3b c23c 59bc eb4e 903c e976 b3bc
00000350: 6d83 6ebc 3285 6d3c 8f1d 0e3a f8be 62bc
00000360: 05ba 563b 462f 11bc f231 f8bc 09de 003d
00000370: 93ed ccbc 7226 f1bc 5f2c efbc 69e1 c33a
00000380: cf67 28bc f18f 89bc 58f0 61bc 7b5a b43b
00000390: 1e47 b53c aaf8 3fbb f60d c4ba d238 1d3d
000003a0: f0f0 cf3b 06ca ebbc 8575 44bc 055e 123d
000003b0: e207 633c c1cc f4bc 6958 583a 9ed4 f73c
000003c0: 8bce b6bc abf2 18bd 9869 e4bc 252c 35bc
000003d0: 1dd2 e43c a894 f53c cb31 113d 9e97 763c
000003e0: 65fc 453c 8cfe 05bd 7882 debc f120 e8bb
000003f0: d0a1 a3bc f0ee 0b3d efd8 f6b9 82d6 8cbb
0.025458826 -0.034062147 -0.02762721 -0.013390234 -0.029576277 0.016905239 -0.012375912 0.007057922
-0.030091863 0.022650307 0.013504767 -0.004775371 -0.033573385 0.0027389927 -0.018534016 -0.014461278
-0.02790164 0.007081264 0.016752766 -0.010099667 0.03392366 0.035846397 0.028724127 -0.016803576
0.021639692 0.0016318548 0.029065398 -0.008135351 0.028405374 0.018774448 -0.040864628 -0.031874936
-0.04114395 -0.051588945 0.015574432 0.013178729 -0.021078823 -0.019501999 -0.017353343 -0.031349055
0.00718344 -0.010450829 -0.0049007665 -0.024597103 0.008450192 0.024214085 0.0035542056 0.046590783
0.01825423 -0.007877807 0.00301614 -0.0035414193 -0.023495954 0.024299758 0.021704277 0.013598144
0.009783176 -0.017175546 0.014491723 -0.031882994 0.024355896 0.020150105 -0.019078733 -0.021941992
-0.021308238 0.006978964 -0.0061213886 -0.002970644 -0.015074262 -0.00016546535 0.020211032 -0.011233954
-0.02620804 0.025242472 0.029343242 0.014660876 0.011054577 -0.025865411 0.03143817 -0.013917475
-0.005150554 0.011500003 -0.025702525 -0.008951909 0.023120968 0.022484615 -0.0002749507 -0.0015922764
-0.0036501791 -0.024774961 -0.0014807645 0.01374173 -0.004254383 -0.036655825 0.0027989256 -0.002659391
-0.0077441973 0.03338834 0.018684745 0.021546183 -0.011568045 -0.0020460805 -0.0015315491 0.018207557
-0.032349776 0.0017508795 -0.017086675 0.028845126 -0.016448222 -0.041326944 -0.017785816 0.017096814
-0.034755792 -0.002897023 -0.042637665 0.020488976 -0.027151842 -0.008374992 -0.0021620432 -0.023117634
0.014696169 -0.036506113 -0.004839456 -0.027836232 0.004867827 -0.01982924 0.01405658 0.0116687585
0.04333919 -0.029901072 -0.023984557 0.0138832815 -0.008932421 -0.018234432 0.02074831 -0.01995915
0.0043446557 -0.017638903 -0.0038786374 0.0038698649 -0.034417927 0.011286484 -0.031179333 0.001150834
-0.021994654 -0.03839158 -0.020597603 -0.034058817 0.009464626 -0.028436624 0.010100394 -0.013622881
-0.007843364 0.021822473 0.016650245 0.026193725 0.017390689 0.027819967 0.03259881 -0.01574292
0.017837195 0.034651127 0.003304072 -0.015272096 -0.014445435 0.012081511 0.0059221685 0.0016254997
-0.028374454 -0.008140195 -0.024065254 0.01386741 0.033782903 -0.0049101887 -0.0042911926 0.011524223
0.0349401 0.03638181 0.00040608644 0.020073913 0.03259115 0.0054075643 0.009048378 -0.010065727
0.03417329 0.021489605 -0.011440265 0.030930849 -0.0233107 -0.025377404 -0.031637453 -0.015387215
0.0145845385 0.0018935995 0.02659044 0.03311039 0.030533137 -0.018450644 -0.014104035 0.0016163677
0.02144134 -0.013613254 -0.026046617 0.003095009 -0.022287242 -0.028252074 -0.005500415 -0.030662447
0.007725152 -0.013259115 0.017615756 -0.021907287 -0.014557702 0.014497088 0.00054212747 -0.013839476
0.0032764685 -0.0088613685 -0.030297253 0.03146175 -0.025015628 -0.029437277 -0.029195962 0.0014944497
-0.010278656 -0.01679227 -0.013790213 0.00550395 0.022128638 -0.0029292502 -0.0014957774 0.038384266
0.0063458607 -0.028782856 -0.011990909 0.035734195 0.01385686 -0.02988279 0.000825292 0.030252751
-0.022315284 -0.0373408 -0.027882382 -0.011057888 0.027932221 0.029978111 0.035447877 0.015050797
0.012084101 -0.032713458 -0.027161822 -0.007084005 -0.01997462 0.034163415 -0.00047082404 -0.0042980323

net.4.bias f4 [3]
00000000: 811d ba3b dada be3c 6a5b 803b
0.0056797867 0.023297716 0.0039171474
