checkpoints/srcnn_epoch13_2025-03-20_23-02-04.pth (torch, 280012 bytes, 6 tensors)

net.0.weight f4 [64, 3, 9, 9]
00000000: c385 033d 8607 a3bc 5aa2 ff3c 64fe 4f3d
00000010: b3a5 63bd 6790 913c 70ae 0c3d 8096 acbc
00000020: b277 debc 4acc 343c f1bb 27bd 50ae ccbc
00000030: 0f18 06b9 f22f 05bd 8d27 953a 9518 753d
00000040: 482d 8e3d 180f 5fbc 7830 32bd e7eb 0cbc
00000050: 47d8 f43a 0d31 683d 8b77 7dbc f78e 14bd
00000060: 49ae 7d3d dd77 fe3c 84b2 733d af83 be3c
00000070: 4da8 18bd e1ad 77bd 87f2 5c3d 48f3 35bd
00000080: 5a42 6abc 12df 2ebd f25b 833d 92ac 4fbd
00000090: ebeb 3abc e117 8a3a 5933 cdbb 638b cbbc
000000a0: 35b9 6dbc 3c66 853d 13fd f1bc 272c eabc
000000b0: 12f0 253d 6fc6 8c3d a073 59bd de40 0c3d
000000c0: 770b 5a3c 3e1b c43c afbe d0bb f6c1 7fbc
000000d0: 6b76 5abd 9c7c 763d c990 803d 3788 e2bc
000000e0: 5dff 8b3d db97 11bd feae 473d fc6c 913d
000000f0: d62b 2b3c 020d 83bb afa4 693c 3095 1c3d
00000100: ce5c 873d 62f7 1abc b7c3 843d 77da 53bc
00000110: cf47 a9bc f766 043d 7f28 1ebd ec16 54bb
00000120: 8382 dfbc 3a6e 30bd de7f 22bd 907d 3fbd
00000130: 0fa8 383d bea5 21bc 5291 62bd a8f3 9f3c
00000140: 9df0 dfbc bb5d 03bd f0f6 86bc 6e62 13bd
00000150: 3621 963c d25f 5ebd e285 763c 35ab 19bc
00000160: 0013 a9bc b21f 4f3d 445d 5bbc bf64 45bd
00000170: bc88 ed3b 2140 5dbd fe38 56bd afae b5bc
00000180: 67a5 183d a53e 0c3c 6910 1f3c 8543 893d
00000190: 05d5 3f3d 9bd8 883d 73d6 56bd 711c 3aba
000001a0: 8b28 593d d771 24bd f258 57bd 02cd fc3c
000001b0: 654f 41bd ba2a a0bb a070 43bd 080f bbbc
000001c0: 14bf 283d fd82 ec3c 86e1 2e3c 5feb 78bc
000001d0: 62fa 5fbd 1c01 273d d6d7 053d 23fd 5cbc
000001e0: 67a9 46bd c361 5b3d dfd6 5dbd 3d2d 693d
000001f0: 232c edbc 65b8 36bc 1545 08bd 8e4a c1bc
00000200: f3d5 22bd eb09 dfbc 66be 3d3d 05e1 1ebd
00000210: 488d 123b dfc7 f23c a689 453d 5034 21bd
00000220: e955 b2bc b52a 3fbc 0749 713d 570d 3abb
00000230: b6fa 6d3d 2a04 2e3c af68 15bd ca15 47bd
00000240: fa84 3d3d 6884 473d 8538 11bc bbdd 66bd
00000250: aab8 663a 3931 fdbc 5079 1c3d e4f4 66bd
00000260: 7d6c a13c 66eb ae3a 6131 eabb d6c3 44bd
00000270: f9c7 34bd d8c2 5c3d e7c3 2cbd b47f bdbc
00000280: d93e a6bc 32fc 813c 322a 1bbd 2321 cf3c
00000290: c317 b53c 0fbf f8bc ed06 0e3d 4aa5 89bb
000002a0: 1b0b 253d 7c77 20bc c0a0 04bd 7a90 883d
000002b0: 0099 51bd 59c6 c2bc ea50 5bbd 2663 793d
000002c0: a8da 20bd b7b8 093d dd4f 59bd d660 133d
000002d0: 962e 073d dc15 793d 40d7 20bd 13d4 a23c
000002e0: 7055 943d 154f 893d 514e 8c3d 5653 153d
000002f0: 962c 43bc dd0f 503c 0d85 3ebd 2537 16bc
00000300: 15c6 693c a36c 683d 6174 e6bb 0121 563d
00000310: a5cd 7b3d 8f10 e33c ee7c 7c3d 501b 833d
00000320: c0c9 aa3c 8ced 4d3d c8c3 00bc 0c9d 91bc
00000330: 4421 b63c 1fcd 5c3c fb7c 35bc 041b 67bd
00000340: 9f4d 5bbd 867e c6bc 3c8b 55bd 99cb 463c
00000350: e9e0 52bd 4128 92bc 5171 a5bc 8fda 063d
00000360: 98eb 8c3c 5747 8f3c 2b59 143c c33d ecbc
00000370: de9d 653d 52c0 2b3d a1f8 7b3d 77d5 febc
00000380: 839a e0bc fe28 763d 26aa 61bd 9b2a 0e3d
00000390: 644b 1abc 6bf7 67bd fb63 65bc 3791 94bc
000003a0: 5ab1 84bc 23a8 45bd 4c5c 1bbd 6ac5 f73c
000003b0: 12e6 3a3d 332a 28bc 0e2d 84bc a144 3aba
000003c0: 6dfc 403d 878f 60bd e9ee 2c3d e2f3 a33c
000003d0: 7c8e 4fbd efdc 393d 3bcd 7f3d 9ba6 223c
000003e0: d375 4fbc 9017 733d 2301 36bd 2275 8bbc
000003f0: 2a19 efbb 0c86 1bbd f616 af3c 945f 3439
0.032109987 -0.019901048 0.031205345 0.050779715 -0.055577945 0.017769052 0.034346044 -0.021067858
-0.027156685 0.011035034 -0.04095072 -0.024985462 -0.00012788198 -0.032516427 0.0011379585 0.059837896
0.069422305 -0.0136144385 -0.043503255 -0.008601165 0.0018680178 0.056687403 -0.015470396 -0.036269154
0.06193379 0.031063015 0.059496418 0.023256151 -0.03726988 -0.06046856 0.05394223 -0.044421464
-0.014298046 -0.042693205 0.064140216 -0.050701685 -0.011408786 0.0010535681 -0.0062622246 -0.024846738
-0.014509489 0.0651364 -0.02953962 -0.028585507 0.040512152 0.06873786 -0.053088784 0.03424155
0.0133083975 0.023938771 -0.0063703875 -0.015610209 -0.05333559 0.06017743 0.062776156 -0.027652843
0.06835816 -0.03554521 0.04875087 0.07100865 0.010447463 -0.0039993534 0.014260455 0.038228214
0.06609498 -0.009458395 0.06482642 -0.012930504 -0.020664124 0.032324757 -0.03861284 -0.0032362295
-0.027283913 -0.04307387 -0.039672725 -0.046750605 0.04508215 -0.009866176 -0.05531437 0.019525364
-0.027336413 -0.03207181 -0.01647517 -0.03598254 0.018326383 -0.0542906 0.015046569 -0.009379198
-0.020638943 0.050567336 -0.0133889355 -0.048191782 0.007248966 -0.054016236 -0.052300446 -0.022178022
0.037267115 0.0085598575 0.009708502 0.067023315 0.04683401 0.06681939 -0.05245061 -0.0007099575
0.05301718 -0.04014763 -0.05257506 0.030859474 -0.047194857 -0.004887906 -0.04771483 -0.022834316
0.04119785 0.028871054 0.010673886 -0.015192836 -0.054682143 0.040772542 0.03267654 -0.013488087
-0.0485014 0.05356003 -0.054159995 0.05692791 -0.02895171 -0.0111523615 -0.033269007 -0.02359512
-0.03975482 -0.027226409 0.046324156 -0.038788814 0.0022362042 0.029636322 0.048226975 -0.03935653
-0.02176948 -0.011667897 0.058907535 -0.0028389299 0.058100425 0.01062111 -0.036476787 -0.048604764
0.046269394 0.048710257 -0.008863573 -0.056363802 0.0008801321 -0.03090726 0.03820163 -0.05638589
0.019705052 0.0013345301 -0.0071469997 -0.048038326 -0.04413602 0.053896755 -0.042179015 -0.023132183
-0.02029364 0.015867326 -0.037882037 0.025284356 0.022106057 -0.030364541 0.034674574 -0.004200612
0.040293794 -0.009794112 -0.032379866 0.06668182 -0.051171303 -0.02377622 -0.053543963 0.06088557
-0.039271027 0.033623423 -0.05305468 0.03598102 0.033003412 0.060811862 -0.03926778 0.019876515
0.072428584 0.06704537 0.06850875 0.03645643 -0.011912486 0.012699095 -0.046513606 -0.009168421
0.014268418 0.05674423 -0.0070329164 0.05227757 0.061475415 0.027717857 0.06164258 0.06401694
0.020848155 0.05027537 -0.007859178 -0.017775081 0.02223266 0.013476639 -0.011077161 -0.05642225
-0.053540822 -0.024230253 -0.052134737 0.012133502 -0.051484022 -0.01784146 -0.020195635 0.032923277
0.017202184 0.017490072 0.009054462 -0.028838044 0.056058757 0.041931458 0.061516408 -0.031107647
-0.027417427 0.060097687 -0.055093907 0.0347086 -0.009417389 -0.05663244 -0.014000888 -0.01813565
-0.016197849 -0.04825605 -0.037929818 0.030245502 0.04562957 -0.010263967 -0.016134765 -0.00071055634
0.047115732 -0.05482438 0.04222003 0.020013753 -0.050672993 0.045376714 0.062451582 0.009927417
-0.012662369 0.059348643 -0.044434678 -0.017023627 -0.007296701 -0.037969634 0.021373253 0.00017201743

net.0.bias f4 [64]
00000000: c1a0 723d c044 ab3c 59d6 6a3d 6a1e 883c
00000010: ab04 643d c8e2 293d 12a4 fe3c 34bb d43c
00000020: 22b1 343d b016 4ebd a846 a33c 1c7f bdbc
00000030: 6742 03bc 29bb 933a 70da 16bd 63c2 1ebc
00000040: 851d 22bd 51d6 723a 9607 603a 9c14 21bd
00000050: 1f81 32bd 9835 063d e11a 90b9 b8b4 6b3c
00000060: ca96 213d c37c 083c 6fea fcbc 96a5 4a3c
00000070: ac07 4e3d e33a 553c 53ae 5f3d 9354 863c
00000080: 07be a7bc b9e9 a23c f11a 60bd 9c55 d8bc
00000090: 9511 103d 814f f23c 08a0 5d3d b77f 283d
000000a0: a7a4 093c e799 edbb b518 09bd 0e2b 44bd
000000b0: 2c79 e5bc 8b47 803d 5040 11bd 250d 823d
000000c0: 3bc6 cbbb 18ae 193d 0a31 6ebd 69e3 483d
000000d0: 1991 6ebd 9326 1fbc 7902 d8bb 0f34 903c
000000e0: 44fb 4a3d 0b6f 48bd eb61 033c 2abf 293c
000000f0: 1a3b 853d 399f da3c e89e 143d c684 7abc
0.059235338 0.020906806 0.057333324 0.016616065 0.055668514 0.04147604 0.031084094 0.025968172
0.04411424 -0.050314605 0.019931152 -0.0231319 -0.008011437 0.0011270988 -0.036829412 -0.0096899
-0.039578933 0.0009263503 0.0008546052 -0.039326295 -0.04358017 0.032765955 -0.00027485847 0.014386348
0.039450444 0.008330527 -0.030873505 0.01236858 0.050300285 0.013014528 0.054609608 0.01639775
-0.020476354 0.019886838 -0.054713193 -0.02640801 0.035173018 0.029578926 0.054107696 0.041137423
0.008401073 -0.0072510126 -0.033470828 -0.047892623 -0.02801188 0.06263646 -0.035461724 0.06350163
-0.0062186993 0.037519544 -0.058152236 0.049045 -0.058243845 -0.009713787 -0.0065920916 0.017602948
0.04955603 -0.048934024 0.008018951 0.0103605185 0.06505413 0.026687251 0.036284357 -0.015290445

net.2.weight f4 [32, 64, 5, 5]
00000000: c4ca 88bb 9813 833c c141 d8ba d2a8 bdbc
00000010: d740 9d3c d86f 7e3b 587b e83b a94f eebb
00000020: 5bc6 3c39 9046 65bb 0f09 38bc 5840 ba3c
00000030: 1d3f 353c 9bc7 c6bc b3b4 26bc 7732 88bb
00000040: 9fdf 163c 0bfe 00bc e551 303c b5ba b53c
00000050: c030 37bc 0a92 4d3c 8b67 933c 5d83 e5ba
00000060: 14d8 6d3c b86f 87bc c48f c23c f733 bd3a
00000070: 9d59 433a 2997 a4bc eb65 b3bc d354 6c3c
00000080: a877 e9bb d716 9a3c d976 bcbb f35c ee3b
00000090: 71b8 593c 5403 cdbc 4153 1dbc be36 9c3c
000000a0: 03d5 b0bc 4145 103b 2edf 73bc 5486 b8bc
000000b0: 9537 013c 3045 2c3c 0699 e7bb 5c81 d53b
000000c0: 407b 9ebc ac36 893c 998a 203c 2296 95bb
000000d0: 3ee8 c73b 1a0e 69bc f080 4c3b 3a52 2cbc
000000e0: 6528 be3c 3214 64bb 59c6 223c 1f0c 8c3a
000000f0: a49e 9c3b fc15 2cbc 8e87 703c b74e bc3c
00000100: fd15 27bc 8335 df3b 1ae3 b9bb d0f0 c73b
00000110: 03cd 08bc f699 05bb b08a b33c 6372 06ba
00000120: 8be9 973b bf62 99bb 3e43 a73c e663 82bb
00000130: 0b80 693c 9a61 e6bc 1017 48bc cccb 8abc
00000140: 9e42 983b 5f35 833c 7cb2 f1bc 8e49 4dbc
00000150: f2aa 52bc 7f55 f0bb e2dd ebbc 8d4c 763c
00000160: 4fed c23a 4ad2 94bc cf54 903c 83b2 70bb
00000170: 339e 7ebc 1c64 5abc 39ad 10bc 1f72 cebc
00000180: 597b 0fbb 949c 9dbc 4011 3b3c e7d2 3f3c
00000190: 4f80 1b3c 8de4 be3c 275f 943c 133d 83bc
000001a0: 4ce9 f63b d69e b0bc a7a9 19ba bfd0 98ba
000001b0: 62fc acbc 14c6 913b f8b5 89bb ea8b b6bc
000001c0: db9a 0fba bdf8 b03c 0d54 a73c 66b4 abbc
000001d0: 633b 323c a260 9ebc b634 c03c 6e69 c33c
000001e0: 2464 b33c fa74 44bc 4217 d3bb 97a2 a8bb
000001f0: b632 923c c3c8 c9bc a9d5 bfbc bd8e 9d3c
00000200: 249f d2bc 365c 32bc 191a b73b 42e3 613a
00000210: 2308 c5bc b936 163c 8aa8 90bc 2f65 4e3c
00000220: 0e16 be3c a5f7 933c 6232 953b 92d5 bb3b
00000230: b5e5 a1bc ca1c 95bc 24a8 f13b 536a d3bc
00000240: 8c2c 89bc 04c6 b83c 8120 bb3c 2107 c5bc
00000250: 4b0e 19bc 8493 4e3b e821 9a3c f268 d43b
00000260: 9906 a9bc 41da c03c 3937 43bc 4ea8 2fbc
00000270: 909e 483c 2f1f 533c 2c95 1fbc 8e2e ba3b
00000280: 2f7c b8bc b8ea c3bc 7652 89bc 14e8 b3bc
00000290: 9677 6fbc 7748 babb 66fb 85bc 083e bfbc
000002a0: 28eb 1e3c c0f7 b7bc 76af 6c3c 73c8 033c
000002b0: 0273 d6bc d02b abbc 8cda b03c a5c2 84bc
000002c0: b07a a13c 5a91 9e3c de4f ba3c c4aa 9d3b
000002d0: b39a 963c 5c99 6cbb 9cb3 9cbc f135 b0bc
000002e0: b0ca 0ebc 1a85 68bc f03c 4f3c 5155 703c
000002f0: 7046 adbb e54e 7c3c f997 7b3c d524 edba
00000300: 86a3 80bc 9646 123a 9da8 ad3b baa2 f6bb
00000310: 14db 823c 3b30 0ebc ecd0 c63b 5e80 b83c
00000320: 2a52 c0bc 1534 2ebc 6c90 27bc 4f03 923c
00000330: 5d08 363b f185 81bc dbed 873c 4f92 ec3a
00000340: 7def 18bc b2a4 093b 7f65 0b3b d087 aabb
00000350: e052 06ba 23d7 5e3c 3d8d debb fb8b ec3b
00000360: cdc8 48bb d600 e4bb 0e0b f53b 123d a43b
00000370: 3080 e4bb 06ea 773c a2a5 85bc cbe5 8a3c
00000380: 26ca e23b 159f 993c 59ce 713b 0f3d 813c
00000390: 0794 51bb 644e 2bbc b828 bf3c 2c66 d2bc
000003a0: b434 0ebc 2599 d2bb 7104 b93c 3c33 7abc
000003b0: 2490 98bc 899d c1bb 92f5 18ba 7e0a 9fbc
000003c0: acb1 a9bb 2e12 c73b e551 2a3c c471 0dbc
000003d0: 24ef 29bc 9ff6 22bc c8f8 8bbb b42f 873c
000003e0: 3821 b33c 1122 7c3c 80cb e43b 177c 993c
000003f0: 20b6 2cbb d073 1e3c feb8 883c 243b ceba
-0.004174562 0.016000554 -0.0016499088 -0.023151789 0.019195957 0.0038823988 0.007094782 -0.00727268
0.0001800297 -0.0034984685 -0.0112326285 0.02273576 0.011062411 -0.024265101 -0.010174918 -0.0041564065
0.009208589 -0.007873069 0.010761713 0.022183755 -0.0111810565 0.012547025 0.01799371 -0.0017510463
0.014516849 -0.016532764 0.023750193 0.0014435042 0.0007452013 -0.02009161 -0.021899184 0.014424521
-0.00712486 0.018809719 -0.0057514724 0.007274264 0.013288603 -0.025026001 -0.009602369 0.019069072
-0.021585947 0.0022013935 -0.014884753 -0.02252499 0.007886787 0.010514542 -0.0070678024 0.006515665
-0.01934588 0.016749702 0.009798669 -0.0045650164 0.0061006835 -0.0142245535 0.0031204782 -0.010517651
0.023212621 -0.0034802076 0.009934985 0.0010684765 0.0047796536 -0.010503288 0.014680756 0.022986753
-0.0101981135 0.006811799 -0.0056728246 0.006101705 -0.00834966 -0.0020385957 0.021916717 -0.0005128739
0.004635995 -0.004680961 0.020417806 -0.003979194 0.014251719 -0.028122712 -0.01221253 -0.016942881
0.0046466133 0.01601666 -0.029504053 -0.012529744 -0.012858139 -0.0073344107 -0.028792325 0.0150329
0.0014871749 -0.01816668 0.017618565 -0.0036727495 -0.015540647 -0.013329532 -0.008830362 -0.025200902
-0.002189359 -0.019239701 0.011417687 0.011707998 0.00949104 0.02330234 0.018111778 -0.016020333
0.0075351354 -0.021560114 -0.0005861767 -0.0011658891 -0.02111644 0.0044486616 -0.0042026006 -0.022283513
-0.00054780924 0.021602983 0.02042582 -0.020960044 0.010878417 -0.019333187 0.023462635 0.023853984
0.021898337 -0.01199078 -0.0064419815 -0.0051463353 0.017846446 -0.024631863 -0.02341731 0.019233102
-0.02571065 -0.010886243 0.005587828 0.0008616933 -0.024051731 0.00916832 -0.01765849 0.012597366
0.023203876 0.018062422 0.0045531252 0.0057322467 -0.019762853 -0.018202204 0.0073747803 -0.025807535
-0.016744874 0.022555359 0.022842648 -0.02405125 -0.009341787 0.0031521032 0.018814996 0.006482237
-0.020633029 0.023541572 -0.011915022 -0.010721279 0.0122448355 0.012885853 -0.009740155 0.0056818193
-0.022520153 -0.023915634 -0.016762953 -0.02196125 -0.014615914 -0.005684908 -0.016355228 -0.023345008
0.00969962 -0.022457004 0.01444613 0.008043396 -0.026177887 -0.020894915 0.021588586 -0.016206095
0.019711822 0.019356418 0.022743162 0.0048116166 0.018384313 -0.0036102151 -0.019128613 -0.021510096
-0.008715317 -0.01419189 0.012648806 0.0146687785 -0.005287938 0.015399669 0.015356057 -0.0018092642
-0.015702974 0.0005579976 0.0052996413 -0.0075267227 0.015973605 -0.008678491 0.006067386 0.022522148
-0.023476679 -0.0106325345 -0.010227304 0.017823843 0.002777598 -0.015810939 0.01659291 0.0018048974
-0.009334442 0.0021002707 0.0021270213 -0.0052041784 -0.00051240437 0.013601097 -0.0067917393 0.0072188354
-0.0030637265 -0.0069581075 0.0074781245 0.005012163 -0.006973289 0.015131479 -0.016314331 0.016955277
0.0069210706 0.018752614 0.0036896674 0.015776185 -0.00319791 -0.0104557015 0.023334846 -0.025683485
-0.008679558 -0.0064269477 0.022585126 -0.015271004 -0.01862342 -0.005908672 -0.00058349327 -0.019414183
-0.005178651 0.0060751652 0.010395502 -0.008633081 -0.010371957 -0.009946494 -0.0042716004 0.016502239
0.021866426 0.015388981 0.006982267 0.018735928 -0.0026353672 0.009671167 0.016689774 -0.0015734178

net.2.bias f4 [32]
00000000: d4cc 7f3b b021 ac3c ad6f 883b 0f7f 373c
00000010: 5885 1d3c 950a 6dbc cbf5 3ebc 1c93 cc3b
00000020: d10a 3f3b 225a 82bc cb13 56bb a8da af3b
00000030: 649f 203c 7f8e eebb 2c18 8bbc 8d2b 9e3c
00000040: e56d e0bb 8c78 233b bfdc b73c 4ccc 953c
00000050: dc38 843c 118b 8dbc 725d 94bc 327d b13c
00000060: 7738 713c faac acba 3596 98bc 6b9f b93c
00000070: 7829 ac3a 2a33 b9bc ebbe 283c e291 aebc
0.0039032 0.021012157 0.0041637034 0.011199727 0.009614311 -0.014467855 -0.011655281 0.0062431227
0.0029150734 -0.01591212 -0.0032665606 0.005366642 0.009803627 -0.0072801705 -0.0169793 0.019307876
-0.006849038 0.0024943678 0.022444127 0.018285893 0.016140394 -0.017278226 -0.018110964 0.021666143
0.014722935 -0.001317411 -0.018626312 0.022659024 0.0013134917 -0.022607405 0.010299425 -0.021309797

net.4.weight f4 [3, 32, 5, 5]
00000000: 078f d03c c084 0bbd 7552 e2bc b662 5bbc
00000010: f349 f2bc db7c 8a3c 56c4 4abc 2446 e73b
00000020: 3683 f6bc 238d b93c 1943 5d3c b77a 9cbb
00000030: 3f84 09bd ad80 333b a6d4 97bc ffee 6cbc
00000040: fb91 e4bc f309 e83b 193d 893c 1379 25bc
00000050: 89f3 0a3d acd3 123d dc4e eb3c a7a7 89bc
00000060: b945 b13c ae2e f23c 231d c83c e240 5ebc
00000070: 1960 083d 844a 933c 1f61 b5ba f98c abbc
00000080: 6300 0abd 407a 07bd 453f ff3c bbed d43c
00000090: 3d43 f0bc 992c e6bc 066b 8abc 959f 04bd
000000a0: 0317 773c 84a9 c4bc 17ee 91bc f8ac edbc
000000b0: 554e 0d3b 2c2f ea3c 0713 32bc ec88 0a3d
000000c0: cf41 443c 09b8 89bc e364 7e3b d11d 4cbb
000000d0: 5c43 bcbc 92ad c33c 7e63 b43c 402f 643c
000000e0: a695 223c 981c 88bc b3ce 683c c9e7 ffbc
000000f0: 843a c63c aa49 a63c cb06 99bc 1b01 b6bc
00000100: 725b acbc c609 f13b 8665 adbb 9cb4 11bb
00000110: ffc1 78bc 44ab 81b9 9a55 a43c dc6c 33bc
00000120: 91bf cfbc 8a4d ce3c 3c17 ee3c 546b 833c
00000130: c58f 523c de38 cfbc c46b 023d 1cca 6bbc
00000140: 49bf 91bb 6380 513c a6c2 ccbc 3216 19bc
00000150: b0f3 b53c 4e43 bc3c b508 d5b8 dc23 eeba
00000160: 2a64 4dbb bf72 cebc 5bed 09b9 cfa1 743c
00000170: 9b91 59bb cabc 0bbd 0c56 2f3b 1255 ddba
00000180: 8722 e0bb fef2 073d 157d 9f3c 9cd0 a63c
00000190: 08e0 32bc 7db8 cfba 0adb e7ba a789 a13c
000001a0: ff4e fcbc dcef e53a 2ae0 8abc b0c0 f03c
000001b0: 3c95 79bc a4cd 23bd 470f 95bc 2ce7 8e3c
000001c0: daa2 0cbd 8fd8 f9ba 1d37 29bd 26df ae3c
000001d0: 02e1 cbbc d807 08bc 1bbb 5dba 1ef6 adbc
000001e0: cf85 823c f50b 0dbd 403a a7bb 35df debc
000001f0: de9d c73b 6392 1cbc d252 a73c 12c2 823c
00000200: e795 173d 7d33 c7bc aa08 99bc 3234 763c
00000210: 2800 26bc 28b5 efbc 6db7 b13c cc7b 79bc
00000220: efa4 923b 9835 a2bc 15fd 7bbc a3a7 9b3b
00000230: 4f42 d6bc 95e2 743c c7ae f2bc dee4 d3bb
00000240: a8e6 8abc e81f f5bc bd40 87bc feca 03bd
00000250: 165a 183b 5e9c bdbc c81b 2d3c acaf 56bc
00000260: 2bd8 fbbb be8b b33c b595 8c3c 5770 d33c
00000270: e9c8 903c 098e e13c feb6 043d 9c78 78bc
00000280: 5b27 8f3c d10b 0f3d e50b 523b 259b 72bc
00000290: 5c26 69bc 215f 4f3c 40bf d93b 5d31 c93a
000002a0: 3b26 e5bc 219d 04bc b5d8 c3bc f399 663c
000002b0: 959e 083d 5eae a5bb a835 8abb c7ab 3c3c
000002c0: 2466 103d 2f78 153d 5702 2a3a 1af3 a53c
000002d0: e5b5 053d 512a bb3b 255c 133c 9bf4 1fbc
000002e0: 3866 0c3d f716 b23c 5720 3dbc b783 f83c
000002f0: cfe4 bdbc a0ed cebc e4f8 00bd 9b1a 7cbc
00000300: 92b9 6a3c b341 003b 3375 db3c fef0 073d
00000310: e252 fc3c 3463 96bc 2853 69bc 54d7 be3a
00000320: 64db b03c ef52 5abc 2693 d3bc 6cae 5b3b
00000330: 5550 b6bc a972 e3bc ef80 77bb b43d f7bc
00000340: 428d 073c ddb9 4dbc 32eb 913c 1cc1 a7bc
00000350: b748 65bc ee4c 793c c106 6f3a de24 5dbc
00000360: f3c7 5e3b db9b 0cbc da64 edbc 14a6 fe3c
00000370: 9270 cabc b9be f2bc e13b f1bc 3883 233b
00000380: 318e 30bc f751 7cbc ff55 3dbc f7a3 9e3b
00000390: 721a b33c 955a 3dbb 60d5 ceba 22f7 1a3d
000003a0: d216 c33b 8adf e4bc 5503 48bc 6a58 0d3d
000003b0: 79a9 523c 7474 fcbc c4e6 5f3a 94ff e23c
000003c0: c8fa b1bc 5a20 12bd 8a24 e8bc 14a5 1bbc
000003d0: 87dd df3c b14c f23c ac44 113d 06ab 5b3c
000003e0: 8576 643c 5507 01bd 7882 debc f120 e8bb
000003f0: d0a1 a3bc f0ee 0b3d 41d9 f6b9 82d6 8cbb
0.025458826 -0.034062147 -0.02762721 -0.013390234 -0.029576277 0.016905239 -0.012375912 0.007057922
-0.030091863 0.022650307 0.013504767 -0.004775371 -0.033573385 0.002738993 -0.018534016 -0.014461278
-0.02790164 0.007081264 0.016752766 -0.010099667 0.03392366 0.035846397 0.028724127 -0.016803576
0.021639692 0.029563274 0.024427956 -0.013565274 0.03329477 0.017979868 -0.0013838148 -0.020941244
-0.033691775 -0.03307557 0.031158099 0.025992265 -0.029328937 -0.028097438 -0.016896736 -0.03237875
0.01508117 -0.024006613 -0.017813725 -0.029013142 0.0021561582 0.028586946 -0.010868794 0.033821985
0.011978581 -0.016811388 0.0038817457 -0.0031145702 -0.022981338 0.023886476 0.022020098 0.013927281
0.009923374 -0.016615197 0.014209437 -0.031238453 0.024197824 0.020298798 -0.018679997 -0.022217324
-0.021039698 0.0073559014 -0.0052916436 -0.0022232896 -0.015182971 -0.000247324 0.02006035 -0.010951247
-0.0253599 0.025183458 0.029063813 0.016042389 0.01285166 -0.025295671 0.031841055 -0.014391448
-0.004447852 0.012786957 -0.02499516 -0.009343671 0.022210926 0.022981312 -0.00010158253 -0.0018168646
-0.003134022 -0.0252012 -0.0001315376 0.014931156 -0.003319836 -0.03411559 0.0026754169 -0.0016886315
-0.0068400535 0.03319072 0.019468823 0.020363145 -0.010917671 -0.0015847828 -0.001768918 0.019718958
-0.030799387 0.0017542797 -0.016952593 0.029388756 -0.015233334 -0.039991036 -0.018195761 0.017444216
-0.034334995 -0.0019061732 -0.041312326 0.02134664 -0.024887566 -0.008302651 -0.0008458362 -0.021235522
0.015932946 -0.03443523 -0.0051033795 -0.027206043 0.0060918173 -0.009556386 0.020425234 0.01596168
0.037008192 -0.024316544 -0.01868089 0.015027093 -0.010131873 -0.029261187 0.02169391 -0.015227269
0.004475228 -0.019800946 -0.015380164 0.0047502085 -0.026154665 0.0149465995 -0.029624356 -0.006466492
-0.016955689 -0.02992244 -0.016510362 -0.03217601 0.0023247055 -0.02314585 0.010565706 -0.013103407
-0.0076856813 0.02191722 0.01716123 0.025810404 0.017673926 0.027533548 0.032401077 -0.015165474
0.01747482 0.03492338 0.0032050547 -0.014807497 -0.014230337 0.012656958 0.006645113 0.0015349794
-0.027972331 -0.008094103 -0.023907045 0.01407479 0.03335436 -0.0050561866 -0.004217822 0.011515564
0.03525366 0.03649157 0.0006485334 0.020257521 0.03264417 0.0057118316 0.008994137 -0.009762908
0.03427717 0.021739466 -0.011543355 0.030336244 -0.023180394 -0.025259793 -0.03148736 -0.015387203
0.01432647 0.001957041 0.026789283 0.033188812 0.03080124 -0.01835785 -0.014241017 0.0014560022
0.021588989 -0.013325437 -0.025827002 0.0033520712 -0.022255102 -0.027764635 -0.003776606 -0.03018079
0.008273425 -0.01255652 0.017812345 -0.020477824 -0.013994387 0.015216095 0.0009118133 -0.013497559
0.003399369 -0.008582081 -0.028978754 0.031085052 -0.02471188 -0.02963196 -0.029447498 0.0024950039
-0.010776089 -0.015400401 -0.011556148 0.0048413235 0.021863196 -0.0028893102 -0.0015780143 0.03783334
0.005953648 -0.027938623 -0.012207826 0.034508146 0.012857788 -0.030817248 0.00085411617 0.02770976
-0.021726027 -0.035675384 -0.028337736 -0.009499807 0.027327312 0.029577585 0.03546588 0.013407474
0.013944273 -0.031501133 -0.027161822 -0.007084005 -0.01997462 0.034163415 -0.00047082643 -0.0042980323

net.4.bias f4 [3]
00000000: eb9e b43b 2aea be3c 4870 7f3b
0.0055121086 0.023305018 0.0038976837
